clients_data/clients_fair_trained_model/client8.pth (torch, 86087 bytes, 6 tensors)

layers.1.layers.0.weight f4 [100, 105]
0	0x3d99d1a0	0.07510686
1	0x3da50cc4	0.080590755
2	0xbcb93a27	-0.022610737
3	0x3db82c22	0.08992793
4	0xbcaef95a	-0.021359134
5	0x3ca2f3e2	0.019891683
6	0xbd427fac	-0.04748504
7	0x3d6acbdd	0.057323325
8	0x3db03062	0.08602978
9	0xbd923b60	-0.07140231
10	0x3dad5e50	0.08465254
11	0x3c982e1b	0.018576672
12	0x3d92aa24	0.07161358
13	0x3c574d97	0.013141057
14	0x3d42dd7e	0.047574513
15	0xbc6370c4	-0.013881866
16	0x3d9a9fd6	0.075500175
17	0x3c655cad	0.013999146
18	0xbd3aa559	-0.045567844
19	0x3cc8f8ba	0.024532665
20	0xbd3790a2	-0.044815667
21	0xbc3c58ae	-0.011495752
22	0xbd22b0cd	-0.03971939
23	0x3d85233a	0.065008596
24	0xbd9db77b	-0.07701012
25	0xbd38362f	-0.04497355
26	0xbcde1171	-0.027107926
27	0xbd6e1722	-0.05812753
28	0x3c16f5d5	0.009213884
29	0xbdc5df3c	-0.09661719
30	0x3db32bee	0.08748613
31	0xbdaa3c71	-0.083123095
32	0x3d99e76a	0.07514842
33	0x3c83f177	0.01610635
34	0xbd014220	-0.031557202
35	0x3d7630f5	0.060105283
36	0x3c7319e9	0.01483772
37	0x3da1f9ca	0.079089716
38	0x3c34fa3a	0.011045987
39	0xbcf9f0a8	-0.030510262
40	0x3cd5c380	0.026094198
41	0xbcd99ecb	-0.026564976
42	0x3d28084f	0.04102355
43	0x3db25863	0.08708265
44	0x3d660698	0.056158632
45	0xbd2eb6df	-0.04265487
46	0x3d667e75	0.056272943
47	0x3c8f0b3c	0.017461412
48	0x3d4c8301	0.049929623
49	0xbd738957	-0.05945715
50	0xbdc510e4	-0.09622362
51	0xbd1b935b	-0.037982326
52	0xbd997399	-0.07492752
53	0x3da301e2	0.079593435
54	0x3ce50153	0.027954733
55	0x3d26cfb4	0.040725425
56	0x3cfa8732	0.030582044
57	0xbadd6c98	-0.0016893325
58	0x3d9c9ece	0.07647477
59	0xbd8ec9dd	-0.06972096
60	0x3bd5dcfa	0.0065265866
61	0xbd884b1c	-0.06654951
62	0x3cf6aa0c	0.030110382
63	0xbd085c45	-0.03329112
64	0x3cf410f8	0.029793248
65	0xbca66998	-0.020314023
66	0x3da6d2c0	0.08145666
67	0xbd6ccba4	-0.057811394
68	0xbd6e4408	-0.05817035
69	0xbd6e4ea9	-0.058180485
70	0x3db3c43c	0.08777663
71	0x3d06d6aa	0.032919563
72	0x3dc019df	0.093799345
73	0xbda4eacd	-0.08052597
74	0xbdc635e7	-0.0967825
75	0xbd9c53a5	-0.076331414
76	0xbd8669af	-0.06563126
77	0x3d235c0a	0.039882697
78	0x3d0eeb39	0.034892295
79	0x3da65bc5	0.081229724
80	0xbd4e55ab	-0.050374668
81	0xbd883843	-0.06651356
82	0x3d537f35	0.051634986
83	0xbd217f90	-0.039428294
84	0x3d72a038	0.059234828
85	0xbcbda6ca	-0.02315082
86	0x3d64b178	0.05583331
87	0xbd9b49c7	-0.07582431
88	0xbd49a4ac	-0.04922931
89	0x3cf3ea60	0.029774845
90	0x3ca988dd	0.020695144
91	0xbccbbe53	-0.024871027
92	0x3d6d30eb	0.05790798
93	0x3d870c3f	0.06594133
94	0xbd90efb1	-0.070769675
95	0xbd55541e	-0.052082174
96	0x3db70789	0.08936984
97	0xbd06e1a6	-0.03293004
98	0xbd0dae27	-0.034589913
99	0xbdc15f62	-0.09442021
100	0xbd64d6c0	-0.055868864
101	0x3cc16373	0.023606991
102	0xbc52d64b	-0.012868474
103	0xbd910eb5	-0.07082883
104	0x3b160560	0.0022891387
105	0xbd882990	-0.066485524
106	0xbda987fb	-0.08277889
107	0xbd5bcd78	-0.053662747
108	0xbdaea63f	-0.08527803
109	0xbd7f844b	-0.062382024
110	0x3dc7730a	0.09738739
111	0x3c983e95	0.018584529
112	0x3cf68340	0.030091882
113	0xbdba690b	-0.091020666
114	0xbd8376f3	-0.06419172
115	0xbd048a40	-0.032358408
116	0x3c7ed39e	0.015553383
117	0xbdb089ed	-0.08620057
118	0xbd2cadfa	-0.042158104
119	0xbd6f465e	-0.058416717
120	0x39d1de2a	0.00040029112
121	0xbd14f3ef	-0.036365446
122	0xbbd8590b	-0.0066024116
123	0xbd87a5e7	-0.0662344
124	0xbd892504	-0.06696513
125	0xbd6a6e21	-0.057233933
126	0xbd08ad48	-0.03336838
127	0xbd9dda18	-0.07707614
128	0x3da77916	0.08177392
129	0xbc9deb68	-0.01927729
130	0x3dabcfff	0.083892815
131	0x3cf95d44	0.03043998
132	0xbda89672	-0.0823182
133	0x3d89eea2	0.06734969
134	0xbcddb000	-0.027061462
135	0xbd198480	-0.037479877
136	0xbda60865	-0.0810707
137	0xbdc64676	-0.09681408
138	0x3ce3da1f	0.02781397
139	0xbcafc03a	-0.021453965
140	0x3d1bb6c2	0.03801609
141	0xbda3653a	-0.07978292
142	0x3d938e51	0.07204879
143	0xbd923a5e	-0.07140039
144	0xbc8a8a04	-0.016911514
145	0x3ca9e943	0.02074111
146	0x3d5024e0	0.050816417
147	0x3da04a4d	0.07826672
148	0x3db59d01	0.08867837
149	0xbd9e0096	-0.077149555
150	0x3cc83107	0.02443744
151	0xbd2c975c	-0.042136535
152	0xbc2f377d	-0.010694382
153	0xbd953b18	-0.07286662
154	0x3db6e802	0.08930971
155	0xbd923688	-0.07139307
156	0x3d540a27	0.051767495
157	0x3d0c1c59	0.034206722
158	0x3d005284	0.031328693
159	0xbd5a1bb9	-0.053249095
160	0x3db6ac40	0.08919573
161	0x3caff83c	0.021480672
162	0x3c4bf3b8	0.012448244
163	0xbdaf7acb	-0.08568343
164	0x3d23ce26	0.03999152
165	0xbc5fe2a0	-0.013664871
166	0xbd36f4bb	-0.044666987
167	0x3dab1757	0.08354061
168	0x3cb5411b	0.022125771
169	0xbd5d76b8	-0.054068297
170	0xbd498cae	-0.04920643
171	0xbb9c72bc	-0.0047744196
172	0x3d5d754b	0.054066937
173	0xbcccead6	-0.025014322
174	0xbd647197	-0.05577239
175	0xbd08e25d	-0.033419
176	0xbd955fb1	-0.07293642
177	0x3d101b5e	0.03518235
178	0x3d99ca93	0.07509341
179	0xbdbc1b48	-0.09184891
180	0x3cbd2537	0.023089034
181	0x3d4ed486	0.050495647
182	0x3c92804d	0.017883444
183	0xbd0e4ca7	-0.03474107
184	0x3d5112c8	0.0510433
185	0x3d51a0c0	0.051178694
186	0x3d15c4c5	0.036564607
187	0xbc8cdf19	-0.017196225
188	0xbcd3874f	-0.025821356
189	0x3c2f0495	0.010682245
190	0xbc8d1eab	-0.017226538
191	0xbcee21aa	-0.029068787
192	0x3d7f8263	0.062380206
193	0x3dab5bb3	0.083670996
194	0xbc1f3bf1	-0.009718881
195	0xbcb3a009	-0.021926897
196	0x3ad82c51	0.00164927
197	0xbbbb6c56	-0.0057197018
198	0x3cbeb841	0.023281218
199	0x3ce008ea	0.027348
200	0xbdb57651	-0.08860458
201	0xbd13705d	-0.03599583
202	0x3da84fc8	0.08218342
203	0x3d1b728e	0.037951045
204	0xbb9e9f39	-0.004840758
205	0xbd713467	-0.058887865
206	0xbd74767c	-0.059683308
207	0xbdb2fc3a	-0.08739515
208	0xbd023871	-0.031792108
209	0x3d06fd73	0.03295655
210	0x3d80dcdf	0.06292128
211	0x3d374536	0.04474374
212	0xbdb07a86	-0.086171195
213	0xbd6eb2bb	-0.05827592
214	0xbc770c46	-0.01507861
215	0x3dc14184	0.09436324
216	0x3c6649dd	0.014055696
217	0xbccee77f	-0.02525687
218	0x3d255fb4	0.040374473
219	0xbd1887e6	-0.037238978
220	0xbd808c2c	-0.06276736
221	0x3d92a24b	0.07159861
222	0xbd35c789	-0.044379745
223	0xbca5b0e6	-0.020225953
224	0xbdc687a8	-0.09693843
225	0x3d8524ed	0.06501184
226	0x3d984ad9	0.07436151
227	0x3d105bd3	0.03524382
228	0xbd8b78d9	-0.06810159
229	0xbdc51e15	-0.09624878
230	0xbda12f26	-0.07870321
231	0x3d9487c3	0.07252457
232	0x3d3d122e	0.046159916
233	0x3da90bcb	0.082542025
234	0x3d4f5d83	0.05062629
235	0x3cc96b9b	0.024587443
236	0x38f7e0f2	0.00011819777
237	0xbd970914	-0.073747784
238	0xbdab788f	-0.08372604
239	0xbdbb6c01	-0.091514595
240	0x3d2265f7	0.039648023
241	0xbd449651	-0.047994915
242	0xbca29e9c	-0.019851021
243	0xbd65fae4	-0.05614747
244	0xbc8f9e69	-0.01753159
245	0xbd8d8f03	-0.06912043
246	0xbd83b8f7	-0.064317636
247	0x3d053098	0.032517046
248	0xbce7281c	-0.028217368
249	0x3d78d820	0.060752988
250	0xbd00e68d	-0.03146987
251	0xbd931934	-0.071825415
252	0xbc8ae722	-0.016955916
253	0xbd433358	-0.047656387
254	0xbcf8d3b7	-0.030374391
255	0xbdbe5fcc	-0.092956156

layers.1.layers.0.bias f4 [100]
0	0x3d82b3b7	0.06381934
1	0x3d2be1f4	0.041963533
2	0xbba8f99c	-0.005156709
3	0x3d5f84d8	0.05457005
4	0xbb9542a7	-0.0045550647
5	0xbc570a17	-0.013124964
6	0xbd18d9dd	-0.037317146
7	0xbdab1fb2	-0.08355655
8	0x3da7e271	0.08197487
9	0xbd712b25	-0.058879036
10	0xbdb60634	-0.08887902
11	0xbd391ff9	-0.045196507
12	0x3c964d43	0.018347388
13	0xbc106298	-0.008812569
14	0x3d36cfc1	0.044631723
15	0x3d76d57f	0.0602622
16	0x3d6c1f7a	0.057647206
17	0xbda94466	-0.08264999
18	0x3d245477	0.040119614
19	0x3d4ec55e	0.050481193
20	0xbd62d722	-0.055380948
21	0x3a9f1a5c	0.0012138593
22	0x3c8cdf33	0.017196273
23	0x3c8246a2	0.015902821
24	0x3d5c357e	0.05376195
25	0x3da786e9	0.08180029
26	0x3dbf94ce	0.09354554
27	0x3cbbb381	0.022912743
28	0x3d60322d	0.05473535
29	0x3d27c7d5	0.04096206
30	0xbd49fd4a	-0.04931382
31	0x3d843172	0.064547434
32	0xbc02bc02	-0.007979395
33	0x3d32005e	0.04345738
34	0xbd84fb7a	-0.06493278
35	0x3da2bbcc	0.07945976
36	0x3caae3ea	0.020860631
37	0x3cbe66c4	0.023242362
38	0xbdb3c85a	-0.087784484
39	0xbbfd5549	-0.007731114
40	0xbd05ff6c	-0.032714292
41	0x3dbc71e9	0.09201414
42	0xbdb62896	-0.0889446
43	0xbcbdd865	-0.023174474
44	0xbd44daa8	-0.04806009
45	0xbd951ddd	-0.072810866
46	0x3d1aeb07	0.037821796
47	0xbd84f20b	-0.064914785
48	0x3d3c5b29	0.045985375
49	0x3c3fac72	0.011698829
50	0xbd4bc40d	-0.049747515
51	0xbc1ade77	-0.009452454
52	0x3c43490f	0.011919274
53	0xbd2d0e0d	-0.042249728
54	0xbd7e8d84	-0.06214668
55	0xbd5e86c6	-0.05432775
56	0x3cd505db	0.026003769
57	0xbdaf0a31	-0.08546866
58	0x3d80a3f3	0.06281271
59	0x3d8704c2	0.06592704
60	0x3dbc88dd	0.09205792
61	0x3db5dd6a	0.08880122
62	0xbd6295df	-0.05531871
63	0xbd2bc10c	-0.04193215
64	0x3d90a125	0.07061986
65	0xbc6ab5f9	-0.014325612
66	0xbd8f3d60	-0.06994128
67	0xbd37c306	-0.044863723
68	0x3d8b14db	0.06791087
69	0xbd628ddc	-0.05531107
70	0x3d0b5523	0.03401674
71	0xbda613e9	-0.08109266
72	0x3d87ac6c	0.06624684
73	0x3cdaecc7	0.026724232
74	0x3d906d03	0.07052042
75	0x3b688f0f	0.003548566
76	0x3d483c41	0.048885588
77	0x3da4d1bd	0.08047817
78	0xbc4922a9	-0.01227633
79	0xbd982e98	-0.07430762
80	0xbd8a3a6f	-0.067494266
81	0x3d796148	0.06088379
82	0xbd80cb11	-0.06288732
83	0xbdb2b450	-0.08725798
84	0xbdaa1e2b	-0.08306535
85	0xbd2a9da5	-0.041654248
86	0x3c945e16	0.01811127
87	0xbdb2dd57	-0.087336235
88	0xbd3b56d5	-0.045737106
89	0x3dbde201	0.092716224
90	0xbc6f42c7	-0.014603323
91	0xbcfcd2a1	-0.030862154
92	0x3d4a13b3	0.049335193
93	0xbda4b4dc	-0.08042309
94	0xbd9ca974	-0.07649508
95	0x3c9635e9	0.018336253
96	0x3d07f47a	0.033192135
97	0xbdc57aab	-0.09642538
98	0x3db0af4a	0.08627184
99	0xbd158779	-0.03650615

layers.2.layers.0.weight f4 [100, 100]
0	0x3c87e5e2	0.016589109
1	0x3d98e488	0.07465464
2	0x3d1c6174	0.038178876
3	0x3d02a294	0.031893328
4	0xbdb9b865	-0.090683736
5	0xbdbc9d7d	-0.09209726
6	0x3d1da839	0.038490508
7	0x3b947b25	0.0045312815
8	0x3d7ebfb8	0.062194556
9	0x3d5443f2	0.05182261
10	0xbda16349	-0.07880265
11	0x3ca08c93	0.019598281
12	0xbd9d7024	-0.07687405
13	0xbd5e8632	-0.054327197
14	0x3cec76d6	0.02886526
15	0xbb6b9382	-0.0035946076
16	0xbd7e921c	-0.06215106
17	0x3d12e63d	0.035864104
18	0x3d8f98c7	0.07011562
19	0xbdc68046	-0.09692435
20	0x3dc266ce	0.09492265
21	0x3d68a839	0.056801055
22	0xbbefa230	-0.0073130354
23	0xbdc3d452	-0.09561981
24	0xbd2b4cc1	-0.041821245
25	0x3cfc5d14	0.030806102
26	0xbd2a05b5	-0.04150935
27	0xbd0791f6	-0.033098184
28	0xbd2491c7	-0.040178087
29	0x3db12301	0.086492546
30	0x3db37a94	0.08763614
31	0xbd9e1f2b	-0.077207886
32	0xbcfca9d7	-0.030842705
33	0x3dbcf2ef	0.092260234
34	0xbba2a4f3	-0.004963511
35	0xbd4ab177	-0.04948565
36	0x3c5bb43d	0.013409671
37	0x3da3e5e0	0.080028296
38	0xbc4150d4	-0.011799056
39	0xbdbf7051	-0.093475945
40	0xbd05a2a2	-0.0326258
41	0x3d52c55f	0.05145776
42	0xbc427cc8	-0.0118705705
43	0x3d94fa5d	0.072743155
44	0x3d146923	0.03623308
45	0x3b231bae	0.0024888325
46	0x3d22593f	0.039635893
47	0xbc3b6f22	-0.01144007
48	0xbdadefcc	-0.08493003
49	0xbdae815e	-0.085207686
50	0xbd9e1736	-0.07719271
51	0xbc70cc31	-0.0146971205
52	0xbd9129ad	-0.07088027
53	0x3c7a9224	0.015293632
54	0x3c55935f	0.013035624
55	0x3d9da5d5	0.076976456
56	0x3be1acbf	0.006887048
57	0x3c9421ec	0.018082581
58	0x3d150ed9	0.036391113
59	0xbce115d3	-0.027476227
60	0xbd48676b	-0.048926752
61	0xbdbe1fcf	-0.09283411
62	0xbdc5f6b1	-0.09666193
63	0x3bfc1a7c	0.007693587
64	0xbd422d05	-0.047406215
65	0x3cf62dcc	0.030051135
66	0x3cd8edcd	0.02648058
67	0x3da0e641	0.078564174
68	0xbc288a41	-0.010286869
69	0x3a235d9d	0.0006231906
70	0x3d8f6252	0.07001175
71	0x3c914715	0.01773409
72	0x3d43b99a	0.047784425
73	0xbd55e33a	-0.052218653
74	0xbd8fefd9	-0.07028169
75	0x3d9e557f	0.07731151
76	0x3d97faeb	0.07420906
77	0xbd160053	-0.036621403
78	0x3c92efd1	0.017936619
79	0xbdb62503	-0.08893778
80	0x3c021149	0.007938691
81	0xbdbc64a5	-0.09198884
82	0x3d6b9bb7	0.057521548
83	0xbdc9d18d	-0.09854422
84	0xbcbea4f3	-0.023272013
85	0x3dc5bb61	0.0965488
86	0xbd086463	-0.03329886
87	0xbd6e69e7	-0.058206465
88	0x3db93df8	0.09045023
89	0xbd42c629	-0.04755226
90	0x3cbd770e	0.023128059
91	0x3d6a79fd	0.057245243
92	0x3cedfe95	0.029052058
93	0xbd8ca54a	-0.06867464
94	0x3dbdb82f	0.09263646
95	0x3d49419e	0.049134843
96	0xbd7e393a	-0.062066294
97	0xbd688ee7	-0.056776907
98	0xbcb2809c	-0.021789841
99	0x3d0c52cf	0.03425866
100	0x3d13c2df	0.036074515
101	0x3c2c7658	0.010526262
102	0x3d860a68	0.065449536
103	0x3dc950e7	0.09829884
104	0x3ca314c6	0.019907366
105	0x3d17d5fa	0.0370693
106	0x3d632fa8	0.05546537
107	0x3c977aee	0.018491235
108	0x3ba9417d	0.0051652775
109	0x3db45f55	0.08807246
110	0x3d88cf93	0.06680217
111	0x3d8403cd	0.064460374
112	0xbd265fa4	-0.040618554
113	0xbd4712e8	-0.048602015
114	0xbd633ac2	-0.055475958
115	0xbdae9197	-0.08523863
116	0xbc4f7092	-0.012661116
117	0x3d5ea364	0.05435504
118	0x3c5d0101	0.013489009
119	0xbd18228b	-0.037142318
120	0xbc6e42b7	-0.014542273
121	0xbd9f4436	-0.07776682
122	0xbd86d0f8	-0.065828264
123	0x3bfa900f	0.0076465677
124	0xbd71e426	-0.05905547
125	0x3c3ca94a	0.011514971
126	0x3da5f717	0.08103769
127	0x3cca95fb	0.02472972
128	0x3d99e351	0.0751406
129	0xbd82bdb9	-0.06383843
130	0x3a6644f2	0.00087840774
131	0xbdcb560d	-0.09928522
132	0xb7236104	-9.738145e-06
133	0xbd98fd42	-0.0747018
134	0x3dbc179c	0.09184191
135	0xbdb0a10d	-0.08624468
136	0x3d02b2a7	0.031908657
137	0xbd77c15b	-0.060487133
138	0x3cd9e6fa	0.026599396
139	0xbad6dfe1	-0.0016393625
140	0xbc5ecae2	-0.013598176
141	0xbd2cf8c4	-0.04222943
142	0x3d7a36a8	0.06108728
143	0xbca0a7cd	-0.019611264
144	0x3be4ffe4	0.0069885124
145	0xbcffb02e	-0.031211939
146	0xbd97f8ca	-0.074204996
147	0xbd323b60	-0.043513656
148	0x3db41523	0.08793094
149	0x3dbfab5d	0.09358857
150	0xbd426c72	-0.047466703
151	0x3c0cc14f	0.00859101
152	0x3c5de315	0.01354291
153	0x3db24b0d	0.08705721
154	0x3c4f3098	0.012645863
155	0x3b84beb9	0.004051056
156	0xbcfd3912	-0.030911002
157	0x3ca3d984	0.02000118
158	0xbdcd155a	-0.10013838
159	0xbdce84a9	-0.10083897
160	0xbc57b1a4	-0.013164911
161	0xbd9263be	-0.071479306
162	0xbd9099b4	-0.070605665
163	0xbc940640	-0.018069386
164	0x3d62be0b	0.05535702
165	0x3d42de88	0.047575504
166	0xbd174a27	-0.03693595
167	0xbc005229	-0.0078320885
168	0x3db93cf4	0.09044829
169	0x3ca6b7cd	0.020351315
170	0x3d897892	0.0671245
171	0xbd2c62e8	-0.04208651
172	0xbdbb4e32	-0.09145774
173	0xbd45c8d8	-0.048287243
174	0x3bedbbf4	0.007255072
175	0xbcce7b4c	-0.025205277
176	0xbd67452f	-0.056462463
177	0x3dc0d446	0.09415488
178	0xbdbe7ccd	-0.093011476
179	0x3ad41699	0.0016181051
180	0x3d1cd9e2	0.038293727
181	0xbce8da8e	-0.028424527
182	0x3d2dd964	0.042443648
183	0xb9e33026	-0.00043332687
184	0xbd77a873	-0.06046338
185	0xbd65593e	-0.05599331
186	0xbd3ad8de	-0.045616977
187	0xbdc86c0b	-0.097862326
188	0x3d7a3ed6	0.06109508
189	0x3db5bb03	0.0887356
190	0xbd5771c7	-0.05259874
191	0x3b5a1f42	0.0033282791
192	0x3d00202b	0.031280678
193	0x3ce10f40	0.027473092
194	0xbd6820a4	-0.056671754
195	0xbd7f8dae	-0.062390976
196	0x3dc4283b	0.09577986
197	0x3d6be6d1	0.05759317
198	0x3db9729f	0.09055065
199	0x3d8c8134	0.06860581
200	0xbbfbc204	-0.0076830406
201	0x3d8efb60	0.0698154
202	0xbb57a467	-0.0032904388
203	0xba4985e3	-0.0007687492
204	0xbd31b3b9	-0.043384288
205	0x3d9f00e8	0.07763845
206	0xbcae6031	-0.021286102
207	0x3c6bc864	0.014391039
208	0xbda35326	-0.07974844
209	0x3d0b5820	0.03401959
210	0xbd43ac87	-0.047771957
211	0xbcba43a1	-0.022737326
212	0xbc15f564	-0.009152744
213	0x3d17b386	0.03703644
214	0x3b7e2fe7	0.0038785876
215	0x3c8d3dbd	0.017241353
216	0xbd856c67	-0.06514817
217	0xbd9b0def	-0.07571017
218	0x3d133b49	0.03594521
219	0xbd29ae9d	-0.04142629
220	0xbdb0b786	-0.08628754
221	0xbd291dde	-0.04128825
222	0xbdc91885	-0.0981913
223	0x3ca17383	0.0197084
224	0x3bee44f5	0.007271404
225	0x3dbd2a07	0.09236532
226	0xbd61bab1	-0.055109683
227	0xbd542bbb	-0.051799517
228	0x3cc262d0	0.023728758
229	0xbcd88b67	-0.02643366
230	0x3d9ee4f0	0.0775851
231	0x3c7620a7	0.015022433
232	0xbb09bd51	-0.0021017382
233	0xbd1def7b	-0.038558464
234	0x3d76b362	0.060229667
235	0xbd3f8bbb	-0.046764117
236	0x3d2342eb	0.03985874
237	0x3d83ac94	0.06429401
238	0xbda0d211	-0.07852567
239	0xbdb580fc	-0.088624924
240	0xbd66f69f	-0.05638754
241	0x3d431b48	0.04763344
242	0xbd640011	-0.055664126
243	0x3c14f5a9	0.009091773
244	0x3c736a23	0.014856848
245	0x3caafaaa	0.020871479
246	0xbd519b85	-0.051173706
247	0x3b4df312	0.0031425399
248	0x3d8d48bf	0.06898641
249	0x3d535f6e	0.05160468
250	0x3c9aa234	0.018876173
251	0xbda30663	-0.079602025
252	0x3d3e91b8	0.046525687
253	0xbd2312e4	-0.039812937
254	0x3d8f1f1d	0.06988356
255	0x3d2a078c	0.041511104

layers.2.layers.0.bias f4 [100]
0	0xbd21ae26	-0.03947272
1	0xbd1283ed	-0.035770345
2	0xbdadeba3	-0.0849221
3	0x3b604e88	0.0034226496
4	0x3d77bb6f	0.060481485
5	0xbd78c23a	-0.060732104
6	0xbc2632de	-0.010143964
7	0x3d895059	0.06704778
8	0xbd8bb61c	-0.06821844
9	0x3cd4ddcd	0.02598467
10	0xbcc607af	-0.024173586
11	0x3da7353f	0.08164453
12	0xbb7be2dc	-0.003843478
13	0x3daceeb8	0.084439695
14	0xbd0d98fc	-0.034569725
15	0xbd9edabe	-0.077565655
16	0x3b0ee816	0.0021805814
17	0xbd7b10e0	-0.06129539
18	0xbd5f2b0e	-0.05448442
19	0x3d89e419	0.06732959
20	0x3db6becc	0.0892311
21	0xbd909ff4	-0.07061759
22	0xbdcc6b34	-0.09981385
23	0x3cc6a691	0.024249347
24	0xbda87903	-0.08226206
25	0xbca8d5c7	-0.02060975
26	0x3d30dd00	0.043179512
27	0x3d2c00b7	0.04199287
28	0x3c48c2ae	0.0122534465
29	0x3d353977	0.044244256
30	0xbd67f364	-0.0566286
31	0xbcca1246	-0.024666917
32	0xbcefd262	-0.029275123
33	0xbdc347c0	-0.095351696
34	0xbd6a1f89	-0.05715898
35	0x3bf75c36	0.007548834
36	0x3cc0593d	0.023480052
37	0xbd34d686	-0.044149898
38	0x3d84cdc8	0.06484562
39	0xbd607641	-0.054800276
40	0x3ca8a8e1	0.02058834
41	0x3dad590a	0.084642485
42	0x3d9a0749	0.07520921
43	0x3de01c0d	0.1094285
44	0x3d0783cd	0.03308468
45	0xbd88d9ba	-0.06682153
46	0xbcfbc9cd	-0.030735875
47	0xbce4b690	-0.027919084
48	0xbd90712f	-0.07052838
49	0xbcc90f8c	-0.024543546
50	0xbdc19d35	-0.09453813
51	0xbd3affba	-0.045654036
52	0xbdc56c52	-0.09639801
53	0x3db6e555	0.0893046
54	0x3ce56899	0.028003978
55	0x3de3e04f	0.11126768
56	0x3d739fc6	0.059478544
57	0x3dc40cbf	0.095727436
58	0xbd01ca88	-0.03168729
59	0xbd2b6367	-0.041842844
60	0xbd3add74	-0.04562135
61	0xbdbaf246	-0.09128241
62	0xbbce379f	-0.0062932516
63	0x3cb02521	0.02150208
64	0x3d6b526c	0.05745165
65	0xbc30544b	-0.0107622845
66	0x3d29acc1	0.041424517
67	0x3d259879	0.040428612
68	0x3c9ea489	0.019365566
69	0x3d095c9e	0.033535592
70	0xbcef84d6	-0.029238146
71	0x3d802340	0.062567234
72	0xbdc59109	-0.09646804
73	0x3c423df3	0.01185559
74	0x3d444983	0.04792167
75	0x3da86e31	0.08224142
76	0x3d57d5fa	0.0526943
77	0xbc4da5b8	-0.012551717
78	0x3d8effbe	0.06982373
79	0xbdc249d0	-0.09486735
80	0xbcad045a	-0.021120239
81	0xbd1b6454	-0.037937477
82	0x3d7538bb	0.059868556
83	0x3dc4abbf	0.096030705
84	0xbcd7cc1b	-0.026342442
85	0x3c9d7fc2	0.019225959
86	0xbc987601	-0.018610956
87	0xbd0279de	-0.031854503
88	0x3d1d4fb5	0.038406093
89	0x3d0a4fc9	0.033767495
90	0xbd53aa1c	-0.0516759
91	0x3cb2a7ca	0.021808524
92	0x3ddc56a6	0.107587144
93	0xbd9d921c	-0.07693884
94	0xbc8f9f8f	-0.017532138
95	0xbdb4edb9	-0.088344045
96	0xbc9d88c3	-0.019230252
97	0x3dc176d9	0.094464965
98	0x3d779c3a	0.060451724
99	0xbdc467b5	-0.09590093

layers.3.weight f4 [2, 100]
0	0xbdbab6ec	-0.09116921
1	0x3a5fd69e	0.00085387554
2	0xbc519a2f	-0.012793108
3	0x3d932bc1	0.0718608
4	0xbd1f4b36	-0.038890086
5	0x3d99411b	0.07483121
6	0xbd79773f	-0.060904738
7	0xbcb5e49b	-0.022203734
8	0xbbd1203f	-0.006382018
9	0xbd577240	-0.05259919
10	0x3b0c8244	0.002143995
11	0xbcdcccd3	-0.026953137
12	0xbd49d2fc	-0.049273476
13	0xbdb092ac	-0.086217254
14	0x38dd8d17	0.00010564381
15	0x3dc02b8a	0.093833044
16	0x3d1d3055	0.03837617
17	0xbda4fcd7	-0.08056038
18	0xbd55850b	-0.052128833
19	0x3d696a73	0.056986284
20	0xbd22ccaa	-0.039745964
21	0xbc39308d	-0.011303079
22	0xbd41cade	-0.04731261
23	0x3d1ae3aa	0.037814774
24	0xbd8bbf3a	-0.06823583
25	0xbdd399fd	-0.10332105
26	0xbd96e106	-0.073671386
27	0xbdbaecb4	-0.09127179
28	0x3c16d0ad	0.009205026
29	0x3c736e72	0.014857875
30	0xbd099a91	-0.03359467
31	0x3d0c10b5	0.03419562
32	0x3baa7dd7	0.0052029896
33	0x3cc62bbe	0.02419078
34	0x3d5416fe	0.05177974
35	0x3bf5ac0f	0.0074973176
36	0x3dcf889c	0.10133478
37	0x3d8ed631	0.069744475
38	0xbd83116f	-0.063998096
39	0x3d98d600	0.07462692
40	0xbc8ce9e4	-0.017201371
41	0xbbf55a74	-0.0074875895
42	0x39322bdf	0.00016991746
43	0xbdc31cb8	-0.09526962
44	0x3d7da0ee	0.061921053
45	0x3d838682	0.0642214
46	0x3dbfadc0	0.09359312
47	0x3c7ba694	0.01535954
48	0xbcea0d27	-0.028570725
49	0xbca3e5c3	-0.02000702
50	0xbd0754b3	-0.03303976
51	0xbdbb3a77	-0.09142011
52	0x3d040802	0.0322342
53	0x3ba86355	0.0051387944
54	0xbd381a28	-0.04494682
55	0xbd8e2ca9	-0.06942112
56	0xbce38671	-0.027774068
57	0x3c5a6835	0.013330509
58	0x3d93d252	0.0721785
59	0x3d18fc15	0.03734978
60	0x3d99a02c	0.075012535
61	0x3da5586d	0.080735065
62	0xbd4a7612	-0.049429007
63	0xbbb3efb5	-0.005491222
64	0xbdc0c150	-0.094118714
65	0xbd87ae78	-0.06625074
66	0x3cfcad0f	0.03084424
67	0x3d09f8d0	0.03368455
68	0x3d314859	0.043281887
69	0x3da4885f	0.08033823
70	0x3d1676df	0.036734458
71	0xbd56e809	-0.05246738
72	0xbcbf553c	-0.023356073
73	0x3bb91b92	0.0056490386
74	0x3d46c867	0.048530962
75	0xbd912ea5	-0.07088975
76	0xbd486b71	-0.04893059
77	0x3d19670c	0.03745179
78	0x3d08c62b	0.033392113
79	0x3dc12894	0.09431568
80	0x3da53e63	0.0806854
81	0xbd42d7e5	-0.047569174
82	0x3cdfa6db	0.027301243
83	0xbd8eccad	-0.069726326
84	0xbb57ab1b	-0.0032908383
85	0xbbd165fa	-0.0063903304
86	0x3cabe89a	0.020984937
87	0x3da9718f	0.08273613
88	0xbda3983f	-0.07988023
89	0x3da5ba56	0.080921814
90	0x3d8aa9ef	0.067706935
91	0xbd44eae4	-0.04807557
92	0xbd167916	-0.03673657
93	0xbcd9a706	-0.0265689
94	0x3d7e467a	0.06207893
95	0xbcd387b0	-0.025821537
96	0x3cf85ed1	0.03031865
97	0xbd477e0c	-0.048704192
98	0x3d9c768a	0.07639797
99	0xbc8a91de	-0.016915258
100	0x3dcf429c	0.101201266
101	0xbd82776d	-0.06370435
102	0xbccef005	-0.025260935
103	0x3d9b8345	0.07593397
104	0x3d90d163	0.07071187
105	0xbd418ab6	-0.047251426
106	0xbd9b04a6	-0.07569246
107	0xbd7eed40	-0.062237978
108	0xbd8e398b	-0.06944569
109	0xbd4e1e4b	-0.05032186
110	0xbd5803ab	-0.052737873
111	0xbc367e6e	-0.011138542
112	0x3dbdee7e	0.092740044
113	0xbae3c4d5	-0.0017377386
114	0xbd7d2694	-0.06180437
115	0x3d40bd44	0.047055498
116	0xbd6b5857	-0.057457294
117	0xbd114147	-0.035462644
118	0xbc379e89	-0.011207231
119	0x3c785e3a	0.015159184
120	0xbd58615e	-0.05282723
121	0xbd9378bd	-0.072007634
122	0xbdc5f810	-0.09666455
123	0xbc14f780	-0.009092212
124	0x3d590677	0.05298468
125	0x3d1aaa63	0.03776015
126	0x3da4cb4e	0.0804659
127	0x3d0d7ac5	0.03454091
128	0xbd955952	-0.07292427
129	0x3c401f1a	0.011726165
130	0xbc96c051	-0.01840225
131	0x3da6013a	0.08105703
132	0x3d283ca0	0.04107344
133	0x3dcd1d77	0.100153856
134	0xbdb2a9df	-0.087238066
135	0xbbc80f7a	-0.0061053606
136	0xbdb6ec3e	-0.08931778
137	0x3cae0eac	0.02124723
138	0xbd1d5d56	-0.03841909
139	0xbd2980fa	-0.041382767
140	0x3df1201d	0.11773703
141	0xbcd3e346	-0.025865208
142	0x3d9f2517	0.07770746
143	0x3dbb9096	0.09158437
144	0x3dab5a25	0.08366803
145	0x3db15c9c	0.08660242
146	0x3d9475f1	0.07249058
147	0x3ca8521c	0.020546965
148	0x3db5d215	0.088779606
149	0x3deb8458	0.11499852
150	0xbd8b59eb	-0.0680426
151	0x3cc539a0	0.02407533
152	0x3d9a1875	0.07524196
153	0xbd0dd787	-0.03462937
154	0x3db256d5	0.08707968
155	0x3dd0065a	0.101574615
156	0x3ca9317a	0.020653475
157	0x3c8c313a	0.017113317
158	0x3ac3e42a	0.0014945318
159	0x3dcd1056	0.100128815
160	0xbd9e525d	-0.07730553
161	0x3d214622	0.039373524
162	0xbd57bf11	-0.05267245
163	0x3da094c0	0.07840872
164	0xbbc16e2c	-0.005903026
165	0x3d5491e3	0.05189694
166	0x3db93ec3	0.09045174
167	0xbac3c719	-0.0014936655
168	0xbc5078c0	-0.012724102
169	0x3ddcafe5	0.10775737
170	0x3ddcbb28	0.10777885
171	0x3d85b8f2	0.06529416
172	0x3c45793c	0.01205283
173	0x3bb15772	0.0054120356
174	0xbd5de19a	-0.05417023
175	0x3e08ecf4	0.1337164
176	0x3d8c444a	0.068489626
177	0x3da90402	0.082527176
178	0xbd83360c	-0.06406793
179	0x3cd95e50	0.02653423
180	0x3cce8ca3	0.025213545
181	0xbcd4ec8a	-0.025991697
182	0x3c487c60	0.012236685
183	0x3d3dc7e5	0.046333212
184	0xbcef46b1	-0.029208513
185	0x3db5f35d	0.088843085
186	0xbdac7ff6	-0.08422844
187	0x3a9ac13a	0.0011806854
188	0xbd2a94ad	-0.041645695
189	0x3de6623e	0.11249207
190	0xbcedaf06	-0.029014122
191	0xbcc2277a	-0.023700465
192	0x3df510cc	0.119660944
193	0xbd925450	-0.071449876
194	0xbd001179	-0.031266663
195	0x3db12610	0.08649838
196	0x3db13801	0.0865326
197	0x3aad4a66	0.0013221025
198	0xbbab2fd1	-0.005224206
199	0xbd33f94e	-0.043938927

layers.3.bias f4 [2]
0	0xbcfed258	-0.03110616
1	0x3e4c50ab	0.19952647
