clients_data/clients_fair_trained_model/client3.pth (torch, 86087 bytes, 6 tensors)

layers.1.layers.0.weight f4 [100, 105]
00000000: 9505 993d 0f3b a53d 7bb8 b9bc 9e58 b83d
00000010: 6698 adbc a35f a03c 5974 42bd 4059 6b3d
00000020: 6230 b03d ff7e 92bd 7838 ad3d ee84 973c
00000030: 5011 933d d819 583c 9179 433d 1b2d 61bc
00000040: 37db 993d a8b7 683c 161a 3abd 07cd c93c
00000050: 8da4 37bd d14d 3ebc 6436 22bd 6e6a 843d
00000060: 529c 9dbd a228 38bd 7b45 e0bc 1528 6fbd
00000070: fe20 1b3c a2b9 c5bd eba4 b23d b602 aabd
00000080: 55b5 9a3d 493d 843c 1f5c 01bd 718d 763d
00000090: c5ab 733c 7439 a23d 43f6 2c3c 6d73 fbbc
000000a0: 4a2a d63c bed3 d8bc afad 283d 78a3 b23d
000000b0: 2a77 663d c180 2ebd e4ea 663d ce16 8f3c
000000c0: bfa2 4a3d 2628 72bd db3f c5bd e135 1cbd
000000d0: e44b 99bd 4f88 a33d 79bf e43c acf9 253d
000000e0: ec37 fb3c bad8 deba e5e3 9c3d b2a6 8ebd
000000f0: 21aa d33b 1958 88bd 6478 f63c 8ede 08bd
00000100: e2fd f53c 4676 a6bc e2fd a53d e8bf 6cbd
00000110: 5638 6ebd ad3f 6ebd 3d48 b33d d175 033d
00000120: 4f0e c03d 98e8 a4bd d32b c6bd 734e 9cbd
00000130: 6a5e 86bd 3cbc 233d 750e 0f3d c231 a63d
00000140: 5648 4ebd 9130 88bd 1766 533d 2f71 21bd
00000150: 8952 723d aa8a bdbc 567b 633d e440 9bbd
00000160: 4fa7 49bd e2df f33c f117 a83c 98a8 cbbc
00000170: 29e8 6d3d 6144 873d cee6 90bd 3f55 55bd
00000180: a4bd b63d a6e1 06bd 14a4 0dbd 3d63 c1bd
00000190: e1b8 64bd 34ce c73c a5c4 52bc dd0d 91bd
000001a0: 6005 163b 8682 88bd 64cc a9bd 3fb1 5bbd
000001b0: 7197 aebd 4c80 7fbd bfd8 c73d bff9 973c
000001c0: 501a f63c 0b69 babd ca67 83bd c033 05bd
000001d0: e11c 7c3c 1943 b0bd 4345 2cbd 25c1 6ebd
000001e0: 1005 0e39 b922 14bd f650 dabb cc44 87bd
000001f0: 3133 89bd c56c 69bd b88f 08bd 0617 9ebd
00000200: 8934 a73d 5ead 9dbc 3701 ac3d 2786 f83c
00000210: 3f2d a8bd 6710 893d 2883 dcbc 03b5 19bd
00000220: b50f a6bd 2c94 c6bd b97c e43c 75de aebc
00000230: 361d 1c3d 1a91 a3bd 8cac 933d d102 92bd
00000240: 214f 8abc cf9d a93c 14e9 4f3d 3186 9f3d
00000250: 1cbf b53d f810 9ebd 1a73 c93c e66b 2bbd
00000260: c7ef 2ebc 97ff 94bd 6f21 b63d d5de 91bd
00000270: 0b39 553d 350e 0c3d 07cf fd3c 0a8c 59bd
00000280: 24ec b53d c1de ad3c 1f58 4b3c 002f afbd
00000290: 9029 233d 4f50 5dbc 3dea 36bd b952 ab3d
000002a0: 4447 b53c 694c 5dbd 8d3f 4abd c23e 96bb
000002b0: 2a9b 5d3d 7258 cdbc aed7 63bd 72d0 08bd
000002c0: 8d38 95bd 874f 0e3d a7c0 9a3d ad0f bcbd
000002d0: 9972 bb3c 2154 4e3d c529 913c 1341 0ebd
000002e0: 5223 513d 8987 523d d9e7 143d 8d55 8cbc
000002f0: fa9a d3bc d2aa 2f3c 18fc 8cbc 820a eebc
00000300: 32ea 7c3d 6da8 ab3d 62e4 1dbc 70ba b3bc
00000310: fc76 b33a bfea bdbb 89c7 be3c b508 dd3c
00000320: 877a b5bd f45f 13bd c84f a83d 2dee 1b3d
00000330: 620d 9fbb 18ba 70bd 6d7c 74bd 7afb b2bd
00000340: fe39 02bd 73fd 063d 95e0 7f3d a3d6 363d
00000350: 3520 b0bd a727 6ebd a6c2 72bc d0f2 c03d
00000360: 741e 633c 87cf cebc b45f 253d 5f42 18bd
00000370: f67a 7fbd db52 923d ce14 35bd 69cf a9bc
00000380: 4135 c6bd d2ea 853d c4f7 973d 4342 113d
00000390: 8416 8bbd d50a c5bd 3d55 a1bd 9563 943d
000003a0: 7016 3d3d 33c3 a93d e352 4f3d 7072 c73c
000003b0: d4b6 fa39 ce41 98bd b851 abbd 316b babd
000003c0: ca91 223d 4c3c 44bd 4010 a1bc 6ce8 65bd
000003d0: e1cd 93bc cdc7 8dbd cf47 83bd 3db2 043d
000003e0: 4f9e e6bc b232 783d 9982 00bd 11fd 92bd
000003f0: 1007 89bc 9bc2 42bd 6393 f9bc 8912 bebd
0.07471768 0.08067905 -0.022670975 0.090012774 -0.021190833 0.019576853 -0.04747424 0.057458162
0.08602978 -0.07153129 0.08458036 0.018496003 0.071810365 0.013189755 0.047723357 -0.013743664
0.07512515 0.014203943 -0.045435034 0.024633897 -0.044834662 -0.011615233 -0.039602652 0.06465612
-0.07695831 -0.044960625 -0.02737688 -0.058387835 0.009468315 -0.09654547 0.08722862 -0.08301298
0.075541176 0.016142504 -0.031581994 0.060193483 0.014872496 0.079211146 0.01055676 -0.030694688
0.026143212 -0.026468154 0.041181263 0.087225854 0.056265987 -0.042603258 0.056376353 0.017466929
0.049471613 -0.05912032 -0.0963132 -0.03813732 -0.07485178 0.07984983 0.027923333 0.04052131
0.030666314 -0.0017001845 0.07660655 -0.06965388 0.00645949 -0.06657428 0.030086704 -0.03341537
0.030028287 -0.020320069 0.08105065 -0.057800204 -0.058159195 -0.058166195 0.08754013 0.03209478
0.09377729 -0.08052176 -0.096763276 -0.076321505 -0.06560977 0.039974436 0.034925897 0.08114959
-0.050361954 -0.06649888 0.051611032 -0.03941458 0.059160743 -0.02313741 0.055537544 -0.07580736
-0.049231824 0.029769842 0.020519229 -0.024860665 0.058082733 0.06604839 -0.070752725 -0.05208325
0.0892289 -0.03293004 -0.034580305 -0.09442756 -0.055840377 0.024390317 -0.0128642665 -0.07082722
0.0022891387 -0.0666552 -0.082909375 -0.053635832 -0.08524979 -0.062378213 0.09758138 0.018551705
0.030041844 -0.091020666 -0.064162806 -0.032520056 0.015387745 -0.08606548 -0.04205824 -0.058289666
0.00013544061 -0.036165927 -0.0066624833 -0.06604919 -0.06699217 -0.056988496 -0.033340186 -0.07719235
0.08164317 -0.019247707 0.08398669 0.030337406 -0.08211755 0.066925816 -0.026918009 -0.03752614
-0.08108465 -0.0969623 0.027891504 -0.02134631 0.038113795 -0.0798666 0.07210645 -0.071294434
-0.016883435 0.020705132 0.05075939 0.07789267 0.08874342 -0.0771808 0.024591018 -0.041850947
-0.010677285 -0.072753124 0.08893096 -0.0712258 0.052056354 0.034193236 0.030982507 -0.053112067
0.08882931 0.021224381 0.012411146 -0.085538864 0.03983456 -0.013507917 -0.04465698 0.083653875
0.022128709 -0.05402795 -0.049377013 -0.004585118 0.054103054 -0.025066588 -0.05562561 -0.033401914
-0.07286177 0.034743812 0.07556277 -0.091826774 0.022881793 0.0503732 0.017720113 -0.03473003
0.051059075 0.051398788 0.03635392 -0.017130638 -0.025830735 0.010721879 -0.017210051 -0.029057745
0.061746784 0.08381734 -0.00963697 -0.021939486 0.0013692076 -0.005795806 0.023288505 0.02698169
-0.08861261 -0.03598018 0.08218342 0.03806894 -0.0048538903 -0.058771223 -0.059688974 -0.087393716
-0.031793587 0.03295655 0.062470037 0.044638287 -0.08599893 -0.058143284 -0.014816916 0.09421313
0.013862241 -0.025245441 0.040374473 -0.03717267 -0.062373124 0.0714471 -0.044209294 -0.020728784
-0.09678126 0.06538929 0.074203044 0.035463583 -0.06791404 -0.09621207 -0.07877586 0.07245556
0.046163976 0.082891844 0.050616156 0.02434656 0.00047819933 -0.07434426 -0.08365196 -0.091024764
0.039689817 -0.047909066 -0.019661069 -0.056129858 -0.018042507 -0.069228746 -0.06410181 0.032396544
-0.02815166 0.06059522 -0.031374548 -0.07177175 -0.016727 -0.04754887 -0.030465787 -0.09280879

layers.1.layers.0.bias f4 [100]
00000000: ba2e 823d 2efe 2a3d 147a b7bb 4c79 613d
00000010: 9ec3 8cbb 6311 5ebc 9b66 18bd b028 acbd
00000020: 48bc a73d b7a6 6fbd 1051 b6bd 7705 39bd
00000030: 1888 953c d62b 13bc e741 363d 4194 783d
00000040: 6161 6a3d 8cca a9bd de46 273d 5be1 4e3d
00000050: 6f88 63bd 2937 6a3a 1f2f 8e3c 980c 813c
00000060: a74b 5b3d 1217 a73d fb32 bf3d be9c bc3c
00000070: 52a3 603d 4046 273d dd50 4abd b4ed 843d
00000080: 0770 00bc dca5 333d a3b3 84bd dbbf a33d
00000090: 907f aa3c 4db5 bb3c c525 b4bd 2edf fcbb
000000a0: daaf 02bd 9941 bc3d 8d60 b6bd 86dd bbbc
000000b0: 03ba 44bd eba6 95bd fadc 1b3d 18a5 84bd
000000c0: 822c 3c3d 6d29 423c 75ab 4bbd 78e1 1abc
000000d0: 5927 4f3c f845 2cbd a867 7ebd 52cc 5ebd
000000e0: 43e0 db3c 1050 aebd fc29 813d db10 873d
000000f0: 655e bd3d decb b53d 4256 63bd 820f 2cbd
00000100: f423 903d 0d91 6bbc b6ae 8ebd 3459 34bd
00000110: d454 8b3d b3da 61bd 9e1e 0d3d 5c92 a5bd
00000120: 1b31 873d 001c db3c d996 903d 260a 643b
00000130: 7df8 473d b966 a53d 05d6 45bc 4e33 97bd
00000140: e3ce 8abd 2c0e 7a3d d35d 80bd 6430 b3bd
00000150: 0dab aabd 1d41 2abd ea89 923c b7aa b3bd
00000160: cbb0 3cbd 778f be3d 5515 6ebc f301 febc
00000170: 7add 4b3d 2175 a4bd ec6b 9cbd d8c1 9b3c
00000180: aeaa 0c3d b86c c5bd fdf0 b13d 42c4 15bd
0.06356569 0.04174631 -0.0055992696 0.05504732 -0.0042957803 -0.01355395 -0.037207227 -0.08406198
0.08190209 -0.0585086 -0.0890218 -0.045171227 0.018253371 -0.008982619 0.044496443 0.06068826
0.057221774 -0.08290586 0.04083907 0.050507884 -0.055550035 0.0008934611 0.017356453 0.015753075
0.053538945 0.08158697 0.09335896 0.02302396 0.054843254 0.04083848 -0.049393523 0.06490651
-0.007839209 0.043859348 -0.064795755 0.07995578 0.02081278 0.0229136 -0.087962665 -0.007717035
-0.031905986 0.09192199 -0.08905134 -0.022932779 -0.048028957 -0.07307228 0.038052537 -0.06476802
0.045940883 0.011850697 -0.04972406 -0.00945317 0.012643659 -0.042058915 -0.062110573 -0.054394074
0.026840335 -0.085113645 0.06306836 0.06595012 0.0924652 0.08876775 -0.055502184 -0.042006977
0.070381075 -0.0143778445 -0.06966917 -0.044030383 0.06803289 -0.05514021 0.034453027 -0.080845565
0.06601163 0.02674675 0.07060022 0.0034796088 0.04882096 0.080762334 -0.012074952 -0.073828325
-0.06777742 0.06104867 -0.062678955 -0.08749464 -0.083334066 -0.041566003 0.017888028 -0.08772796
-0.04606704 0.093047075 -0.014531453 -0.031006789 0.049771763 -0.08030153 -0.07637772 0.01901333
0.03434246 -0.09639877 0.08688543 -0.03656412

layers.2.layers.0.weight f4 [100, 100]
00000000: 7a04 8a3c a82e 993d 5442 1f3d 3121 013d
00000010: 6f95 b8bd b5a4 bcbd 7fdf 1d3d 174f 983b
00000020: d865 7e3d 6308 543d 7ffe a0bd 52a8 9c3c
00000030: 903a 9dbd ddaf 5dbd c776 ee3c ddce 67bb
00000040: c09d 7fbd 5646 133d cb67 903d bef9 c5bd
00000050: 7c52 c13d 83f9 673d ae24 eebb 6830 c4bd
00000060: 7c94 29bd 1981 003d 4fb3 2cbd 8277 07bd
00000070: 31f8 23bd d8dc b13d 792e b33d 2be8 9dbd
00000080: 4f5b fdbc bbf6 bc3d e284 a0bb 3fe2 49bd
00000090: 461b 613c a97d a43d 64e0 3bbc 8f1d bfbd
000000a0: dbfa 04bd 5f6e 563d d8ce 44bc c66b 943d
000000b0: 3ada 143d 8c77 2f3b 929d 213d 3596 3ebc
000000c0: b106 aebd 064a adbd aeba 9dbd 2252 72bc
000000d0: 4729 91bd 20af 7f3c e49f 533c 7a65 9e3d
000000e0: 3a74 e43b 83e6 943c 127f 133d 2df4 e0bc
000000f0: c756 49bd c11c bebd 7dc1 c5bd c755 ef3b
00000100: 783c 41bd 38c3 f73c 83d4 d93c 68f3 a03d
00000110: e703 21bc b395 e639 1efd 903d 7480 923c
00000120: f269 433d f307 55bd 4ad8 8fbd 3d9e 9f3d
00000130: 61d2 973d 1691 14bd 6327 9a3c 4797 b5bd
00000140: 16c8 023c 0f5a bcbd c46d 6c3d 74d9 c9bd
00000150: b5c2 c0bc aab8 c43d 1940 07bd 1678 6ebd
00000160: e12b b93d 3434 43bd 4d42 bd3c 0615 6a3d
00000170: 5c09 f03c b0c0 8cbd bf8c be3d 86c1 4c3d
00000180: a789 7cbd 5b74 67bd cad9 b1bc f8b9 0f3d
00000190: 38f3 133d fb3d 2b3c 6451 853d 14da c83d
000001a0: 6ef8 a03c 0681 183d c0be 633d 6941 963c
000001b0: 73dc 9a3b 5cc0 b43d 3e26 893d 262a 843d
000001c0: ff90 26bd 2d80 48bd ce2e 63bd a99f aebd
000001d0: 2c9c 4fbc b24f 5e3d f4b4 5a3c 3402 18bd
000001e0: 1c76 6bbc bd78 9fbd 11a7 86bd 5def 013c
000001f0: 331e 71bd 5888 353c 6e64 a53d 6c0d c73c
00000200: cf10 9a3d 238d 82bd 0d47 333a 9b23 ccbd
00000210: ee67 9439 62ff 98bd 3570 bc3d 4a78 b0bd
00000220: c5b2 013d 9020 79bd 5a98 d63c 4cd6 06bb
00000230: eb0e 66bc 8775 2cbd d13a 7a3d 3816 a1bc
00000240: c0ce e23b c611 00bd d49c 97bd cc08 33bd
00000250: 1255 b43d 5e22 bf3d 8da3 42bd 9c19 0c3c
00000260: 79c1 5e3c 99b6 b13d 8629 4f3c 4fac 833b
00000270: e51b fcbc 4546 a13c 8e2d cdbd 196e cebd
00000280: 0ec5 55bc 3e54 92bd 6acd 90bd 9cb3 91bc
00000290: f9ce 613d d8d0 423d 07a1 17bd 89f6 01bc
000002a0: 42a9 b83d f30c a83c 7790 883d 212e 2dbd
000002b0: 301c bbbd b1da 45bd 1bbe f03b 45ce cfbc
000002c0: ab96 65bd 60df bf3d b167 bfbd 54bd e23a
000002d0: d98d 1e3d 72be e7bc c643 2d3d f9f0 0fba
000002e0: 5b02 78bd f146 66bd 0c68 3abd e3c3 c8bd
000002f0: 689e 7a3d c531 b53d 7cee 55bd 3294 5f3b
00000300: 2c66 fd3c 43b2 dd3c 6417 69bd fd67 80bd
00000310: 91f1 c33d 7aaa 6a3d 69a1 b83d 06c5 8c3d
00000320: 8cb1 fdbb a5e9 8e3d 8799 5cbb 9919 28ba
00000330: 1fa4 31bd 0116 9f3d d0d1 aebc 6572 6b3c
00000340: 747d a3bd e440 0b3d 854d 43bd 3cd3 babc
00000350: 7268 17bc 8a45 173d 3752 793b 7143 8c3c
00000360: 5486 85bd 37fd 9abd 0655 133d 0eaf 29bd
00000370: 53b3 b0bd 405d 29bd f826 c9bd 92ca a13c
00000380: 353e ed3b 83a5 bc3d ce9c 62bd 50ed 53bd
00000390: b29d c13c a1dd d8bc 55db 9e3d 4d4e 753c
000003a0: 50da 14bb 2e96 1dbd 49db 763d 0500 40bd
000003b0: 1314 233d 0e6c 833d 131f a1bd 5aaa b5bd
000003c0: 2033 67bd c3da 423d c613 64bd 7071 153c
000003d0: 1835 733c 7c37 aa3c 33be 51bd 7dd7 4e3b
000003e0: e04e 8d3d 8c5e 533d e9e9 9a3c 8d23 a3bd
000003f0: 520d 3f3d 6b78 23bd 1c20 8f3d b197 293d
0.016847838 0.07479602 0.038881615 0.031525794 -0.09012877 -0.09211103 0.03854322 0.0046481
0.062108845 0.05176581 -0.07861041 0.01912323 -0.076771855 -0.054122794 0.029109372 -0.0035371103
-0.0624063 0.03595575 0.07051047 -0.09666775 0.09439561 0.056634437 -0.007267556 -0.09579545
-0.04140137 0.031373117 -0.04216319 -0.033072956 -0.040031616 0.08684701 0.08749098 -0.07710298
-0.030927328 0.092267476 -0.0048986534 -0.04928803 0.013739413 0.0803178 -0.011467073 -0.0933181
-0.032465797 0.05235135 -0.012012206 0.07247119 0.03634093 0.0026774136 0.03945691 -0.011632492
-0.0849737 -0.084613845 -0.07701622 -0.01479009 -0.07087951 0.015605718 0.012916539 0.07734199
0.006971863 0.018176323 0.036009856 -0.027460182 -0.049155023 -0.09282828 -0.096560456 0.0073039266
-0.047176808 0.030244455 0.026590591 0.07858926 -0.009827591 0.00043980553 0.07079528 0.017883517
0.04770846 -0.052009534 -0.07023676 0.077938534 0.074131735 -0.036271177 0.01881761 -0.088667445
0.0079822745 -0.09196865 0.05772187 -0.09855929 -0.023530344 0.096055344 -0.033020113 -0.05821999
0.09041572 -0.047657207 0.023102904 0.057148956 0.029301338 -0.0687269 0.09304189 0.049989246
-0.061654713 -0.05650745 -0.021710295 0.035089463 0.036120623 0.010451789 0.06509665 0.0980722
0.01964971 0.03723242 0.055601835 0.018341737 0.0047259866 0.08825752 0.06696747 0.06453352
-0.040665623 -0.048950363 -0.05546456 -0.085265465 -0.012671512 0.054275222 0.013348807 -0.037111476
-0.014371421 -0.07786701 -0.06574834 0.007930604 -0.05886669 0.01107987 0.08075796 0.024298392
0.07522737 -0.06374576 0.00068388955 -0.09967729 0.00028306193 -0.074705854 0.09201089 -0.08616693
0.03166463 -0.06082207 0.026195694 -0.0020574508 -0.014041643 -0.04210427 0.061091248 -0.019663915
0.006921619 -0.03126695 -0.074029595 -0.04370956 0.088052884 0.09332727 -0.047519255 0.008551028
0.013595932 0.08677406 0.012644177 0.0040183435 -0.03077502 0.019686827 -0.100184545 -0.10079593
-0.01304747 -0.07144974 -0.070704296 -0.01778584 0.055129025 0.04756245 -0.037018802 -0.007932314
0.09016658 0.020513987 0.066681795 -0.04228032 -0.09136236 -0.048304264 0.007346881 -0.025366912
-0.05605189 0.09368777 -0.093459494 0.0017298856 0.038709495 -0.028289054 0.042300962 -0.0005490925
-0.06054912 -0.05622 -0.045509383 -0.098029874 0.061186224 0.088473834 -0.05222939 0.003411543
0.030932508 0.02706254 -0.056907073 -0.06269834 0.095675595 0.057291485 0.090151615 0.06873517
-0.0077421125 0.06978158 -0.0033660845 -0.0006412506 -0.04336941 0.07767869 -0.02134028 0.0143705355
-0.07982913 0.03399743 -0.04768135 -0.022805803 -0.00924121 0.036931552 0.0038043389 0.017122002
-0.06519762 -0.07567828 0.035969757 -0.04142671 -0.086279534 -0.041348696 -0.09821886 0.019749913
0.0072400817 0.09211256 -0.05532532 -0.05173999 0.023634765 -0.026472868 0.07756678 0.014972282
-0.0022713132 -0.0384733 0.06026772 -0.04687502 0.039814066 0.06417094 -0.07867255 -0.088703826
-0.05644524 0.04757191 -0.05568292 0.009121284 0.0148442015 0.02077841 -0.05120678 0.0031561546
0.0689981 0.05160384 0.018910365 -0.07965765 0.046643563 -0.03990976 0.06988546 0.04140443

layers.2.layers.0.bias f4 [100]
00000000: e85b 1ebd 163c 16bd 0835 aebd fd17 823b
00000010: d8b1 7f3d ddb2 77bd dee2 27bc 0ee7 863d
00000020: 3988 8abd 021d d43c 28f9 cbbc 11d5 a63d
00000030: c1ad 59bb 1b87 ad3d c972 12bd b81a 9ebd
00000040: a360 033b 16ca 7bbd 6443 5fbd 9131 893d
00000050: 729b b53d 7788 91bd 028c ccbd 1a40 c23c
00000060: 6ef6 a7bd 3538 9ebc 35dc 313d 8a61 2b3d
00000070: 7c9b 463c 31ff 353d 330d 68bd 307f c1bc
00000080: a033 ecbc 58bd bebd 2b2c 71bd 467c f83b
00000090: 3292 ae3c 8906 35bd f73e 843d af88 60bd
000000a0: 04be cc3c 7a23 ac3d be2f 9c3d 6bd5 e43d
000000b0: 168d 083d bce7 88bd 6e70 fabc f387 e3bc
000000c0: 8de3 92bd 9d46 c5bc bc50 c1bd cef5 39bd
000000d0: b7aa c5bd 2c29 b53d 7209 f73c c291 e83d
000000e0: d037 743d cf85 c43d a6c0 01bd d687 22bd
000000f0: d449 3ebd 6a7f babd fd03 ddbb e80a bf3c
00000100: 94d4 6b3d c07f 23bc 04dc 2e3d ed98 253d
00000110: a825 9e3c 3529 0a3d 5434 f3bc e10c 823d
00000120: 74c2 c4bd 3ca9 423c 7428 413d 0bf1 ad3d
00000130: 54e6 5a3d e117 52bc ed42 8c3d cc37 c2bd
00000140: 53ee acbc cac1 1bbd 9926 753d 5902 c73d
00000150: 0966 d8bc ed27 a43c 7e5b a2bc eca9 03bd
00000160: daff 1c3d ea92 093d 88f5 54bd 38d1 b13c
00000170: fe54 e43d effb a0bd 145d 92bc b7f4 b4bd
00000180: 72b3 95bc bcba c13d 9b9f 763d 347a c5bd
-0.038661867 -0.036678396 -0.08506209 0.003970145 0.062425464 -0.06047331 -0.01024696 0.06587039
-0.06764264 0.025892738 -0.02489908 0.08146108 -0.0033215138 0.08473035 -0.035754 -0.0771994
0.0020046614 -0.06147202 -0.054507628 0.06698907 0.088675395 -0.07106107 -0.09987642 0.023712207
-0.082012996 -0.019313911 0.043422896 0.041841067 0.012122031 0.044432823 -0.056653213 -0.023620218
-0.02883321 -0.09313458 -0.058880012 0.007583174 0.021309946 -0.044195686 0.06457322 -0.05481785
0.02499295 0.08405204 0.076262936 0.11173519 0.033337675 -0.06684825 -0.030571189 -0.027774787
-0.07172308 -0.024081523 -0.09439227 -0.045400433 -0.09651702 0.088457435 0.030155871 0.11355926
0.05962354 0.095958345 -0.031677864 -0.039680324 -0.046457127 -0.091063336 -0.00674486 0.02332063
0.057575777 -0.009979188 0.042690292 0.040429045 0.019305065 0.033730704 -0.029688038 0.06350113
-0.096074015 0.011881169 0.04715772 0.08493241 0.053442314 -0.012823076 0.068487026 -0.09483299
-0.021109736 -0.03802661 0.059851263 0.09717245 -0.026415842 0.02003857 -0.019819017 -0.032144472
0.038329937 0.033587374 -0.05199197 0.021706209 0.111490235 -0.078605525 -0.017866649 -0.08835738
-0.018274043 0.09459445 0.060210805 -0.09642449

layers.3.weight f4 [2, 100]
00000000: 36b7 babd 0278 3239 e6e2 4ebc 18fa 933d
00000010: b218 25bd d636 9a3d e00c 78bd 6465 bfbc
00000020: d92b b2bb d5a6 5fbd 1e72 373b 0ebe debc
00000030: ce8a 49bd 4692 b1bd 1d82 1db8 2de6 be3d
00000040: 3bfa 1c3d 03bf a5bd 6eed 55bd d37e 693d
00000050: e6b4 21bd 0e10 33bc 3328 41bd 5471 183d
00000060: bd83 8bbd 6f56 d4bd fc22 97bd 4d05 babd
00000070: 024e 213c f56c 683c 31eb 0bbd 2ddf 0b3d
00000080: 6c61 8d3b 7c2f bf3c e148 553d d962 c43b
00000090: 6c76 cd3d ac05 903d f955 83bd d9d7 983d
000000a0: f650 9cbc 7e98 0bbc fee3 2239 91bc c4bd
000000b0: 94ef 7f3d 9c6a 843d 8c45 c03d eb99 6b3c
000000c0: 49ff e5bc 2ced 9dbc 8d1a 07bd 533c bbbd
000000d0: 16bc 033d 05b8 ba3b a8fc 39bd 6b59 8fbd
000000e0: 11e1 e4bc 4d49 433c 6202 953d 0beb 1a3d
000000f0: 8829 983d 0d52 a43d 79b4 4bbd 5319 c2bb
00000100: 0ffa c0bd cfa8 87bd e26e f83c da78 0b3d
00000110: 8da6 303d 67eb a43d 9a98 193d 5480 58bd
00000120: 82c5 bdbc 8b07 b43b 19ae 463d ce39 92bd
00000130: e32e 46bd a607 1a3d 7542 073d 5e6e c13d
00000140: f9bb a43d dfc3 42bd fe03 df3c 6f98 90bd
00000150: 1796 5cbb 9c0e edbb 4f2b a83c 4f5c a73d
00000160: 76ec a3bd 6878 a83d cd79 8b3d f0a6 46bd
00000170: fa62 1ebd c735 e2bc 72fe 7d3d 8176 d4bc
00000180: 4820 f83c 378d 49bd a16b 9d3d 9fe8 94bc
00000190: 301c cf3d 4448 7cbd 9677 d3bc e24b 993d
000001a0: 2a98 9a3d cb39 47bd bfaf 9cbd 0e37 70bd
000001b0: 60b3 93bd 6b7b 34bd 55a2 5fbd 8724 29bc
000001c0: 20af bd3d 0009 6cb9 e1b2 7abd 56cd 483d
000001d0: 32a0 6abd c4f2 0abd d7f7 2ebc 7c2a 7a3c
000001e0: d0ae 5bbd 5e75 95bd 1804 c7bd 7380 e1bb
000001f0: 54e2 573d 07ef 203d 1b6a a53d 5ee0 083d
00000200: fa27 99bd d2bb 613c 6553 86bc 4006 a73d
00000210: 3c64 353d 021f d33d 161b b4bd 0f08 afba
00000220: 6f54 b0bd 3b2d a13c 9ea0 1abd 5786 29bd
00000230: b8a3 fd3d dcb8 b8bc 75a4 9f3d 7a6e c13d
00000240: bff1 a73d 7ce5 ae3d ad98 923d 27bf c03c
00000250: 2cc3 b23d d756 e73d 86da 8bbd c0c6 c53c
00000260: 22a2 9a3d ffbd 13bd 4b62 b63d c9da d43d
00000270: 1245 ad3c 1224 b23c 2f9b 24b9 b472 cb3d
00000280: 81ba 99bd 638a 273d e3a2 53bd 719e a33d
00000290: 6529 a7bb 679c 553d 248d bd3d 622a 21bb
000002a0: 7075 48bc bee4 db3d fd33 d83d 1277 883d
000002b0: 22f0 3e3c 79f4 c23b d43a 5dbd fc21 0b3e
000002c0: 6a2a 893d 0920 a83d f3dd 80bd 5008 d63c
000002d0: 5e37 d53c ac25 d5bc e41f 4f3c 8cad 493d
000002e0: fa6f ecbc 7a46 bb3d 1347 a9bd 2f1f 8e3b
000002f0: 64ab 28bd 9552 de3d 2cd6 f6bc 3d5d b7bc
00000300: 0b39 013e 468f 8bbd 8892 fdbc b2e2 b13d
00000310: 2c90 b13d d92c 4f3b 5c5b d8bb 7f27 24bd
-0.09116976 0.00017020109 -0.012627339 0.07225436 -0.040306754 0.075299904 -0.060559154 -0.023363777
-0.005437356 -0.054602463 0.0027991603 -0.027190235 -0.04920464 -0.086704776 -3.7552894e-05 0.09321246
0.038324576 -0.08093073 -0.052228384 0.057005715 -0.03947916 -0.010929121 -0.047157478 0.037217453
-0.068122365 -0.103680484 -0.073797196 -0.09083042 0.009845259 0.014186134 -0.034159843 0.034148384
0.004314592 0.023338072 0.052071456 0.005993229 0.10032353 0.07032332 -0.06412882 0.07463045
-0.019081574 -0.008520244 0.00015534458 -0.09606279 0.06248434 0.064656466 0.09388265 0.014379959
-0.028075831 -0.019278131 -0.032984305 -0.09142365 0.032161795 0.0056982064 -0.045406967 -0.06999477
-0.027939351 0.011919332 0.07275845 0.03782181 0.074297965 0.080234624 -0.04973266 -0.005923429
-0.09422695 -0.066239946 0.03032631 0.0340508 0.043127585 0.08052712 0.037499048 -0.05285676
-0.023165468 0.0054940633 0.048505876 -0.071399316 -0.04838456 0.03760495 0.033022363 0.09444879
0.080436654 -0.04755008 0.027223583 -0.070603244 -0.0033658796 -0.0072344076 0.020528464 0.08171903
-0.08004086 0.08226091 0.06810341 -0.048499048 -0.03866861 -0.027613534 0.062010236 -0.025935413
0.03028883 -0.04920694 0.07686544 -0.018177329 0.10112798 -0.061592355 -0.025813859 0.074851766
0.07548554 -0.0486391 -0.076507084 -0.058646254 -0.072119474 -0.044063013 -0.05459817 -0.01032365
0.09261918 -0.00022510067 -0.06120575 0.04902395 -0.05728168 -0.033922926 -0.010679207 0.015268918
-0.05363351 -0.07297777 -0.09717578 -0.0068817674 0.052706078 0.039290454 0.08076879 0.0334171
-0.07478328 0.01377769 -0.016397187 0.08155489 0.044285044 0.10308649 -0.08794229 -0.0013353842
-0.086098544 0.019674888 -0.037750833 -0.041387882 0.123847425 -0.022549085 0.077950396 0.094449
0.08200406 0.085398644 0.07158027 0.023528649 0.08728632 0.1129586 -0.068287894 0.024142623
0.07550456 -0.036069866 0.08905467 0.103932925 0.0211511 0.021745715 -0.00015698069 0.09933987
-0.07506276 0.04090346 -0.051669013 0.07989205 -0.00510137 0.05215111 0.09255436 -0.0024591913
-0.0122350305 0.107369885 0.10556791 0.06663336 0.011653932 0.0059495536 -0.05401118 0.13587183
0.06697543 0.08209235 -0.062923335 0.02612701 0.026027378 -0.02601894 0.012641881 0.049237773
-0.028861988 0.09144302 -0.082655095 0.0043372135 -0.041179076 0.10855595 -0.030131422 -0.022383327
0.12619416 -0.068144366 -0.03095366 0.08685817 0.08670077 0.0031612425 -0.0066026878 -0.04007673

layers.3.bias f4 [2]
00000000: e2ff 19bd da0a 623e
-0.037597544 0.22074452
