clients_data/clients_fair_trained_model/client6.pth (torch, 86087 bytes, 6 tensors)

layers.1.layers.0.weight f4 [100, 105]
0.0751146 0.080794804 -0.022748798 0.0895748 -0.021167545 0.019725533 -0.047385477 0.057244096
0.08602978 -0.071423955 0.084512755 0.018557472 0.07175182 0.013189963 0.047691688 -0.013843199
0.0752614 0.01422745 -0.04546767 0.024557196 -0.04468592 -0.011757012 -0.039675705 0.06482774
-0.077096924 -0.04496341 -0.027217526 -0.058361378 0.009606409 -0.0967293 0.08735524 -0.08294475
0.0754201 0.016240846 -0.031561967 0.059942473 0.015089291 0.07885451 0.010934464 -0.030577868
0.026012413 -0.026593978 0.041356683 0.086910926 0.056355197 -0.042557664 0.056334082 0.017594676
0.049633976 -0.059372265 -0.09630682 -0.038063854 -0.074831516 0.07993238 0.027986301 0.04055176
0.03063029 -0.0018509681 0.07657124 -0.06948577 0.0062913788 -0.06661952 0.030342387 -0.033671618
0.029961498 -0.020316707 0.08137079 -0.057802584 -0.05816644 -0.05823597 0.08749089 0.03279403
0.093920164 -0.08052784 -0.09676649 -0.07631828 -0.06560704 0.03952787 0.034944624 0.08093473
-0.05036921 -0.066503994 0.051762618 -0.039417576 0.059121843 -0.023120899 0.055841323 -0.07581344
-0.049216174 0.029752895 0.020631263 -0.024859717 0.057895508 0.06611907 -0.070769675 -0.052078497
0.08921949 -0.032919187 -0.0345819 -0.09441222 -0.05585254 0.02406779 -0.013013481 -0.07082046
0.0022891387 -0.06669256 -0.08273772 -0.053794917 -0.085295916 -0.062110938 0.09753453 0.018271787
0.03011972 -0.091020666 -0.064114995 -0.032503948 0.015507362 -0.086239755 -0.042086385 -0.058537208
2.4800473e-05 -0.036121514 -0.0067652604 -0.06613625 -0.0669069 -0.05685593 -0.033464983 -0.07716148
0.08195918 -0.019355997 0.083885305 0.030545244 -0.08231833 0.06721499 -0.026806226 -0.037599042
-0.081223816 -0.09703443 0.027921539 -0.021209719 0.037840918 -0.07975446 0.071938194 -0.071410626
-0.016760474 0.020741288 0.050892252 0.078128256 0.08859167 -0.0770132 0.024651866 -0.042177524
-0.010681434 -0.07292059 0.08930627 -0.07127336 0.051911492 0.033799488 0.031227494 -0.0528996
0.08875342 0.021336593 0.0120377 -0.08567405 0.039982107 -0.013655455 -0.044743866 0.083708815
0.021970786 -0.05379194 -0.049375772 -0.004634572 0.053970855 -0.02478935 -0.05564351 -0.033509266
-0.07286603 0.0344755 0.075551525 -0.09183852 0.022713874 0.05024625 0.017695934 -0.034754205
0.050858222 0.05126261 0.036326267 -0.017126225 -0.025847487 0.010573519 -0.017210705 -0.029063616
0.062001918 0.08364567 -0.009661153 -0.021850096 0.0013923798 -0.0058493353 0.023277322 0.027348
-0.08861087 -0.035991956 0.08224249 0.038028296 -0.004664829 -0.05881674 -0.059693113 -0.08739198
-0.031788234 0.03295655 0.0627786 0.044746082 -0.08646317 -0.05803987 -0.014820487 0.09436211
0.014021745 -0.025248097 0.040374473 -0.0368112 -0.06254789 0.07154927 -0.044203777 -0.020426676
-0.097010665 0.06504827 0.07394006 0.0354763 -0.067932315 -0.09620503 -0.07848923 0.07244107
0.046001386 0.08252763 0.05094774 0.024461828 0.00013801556 -0.07392607 -0.08359485 -0.091365986
0.03955023 -0.04797894 -0.019907927 -0.05616356 -0.017571678 -0.06927909 -0.063805476 0.032402072
-0.028565258 0.060807113 -0.031489763 -0.07166436 -0.016928611 -0.04773363 -0.030479737 -0.09282844
00000000: afd5 993d bf77 a53d b05b babc fe72 b73d
00000010: 8f67 adbc 7197 a13c 4617 42bd c978 6a3d
00000020: 6230 b03d b946 92bd 0615 ad3d d705 983c
00000030: 9ef2 923d b71a 583c 5c58 433d 96ce 62bc
00000040: a622 9a3d 401a 693c 4f3c 3abd 2c2c c93c
00000050: 9508 37bd 7ca0 40bc fe82 22bd 68c4 843d
00000060: fee4 9dbd 8d2b 38bd 4af7 debc 570c 6fbd
00000070: 3364 1d3c 031a c6bd 4ee7 b23d f0de a9bd
00000080: da75 9a3d 860b 853c 1f47 01bd 3d86 753d
00000090: 1339 773c 797e a13d 7726 333c 707e fabc
000000a0: fc17 d53c 9ddb d9bc a065 293d 5bfe b13d
000000b0: b5d4 663d f250 2ebd 91be 663d b622 903c
000000c0: ff4c 4b3d 5530 73bd 833c c5bd d8e8 1bbd
000000d0: 4441 99bd 96b3 a33d 8743 e53c 9a19 263d
000000e0: 60ec fa3c 2f9c f2ba 62d1 9c3d 8e4e 8ebd
000000f0: e927 ce3b d16f 88bd 9990 f83c 40eb 09bd
00000100: d171 f53c 396f a6bc bba5 a63d 67c2 6cbd
00000110: ef3f 6ebd d788 6ebd 6c2e b33d 0853 063d
00000120: 3759 c03d c8eb a4bd 822d c6bd c24c 9cbd
00000130: fc5c 86bd fae7 213d 1822 0f3d 1cc1 a53d
00000140: f24f 4ebd 3f33 88bd 0a05 543d 5374 21bd
00000150: bf29 723d 0a68 bdbc dfb9 643d 1444 9bbd
00000160: e696 49bd 58bc f33c e502 a93c 9ba6 cbbc
00000170: d723 6d3d 6f69 873d b1ef 90bd 4350 55bd
00000180: b5b8 b63d 45d6 06bd c0a5 0dbd 325b c1bd
00000190: a2c5 64bd d029 c53c 7f36 55bc 510a 91bd
000001a0: 6005 163b 1c96 88bd 6572 a9bd 0f58 5cbd
000001b0: a0af aebd 0a68 7ebd 2fc0 c73d b7ae 953c
000001c0: a2bd f63c 0b69 babd b94e 83bd dc22 05bd
000001d0: 9712 7e3c 789e b0bd c662 2cbd b6c4 6fbd
000001e0: 9c0a d037 27f4 13bd 1eaf ddbb 7172 87bd
000001f0: 7c06 89bd c3e1 68bd 9412 09bd d706 9ebd
00000200: 37da a73d 7890 9ebc 0fcc ab3d 053a fa3c
00000210: 8396 a8bd 03a8 893d bb98 dbbc 7401 1abd
00000220: ac58 a6bd fdb9 c6bd b6bb e43c 01c0 adbc
00000230: 14ff 1a3d 4e56 a3bd 5554 933d bc3f 92bd
00000240: 434d 89bc a2e9 a93c 6574 503d b501 a03d
00000250: 8d6f b53d 19b9 9dbd b6f2 c93c 57c2 2cbd
00000260: 2e01 2fbc 6457 95bd 35e6 b63d c4f7 91bd
00000270: 25a1 543d 5571 0a3d cdd0 ff3c 40ad 58bd
00000280: 5ac4 b53d 14ca ae3c c639 453c e075 afbd
00000290: 47c4 233d 21bb 5fbc 5845 37bd 876f ab3d
000002a0: 14fc b33c f054 5cbd 403e 4abd 9cdd 97bb
000002b0: 8b10 5d3d 0913 cbbc 73ea 63bd 0341 09bd
000002c0: c93a 95bd 2f36 0d3d c2ba 9a3d d515 bcbd
000002d0: 7212 ba3c 03cf 4d3d 10f7 903c 6d5a 0ebd
000002e0: b650 503d bef8 513d daca 143d 4c4c 8cbc
000002f0: 1cbe d3bc 8e3c 2d3c 77fd 8cbc d216 eebc
00000300: b9f5 7d3d 6c4e ab3d d049 1ebc f9fe b2bc
00000310: 8380 b63a c8ab bfbb 15b0 be3c ea08 e03c
00000320: 9e79 b5bd 4d6c 13bd c06e a83d 8fc3 1b3d
00000330: 6cdb 98bb d2e9 70bd c480 74bd 91fa b2bd
00000340: 6134 02bd 73fd 063d 1192 803d ab47 373d
00000350: 9a13 b1bd 37bb 6dbd a1d1 72bc ec40 c13d
00000360: 76bb 653c 19d5 cebc b45f 253d 57c7 16bd
00000370: 1c19 80bd 6c88 923d 050f 35bd d855 a7bc
00000380: 87ad c6bd 0738 853d e36d 973d 994f 113d
00000390: 1920 8bbd 2507 c5bd f6be a0bd fc5b 943d
000003a0: f36b 3c3d 3f04 a93d 94ae 503d 2c64 c83c
000003b0: 45b8 1039 8d66 97bd c733 abbd 171e bbbd
000003c0: 6cff 213d 9185 44bd f315 a3bc c30b 66bd
000003d0: 7bf2 8fbc 32e2 8dbd 72ac 82bd 09b8 043d
000003e0: b001 eabc e110 793d 69fb 00bd c4c4 92bd
000003f0: dfad 8abc 5784 43bd a4b0 f9bc d61c bebd

layers.1.layers.0.bias f4 [100]
0.063627735 0.04197353 -0.005496328 0.055413585 -0.004346598 -0.012283215 -0.037062768 -0.083840296
0.08181277 -0.05900266 -0.08854256 -0.045271166 0.01791283 -0.008879436 0.04437449 0.06090636
0.057286784 -0.08268034 0.04040778 0.050972868 -0.055684812 0.0012384187 0.01721169 0.016049933
0.053777035 0.08120757 0.09366882 0.023099737 0.05497466 0.04099437 -0.048931785 0.06475698
-0.008064346 0.044152867 -0.06474074 0.08036529 0.020767827 0.023044936 -0.08788818 -0.0076547097
-0.031772263 0.09177587 -0.08924875 -0.02337715 -0.047967393 -0.07315185 0.03780688 -0.064096294
0.046059143 0.01197338 -0.049555223 -0.0095632365 0.0129839815 -0.04174647 -0.062090512 -0.054389942
0.026189141 -0.08549972 0.06298654 0.066369906 0.09236593 0.08922117 -0.055492796 -0.04192101
0.07015726 -0.014603592 -0.0698218 -0.04409974 0.06846149 -0.055259254 0.03441861 -0.080823526
0.06594536 0.026778342 0.07077687 0.0036053827 0.048708517 0.08079765 -0.012184417 -0.07384927
-0.06716737 0.06098252 -0.06251486 -0.08729467 -0.0833358 -0.041787323 0.018177517 -0.08790112
-0.045902297 0.09294953 -0.014584849 -0.030524157 0.049852263 -0.08037184 -0.07664934 0.019028721
0.03423872 -0.09631097 0.08675805 -0.036289725
00000000: 424f 823d 70ec 2b3d 8b1a b4bb 5bf9 623d
00000010: e86d 8ebb 8a3f 49bc 21cf 17bd 76b4 abbd
00000020: 748d a73d c6ac 71bd cd55 b5bd 426e 39bd
00000030: edbd 923c 0e7b 11bc 06c2 353d f378 793d
00000040: 8ca5 6a3d 4f54 a9bd a182 253d edc8 503d
00000050: c215 64bd 7052 a23a 88ff 8c3c 267b 833c
00000060: 4f45 5c3d 2850 a63d 70d5 bf3d a93b bd3c
00000070: 1c2d 613d b6e9 273d b26c 48bd 4f9f 843d
00000080: 5220 04bc a3d9 343d cb96 84bd 8f96 a43d
00000090: 4a21 aa3c bcc8 bc3c b8fe b3bd 5cd4 fabb
000000a0: a223 02bd fdf4 bb3d 0cc8 b6bd 7081 bfbc
000000b0: 7579 44bd a3d0 95bd 63db 1a3d eb44 83bd
000000c0: 83a8 3c3d ff2b 443c 6bfa 4abd 1faf 1cbc
000000d0: c4ba 543c 59fe 2abd 9f52 7ebd fdc7 5ebd
000000e0: 9c8a d63c 7a1a afbd 16ff 803d f2ec 873d
000000f0: 592a bd3d 97b9 b63d 6a4c 63bd 5db5 2bbd
00000100: 9cae 8f3d e843 6fbc bbfe 8ebd eea1 34bd
00000110: 8a35 8c3d 8757 62bd 87fa 0c3d ce86 a5bd
00000120: 5c0e 873d 415e db3c 77f3 903d 4948 6c3b
00000130: 9582 473d 3d79 a53d 26a1 47bc 493e 97bd
00000140: 0c8f 89bd cfc8 793d ca07 80bd 8cc7 b2bd
00000150: f6ab aabd 2f29 2bbd 04e9 943c 8105 b4bd
00000160: 0c04 3cbd 535c be3d 4af5 6ebc cc0d fabc
00000170: e331 4c3d fe99 a4bd 54fa 9cbd 1fe2 9b3c
00000180: e63d 0c3d b03e c5bd 34ae b13d 89a4 14bd

layers.2.layers.0.weight f4 [100, 100]
0.01610909 0.07416245 0.038378365 0.03152284 -0.090437785 -0.092009835 0.03800394 0.004657144
0.061757572 0.05150176 -0.07872771 0.018527167 -0.07760174 -0.054529656 0.028543834 -0.003663791
-0.06281188 0.035539605 0.069543004 -0.09698952 0.09520019 0.05672107 -0.0074931565 -0.09604712
-0.04144964 0.030557936 -0.04213397 -0.032714568 -0.040166195 0.087002456 0.08672092 -0.07705836
-0.03086635 0.09244006 -0.00483349 -0.049012978 0.012996543 0.07991877 -0.011981693 -0.09377609
-0.033144847 0.051801555 -0.012685557 0.07218238 0.03543682 0.0024327307 0.039187327 -0.01238203
-0.08525597 -0.08510726 -0.07702741 -0.014871966 -0.07112546 0.014975285 0.012953478 0.07659621
0.007071158 0.017766692 0.03594421 -0.027715927 -0.049190473 -0.09271796 -0.09688763 0.0072769625
-0.046637658 0.029990118 0.027010357 0.0782755 -0.010156746 -2.7385877e-06 0.07017955 0.017469494
0.047271952 -0.05239017 -0.07036282 0.07792063 0.073879614 -0.036667004 0.017969927 -0.088789575
0.008083882 -0.092080936 0.057322044 -0.09883896 -0.023059057 0.09536698 -0.033600334 -0.05813955
0.09025366 -0.048096716 0.022764588 0.057071943 0.02908287 -0.06908421 0.09213566 0.04972984
-0.061703492 -0.05680947 -0.021589067 0.035068598 0.03597975 0.01046848 0.0650677 0.097716905
0.01962123 0.036913 0.055255786 0.018593077 0.0046584015 0.08808406 0.06680643 0.06441141
-0.04033074 -0.048748914 -0.05543352 -0.08527172 -0.012688256 0.054290902 0.013551307 -0.03725023
-0.014716952 -0.07803243 -0.06573925 0.007701999 -0.05913739 0.01101243 0.08086866 0.024427822
0.074815534 -0.06393806 0.00068152737 -0.09984286 -0.00023890355 -0.07476263 0.09199453 -0.086342275
0.03175761 -0.060513973 0.026401412 -0.0020239882 -0.01377574 -0.042026866 0.061268117 -0.019604689
0.007090634 -0.031180635 -0.07407742 -0.04366116 0.0877397 0.09334771 -0.047381442 0.008853365
0.013519671 0.08688496 0.012754404 0.0038448432 -0.030879732 0.020131983 -0.10030261 -0.100706376
-0.013146861 -0.07188047 -0.070437536 -0.017960552 0.054918945 0.047583643 -0.036953386 -0.008003296
0.09019228 0.020385647 0.06681594 -0.042228352 -0.09126801 -0.048292838 0.0071500796 -0.025617676
-0.056517467 0.09379777 -0.09328117 0.001472606 0.0383209 -0.028423581 0.042407993 -0.0005237064
-0.060712382 -0.056015577 -0.04605438 -0.098255694 0.06094914 0.08848691 -0.05246379 0.0032485647
0.031251915 0.027190434 -0.05652804 -0.062444042 0.09555574 0.057379868 0.09038074 0.068459965
-0.007622809 0.06978699 -0.0033343644 -0.0006922797 -0.043377705 0.077579364 -0.021251451 0.014325971
-0.07980068 0.034016494 -0.047757063 -0.022682825 -0.009130942 0.036995724 0.0038204112 0.017115485
-0.065118454 -0.07576018 0.035955325 -0.041405894 -0.08633957 -0.04135354 -0.098163724 0.019655453
0.0072056856 0.0922565 -0.055174224 -0.05184349 0.023674328 -0.026495334 0.077613056 0.014915565
-0.0020986851 -0.038560953 0.06023205 -0.046831533 0.03979525 0.06424146 -0.07855445 -0.088648714
-0.056415 0.047622796 -0.05565408 0.009073251 0.014904822 0.020901788 -0.051198836 0.0030478626
0.06896056 0.05153289 0.018873584 -0.07962224 0.04657295 -0.03993754 0.069808945 0.041467443
00000000: 36f7 833c 7ce2 973d a232 1d3d 181e 013d
00000010: 7237 b9bd a76f bcbd 05aa 1b3d f59a 983b
00000020: 82f5 7c3d 82f3 523d fe3b a1bd 49c6 973c
00000030: a9ed 9ebd 7d5a 5fbd c2d4 e93c 371c 70bb
00000040: 84a3 80bd fa91 113d 906c 8e3d 71a2 c6bd
00000050: 51f8 c23d 5a54 683d 2789 f5bb 5ab4 c4bd
00000060: 19c7 29bd a354 fa3c ab94 2cbd b6ff 05bd
00000070: 4f85 24bd 582e b23d bd9a b13d c6d0 9dbd
00000080: 6ddb fcbc 3751 bd3d 4162 9ebb d5c1 48bd
00000090: 74ef 543c 74ac a33d dd4e 44bc ae0d c0bd
000000a0: e4c2 07bd de2d 543d 15d7 4fbc 5bd4 933d
000000b0: 3326 113d 736e 1f3b e482 203d ffdd 4abc
000000c0: af9a aebd b74c aebd 8cc0 9dbd 8ca9 73bc
000000d0: 3aaa 91bd e65a 753c d33a 543c 79de 9c3d
000000e0: 2cb5 e73b 748b 913c 3c3a 133d 830c e3bc
000000f0: f37b 49bd eae2 bdbd 066d c6bd 9673 ee3b
00000100: 2107 3fbd d6ad f53c d344 dd3c e84e a03d
00000110: 7b68 26bc 94c8 37b6 4cba 8f3d 2f1c 8f3c
00000120: 3ca0 413d 1397 56bd 621a 90bd da94 9f3d
00000130: 324e 973d 2430 16bd ab35 933c 4fd7 b5bd
00000140: 4272 043c ee94 bcbd 85ca 6a3d 156c cabd
00000150: 59e6 bcbc c34f c33d 81a0 09bd bd23 6ebd
00000160: e9d6 b83d 1001 45bd cd7c ba3c 45c4 693d
00000170: 333f ee3c 067c 8dbd 9fb1 bc3d 84b1 4b3d
00000180: cdbc 7cbd 0cb1 68bd 8edb b0bc 17a4 0f3d
00000190: 815f 133d fd83 2b3c 3742 853d cd1f c83d
000001a0: b4bc a03c 1632 173d e453 623d 8250 983c
000001b0: 81a5 983b 6a65 b43d cfd1 883d 21ea 833d
000001c0: d931 25bd f1ac 47bd 420e 63bd f1a2 aebd
000001d0: 67e2 4fbc 2360 5e3d 4d06 5e3c b293 18bd
000001e0: 5f1f 71bc 77cf 9fbd 4da2 86bd 0d61 fc3b
000001f0: 0c3a 72bd 7b6d 343c 789e a53d db1c c83c
00000200: e338 993d f5f1 82bd 87a8 323a 6a7a ccbd
00000210: 2f82 7ab9 261d 99bd a167 bc3d 38d4 b0bd
00000220: 4514 023d 80dd 77bd c647 d83c e3a4 04bb
00000230: a4b3 61bc 5d24 2cbd 47f4 7a3d 039a a0bc
00000240: 8d58 e83b 886e ffbc e7b5 97bd 0bd6 32bd
00000250: dfb0 b33d 162d bf3d 0b13 42bd b40d 113c
00000260: 9c81 5d3c bef0 b13d d9f7 503c c4f9 7b3b
00000270: 7ef7 fcbc d4eb a43c 746b cdbd 253f cebd
00000280: ef65 57bc 1136 93bd 8e41 90bd 0222 93bc
00000290: b0f2 603d 11e7 423d 6f5c 17bd 4220 03bc
000002a0: bbb6 b83d cdff a63c ccd6 883d a3f7 2cbd
000002b0: b9ea babd b6ce 45bd 374b ea3b 29dc d1bc
000002c0: dc7e 67bd 0c19 c03d 330a bfbd 7504 c13a
000002d0: 60f6 1c3d 92d8 e8bc 01b4 2d3d 5749 09ba
000002e0: 8cad 78bd 9770 65bd 84a3 3cbd 483a c9bd
000002f0: cea5 793d a038 b53d 45e4 56bd dfe5 543b
00000300: 0202 003d 79be de3c f289 67bd 53c5 7fbd
00000310: bab2 c33d 2707 6b3d 8a19 b93d bd34 8c3d
00000320: c2c8 f9bb 7bec 8e3d 5a85 5abb 1b7a 35ba
00000330: d2ac 31bd eee1 9e3d 8617 aebc 7ab7 6a3c
00000340: 8a6e a3bd e154 0b3d e99c 43bd 55d1 b9bc
00000350: f299 15bc d488 173d dd5f 7a3b c635 8c3c
00000360: d35c 85bd 2728 9bbd e445 133d 3a99 29bd
00000370: cdd2 b0bd 5462 29bd 100a c9bd 7904 a13c
00000380: ac1d ec3b faf0 bc3d 5efe 61bd d759 54bd
00000390: aaf0 c13c be0c d9bc 98f3 9e3d 6a60 743c
000003a0: 188a 09bb 17f2 1dbd e2b5 763d 6cd2 3fbd
000003b0: 5800 233d 0791 833d 28e1 a0bd 758d b5bd
000003c0: 6a13 67bd 1f10 433d 88f5 63bd f9a7 143c
000003d0: 5b33 743c 3a3a ab3c dfb5 51bd a6be 473b
000003e0: 323b 8d3d 2714 533d c69c 9a3c fc10 a3bd
000003f0: 47c3 3e3d 8c95 23bd fef7 8e3d c4d9 293d

layers.2.layers.0.bias f4 [100]
-0.039286885 -0.036915712 -0.085122444 0.0036749525 0.061969154 -0.060879916 -0.010727416 0.06581702
-0.06761893 0.025510097 -0.02533715 0.08168025 -0.0023321647 0.08524336 -0.03574552 -0.077020146
0.0015283481 -0.061316386 -0.054466084 0.067006975 0.08862984 -0.07151296 -0.100095615 0.023162154
-0.0826654 -0.019243034 0.043812156 0.042957943 0.011953357 0.044283383 -0.056670386 -0.023460448
-0.02861395 -0.093875445 -0.058923546 0.007244269 0.020953907 -0.044221103 0.064404756 -0.05494863
0.02546823 0.084007 0.07582918 0.11229725 0.03269719 -0.06702477 -0.030833846 -0.027576992
-0.070830666 -0.022563202 -0.094399564 -0.045277 -0.096339755 0.08832505 0.030176193 0.11497503
0.059803158 0.09601097 -0.031755645 -0.04050385 -0.044742804 -0.09104476 -0.006704348 0.023443932
0.057869796 -0.009869979 0.042680528 0.040208526 0.01922981 0.03384921 -0.02723958 0.06362707
-0.09624644 0.01190096 0.046703495 0.08563828 0.055065624 -0.012189428 0.06794198 -0.09486287
-0.021151375 -0.038024377 0.05995849 0.09671869 -0.026468402 0.020856962 -0.019885354 -0.03209629
0.03827241 0.034831606 -0.051885363 0.021666545 0.111255154 -0.07820836 -0.017607814 -0.088883065
-0.018615775 0.0947792 0.06028889 -0.09599202
00000000: 49eb 20bd ee34 17bd ad54 aebd 79d7 703b
00000010: 5ed3 7d3d 385d 79bd 0bc2 2fbc 13cb 863d
00000020: cb7b 8abd 8dfa d03c db8f cfbc fa47 a73d
00000030: 3bd7 18bb 1294 ae3d e569 12bd bdbc 9dbd
00000040: da52 c83a e426 7bbd d417 5fbd f43a 893d
00000050: 9083 b53d 6375 92bd eefe ccbd 8fbe bd3c
00000060: 7a4c a9bd 91a3 9dbc 6074 333d abf4 2f3d
00000070: 03d8 433c 7e62 353d 351f 68bd 2030 c0bc
00000080: cd67 eabc c541 c0bd d159 71bd 5561 ed3b
00000090: 87a7 ab3c 3021 35bd a4e6 833d d111 61bd
000000a0: c0a2 d03c dd0b ac3d 544c 9b3d 1afc e53d
000000b0: 7ded 053d 4844 89bd 4397 fcbc 25e9 e1bc
000000c0: ab0f 91bd 77d6 b8bc 8f54 c1bd 6074 39bd
000000d0: c74d c5bd c4e3 b43d 1034 f73c 0778 eb3d
000000e0: 28f4 743d 66a1 c43d 3512 02bd 5de7 25bd
000000f0: 3b44 37bd ad75 babd 26b0 dbbb 7d0d c03c
00000100: e108 6d3d b1b5 21bc c7d1 2e3d b2b1 243d
00000110: d687 9d3c 78a5 0a3d 8a25 dfbc e94e 823d
00000120: db1c c5bd 3efc 423c 2a4c 3f3d 1f63 af3d
00000130: 7e8c 613d 2bb6 47bc 2a25 8b3d 7747 c2bd
00000140: a645 adbc 73bf 1bbd 0997 753d 7314 c63d
00000150: 43d4 d8bc 38dc aa3c 9ce6 a2bc 6677 03bd
00000160: 88c3 1c3d 96ab 0e3d bf85 54bd 0a7e b13c
00000170: bed9 e33d b42b a0bd 433e 90bc 5308 b6bd
00000180: 1c80 98bc 991b c23d 7cf1 763d 7797 c4bd

layers.3.weight f4 [2, 100]
-0.090518646 -5.5682085e-05 -0.012570115 0.072219536 -0.039149325 0.07504767 -0.060710274 -0.023055945
-0.0054172343 -0.05306803 0.0020092533 -0.027818728 -0.04926983 -0.08751155 5.7600846e-05 0.093122825
0.038430374 -0.08089955 -0.052486625 0.05728931 -0.04032604 -0.010184936 -0.047240786 0.038316652
-0.06735111 -0.103785016 -0.07379983 -0.09160178 0.009563929 0.014748096 -0.034012962 0.034159265
0.0040404936 0.023920456 0.05155994 0.0060255514 0.101157404 0.070174046 -0.06490329 0.07465028
-0.01898898 -0.008779338 0.00065948407 -0.09586225 0.06299031 0.06478058 0.09398735 0.0141217
-0.027771523 -0.020334078 -0.033078995 -0.09145055 0.03206469 0.006048034 -0.04566668 -0.07155272
-0.027943889 0.011721866 0.07267788 0.038524203 0.07589576 0.080755934 -0.04897091 -0.005938224
-0.095084585 -0.066342786 0.030343052 0.034022585 0.043231934 0.081150234 0.036579553 -0.052798066
-0.022827176 0.0054085925 0.04817495 -0.072060525 -0.05004355 0.03712287 0.033242866 0.094312705
0.080441125 -0.04734531 0.026486052 -0.06962478 -0.0030331425 -0.0072049387 0.020936722 0.08224293
-0.079681545 0.0807158 0.06755906 -0.048479937 -0.037666075 -0.027165627 0.062031925 -0.02580897
0.03139075 -0.04977677 0.076933205 -0.016903358 0.09925389 -0.061110504 -0.025963169 0.075049855
0.07199845 -0.047814436 -0.076146536 -0.05963078 -0.072155684 -0.04874761 -0.05219378 -0.008552821
0.09282485 0.0023464444 -0.061531227 0.049223013 -0.057601176 -0.03385288 -0.009912419 0.0144230835
-0.050899923 -0.07526402 -0.096915804 -0.010313141 0.050488073 0.039424453 0.08087233 0.035686385
-0.07385483 0.0120514175 -0.016874915 0.08139424 0.0449201 0.1013209 -0.08636099 -0.0016098595
-0.08851397 0.02006898 -0.035613343 -0.04145331 0.12339256 -0.021816425 0.07635476 0.09364016
0.080404505 0.085040875 0.071222745 0.024404844 0.0863857 0.116387606 -0.067992 0.024208864
0.07601231 -0.03701169 0.08975347 0.10872931 0.021218533 0.022306431 0.00011534233 0.09711269
-0.07982372 0.039393008 -0.053936724 0.07988956 -0.0026682715 0.05269736 0.09240896 -0.0024149204
-0.012537973 0.10549905 0.1083757 0.06657848 0.010654221 0.0062852167 -0.053021666 0.13812156
0.07220187 0.08349586 -0.0636311 0.026521727 0.026005095 -0.026628638 0.014841657 0.046310008
-0.02987474 0.091348514 -0.083947636 0.002744438 -0.04214754 0.11345394 -0.028517595 -0.022451961
0.122826666 -0.0696494 -0.031076444 0.08643052 0.08347696 0.004790409 -0.006766441 -0.043980762
00000000: d761 b9bd 2f8c 69b8 e2f2 4dbc d6e7 933d
00000010: 0b5b 20bd 98b2 993d 56ab 78bd d2df bcbc
00000020: 0e83 b1bb dd5d 59bd adad 033b 1ae4 e3bc
00000030: 29cf 49bd 4139 b3bd 7098 7138 2eb7 be3d
00000040: 2b69 1d3d aaae a5bd 37fc 56bd 32a8 6a3d
00000050: eb2c 25bd b8de 26bc 8e7f 41bd ecf1 1c3d
00000060: 61ef 89bd 3d8d d4bd 5e24 97bd b799 bbbd
00000070: 07b2 1c3c ffa1 713c 2d51 0bbd 96ea 0b3d
00000080: 1e66 843b d5f4 c33c 8430 533d fd71 c53b
00000090: 9d2b cf3d 69b7 8f3d 04ec 84bd 3fe2 983d
000000a0: c78e 9bbc 36d7 0fbc 3ae1 2c3a 6d53 c4bd
000000b0: 1001 813d aeab 843d 717c c03d b45e 673c
000000c0: 1b81 e3bc a793 a6bc d77d 07bd 6d4a bbbd
000000d0: 4456 033d 962e c63b fc0c 3bbd 3c8a 92bd
000000e0: 95ea e4bc 120d 403c 24d8 943d 8ecb 1d3d
000000f0: 3c6f 9b3d 5e63 a53d b995 48bd 6f95 c2bb
00000100: b5bb c2bd bade 87bd fe91 f83c 445b 0b3d
00000110: f813 313d 1832 a63d 71d4 153d c942 58bd
00000120: 0f00 bbbc 903a b13b 1953 453d 7894 93bd
00000130: 77fa 4cbd 270e 183d ac29 083d 0527 c13d
00000140: 51be a43d 28ed 41bd 47f9 d83c 7097 8ebd
00000150: b0c7 46bb 6817 ecbb 7d83 ab3c fb6e a83d
00000160: 1430 a3bd 534e a53d 685c 8a3d e692 46bd
00000170: be47 1abd 738a debc 3015 7e3d 556d d3bc
00000180: 9693 003d bae2 4bbd 288f 9d3d e978 8abc
00000190: a045 cb3d 024f 7abd b6b0 d4bc bdb3 993d
000001a0: ec73 933d 12d9 43bd b7f2 9bbd 683f 74bd
000001b0: 5cc6 93bd 93ab 47bd 25c9 55bd 2221 0cbc
000001c0: f41a be3d cec6 193b 2b08 7cbd 129e 493d
000001d0: 36ef 6bbd 51a9 0abd b367 22bc cc4e 6c3c
000001e0: 707c 50bd 0624 9abd cb7b c6bd 73f8 28bc
000001f0: 95cc 4e3d 897b 213d 64a0 a53d e32b 123d
00000200: 3341 97bd 4f73 453c 433d 8abc 06b2 a63d
00000210: 24fe 373d 5581 cf3d 08de b0bd ec01 d3ba
00000220: d046 b5bd b467 a43c 4cdf 11bd f2ca 29bd
00000230: 3db5 fc3d 5cb8 b2bc e25f 9c3d 6ac6 bf3d
00000240: 1eab a43d e929 ae3d 3bdd 913d abec c73c
00000250: fcea b03d a05c ee3d 643f 8bbd ab51 c63c
00000260: 58ac 9b3d 9299 17bd abd0 b73d 79ad de3d
00000270: 7dd2 ad3c fabb b63c f1e3 f138 05e3 c63d
00000280: 9e7a a3bd 905a 213d c1ec 5cbd 239d a33d
00000290: 2bde 2ebb 30d9 573d e940 bd3d a443 1ebb
000002a0: 126c 4dbc e30f d83d 14f4 dd3d 4c5a 883d
000002b0: 0b8f 2e3c 38f4 cd3b 3f2d 59bd bd6f 0d3e
000002c0: 93de 933d e1ff aa3d 0651 82bd 1844 d93c
000002d0: a308 d53c 4d24 dabc 6c2a 733c 90af 3d3d
000002e0: dfbb f4bc ee14 bb3d bdec abbd 07dc 333b
000002f0: e6a2 2cbd 8a5a e83d bb9d e9bc 2ded b7bc
00000300: 8c8c fb3d 58a4 8ebd 0794 febc 7c02 b13d
00000310: f8f5 aa3d ddf8 9c3b 05b9 ddbb 2c25 34bd

layers.3.bias f4 [2]
-0.03916039 0.22558746
00000000: a566 20bd 6600 673e
