clients_data/clients_fair_trained_model/client1.pth (torch, 86087 bytes, 6 tensors)

layers.1.layers.0.weight f4 [100, 105]
000000 87 53 9a 3d 6f 24 a5 3d 29 0e ba bc 60 f0 b7 3d
       0.07535463 0.0806359 -0.02271183 0.08981395
000010 0d 3f ad bc 22 da a2 3c 64 a4 42 bd 16 d0 6a 3d
       -0.021148229 0.019879404 -0.047520056 0.057327352
000020 62 30 b0 3d e9 1c 92 bd b6 75 ad 3d 76 50 98 3c
       0.08602978 -0.071344204 0.08469717 0.018593054
000030 4f 98 92 3d c2 9b 56 3c e7 f1 42 3d ff f6 60 bc
       0.07157957 0.013098659 0.047593977 -0.013730763
000040 73 fa 99 3d 46 6f 64 3c 0f 80 3a bd 3f fd c8 3c
       0.075184725 0.013942545 -0.045532282 0.02453482
000050 6c 8b 37 bd fe c3 3b bc bc 53 22 bd 28 45 85 3d
       -0.044810697 -0.011460302 -0.039630637 0.06507331
000060 78 ae 9d bd 01 32 38 bd 6c c4 dd bc fa 1d 6d bd
       -0.07699293 -0.044969562 -0.0270712 -0.057889916
000070 5d f0 19 3c c3 8b c6 bd 8b 5c b2 3d b2 f5 a9 bd
       0.009395686 -0.09694626 0.087090574 -0.08298816
000080 fb 18 9a 3d 66 2b 88 3c 27 1d 01 bd 33 e9 74 3d
       0.07524296 0.016622256 -0.031521942 0.05979271
000090 62 98 75 3c 07 fe a1 3d 84 b9 32 3c b9 44 fa bc
       0.014989944 0.0790978 0.010908488 -0.030550348
0000a0 a3 74 d5 3c 98 7b d9 bc 25 59 29 3d 25 e4 b1 3d
       0.026056593 -0.026548192 0.04134478 0.08686093
0000b0 1e 5a 66 3d aa 7f 2e bd 92 8a 67 3d ce 5d 8d 3c
       0.056238286 -0.04260222 0.056528635 0.017256644
0000c0 91 57 4d 3d 61 1b 74 bd 28 a8 c4 bd 8b 6c 1c bd
       0.050132338 -0.059596423 -0.09602386 -0.038189452
0000d0 ef 68 99 bd ad fd a2 3d 36 4d e5 3c 67 71 25 3d
       -0.074907176 0.07958541 0.027990919 0.040391352
0000e0 11 35 fb 3c 82 ac ed ba 74 f3 9c 3d f5 20 8e bd
       0.030664952 -0.0018133076 0.076636225 -0.0693988
0000f0 54 4e cb 3b e4 39 88 bd 02 3f f6 3c 15 da 07 bd
       0.006204406 -0.06651667 0.030059341 -0.033166964
000100 31 36 f6 3c 64 8f a6 bc 07 dd a5 3d b6 b0 6c bd
       0.030055137 -0.020332046 0.08098798 -0.057785712
000110 67 33 6e bd b1 32 6e bd 32 71 b3 3d 0b e4 03 3d
       -0.05815449 -0.05815381 0.08761825 0.0321999
000120 bb 82 c0 3d c6 e6 a4 bd dc 26 c6 bd db 45 9c bd
       0.09399935 -0.08051829 -0.096753806 -0.076305114
000130 52 5a 86 bd 2c 84 21 3d 18 22 0f 3d 91 0f a6 3d
       -0.06560196 0.03943269 0.034944624 0.08108438
000140 f3 48 4e bd 93 22 88 bd 86 40 53 3d 26 06 22 bd
       -0.05036254 -0.066472195 0.051575206 -0.039556645
000150 08 1a 72 3d 95 79 bd bc 8b 13 65 3d 12 3f 9b bd
       0.059106857 -0.023129264 0.05592684 -0.07580389
000160 d9 9e 49 bd a3 da f3 3c 22 d2 aa 3c 9e 25 cb bc
       -0.049223755 0.02976734 0.020852152 -0.02479821
000170 9a fa 6e 3d a3 67 86 3d b1 ef 90 bd e8 3e 55 bd
       0.05834446 0.06562736 -0.070769675 -0.052061945
000180 8d ee b6 3d 83 d2 06 bd 6b a0 0d bd aa 5b c1 bd
       0.08932219 -0.032915603 -0.034576815 -0.09441312
000190 8a c1 64 bd 4b 14 c6 3c 09 b6 52 bc 00 05 91 bd
       -0.055848636 0.024179598 -0.012860783 -0.07081032
0001a0 60 05 16 3b e9 34 88 bd e5 8a a9 bd b2 87 5c bd
       0.0022891387 -0.06650717 -0.08278445 -0.053840347
0001b0 fa 49 ae bd f3 30 80 bd 05 30 c8 3d e9 d2 96 3c
       -0.08510204 -0.06259336 0.09774784 0.018411117
0001c0 e7 82 f6 3c 0b 69 ba bd 98 06 83 bd b4 7b 05 bd
       0.030091716 -0.091020666 -0.06397742 -0.032588676
0001d0 80 41 7d 3c 05 d8 b0 bd bf aa 2c bd de 24 6f bd
       0.015457511 -0.086349525 -0.042155024 -0.05838477
0001e0 c3 0c ac 39 df 1c 14 bd 3b 77 d7 bb 4e 28 87 bd
       0.00032815905 -0.036160346 -0.0065754927 -0.065994844
0001f0 f0 1c 89 bd 53 ec 68 bd 3e 63 08 bd d7 c4 9d bd
       -0.066949725 -0.056866 -0.03329777 -0.0770356
000200 27 f2 a6 3d 13 2f 9d bc 17 04 ac 3d 55 1b f8 3c
       0.08151656 -0.019187486 0.083992176 0.03028647
000210 55 f2 a7 bd 0d 24 89 3d 3b 24 de bc 56 42 19 bd
       -0.08200518 0.06696329 -0.027116885 -0.03741678
000220 85 0b a6 bd 13 73 c6 bd 7b e1 e4 3c f9 6c ad bc
       -0.08107666 -0.096899174 0.027939549 -0.021170126
000230 74 2e 1c 3d 30 98 a3 bd 7c 23 93 3d d3 ee 91 bd
       0.03813024 -0.07988012 0.071845025 -0.0712563
000240 e1 51 8a bc 11 c3 aa 3c 7e ee 4f 3d b5 ab 9f 3d
       -0.016884746 0.020844968 0.050764553 0.077964224
000250 4f 25 b5 3d 21 08 9e bd db 60 c9 3c 8b b3 2a bd
       0.08845007 -0.07716394 0.024582317 -0.04167513
000260 4c ca 2e bc a3 79 95 bd aa 8e b6 3d 98 6b 91 bd
       -0.0106683485 -0.07298591 0.0891393 -0.071006
000270 b8 8d 53 3d b0 18 0c 3d fb 1b ff 3c 2a b0 58 bd
       0.051648825 0.03420323 0.031141272 -0.05290238
000280 cc fd b5 3d e5 b4 ae 3c ba 0a 4b 3c ae ca af bd
       0.088862985 0.021326492 0.012392694 -0.0858358
000290 65 40 22 3d 9b ab 59 bc dd 07 37 bd e8 f4 aa 3d
       0.039612193 -0.013285543 -0.044685233 0.083474934
0002a0 62 58 b5 3c 91 f2 5d bd 78 51 4a bd f4 55 96 bb
       0.02213687 -0.054186407 -0.0493941 -0.004587883
0002b0 cb cf 5c 3d 28 06 cb bc 8c e5 63 bd 11 cf 08 bd
       0.053909104 -0.024783209 -0.055638835 -0.0334006
0002c0 d4 25 95 bd 37 33 0f 3d f8 2b 9d 3d 0f 0c bc bd
       -0.07282606 0.03496095 0.07674402 -0.091819875
0002d0 f1 13 bb 3c 2c 85 4e 3d 52 2a 91 3c 6d 5a 0e bd
       0.022836657 0.05041997 0.017720375 -0.034754205
0002e0 11 53 50 3d a6 c2 51 3d ee 0a 15 3d ac 2f 8d bc
       0.05086047 0.05121102 0.036387376 -0.017234646
0002f0 45 51 d3 bc 44 26 30 3c 06 13 8d bc 54 fa ed bc
       -0.025795588 0.010751311 -0.017220985 -0.02905003
000300 e1 0e 7f 3d 22 d4 ab 3d 9a fc 1d bc f8 df b3 bc
       0.06227005 0.083900705 -0.009642744 -0.021957383
000310 6b 56 d0 3a 69 15 be bb 00 1c be 3c ea 08 e0 3c
       0.0015894895 -0.005800892 0.02320671 0.027348
000320 a3 6d b5 bd 8b 68 13 bd 6d 59 a8 3d 6d ac 1b 3d
       -0.08858802 -0.03598837 0.082201816 0.038006235
000330 fb 72 9e bb 8d cc 70 bd 0e 73 74 bd 7e fa b2 bd
       -0.004835484 -0.058788825 -0.059680037 -0.08739184
000340 c9 21 02 bd 73 fd 06 3d 7d 1d 80 3d 28 eb 36 3d
       -0.0317705 0.03295655 0.062556244 0.044657856
000350 b4 0c b0 bd 4a f6 6e bd 7c 9f 75 bc d4 05 c1 3d
       -0.08596173 -0.05834035 -0.014991637 0.0942494
000360 bb b6 66 3c 6a e4 ce bc b4 5f 25 3d 6e a1 17 bd
       0.014081652 -0.0252554 0.040374473 -0.037019186
000370 23 a0 7f bd 89 4e 92 3d 9c 38 35 bd a8 8d a5 bc
       -0.062408578 0.07143886 -0.04424344 -0.020209149
000380 00 a6 c6 bd d1 7d 84 3d c1 ae 97 3d 92 7d 11 3d
       -0.09699631 0.0646931 0.074063785 0.035520144
000390 ba 37 8b bd 75 11 c5 bd f4 a1 a1 bd 42 2c 94 3d
       -0.067977384 -0.0962247 -0.07892218 0.07235004
0003a0 89 b1 3c 3d 1f f6 a9 3d 77 1c 4f 3d 30 8a ca 3c
       0.04606775 0.08298897 0.050564256 0.024724096
0003b0 67 14 54 39 50 10 98 bd 65 0c ab bd 86 d6 ba bd
       0.00020225496 -0.07424986 -0.083519734 -0.09122948
0003c0 07 67 22 3d d9 b8 43 bd 36 91 a1 bc ec e6 65 bd
       0.039649036 -0.047783706 -0.019722562 -0.056128427
0003d0 4e 71 8e bc 45 24 8e bd 21 cb 82 bd 92 b4 05 3d
       -0.017388012 -0.069405116 -0.063864 0.03264291
0003e0 c3 f0 e9 bc a1 49 79 3d 9c 5b 00 bd 68 ca 92 bd
       -0.028557187 0.060861234 -0.031337366 -0.07167512
0003f0 fd a1 89 bc e6 07 43 bd e4 fe fe bc c7 6b be bd
       -0.016800875 -0.047614954 -0.0311274 -0.09297901

layers.1.layers.0.bias f4 [100]
000000 02 e8 81 3d ed b2 2a 3d bb 11 b4 bb 6e 3f 62 3d
       0.0634308 0.041674543 -0.0054952777 0.055236273
000010 1d f4 87 bb 83 a5 5a bc fb 71 19 bd f0 fd ab bd
       -0.0041489736 -0.013345125 -0.037462216 -0.08398044
000020 6f 07 a7 3d b9 9d 72 bd 30 87 b6 bd ec 3f 38 bd
       0.08155715 -0.059232447 -0.08912504 -0.044982836
000030 f9 58 95 3c e7 45 14 bc b8 69 37 3d db d0 78 3d
       0.018230902 -0.009049869 0.044778556 0.060746055
000040 f9 22 6c 3d 6c 96 a9 bd ad 8c 27 3d 23 51 4f 3d
       0.05765054 -0.08280644 0.040905643 0.050614487
000050 c7 68 63 bd c1 42 72 3a 08 ba 92 3c b9 09 82 3c
       -0.055519845 0.00092415145 0.017910972 0.015873777
000060 aa 4e 5c 3d 74 aa a6 3d d4 5d bf 3d 85 9b bd 3c
       0.053785957 0.0813798 0.09344068 0.023145447
000070 6e 75 60 3d 22 bf 27 3d 3a 10 48 bd 8e 1a 85 3d
       0.05479949 0.040953763 -0.0488436 0.064992055
000080 2e cc 06 bc 52 e5 35 3d ee 80 84 bd 37 d3 a3 3d
       -0.008227391 0.04440815 -0.06469904 0.079992704
000090 82 c6 a8 3c c7 39 bc 3c 13 8f b3 bd 5d 60 fe bb
       0.020602468 0.02297677 -0.087675236 -0.0077629522
0000a0 56 7f 03 bd 96 60 bc 3d b6 60 b6 bd 49 66 be bc
       -0.03210386 0.0919811 -0.08905165 -0.023242133
0000b0 17 4c 44 bd 83 38 96 bd 24 ad 1c 3d 8e 74 84 bd
       -0.047924127 -0.073349975 0.038251057 -0.064675435
0000c0 d6 05 3c 3d 91 9d 42 3c f9 19 4c bd 33 4f 19 bc
       0.045904003 0.011878387 -0.049829457 -0.0093572615
0000d0 77 73 45 3c 63 ff 2c bd 0c 2c 7e bd a6 7e 5f bd
       0.012051455 -0.042235743 -0.062053725 -0.05456414
0000e0 39 e8 d8 3c 49 db ae bd 4f ff 80 3d ff eb 87 3d
       0.02647792 -0.08537919 0.06298696 0.066368096
0000f0 23 9a bd 3d b2 53 b5 3d 0e dc 62 bd 2c ea 2b bd
       0.09257915 0.08853854 -0.05538564 -0.04197137
000100 b5 9b 8f 3d dd 25 70 bc 99 18 8f bd 8e 97 35 bd
       0.07012121 -0.014657465 -0.069871135 -0.044333987
000110 ae d7 8b 3d dc 2d 62 bd 0c 9e 0c 3d 80 f9 a5 bd
       0.06828247 -0.055219516 0.034330413 -0.08104229
000120 1f 8b 87 3d 91 eb dd 3c 73 5e 90 3d df ad 6e 3b
       0.06618332 0.027089866 0.07049265 0.0036419553
000130 1a 80 47 3d 03 c1 a4 3d d2 4b 4a bc d8 f8 97 bd
       0.04870615 0.080446266 -0.0123471785 -0.0742051
000140 31 e7 89 bd 60 fc 79 3d e8 cf 80 bd 0a 2d b3 bd
       -0.067335494 0.0610317 -0.06289655 -0.08748825
000150 5c 45 aa bd 9d ca 29 bd cb 85 95 3c e1 68 b3 bd
       -0.083140105 -0.041452993 0.018252274 -0.087602384
000160 ec 0e 3c bd 1c 95 be 3d ad 79 6e bc 90 30 fa bc
       -0.045912668 0.09305784 -0.014555377 -0.030540735
000170 0d 5b 4b 3d 95 31 a4 bd 7e f8 9c bd 92 be 98 3c
       0.04964738 -0.080172695 -0.076645836 0.018645559
000180 30 6e 09 3d 3f 46 c5 bd 9d 43 b1 3d 90 ec 15 bd
       0.03355235 -0.09632539 0.08655474 -0.036602557

layers.2.layers.0.weight f4 [100, 100]
000000 76 a0 87 3c d1 0c 98 3d 02 8e 20 3d cc 80 03 3d
       0.016556006 0.074243195 0.03919793 0.032105252
000010 ea ce b8 bd 64 61 bc bd e3 1f 1b 3d 11 cb 97 3b
       -0.09023841 -0.09198263 0.037872206 0.0046323617
000020 d6 8c 7e 3d 1a 76 53 3d 0f 73 a0 bd 5d 23 9c 3c
       0.06214603 0.051626302 -0.07834446 0.019059831
000030 be 98 9d bd fd dd 5c bd cc 24 ed 3c 48 9d 83 bb
       -0.07695149 -0.053922642 0.02894821 -0.004016552
000040 d5 2f 80 bd 13 28 12 3d ee ec 8f 3d b7 94 c6 bd
       -0.06259123 0.03568275 0.070276126 -0.09696334
000050 76 51 c2 3d 05 8a 68 3d 90 91 e9 bb 28 2c c5 bd
       0.09488194 0.05677225 -0.007127948 -0.09627563
000060 c0 79 29 bd 56 35 00 3d 7e e9 29 bd 0c 4d 07 bd
       -0.041375875 0.031300865 -0.04148244 -0.033032462
000070 f8 96 23 bd 2b 55 b2 3d 91 9c b2 3d 02 a2 9d bd
       -0.039938897 0.08707651 0.08721269 -0.07696916
000080 d8 df fb bc e4 28 be 3d 11 a8 ac bb 5e 8f 48 bd
       -0.030746385 0.09285143 -0.0052690585 -0.04896485
000090 5d 61 57 3c 27 11 a3 3d ae 43 42 bc 88 64 bf bd
       0.013145772 0.07962256 -0.011856956 -0.09345347
0000a0 1f d1 05 bd 03 4e 54 3d f8 61 4c bc 19 0a 95 3d
       -0.032670137 0.05183221 -0.012474529 0.072773166
0000b0 a9 ed 14 3d bc 7a 36 3b 08 e9 23 3d 74 2e 42 bc
       0.036359463 0.0027844151 0.040017158 -0.011851896
0000c0 a7 3c ae bd 9b 51 ae bd 4c c4 9d bd 24 6c 71 bc
       -0.08507662 -0.08511659 -0.07703456 -0.014735255
0000d0 c9 db 90 bd 37 73 76 3c 1f 96 53 3c f4 9d 9d 3d
       -0.07073171 0.015042118 0.01291421 0.07696143
0000e0 93 c8 e8 3b fd 76 97 3c 9a 28 16 3d c3 08 de bc
       0.0071039884 0.018489355 0.036659814 -0.027103787
0000f0 4b 14 48 bd d5 17 be bd 1c aa c5 bd ea b4 f0 3b
       -0.048847478 -0.09281889 -0.096515864 0.0073457854
000100 33 8d 41 bd ea 39 f7 3c 38 a3 d8 3c 24 0b a1 3d
       -0.0472538 0.030178983 0.026445016 0.07863453
000110 ff a1 1e bc 49 f6 81 39 18 33 91 3d 08 29 8f 3c
       -0.009682178 0.00024788294 0.070898235 0.01747562
000120 d2 38 44 3d 44 d4 54 bd 27 e7 8e bd ff 54 9f 3d
       0.04790575 -0.051960245 -0.069776826 0.077798836
000130 3b ad 98 3d 66 ec 14 bd 1c eb 91 3c 64 ee b5 bd
       0.07454916 -0.03635826 0.017812304 -0.0888336
000140 0b d2 0d 3c ec f1 bb bd 8a 10 6c 3d 78 3e c9 bd
       0.008656035 -0.09177002 0.05763296 -0.09826368
000150 aa b0 ba bc cc 0d c5 3d 27 63 07 bd 9b 9f 6d bd
       -0.022789318 0.09621772 -0.033053543 -0.05801354
000160 c6 84 b8 3d 19 44 41 bd 03 90 bd 3c f9 f7 6b 3d
       0.090096995 -0.047184084 0.02313996 0.057609532
000170 64 e9 ec 3c a0 74 8c bd 6f eb bd 3d b1 7a 49 3d
       0.028919883 -0.06858182 0.09273421 0.049189273
000180 7c 0f 7c bd 03 72 67 bd 8f 41 b2 bc a6 01 0e 3d
       -0.061538205 -0.056505214 -0.021759776 0.03466954
000190 fa f7 12 3d 02 a9 31 3c d8 94 85 3d 9f 3b c8 3d
       0.03588102 0.010843517 0.0652253 0.09776997
0001a0 e7 04 a1 3c 13 68 18 3d b6 63 64 3d a1 69 96 3c
       0.019655658 0.037208628 0.055759154 0.018360915
0001b0 c8 67 a0 3b b3 f6 b4 3d e4 0f 89 3d ba 5f 84 3d
       0.004895184 0.08836117 0.06692484 0.06463571
0001c0 8d e3 25 bd fb fb 47 bd ab 11 63 bd b7 48 ae bd
       -0.040500212 -0.04882429 -0.05543677 -0.08509963
0001d0 e6 38 4b bc bd 01 60 3d ce e8 59 3c 20 18 18 bd
       -0.012403702 0.054689158 0.013300134 -0.037132382
0001e0 cb e7 6b bc a3 98 9f bd 45 87 86 bd 38 52 03 3c
       -0.0143985255 -0.07792785 -0.06568769 0.008015208
0001f0 74 f4 70 bd 76 33 37 3c 56 bc a5 3d da ab c9 3c
       -0.05882688 0.011181703 0.08092563 0.024618078
000200 58 6d 99 3d 65 8a 82 bd 85 78 16 3a d6 00 cc bd
       0.07491559 -0.06374053 0.00057400047 -0.09961097
000210 5e 9d 88 39 7b 85 99 bd 09 93 bc 3d 48 92 b0 bd
       0.0002605719 -0.074961625 0.09207732 -0.08621651
000220 a2 6e 02 3d 8d 01 77 bd 6b ba d9 3c d4 05 ef ba
       0.03184379 -0.060304213 0.026578149 -0.001823599
000230 1a 87 66 bc ed f7 2b bd 6b 7b 7b 3d d0 cc a1 bc
       -0.014070297 -0.041984487 0.061396997 -0.019750983
000240 c1 0e e7 3b 89 17 fe bc e6 74 97 bd f2 cd 32 bd
       0.0070513193 -0.031017082 -0.073953435 -0.043653436
000250 a6 89 b4 3d 3a dd bf 3d cf 28 42 bd 75 e9 11 3c
       0.08815317 0.093683675 -0.0474022 0.008905758
000260 55 dd 61 3c ff aa b2 3d f9 d0 50 3c 6e 96 8d 3b
       0.01378568 0.08724021 0.012745135 0.004320911
000270 28 74 fa bc 9b bf a3 3c ea 57 cd bd be 70 ce bd
       -0.030572966 0.019988826 -0.10026534 -0.100800976
000280 09 1e 57 bc d4 d7 92 bd e3 8f 90 bd 6f cc 8f bc
       -0.0131297195 -0.07170072 -0.07058694 -0.017553536
000290 db 6e 61 3d 62 9a 43 3d f2 6e 17 bd 5a 1a fb bb
       0.05503736 0.047754653 -0.03697104 -0.0076630535
0002a0 e2 12 b9 3d 62 11 a9 3c f8 67 88 3d cf 41 2b bd
       0.09036805 0.020638172 0.066604555 -0.041810807
0002b0 76 9b ba bd 8a 7a 46 bd 89 f2 f1 3b 96 c9 cf bc
       -0.09111683 -0.048456706 0.007383649 -0.025364678
0002c0 61 5e 67 bd d1 95 c0 3d a5 be be bd 20 4c ea 3a
       -0.05648649 0.09403575 -0.09313706 0.001787547
0002d0 d8 50 1d 3d 24 8e e7 bc db 52 2d 3d b2 4d aa b9
       0.038407177 -0.02826602 0.042315345 -0.00032482814
0002e0 76 ce 77 bd 5c 7c 65 bd 47 91 3b bd fe 96 c8 bd
       -0.06049963 -0.0560268 -0.045792844 -0.097944245
0002f0 86 4e 7b 3d 42 19 b5 3d 9a 23 56 bd 85 27 52 3b
       0.061354183 0.08842708 -0.052280046 0.0032067013
000300 22 36 ff 3c c8 0b df 3c 1f 4b 68 bd 22 4e 7e bd
       0.031153742 0.027227297 -0.056712266 -0.062086232
000310 53 a8 c4 3d f8 48 6b 3d 9e 3f b9 3d e0 71 8c 3d
       0.09602418 0.057442635 0.09045337 0.068576574
000320 9c d5 fc bb 80 30 8f 3d 11 86 59 bb 9e 01 3c ba
       -0.007715894 0.069916725 -0.0033191482 -0.0007171872
000330 94 e2 31 bd d9 09 9f 3d 90 68 ae bc c9 5e 6b 3c
       -0.043428972 0.0776555 -0.021290094 0.01436586
000340 62 75 a3 bd 21 d5 0b 3d 41 a6 43 bd a0 dd b9 bc
       -0.07981373 0.034138802 -0.047765974 -0.022688687
000350 a9 a6 14 bc 35 6f 17 3d 43 ee 7f 3b ef 0c 8d 3c
       -0.009072938 0.03697129 0.0039051927 0.017218081
000360 b2 4f 85 bd a2 0d 9b bd b7 33 13 3d 55 83 29 bd
       -0.06509341 -0.0757096 0.03593799 -0.041385014
000370 9a c6 b0 bd 80 45 29 bd ac 1f c9 bd 40 11 a2 3c
       -0.0863163 -0.041326046 -0.09820494 0.019783616
000380 cd 32 ef 3b b1 f9 bc 3d a5 23 62 bd 5c f8 53 bd
       0.007299757 0.09227312 -0.055209775 -0.051750526
000390 3c 35 c2 3c 0a 2a d8 bc 09 cd 9e 3d 7a da 75 3c
       0.023707025 -0.026387233 0.07753951 0.015005702
0003a0 2f 0c 09 bb 54 aa 1d bd 64 ca 76 3d cf 45 3f bd
       -0.0020911803 -0.038492516 0.06025161 -0.046697434
0003b0 05 24 23 3d 50 90 83 3d 2c cb a0 bd 3f 86 b5 bd
       0.039829273 0.0642401 -0.07851252 -0.08863496
0003c0 ad 3b 67 bd 93 1a 43 3d 03 c9 63 bd ca 84 14 3c
       -0.056453396 0.047632765 -0.05561162 0.0090648625
0003d0 a1 1a 73 3c f8 63 ab 3c 60 d0 51 bd 57 45 49 3b
       0.014837892 0.020921692 -0.051224113 0.0030711496
0003e0 dc 51 8d 3d fe 5f 53 3d e3 e3 9a 3c 98 0f a3 bd
       0.06900379 0.051605217 0.018907493 -0.07961959
0003f0 a3 c0 3e 3d 11 e7 22 bd 0e ee 8e 3d 8a 5c 2a 3d
       0.04657043 -0.039771143 0.06978999 0.04159216

layers.2.layers.0.bias f4 [100]
000000 dc 84 1e bd 23 ca 16 bd 61 53 ae bd ad d7 80 3b
       -0.038700923 -0.036813866 -0.08511997 0.0039319606
000010 a5 0d 7c 3d 7c 06 79 bd d9 d2 27 bc ef 51 87 3d
       0.06153645 -0.0607972 -0.010243141 0.066074245
000020 4c 7a 8a bd 73 c1 cf 3c 53 3c d2 bc 0f b2 a6 3d
       -0.067616075 0.025360798 -0.02566353 0.08139431
000030 71 96 2c bb 4d c8 ad 3d 47 a4 0e bd fc af 9e bd
       -0.0026334787 0.0848547 -0.034824636 -0.0774841
000040 70 ae e0 3a 7f 77 7b bd a6 27 5f bd 69 24 89 3d
       0.001714183 -0.061393257 -0.05448117 0.06696398
000050 11 b7 b5 3d 88 55 92 bd 0b ee cc bd e7 62 bd 3c
       0.08872808 -0.0714522 -0.100063406 0.02311845
000060 71 17 a7 bd e2 82 a0 bc e9 71 30 3d d6 ba 2c 3d
       -0.08158768 -0.01959366 0.043077383 0.042170368
000070 19 30 34 3c e4 d2 35 3d c9 91 68 bd 08 11 c1 bc
       0.0109977955 0.044390574 -0.056779657 -0.023567691
000080 e6 13 f0 bc f3 3b c0 bd 92 d6 73 bd c0 7b e3 3b
       -0.029306363 -0.093864344 -0.059530802 0.0069422424
000090 c3 1c b0 3c 9f 46 35 bd 47 07 84 3d 8a 19 61 bd
       0.02149809 -0.044256803 0.064467005 -0.054955997
0000a0 5b 06 cc 3c 72 9c ac 3d 24 13 9c 3d 43 07 e4 3d
       0.024905374 0.08428277 0.07620838 0.111341976
0000b0 df 09 06 3d d3 38 88 bd 71 ca f9 bc 3b 61 e3 bc
       0.032724258 -0.06651463 -0.03049204 -0.027756324
0000c0 2b f6 91 bd eb a0 c0 bc 16 be c1 bd 5a 28 3a bd
       -0.07127031 -0.023514232 -0.09460084 -0.04544864
0000d0 78 ee c4 bd 20 8f b4 3d eb 9c ee 3c ab 58 ea 3d
       -0.09615797 0.088163614 0.029127559 0.11442693
0000e0 0b 44 74 3d 7b 60 c4 3d 87 18 02 bd 70 d8 26 bd
       0.059635203 0.09588715 -0.031761672 -0.040733755
0000f0 ec 96 39 bd 1a b1 ba bd f6 3a e0 bb 44 a9 c4 3c
       -0.045309946 -0.09115811 -0.006842966 0.024006493
000100 ec 79 6c 3d bb 99 24 bc 75 6e 2e 3d 6d 63 25 3d
       0.05773346 -0.010046418 0.04258581 0.040378023
000110 44 02 9d 3c ca d5 0e 3d d0 d1 e9 bc 14 3f 81 3d
       0.01916612 0.034871854 -0.02854243 0.06310859
000120 4c d9 c4 bd ca 35 43 3c 1a 5f 3b 3d 23 16 ae 3d
       -0.096117586 0.01191468 0.045744993 0.08500316
000130 0d e2 5d 3d fd 07 4a bc 5b 2a 8b 3d 8f 49 c2 bd
       0.054170657 -0.012331006 0.06795188 -0.094866864
000140 69 7b ad bc e7 d4 1b bd 95 94 75 3d 59 ca c6 3d
       -0.02117701 -0.038044836 0.059956152 0.097065635
000150 38 b3 d8 bc 3b 82 a3 3c ae 8b a3 bc 45 86 03 bd
       -0.026452646 0.01995956 -0.019964065 -0.03211047
000160 fd 00 1d 3d 62 80 0e 3d e4 21 55 bd ce b7 b1 3c
       0.03833102 0.034790404 -0.052034274 0.02169409
000170 7c ec e0 3d 4c ed 9e bd a2 34 8f bc 12 55 b3 bd
       0.10982606 -0.077601045 -0.017481152 -0.0875646
000180 f4 24 9c bc ad be c1 3d 31 7a 77 3d fc 87 c5 bd
       -0.01906059 0.09460197 0.060419265 -0.096450776

layers.3.weight f4 [2, 100]
000000 2f c1 b9 bd 3d aa 49 3a 55 38 46 bc b9 9d 93 3d
       -0.0907005 0.0007692909 -0.012098392 0.072078176
000010 bf c3 1d bd 44 44 9a 3d 6a f6 76 bd 94 65 ba bc
       -0.038516756 0.07532552 -0.060293593 -0.022753514
000020 37 49 ae bb 3e ec 5e bd e8 81 15 3b 7b 79 d7 bc
       -0.0053187865 -0.054424517 0.0022813026 -0.026303044
000030 52 60 4b bd b2 b7 b1 bd 52 33 2f b9 d3 63 c0 3d
       -0.049652405 -0.08677615 -0.00016708419 0.0939404
000040 2e 23 1d 3d 18 f1 a5 bd 6d e5 55 bd 95 da 69 3d
       0.038363628 -0.081026256 -0.05222075 0.05709322
000050 2e 21 22 bd 18 f3 31 bc c3 9d 41 bd 6e 90 1e 3d
       -0.039582424 -0.010861181 -0.047269594 0.038711958
000060 74 d2 8b bd 66 1c d3 bd 10 f9 96 bd c3 60 b9 bd
       -0.0682725 -0.10308151 -0.07371724 -0.09051659
000070 df 35 13 3c 86 73 69 3c ed 39 05 bd 20 ab 0c 3d
       0.008985012 0.014248734 -0.032525945 0.034342885
000080 aa 1f a4 3b 18 cd c2 3c 18 14 55 3d 80 9c f0 3b
       0.0050086575 0.023779437 0.052021116 0.007342875
000090 13 0b cf 3d 52 8f 91 3d 27 3d 84 bd 7f be 98 3d
       0.10109534 0.07107414 -0.064569764 0.07458209
0000a0 4f 54 9a bc b9 fb 05 bc c6 e4 ee 39 3a ca c2 bd
       -0.01883903 -0.008177691 0.00045565347 -0.09511228
0000b0 d8 bc 80 3d 8b 30 84 3d 38 0d c0 3d 91 41 76 3c
       0.06286019 0.06454571 0.09377521 0.015030281
0000c0 de c9 e5 bc bb 60 a7 bc a7 b6 06 bd 81 2a bb bd
       -0.02805036 -0.020431867 -0.032889035 -0.09138966
0000d0 ff c6 02 3d 4f 5d dc 3b 7e 37 31 bd b7 cc 91 bd
       0.03192806 0.0067249904 -0.043265812 -0.071191244
0000e0 a2 0a e4 bc 03 59 48 3c d8 b4 93 3d 8b 27 1b 3d
       -0.027837101 0.012228253 0.072122276 0.037879508
0000f0 74 7e 9a 3d c5 bf a5 3d c2 d7 4a bd ac 1e d7 bb
       0.0754365 0.08093218 -0.04952217 -0.0065649357
000100 1f e7 c1 bd 49 40 86 bd cc e7 fa 3c 0a 80 09 3d
       -0.09467911 -0.0655523 0.030628107 0.033569373
000110 ef e0 30 3d a5 47 a5 3d 97 2e 16 3d 90 8e 58 bd
       0.043183263 0.08070306 0.036665525 -0.052870333
000120 47 2c bc bc 7d e2 b3 3b 8c c9 42 3d 7e 48 91 bd
       -0.022970332 0.005489646 0.04755549 -0.07093905
000130 fe 38 48 bd 82 2d 19 3d 3f 1d 07 3d 39 5e c1 3d
       -0.048882477 0.037396915 0.032986876 0.094418
000140 3f ae a5 3d 82 30 44 bd 28 e2 d8 3c 52 9a 8f bd
       0.080898754 -0.047897823 0.026475027 -0.07011856
000150 05 85 5f bb 68 87 e0 bb 36 ac aa 3c 60 49 a9 3d
       -0.0034106385 -0.006852079 0.02083407 0.08265948
000160 64 42 a3 bd ab d0 a5 3d 60 7c 8b 3d 50 7c 44 bd
       -0.079716474 0.08096441 0.06810832 -0.047970116
000170 10 16 11 bd ac e7 d9 bc 4f bf 7e 3d 5d 69 d5 bc
       -0.03542143 -0.026599728 0.062194165 -0.026051218
000180 a7 b8 00 3d e2 30 49 bd cd cd 9c 3d 7d 62 8f bc
       0.0314261 -0.049118884 0.07656441 -0.017503018
000190 75 4b cc 3d f8 e0 81 bd f3 a8 e0 bc 00 5e 9a 3d
       0.0997533 -0.063417375 -0.027424311 0.0753746
0001a0 3e f8 8e 3d 49 53 47 bd 1f a4 9e bd e1 6e 78 bd
       0.06980942 -0.04866341 -0.07746147 -0.060652617
0001b0 13 ac 94 bd 9a ee 37 bd ac e2 59 bd 76 3e 56 bc
       -0.07259383 -0.044905283 -0.053194687 -0.013076415
0001c0 1b 73 c0 3d 40 6a 16 b8 f9 74 79 bd a1 76 3f 3d
       0.093969546 -3.586174e-05 -0.06090257 0.046743993
0001d0 06 16 6b bd c8 04 0b bd 34 01 31 bc 93 32 74 3c
       -0.05739405 -0.033940107 -0.0108035095 0.014904636
0001e0 4a b5 5a bd 68 db 95 bd 82 3d c6 bd b6 bc 3f bc
       -0.053395547 -0.07317239 -0.096797004 -0.011702707
0001f0 70 ca 59 3d e1 81 18 3d d1 0a a5 3d 69 0b 04 3d
       0.053171575 0.037233237 0.08058704 0.032237444
000200 3d f7 93 bd 1b 25 5e 3c f0 d5 af bc 67 79 a5 3d
       -0.07224891 0.013558651 -0.021464318 0.08079796
000210 a7 7c 2b 3d 92 04 d0 3d 34 09 b4 bd 98 cf b9 bb
       0.041866925 0.10157122 -0.08790818 -0.005670499
000220 67 5c b5 bd 37 55 8d 3c c1 fc 15 bd f9 f9 28 bd
       -0.08855515 0.017252548 -0.036617998 -0.041254018
000230 ef 7d fb 3d de 73 c2 bc 5a a9 9d 3d 53 cf ba 3d
       0.12279879 -0.02373689 0.07698317 0.09121575
000240 b5 7b a5 3d 67 56 af 3d e0 88 93 3d 69 1f b1 3c
       0.08080236 0.08561402 0.07203841 0.021621423
000250 e7 b0 b2 3d 45 6b ee 3d 08 60 8c bd b7 d9 c4 3c
       0.08725148 0.11641554 -0.06854254 0.024029596
000260 0d 2b 9c 3d 77 70 21 bd b9 33 a8 3d 40 6e db 3d
       0.07625399 -0.039413895 0.0821299 0.10714388
000270 b3 a0 a9 3c 13 dc a8 3c b8 7b e1 3a 19 4b ca 3d
       0.02070651 0.020612752 0.0017203009 0.09877605
000280 b1 de a0 bd 3e ff 1e 3d c2 b3 56 bd 53 6a a7 3d
       -0.07854975 0.038817637 -0.052417524 0.081745766
000290 a6 bf 84 bb 23 bc 4c 3d 2b cb ba 3d bd 95 8e ba
       -0.0040511666 0.04998411 0.091207825 -0.0010878366
0002a0 9a ab 4b bc 05 a1 da 3d fe 4c dd 3d d0 1c 88 3d
       -0.01243105 0.10675243 0.10805701 0.066461205
0002b0 2a 11 34 3c f1 d0 c6 3b 7a d9 51 bd 81 2a 09 3e
       0.01099042 0.006067388 -0.051232792 0.1339512
0002c0 98 05 8c 3d f1 5a a9 3d dc b9 80 bd 92 5f d6 3c
       0.068370044 0.08269299 -0.0628545 0.026168618
0002d0 f7 3b c9 3c 59 2e cc bc 10 6e 72 3c ad f8 42 3d
       0.024564726 -0.024924444 0.014796749 0.047600437
0002e0 3b c2 ec bc 92 d0 b8 3d be 73 ab bd f0 22 c3 3a
       -0.02890121 0.09024157 -0.083716854 0.0014887732
0002f0 a5 a1 2c bd 6f 13 e6 3d 28 11 f8 bc 47 4f c4 bc
       -0.042146344 0.112341754 -0.030281618 -0.023963584
000300 cc 6c ed 3d ad 2c 92 bd 7d fc 00 bd b9 90 b2 3d
       0.11593017 -0.071374275 -0.03149079 0.0871901
000310 d4 68 aa 3d df 44 2b 3b fe 3d b8 bb d9 63 2c bd
       0.08320776 0.002613358 -0.0056226244 -0.04208741

layers.3.bias f4 [2]
000000 f0 2c 1f bd aa c9 64 3e
       -0.038861215 0.22342554
