clients_data/clients_fair_trained_model/client2.pth (torch, 86087 bytes, 6 tensors)

layers.1.layers.0.weight f4 [100, 105]
0.07508979 0.08047568 -0.022405278 0.08972173 -0.021316338 0.0199854 -0.04748428 0.05732266
0.08602978 -0.071409956 0.084453404 0.018712634 0.07162655 0.01318234 0.047197204 -0.013833243
0.07544644 0.014204292 -0.045491513 0.02440969 -0.04486105 -0.011450253 -0.039540354 0.06508783
-0.076951556 -0.045010943 -0.027385516 -0.05815175 0.009287688 -0.09674174 0.08742356 -0.082924426
0.075413525 0.016240846 -0.031712253 0.060216304 0.014779376 0.079168364 0.010765895 -0.030486772
0.026074767 -0.026524266 0.04110663 0.08701896 0.056402054 -0.042585995 0.056251228 0.017461412
0.049587075 -0.05931467 -0.09611107 -0.038180597 -0.07470757 0.079666816 0.02775824 0.040504575
0.03077478 -0.0017519367 0.07679153 -0.06976245 0.006568041 -0.06656894 0.030036807 -0.033459943
0.029860796 -0.020332046 0.081648074 -0.057805263 -0.058171626 -0.058168173 0.08761899 0.032229993
0.09401012 -0.08052493 -0.09677332 -0.07631853 -0.06561254 0.039386675 0.035117906 0.08096165
-0.0503656 -0.06651448 0.05157108 -0.039424516 0.05931429 -0.023138674 0.05605144 -0.07581053
-0.04923828 0.029841041 0.020653276 -0.02486193 0.057901457 0.06621081 -0.07075992 -0.052069344
0.089376345 -0.03293004 -0.03458348 -0.09441378 -0.055850368 0.02411153 -0.012867434 -0.070825435
0.0022891387 -0.06633611 -0.08311282 -0.05364476 -0.085283965 -0.062299367 0.09786409 0.018625269
0.030089634 -0.091020666 -0.06416916 -0.03238638 0.015574652 -0.08646005 -0.04226121 -0.058300596
0.00031901748 -0.03611679 -0.0066772783 -0.0660775 -0.0670533 -0.05704369 -0.033358566 -0.07700382
0.081755206 -0.019350082 0.083820336 0.030590864 -0.08203068 0.067251496 -0.027103342 -0.03779982
-0.08113646 -0.09697641 0.027921539 -0.021290163 0.037864625 -0.07981844 0.071954295 -0.07132314
-0.01673728 0.02081868 0.050582845 0.07821938 0.08852285 -0.07710868 0.024511563 -0.041866485
-0.010694382 -0.072895706 0.08898407 -0.071079575 0.05183094 0.034140203 0.031191433 -0.052779738
0.08859494 0.021281907 0.012311091 -0.08578973 0.0397383 -0.013411648 -0.04470902 0.08374897
0.022114825 -0.053913068 -0.0493941 -0.0046849046 0.054411083 -0.024823995 -0.055630855 -0.03340267
-0.07285352 0.03488376 0.076030426 -0.09183515 0.022370627 0.050168492 0.017459296 -0.034731112
0.050893992 0.051278543 0.036351897 -0.017115979 -0.025825705 0.01053054 -0.017280675 -0.029065598
0.06244352 0.08372377 -0.009842487 -0.022017524 0.0013635005 -0.0058219405 0.02343608 0.027572773
-0.08863513 -0.035986103 0.08218342 0.038028616 -0.004830793 -0.05883486 -0.05968973 -0.087394804
-0.03178758 0.03295655 0.062411077 0.04447616 -0.085890025 -0.05850206 -0.0146758305 0.09427178
0.014244929 -0.02525245 0.040374473 -0.03707378 -0.062315017 0.07179666 -0.044238828 -0.020651339
-0.09683277 0.06487292 0.07462989 0.035241853 -0.06789924 -0.09617233 -0.078805156 0.07254148
0.04537628 0.082727745 0.050691664 0.024252508 0.0006051604 -0.07402508 -0.08364138 -0.091352805
0.039737683 -0.048047345 -0.019583931 -0.05616356 -0.01738742 -0.06937442 -0.06390193 0.032237917
-0.028310971 0.06069163 -0.031500746 -0.071628235 -0.016719833 -0.047661416 -0.030641936 -0.09295076
00000000: adc8 993d 6fd0 a43d 468b b7bc 07c0 b73d
00000010: 9a9f aebc 6cb8 a33c e07e 42bd 2acb 6a3d
00000020: 6230 b03d 623f 92bd e8f5 ac3d 3d4b 993c
00000030: f1b0 923d befa 573c db51 413d d4a4 62bc
00000040: aa83 9a3d 1eb9 683c 4f55 3abd d5f6 c73c
00000050: 38c0 37bd d899 3bbc 11f5 21bd c54c 853d
00000060: c798 9dbd 655d 38bd 9757 e0bc 8830 6ebd
00000070: 632b 183c 8920 c6bd 200b b33d 48d4 a9bd
00000080: 6872 9a3d 860b 853c b5e4 01bd 5fa5 763d
00000090: 3225 723c 0623 a23d 7063 303c 65bf f9bc
000000a0: c09a d53c 6b49 d9bc 6d5f 283d ff36 b23d
000000b0: d705 673d a76e 2ebd b067 663d 3c0b 8f3c
000000c0: d11b 4b3d f0f3 72bd e1d5 c4bd 4263 1cbd
000000d0: 4800 99bd 5b28 a33d 4065 e33c 20e8 253d
000000e0: 641b fc3c 3ea1 e5ba e144 9d3d 9edf 8ebd
000000f0: b938 d73b 4c55 88bd c00f f63c 4b0d 09bd
00000100: a19e f43c 648f a6bc 1b37 a73d 36c5 6cbd
00000110: 5f45 6ebd c041 6ebd 9671 b33d 9903 043d
00000120: 6188 c03d 41ea a4bd 1731 c6bd e44c 9cbd
00000130: de5f 86bd ec53 213d cbd7 0f3d 39cf a53d
00000140: 294c 4ebd be38 88bd 323c 533d 9a7b 21bd
00000150: 8af3 723d 518d bdbc 3296 653d 8d42 9bbd
00000160: 14ae 49bd 3375 f43c 0f31 a93c 3fab cbbc
00000170: 142a 6d3d 8899 873d 94ea 90bd aa46 55bd
00000180: f20a b73d a6e1 06bd 68a7 0dbd 035c c1bd
00000190: 5bc3 64bd 8b85 c53c eed1 52bc ed0c 91bd
000001a0: 6005 163b 3adb 87bd 0e37 aabd 9cba 5bbd
000001b0: 5ca9 aebd 9f2d 7fbd f86c c83d 0594 983c
000001c0: 897e f63c 0b69 babd 1f6b 83bd 95a7 04bd
000001d0: d32c 7f3c f711 b1bd 171a 2dbd 9bcc 6ebd
000001e0: cd41 a739 33ef 13bd 12cd dabb a453 87bd
000001f0: 3e53 89bd a5a6 69bd fea2 08bd 2eb4 9dbd
00000200: 466f a73d 1084 9ebc ffa9 ab3d b199 fa3c
00000210: b3ff a7bd 27bb 893d d407 debc fcd3 1abd
00000220: df2a a6bd 919b c6bd b6bb e43c b568 aebc
00000230: f017 1b3d da77 a3bd c65c 933d de11 92bd
00000240: 9f1c 89bc f08b aa3c f52f 4f3d 7b31 a03d
00000250: 784b b53d 28eb 9dbd 79cc c83c 317c 2bbd
00000260: 7d37 2fbc 584a 95bd 483d b63d 2b92 91bd
00000270: ae4c 543d 99d6 0b3d 2d85 ff3c 912f 58bd
00000280: 4471 b53d 6557 ae3c 75b4 493c 87b2 afbd
00000290: a1c4 223d 87bc 5bbc ce20 37bd 9484 ab3d
000002a0: 262a b53c f3d3 5cbd 7851 4abd d483 99bb
000002b0: 28de 5e3d b15b cbbc 2edd 63bd 3dd1 08bd
000002c0: 3a34 95bd 46e2 0e3d d7b5 9b3d 1114 bcbd
000002d0: 9b42 b73c 7a7d 4d3d cc06 8f3c 3642 0ebd
000002e0: 3876 503d 7309 523d bae5 143d cf36 8cbc
000002f0: 6e90 d3bc 4988 2c3c 3490 8dbc fa1a eebc
00000300: c7c4 7f3d 5e77 ab3d 6242 21bc 185e b4bc
00000310: 7cb7 b23a fac5 bebb 06fd bf3c 4ce0 e13c
00000320: 5686 b5bd 2a66 13bd c84f a83d e5c3 1b3d
00000330: a14b 9ebb d2fc 70bd 387d 74bd 0cfc b2bd
00000340: b233 02bd 73fd 063d c2a2 7f3d a22c 363d
00000350: 1ce7 afbd db9f 6fbd e572 70bc 9011 c13d
00000360: 9063 693c 3ade cebc b45f 253d adda 17bd
00000370: 083e 7fbd 210a 933d c633 35bd ff2c a9bc
00000380: 4250 c6bd 18dc 843d 8ed7 983d c359 103d
00000390: c20e 8bbd 00f6 c4bd 9964 a1bd a190 943d
000003a0: 7adc 393d 2a6d a93d 10a2 4f3d 32ad c63c
000003b0: a1a3 1e3a 769a 97bd 2c4c abbd 2e17 bbbd
000003c0: fbc3 223d 4bcd 44bd 7b6e a0bc c30b 66bd
000003d0: 1070 8ebc 2d14 8ebd 04df 82bd e80b 043d
000003e0: 69ec e7bc c997 783d ed06 01bd d3b1 92bd
000003f0: 08f8 88bc 9e38 43bd cc04 fbbc f85c bebd

layers.1.layers.0.bias f4 [100]
0.06368838 0.04178837 -0.0056564305 0.055298906 -0.0041117575 -0.012610722 -0.03701798 -0.08387455
0.08183516 -0.05836876 -0.088516936 -0.04542636 0.017770741 -0.00881848 0.04472084 0.061115876
0.057734694 -0.083031796 0.041131575 0.050930224 -0.055997755 0.001188727 0.017267972 0.016286954
0.053835582 0.08151479 0.09335405 0.023678489 0.054261398 0.041123323 -0.04887074 0.06448916
-0.008867146 0.04539735 -0.064854115 0.08072873 0.020500368 0.023072056 -0.08755124 -0.0076563493
-0.030859482 0.09185514 -0.088913865 -0.022925638 -0.04771071 -0.07323617 0.037877586 -0.06423462
0.046150528 0.0121127255 -0.049878366 -0.008795973 0.013500785 -0.04167652 -0.06192087 -0.054240957
0.027008684 -0.08522754 0.06310403 0.06695605 0.093232326 0.08988843 -0.055497248 -0.04235914
0.06985462 -0.014442566 -0.069722764 -0.044410575 0.06825776 -0.054572426 0.03467541 -0.080983676
0.06662492 0.026870541 0.07091861 0.0031274247 0.048502594 0.080755875 -0.012073403 -0.07348895
-0.066812806 0.061701145 -0.06287792 -0.08767187 -0.08338687 -0.041104507 0.01833153 -0.08804837
-0.04627095 0.092788145 -0.014571142 -0.030531263 0.05050521 -0.08030971 -0.076693825 0.019285249
0.03484958 -0.0962217 0.08678619 -0.035932332
00000000: 0e6f 823d 482a 2b3d 9459 b9bb 1b81 623d
00000010: ecbb 86bb 349d 4ebc 2aa0 17bd 6cc6 abbd
00000020: 3199 a73d 1514 6fbd 5e48 b5bd fe10 3abd
00000030: f293 913c 637b 10bc 332d 373d a454 7a3d
00000040: 377b 6c3d 930c aabd 9579 283d 369c 503d
00000050: e75d 65bd 0fcf 9b3a 9075 8d3c 386c 853c
00000060: b382 5c3d 3af1 a63d 6830 bf3d 64f9 c13c
00000070: 3341 5e3d ee70 283d af2c 48bd e512 843d
00000080: 8247 11bc 92f2 393d 3cd2 84bd 1b55 a53d
00000090: 63f0 a73c 9c01 bd3c 114e b3bd 1de2 fabb
000000a0: 06cd fcbc 8c1e bc3d 7918 b6bd 8cce bbbc
000000b0: 4e6c 43bd d8fc 95bd 8725 1b3d 718d 83bd
000000c0: 5608 3d3d 7474 463c 424d 4cbd fc1c 10bc
000000d0: 6632 5d3c 00b5 2abd bda0 7dbd c42b 5ebd
000000e0: 5141 dd3c c78b aebd b03c 813d 4120 893d
000000f0: 97f0 be3d 6d17 b83d 1551 63bd c780 2dbd
00000100: f00f 8f3d 83a0 6cbc cfca 8ebd dde7 35bd
00000110: b9ca 8b3d 5687 5fbd cd07 0e3d c5da a5bd
00000120: a572 883d 9c1f dc3c c73d 913d 7bf5 4c3b
00000130: a8aa 463d 5663 a53d 86cf 45bc 6081 96bd
00000140: 27d5 88bd 57ba 7c3d 24c6 80bd 4f8d b3bd
00000150: bcc6 aabd 335d 28bd 012c 963c b452 b4bd
00000160: 9c86 3dbd b607 be3d cdbb 6ebc b31c fabc
00000170: 8dde 4e3d 6b79 a4bd a711 9dbd 19fc 9d3c
00000180: 6fbe 0e3d e20f c5bd f5bc b13d c82d 13bd

layers.2.layers.0.weight f4 [100, 100]
0.016327193 0.074325554 0.03868461 0.03202199 -0.09031868 -0.092271626 0.03796576 0.0046859407
0.06224834 0.051521488 -0.07884664 0.019027898 -0.0769501 -0.0544417 0.029250754 -0.004149654
-0.062889874 0.035425894 0.07021904 -0.09684943 0.09479879 0.05689635 -0.0071152374 -0.09660775
-0.041612413 0.03176394 -0.04195981 -0.032836683 -0.040464338 0.08675948 0.08692255 -0.07688593
-0.030953202 0.09250641 -0.005109225 -0.04887021 0.012946949 0.0803139 -0.011982175 -0.09339434
-0.032509502 0.052098494 -0.012681002 0.07284525 0.03635857 0.0026856065 0.039181445 -0.011653537
-0.08493925 -0.08486162 -0.07714917 -0.014605222 -0.0707989 0.015681334 0.013168009 0.07722776
0.006885828 0.018265516 0.03612473 -0.02726029 -0.048625253 -0.0927936 -0.09666742 0.007270433
-0.047168598 0.029335095 0.026751738 0.0783992 -0.009926726 0.00026442192 0.070985466 0.017502408
0.047633868 -0.052635904 -0.070207566 0.07750728 0.073861375 -0.036539502 0.01745096 -0.088359214
0.008354031 -0.09207518 0.057613246 -0.09845513 -0.022988778 0.09591374 -0.0330102 -0.057962812
0.09055777 -0.047710206 0.022679994 0.0572171 0.02900373 -0.068732664 0.09214116 0.049574558
-0.061661627 -0.056096546 -0.022129036 0.035244793 0.036101855 0.010778507 0.06538443 0.0980248
0.019670267 0.037192397 0.055728238 0.018474616 0.0047495016 0.08821095 0.06685242 0.06454916
-0.040014397 -0.048723344 -0.05559507 -0.085151374 -0.012309082 0.054480035 0.013015185 -0.036966637
-0.014451283 -0.07770797 -0.065540045 0.007947325 -0.058967587 0.011397742 0.08112385 0.024536198
0.07520164 -0.06358061 0.0008358568 -0.09972905 0.00042934204 -0.07490387 0.09231006 -0.08630847
0.031870257 -0.060623474 0.02667218 -0.0019045047 -0.014043506 -0.04193966 0.0610309 -0.019769562
0.007279314 -0.030734401 -0.073856756 -0.04337493 0.087910205 0.093259536 -0.047319714 0.008820992
0.013516056 0.08703779 0.0125103155 0.0038484859 -0.030662598 0.019987624 -0.099863134 -0.10079324
-0.0131481495 -0.071729384 -0.07044382 -0.017489435 0.055092372 0.047876596 -0.03704042 -0.0073868255
0.09016525 0.0206449 0.06678258 -0.041905865 -0.09132516 -0.048486874 0.0074554924 -0.02542846
-0.05647385 0.09389608 -0.09326116 0.0015377082 0.03853116 -0.028309584 0.04223559 -0.00028423427
-0.060434736 -0.05594992 -0.04594098 -0.09807478 0.06095792 0.08875206 -0.05219471 0.0033719102
0.031187575 0.027400173 -0.056642458 -0.06247228 0.09590456 0.05757433 0.09015822 0.068571866
-0.0076850685 0.06984121 -0.0033137936 -0.0007027792 -0.043427605 0.07776998 -0.021297706 0.0143928705
-0.07980049 0.03401031 -0.04774498 -0.022705557 -0.009028614 0.036968347 0.0038678574 0.017214961
-0.06501332 -0.07573791 0.035823766 -0.041349903 -0.086283825 -0.041330926 -0.09821823 0.019787224
0.0072692507 0.092140764 -0.055172052 -0.05177437 0.023830224 -0.026434906 0.077617146 0.01493104
-0.0021273445 -0.03846163 0.060297783 -0.046894204 0.039917983 0.06408076 -0.07846551 -0.08868743
-0.056425948 0.047582444 -0.05563289 0.00906664 0.014881985 0.020887954 -0.0511258 0.003086435
0.06898463 0.051531617 0.018934313 -0.079555385 0.046600822 -0.039894246 0.06973453 0.041437376
00000000: 9bc0 853c ff37 983d c173 1e3d 7d29 033d
00000010: 00f9 b8bd e8f8 bcbd fc81 1b3d 858c 993b
00000020: 1ef8 7e3d 3208 533d 597a a1bd 65e0 9b3c
00000030: 0498 9dbd 43fe 5ebd 479f ef3c d2f9 87bb
00000040: 68cc 80bd be1a 113d 00cf 8f3d fe58 c6bd
00000050: de25 c23d 260c 693d f026 e9bb 49da c5bd
00000060: c771 2abd e81a 023d 0dde 2bbd c27f 06bd
00000070: efbd 25bd f4ae b13d 7304 b23d 5f76 9dbd
00000080: 9291 fdbc 0074 bd3d 496b a7bb 212c 48bd
00000090: 711f 543c 9d7b a43d e250 44bc 8845 bfbd
000000a0: af28 05bd 3b65 553d fac3 4fbc e42f 953d
000000b0: b9ec 143d 0001 303b b97c 203d 7aee 3ebc
000000c0: a1f4 adbd eecb adbd 6200 9ebd be4a 6fbc
000000d0: 04ff 90bd 2476 803c a2be 573c 9629 9e3d
000000e0: 83a2 e13b 90a1 953c 86f7 133d f950 dfbc
000000f0: 462b 47bd 920a bebd 91f9 c5bd d03c ee3b
00000100: dc33 41bd 2750 f03c 7626 db3c c38f a03d
00000110: b5a3 22bc 1ca2 8a39 d460 913d 3661 8f3c
00000120: bb1b 433d bf98 57bd fcc8 8fbd 23bc 9e3d
00000130: a244 973d 72aa 15bd 51f5 8e3c adf5 b4bd
00000140: 58df 083c e991 bcbd defb 6b3d d8a2 c9bd
00000150: f652 bcbc 6c6e c43d b435 07bd 6a6a 6dbd
00000160: 5a76 b93d c76b 43bd 65cb b93c 7a5c 6a3d
00000170: 3b99 ed3c b6c3 8cbd 81b4 bc3d b10e 4b3d
00000180: e790 7cbd 7ec5 65bd f447 b5bc d85c 103d
00000190: 8adf 133d 5698 303c 46e8 853d 3ac1 c83d
000001a0: 8a23 a13c 0e57 183d 4b43 643d 1458 973c
000001b0: b5a1 9b3b f1a7 b43d ece9 883d 5a32 843d
000001c0: 23e6 23bd 2192 47bd a8b7 63bd d863 aebd
000001d0: 08ac 49bc 7526 5f3d a43d 553c 546a 17bd
000001e0: 13c5 6cbc 5b25 9fbd dc39 86bd 7f35 023c
000001f0: ff87 71bd 98bd 3a3c 4324 a63d 2300 c93c
00000200: 5103 9a3d 8d36 82bd 661d 5b3a bf3e ccbd
00000210: 5019 e139 3367 99bd 0f0d bd3d 7fc2 b0bd
00000220: 638a 023d 5250 78bd 9e7f da3c 93a0 f9ba
00000230: bc16 66bc ecc8 2bbd 89fb 793d c7f3 a1bc
00000240: 5087 ee3b b6c6 fbbc 3642 97bd e9a9 31bd
00000250: 440a b43d dbfe be3d 51d2 41bd ec85 103c
00000260: 7372 5d3c de40 b23d 11f8 4c3c e136 7c3b
00000270: 2130 fbbc 16bd a33c 0b85 ccbd b06c cebd
00000280: 566b 57bc dbe6 92bd d944 90bd 0146 8fbc
00000290: 8aa8 613d 401a 443d b2b7 17bd 2f0d f2bb
000002a0: 8fa8 b83d 7e1f a93c 4ec5 883d 7ca5 2bbd
000002b0: af08 bbbd 2c9a 46bd 344d f43b 594f d0bc
000002c0: 2051 67bd 974c c03d b5ff bebd ed8c c93a
000002d0: dad2 1d3d 80e9 e7bc 3aff 2c3d 4705 95b9
000002e0: 6a8a 77bd be2b 65bd 9c2c 3cbd 6edb c8bd
000002f0: 03af 793d a4c3 b53d 1fca 55bd 44fb 5c3b
00000300: 167d ff3c 5476 e03c ec01 68bd efe2 7fbd
00000310: 9c69 c43d 10d3 6b3d dfa4 b83d 686f 8c3d
00000320: 07d3 fbbb e908 8f3d 3b2c 59bb b73a 38ba
00000330: 25e1 31bd de45 9f3d 8778 aebc 13d0 6b3c
00000340: 706e a3bd 654e 0b3d 3d90 43bd 0101 babc
00000350: c0ec 13bc 1f6c 173d e17b 7d3b 6406 8d3c
00000360: b425 85bd 7a1c 9bbd f1bb 123d 845e 29bd
00000370: 93b5 b0bd 9e4a 29bd a426 c9bd d118 a23c
00000380: e532 ee3b 4cb4 bc3d 17fc 61bd 5d11 54bd
00000390: 9a37 c33c 048e d8bc bdf5 9e3d 52a1 743c
000003a0: eb6a 0bbb f189 1dbd cffa 763d 2314 40bd
000003b0: 0a81 233d c63c 833d 86b2 a0bd c1a1 b5bd
000003c0: e51e 67bd cfe5 423d 50df 63bd 3f8c 143c
000003d0: 92d3 733c 371d ab3c 4969 51bd c945 4a3b
000003e0: d047 8d3d d112 533d 221c 9b3c efed a2bd
000003f0: 81e0 3e3d 2668 23bd fad0 8e3d 3dba 293d

layers.2.layers.0.bias f4 [100]
-0.03933327 -0.036664862 -0.08498617 0.0038812624 0.063232675 -0.06126422 -0.010457508 0.066076845
-0.068035595 0.025273804 -0.025740009 0.08136544 -0.0021309315 0.08495562 -0.036054026 -0.077038065
0.001698204 -0.061358072 -0.05447295 0.066874415 0.088538885 -0.072029896 -0.10025394 0.023539955
-0.08100515 -0.018357009 0.04357726 0.04336304 0.01080701 0.04438248 -0.05677503 -0.022564458
-0.028585484 -0.09119405 -0.059308123 0.0074945264 0.020189611 -0.044115797 0.06433832 -0.054979708
0.027110089 0.08387327 0.07739716 0.11481431 0.034190994 -0.066513486 -0.030510217 -0.027493961
-0.070870236 -0.02083251 -0.09443844 -0.045256097 -0.095999576 0.08801189 0.031128535 0.11571862
0.059533305 0.09602946 -0.031698886 -0.03827137 -0.04577565 -0.09092136 -0.006942823 0.024624549
0.058490377 -0.008785399 0.044487026 0.040301587 0.019287523 0.036158767 -0.02783505 0.06447097
-0.09578021 0.012035543 0.04569219 0.088234775 0.056569804 -0.012485002 0.06833738 -0.09485745
-0.021101655 -0.03802613 0.060006145 0.09818907 -0.026891824 0.021348618 -0.020232134 -0.03211418
0.038227484 0.035849076 -0.05250344 0.021658896 0.11305678 -0.07887418 -0.01797417 -0.087541044
-0.017495714 0.09485734 0.060048908 -0.09664069
00000000: ec1b 21bd e52d 16bd 3b0d aebd c75c 7e3b
00000010: 2280 813d 31f0 7abd f855 2bbc 4c53 873d
00000020: 3f56 8bbd 020b cf3c b6dc d2bc eca2 a63d
00000030: 19a7 0bbb 36fd ad3d 63ad 13bd 22c6 9dbd
00000040: 4596 de3a 9a52 7bbd 071f 5fbd 74f5 883d
00000050: e053 b53d 6984 93bd f051 cdbd ddd6 c03c
00000060: 07e6 a5bd 7061 96bc 127e 323d 719d 313d
00000070: e30f 313c 67ca 353d ef8c 68bd 19d9 b8bc
00000080: 1b2c eabc f2c3 babd 13ed 72bd a594 f53b
00000090: af64 a53c c4b2 34bd cfc3 833d 6732 61bd
000000a0: fa15 de3c c0c5 ab3d 6782 9e3d c423 eb3d
000000b0: db0b 0c3d 3938 88bd 90f0 f9bc 043b e1bc
000000c0: 6a24 91bd f1a8 aabc f168 c1bd 755e 39bd
000000d0: 6d9b c4bd 943f b43d 4501 ff3c e2fd ec3d
000000e0: 32d9 733d 18ab c43d b1d6 01bd 71c2 1cbd
000000f0: 3f7f 3bbd fa34 babd 9f80 e3bb 6cb9 c93c
00000100: 9b93 6f3d a2f0 0fbc 0738 363d 4713 253d
00000110: de00 9e3c 371b 143d 5506 e4bc 5b09 843d
00000120: 6a28 c4bd ba30 453c bc27 3b3d 6fb4 b43d
00000130: bdb5 673d e58d 4cbc 78f4 8b3d 9f44 c2bd
00000140: 61dd acbc 4ac1 1bbd 01c9 753d 5a17 c93d
00000150: 3e4c dcbc 4ce3 ae3c dcbd a5bc 298a 03bd
00000160: 6c94 1c3d 7bd6 123d d90d 57bd ff6d b13c
00000170: 508a e73d c988 a1bd 913e 93bc b848 b3bd
00000180: 2c53 8fbc 9144 c23d d8f5 753d 8eeb c5bd

layers.3.weight f4 [2, 100]
-0.090904206 0.00022930681 -0.012997285 0.07205534 -0.040717434 0.07480362 -0.06061422 -0.022819458
-0.005661545 -0.05518268 0.0026721973 -0.026906056 -0.04975201 -0.08697629 -0.0007051138 0.093229555
0.038270213 -0.0821265 -0.052457944 0.0569875 -0.039674528 -0.012317551 -0.04726791 0.03603942
-0.0686156 -0.10455845 -0.07369435 -0.0921435 0.008552482 0.01422137 -0.033835478 0.033453964
0.0037518956 0.021967199 0.051378097 0.005596467 0.10041959 0.06999408 -0.06467377 0.07470483
-0.020902127 -0.008380688 -0.00022042094 -0.09827294 0.061599188 0.064197145 0.093390204 0.014252684
-0.028750485 -0.021761935 -0.03298149 -0.091470644 0.03157257 0.004350193 -0.04526485 -0.071194865
-0.027474634 0.011615794 0.07246018 0.036316395 0.0751733 0.07975055 -0.050360825 -0.0068951827
-0.09673574 -0.067664765 0.028544126 0.033932365 0.043302078 0.07856264 0.0364181 -0.053343967
-0.024383917 0.0047150427 0.047561947 -0.07417648 -0.051567502 0.037271295 0.033003304 0.09422517
0.080354005 -0.0479145 0.026066823 -0.07106445 -0.0038358085 -0.008138874 0.020976085 0.08185821
-0.07996511 0.07939393 0.06733288 -0.04849384 -0.039070413 -0.028034285 0.061737537 -0.026063003
0.029606152 -0.049998906 0.07630234 -0.017154714 0.10036565 -0.06175026 -0.024561604 0.07559658
0.07701645 -0.047060866 -0.076238364 -0.060277622 -0.07143691 -0.042214684 -0.05412186 -0.011106497
0.09428925 0.0007514594 -0.059163526 0.04891096 -0.057102483 -0.030188188 -0.010039535 0.015415881
-0.052830037 -0.068770476 -0.09679586 -0.0030128253 0.05427075 0.04218576 0.08054079 0.037717152
-0.070812725 0.013629939 -0.017372945 0.083804816 0.04588374 0.10745512 -0.08578493 0.00020191283
-0.08627768 0.02062898 -0.03588958 -0.041591704 0.12971687 -0.022928217 0.07932622 0.101628765
0.08484376 0.086793415 0.073158026 0.024155272 0.08948402 0.12090773 -0.068285525 0.024271889
0.077332884 -0.031925883 0.08906371 0.10793934 0.019855944 0.022929057 0.00072727154 0.103952184
-0.07765549 0.042397697 -0.049815673 0.082937494 0.0028131157 0.05677537 0.098098926 -0.0020910688
-0.012771363 0.11356215 0.10896119 0.068252 0.015423391 0.008388012 -0.05120661 0.14519814
0.07695126 0.08316658 -0.0628705 0.026787704 0.026293144 -0.024802016 0.016349547 0.050685275
-0.027449861 0.09420089 -0.08402284 0.00401969 -0.041305907 0.11750924 -0.02773453 -0.02238342
0.12764844 -0.06684369 -0.030130228 0.08725065 0.08889921 0.0055274265 -0.004830288 -0.043105915
00000000: fc2b babd 1472 7039 91f2 54bc c091 933d
00000010: 53c7 26bd a432 993d 9e46 78bd dfef babc
00000020: 7b84 b9bb 3c07 62bd 0820 2f3b 176a dcbc
00000030: c3c8 4bbd a020 b2bd 63d7 38ba 23ef be3d
00000040: 3ac1 1c3d f031 a8bd 24de 56bd ba6b 693d
00000050: c281 22bd 8ecf 49bc ff9b 41bd 129e 133d
00000060: 5686 8cbd be22 d6bd 10ed 96bd bbb5 bcbd
00000070: b61f 0c3c c000 693c 1297 0abd 0607 093d
00000080: 5de2 753b 8ef4 b33c d771 523d 9162 b73b
00000090: c9a8 cd3d 0e59 8f3d ae73 84bd d9fe 983d
000000a0: f03a abbc 274f 09bc cc20 67b9 5343 c9bd
000000b0: 6e4f 7c3d cb79 833d 5d43 bf3d 1784 693c
000000c0: 2386 ebbc 1646 b2bc 9917 07bd f654 bbbd
000000d0: 3d52 013d 108c 8e3b a367 39bd 9dce 91bd
000000e0: 7c12 e1bc 2c50 3e3c 0166 943d 80c0 143d
000000f0: 76f4 993d 4254 a33d 2747 4ebd fcf0 e1bb
00000100: 631d c6bd d393 8abd 5fd5 e93c aafc 0a3d
00000110: 855d 313d 73e5 a03d 252b 153d 347f 5abd
00000120: c8c0 c7bc a580 9a3b 51d0 423d d7e9 97bd
00000130: 7238 53bd c9a9 183d 792e 073d 20f9 c03d
00000140: a490 a43d ff41 44bd 178a d53c 3d8a 91bd
00000150: 3062 7bbb e958 05bc 0ad6 ab3c 47a5 a73d
00000160: bfc4 a3bd 4999 a23d d2e5 893d 7aa1 46bd
00000170: 4c08 20bd 28a8 e5bc 80e0 7c3d 1482 d5bc
00000180: 9a88 f23c a7cb 4cbd 6744 9c3d 0b88 8cbc
00000190: 828c cd3d d7ed 7cbd 6b35 c9bc 61d2 9a3d
000001a0: cdba 9d3d e5c2 40bd dc22 9cbd abe5 76bd
000001b0: 844d 92bd 4ee9 2cbd e2ae 5dbd 06f8 35bc
000001c0: b91a c13d 96fd 443a 7455 72bd dc56 483d
000001d0: 4be4 69bd 384d f7bc dd7c 24bc e492 7c3c
000001e0: 4f64 58bd 89d7 8cbd e83c c6bd d272 45bb
000001f0: 024b 5e3d faca 2c3d 92f2 a43d 4d7d 1a3d
00000200: 4306 91bd 1c50 5f3c b551 8ebc dca1 ab3d
00000210: 97f0 3b3d 6e11 dc3d 02b0 afbd 90b8 5339
00000220: 5ab2 b0bd 1bfe a83c f400 13bd 105c 2abd
00000230: 80d4 043e f5d3 bbbc c975 a23d be22 d03d
00000240: 91c2 ad3d bfc0 b13d e0d3 953d 47e1 c53c
00000250: 6643 b73d 799e f73d 48d9 8bbd d7d5 c63c
00000260: b460 9e3d b7c4 02bd 0967 b63d 4d0f dd3d
00000270: efa8 a23c b8d5 bb3c 5ea6 3e3a e2e4 d43d
00000280: d709 9fbd 35a9 2d3d 850b 4cbd 22db a93d
00000290: 405c 383b 4a8d 683d 17e8 c83d 500a 09bb
000002a0: fb3e 51bc 4693 e83d 0b27 df3d b4c7 8b3d
000002b0: 64b2 7c3c df6d 093c 06be 51bd d2ae 143e
000002c0: 9f98 9d3d 3d53 aa3d 40c2 80bd e371 db3c
000002d0: b864 d73c 992d cbbc 7cef 853c 5d9b 4f3d
000002e0: 88de e0bc 65ec c03d 2b14 acbd 9bb7 833b
000002f0: 6230 29bd afa8 f03d 8633 e3bc 6f5d b7bc
00000300: 46b6 023e 58e5 88bd abd3 f6bc 78b0 b23d
00000310: ca10 b63d 6a1f b53b 6447 9ebb d48f 30bd

layers.3.bias f4 [2]
-0.04362033 0.24003763
00000000: 3bab 32bd 6dcc 753e
