clients_data/clients_fair_trained_model/client4.pth (torch, 86087 bytes, 6 tensors)

layers.1.layers.0.weight f4 [100, 105]
0	0x3d99c0b1	0.07507456
1	0x3da57432	0.08078803
2	0xbcb909d8	-0.022587702
3	0x3db7aa96	0.089680836
4	0xbcaf192e	-0.021374311
5	0x3ca191c2	0.019722823
6	0xbd428103	-0.047486316
7	0x3d6a92b4	0.057268813
8	0x3db03062	0.08602978
9	0xbd91c679	-0.07117934
10	0x3dad4869	0.08461077
11	0x3c992bad	0.018697584
12	0x3d9278fb	0.071519814
13	0x3c58cd52	0.013232546
14	0x3d4312e9	0.047625456
15	0xbc6398f4	-0.013891447
16	0x3d99d8a5	0.07512025
17	0x3c697986	0.014250165
18	0xbd3ac5bc	-0.04559873
19	0x3cc9dc76	0.024641257
20	0xbd37ea61	-0.044901256
21	0xbc39add1	-0.011332945
22	0xbd227808	-0.039665252
23	0x3d84b606	0.06480031
24	0xbd9dc5b1	-0.07703722
25	0xbd383bed	-0.044979025
26	0xbcdfb772	-0.027309153
27	0xbd6f28b7	-0.058388438
28	0x3c211841	0.009832443
29	0xbdc60218	-0.09668368
30	0x3db218b9	0.08696122
31	0xbdaa03a9	-0.08301479
32	0x3d9a3a31	0.075306304
33	0x3c850b86	0.016240846
34	0xbd01a58b	-0.031652015
35	0x3d7634f6	0.0601091
36	0x3c741bea	0.014899233
37	0x3da24db6	0.079249784
38	0x3c3036d3	0.010755259
39	0xbcf97927	-0.030453278
40	0x3cd4a595	0.025957862
41	0xbcda190b	-0.02662327
42	0x3d27d738	0.040976733
43	0x3db28678	0.08717054
44	0x3d6751ec	0.05647461
45	0xbd2ea3dc	-0.042636737
46	0x3d6670ec	0.056260034
47	0x3c8f2242	0.01747239
48	0x3d4b9431	0.049701873
49	0xbd72d11d	-0.059281457
50	0xbdc55797	-0.09635847
51	0xbd1be2e1	-0.038058165
52	0xbd997fb1	-0.07495058
53	0x3da3aa2b	0.07991441
54	0x3ce5b324	0.028039522
55	0x3d257609	0.04039577
56	0x3cfc44a8	0.030794457
57	0xbae49e9b	-0.0017442288
58	0x3d9cb1b7	0.07651084
59	0xbd8e4f7d	-0.06948755
60	0x3bce36b1	0.006293141
61	0xbd88186d	-0.06645284
62	0x3cf6e7e2	0.030139867
63	0xbd0990b1	-0.033585254
64	0x3cf520ca	0.029922862
65	0xbca6677c	-0.020313017
66	0x3da5b679	0.080914445
67	0xbd6d0aa7	-0.057871487
68	0xbd6e4734	-0.058173373
69	0xbd6e4c03	-0.05817796
70	0x3db364b8	0.08759445
71	0x3d04939a	0.032367326
72	0x3dc049a9	0.093890496
73	0xbda4ea6c	-0.08052525
74	0xbdc63483	-0.096779846
75	0xbd9c55b6	-0.076335356
76	0xbd86678e	-0.0656272
77	0x3d221cc1	0.039578203
78	0x3d0f34bf	0.034962412
79	0x3da61174	0.08108798
80	0xbd4e5bdd	-0.050380576
81	0xbd8837d4	-0.06651273
82	0x3d5348e0	0.05158317
83	0xbd217b68	-0.03942433
84	0x3d72c8dc	0.059273586
85	0xbcbd54c1	-0.023111703
86	0x3d65b445	0.05608012
87	0xbd9b4404	-0.07581332
88	0xbd49a0a3	-0.04922546
89	0x3cf3bc58	0.029752895
90	0x3ca8a209	0.020585077
91	0xbccbbd1c	-0.024870448
92	0x3d6de192	0.05807645
93	0x3d875773	0.066084765
94	0xbd90e9ee	-0.070758685
95	0xbd5554cc	-0.05208282
96	0x3db6f109	0.089326926
97	0xbd06d623	-0.03291906
98	0xbd0da7c1	-0.03458381
99	0xbdc15f2c	-0.09441981
100	0xbd64d135	-0.055863578
101	0x3cc7cc1c	0.02438932
102	0xbc538ce0	-0.012912005
103	0xbd910d18	-0.070825756
104	0x3b160560	0.0022891387
105	0xbd88542d	-0.0665668
106	0xbda961a6	-0.08270578
107	0xbd5bede4	-0.053693667
108	0xbdaee1d6	-0.085391685
109	0xbd7f8983	-0.062387
110	0x3dc79e32	0.0974697
111	0x3c973ce7	0.018461658
112	0x3cf74986	0.030186426
113	0xbdba690b	-0.091020666
114	0xbd830c6d	-0.063988544
115	0xbd050335	-0.03247376
116	0x3c7f1be4	0.0155706145
117	0xbdb081c5	-0.086185016
118	0xbd2d4c37	-0.042309012
119	0xbd6ebba9	-0.058284435
120	0x39d8cc3a	0.0004135089
121	0xbd14ca6a	-0.03632585
122	0xbbdb966e	-0.006701282
123	0xbd876e37	-0.06612819
124	0xbd891f63	-0.0669544
125	0xbd694e3f	-0.056959387
126	0xbd0895fd	-0.033346165
127	0xbd9df557	-0.077128105
128	0x3da7a2ae	0.081853256
129	0xbc9d9ac6	-0.01923884
130	0x3dac02cc	0.08398971
131	0x3cfa2193	0.030533588
132	0xbda85fd7	-0.08221405
133	0x3d898080	0.067139626
134	0xbcdca853	-0.026935732
135	0xbd1ae218	-0.037813276
136	0xbda5ac3c	-0.08089492
137	0xbdc66df2	-0.09688939
138	0x3ce4bbb6	0.027921539
139	0xbcae681f	-0.021289883
140	0x3d1bd7b7	0.03804752
141	0xbda392e2	-0.07987
142	0x3d933b95	0.07189099
143	0xbd9219d2	-0.07133831
144	0xbc887d54	-0.016661324
145	0x3ca8f8e2	0.02062649
146	0x3d503cbe	0.05083918
147	0x3d9fcb2d	0.078024246
148	0x3db55318	0.088537395
149	0xbd9dd904	-0.07707408
150	0x3cc9182a	0.024547655
151	0xbd2ba92d	-0.041909385
152	0xbc2ed48d	-0.010670793
153	0xbd95bc99	-0.07311363
154	0x3db6bba0	0.089225054
155	0xbd91bc5b	-0.07116004
156	0x3d54e6da	0.05197797
157	0x3d0af1b9	0.03392193
158	0x3cfece61	0.031104269
159	0xbd595829	-0.05306259
160	0x3db5b98b	0.0887328
161	0x3caf52d1	0.021401795
162	0x3c4e5016	0.012592336
163	0xbdaf6c97	-0.08565634
164	0x3d22d4f5	0.039753873
165	0xbc5bfde5	-0.013427232
166	0xbd37517e	-0.04475545
167	0x3dabf902	0.08397104
168	0x3cb51449	0.0221044
169	0xbd5d5554	-0.054036453
170	0xbd4aa3fe	-0.0494728
171	0xbb94f598	-0.0045458786
172	0x3d5caaf8	0.053873986
173	0xbccbee2b	-0.02489384
174	0xbd63d410	-0.05562216
175	0xbd08d0e1	-0.033402327
176	0xbd953ec8	-0.07287365
177	0x3d0dff64	0.034667388
178	0x3d9a8868	0.07545549
179	0xbdbc1580	-0.09183788
180	0x3cb8a92f	0.02254161
181	0x3d4e9caa	0.050442375
182	0x3c92dea2	0.017928425
183	0xbd0e48f1	-0.03473753
184	0x3d50c99a	0.050973512
185	0x3d5251e8	0.051347643
186	0x3d160621	0.03662694
187	0xbc8ee4f2	-0.017443154
188	0xbcd350e2	-0.025795404
189	0x3c2dbfea	0.010604838
190	0xbc8d4084	-0.017242678
191	0xbcedf73d	-0.029048556
192	0x3d7f6b57	0.062358227
193	0x3dabcefb	0.08389088
194	0xbc1e49d0	-0.009661153
195	0xbcb2cd80	-0.021826506
196	0x3af4eafe	0.0018685756
197	0xbbbd6b2a	-0.005780597
198	0x3cbf9e56	0.02339093
199	0x3cdf0e07	0.027228368
200	0xbdb573a7	-0.088599496
201	0xbd136b1a	-0.035990812
202	0x3da85173	0.0821866
203	0x3d1bd5ad	0.038045574
204	0xbb9e817e	-0.004837214
205	0xbd70cb26	-0.058787487
206	0xbd74759d	-0.059682477
207	0xbdb2f49a	-0.0873806
208	0xbd022d9b	-0.031781774
209	0x3d06fd73	0.03295655
210	0x3d8061dc	0.06268665
211	0x3d374ae0	0.04474914
212	0xbdb0957b	-0.08622261
213	0xbd6ecf66	-0.05830326
214	0xbc7496f6	-0.01492857
215	0x3dc13290	0.09433472
216	0x3c654ab8	0.013994865
217	0xbccec43f	-0.025240062
218	0x3d255fb4	0.040374473
219	0xbd18ce19	-0.037305925
220	0xbd8028bb	-0.06257769
221	0x3d920083	0.07129004
222	0xbd34ef03	-0.04417325
223	0xbca48472	-0.020082686
224	0xbdc65aa7	-0.09685259
225	0x3d8556f0	0.06510723
226	0x3d974951	0.07387031
227	0x3d11e0a9	0.035614643
228	0xbd8b241a	-0.06793995
229	0xbdc50351	-0.09619773
230	0xbda19983	-0.07890608
231	0x3d9461d9	0.072452255
232	0x3d3d44ec	0.046208307
233	0x3da91a69	0.082569905
234	0x3d4ef35f	0.050525066
235	0x3cca8e6b	0.024726113
236	0xb81229a4	-3.4847893e-05
237	0xbd9813a9	-0.07425625
238	0xbdab4773	-0.08363237
239	0xbdba9509	-0.091104575
240	0x3d223234	0.03959866
241	0xbd441441	-0.047870878
242	0xbca133e6	-0.019678067
243	0xbd660bc3	-0.05616356
244	0xbc938e3a	-0.018012155
245	0xbd8da0f0	-0.06915462
246	0xbd8342c8	-0.06409222
247	0x3d05807f	0.032593247
248	0xbce5b972	-0.028042529
249	0x3d78bc4c	0.06072645
250	0xbd00c505	-0.031437892
251	0xbd9303c2	-0.07178451
252	0xbc8b42cb	-0.016999623
253	0xbd42ffe7	-0.04760733
254	0xbcfae9a1	-0.030628981
255	0xbdbe583d	-0.09294174

layers.1.layers.0.bias f4 [100]
0	0x3d82a7ec	0.06379685
1	0x3d2b1645	0.041769285
2	0xbbb6a148	-0.0055734254
3	0x3d626260	0.0552696
4	0xbb87571e	-0.004130258
5	0xbc57986f	-0.013158902
6	0xbd184119	-0.037171457
7	0xbdab292a	-0.08357461
8	0x3da75700	0.08170891
9	0xbd703b1a	-0.058650114
10	0xbdb61e40	-0.088924885
11	0xbd3ae185	-0.04562523
12	0x3c936bd8	0.01799576
13	0xbc10dba7	-0.008841432
14	0x3d368a78	0.044565648
15	0x3d7857c9	0.060630593
16	0x3d6b55ad	0.057454754
17	0xbda93c64	-0.08263472
18	0x3d264bce	0.040599637
19	0x3d50804e	0.05090361
20	0xbd658661	-0.056036357
21	0x3a724b58	0.00092427945
22	0x3c8dc7a6	0.017307114
23	0x3c8716bf	0.016490338
24	0x3d5c8e38	0.053846568
25	0x3da6dae4	0.08147219
26	0x3dbf50d2	0.09341587
27	0x3cbb70c1	0.022880914
28	0x3d5fe2d2	0.054659672
29	0x3d285632	0.041097827
30	0xbd486664	-0.048925772
31	0x3d851536	0.06498186
32	0xbc0c423e	-0.008560715
33	0x3d35f356	0.044421516
34	0xbd848f9a	-0.06472702
35	0x3da5645a	0.08075781
36	0x3ca9e3c0	0.020738482
37	0x3cbb2fe5	0.022849986
38	0xbdb3d761	-0.08781315
39	0xbbf4e0a9	-0.0074730706
40	0xbd037a9b	-0.032099348
41	0x3dbc3b4c	0.091909975
42	0xbdb68a4d	-0.089130975
43	0xbcbe2a36	-0.023213487
44	0xbd43ae80	-0.047773838
45	0xbd95af7c	-0.073088616
46	0x3d1c180a	0.038108863
47	0xbd835342	-0.064123645
48	0x3d3d14b7	0.046162333
49	0x3c42ff8b	0.0119017465
50	0xbd4abaaf	-0.04949444
51	0xbc152802	-0.009103777
52	0x3c4db396	0.012555024
53	0xbd2cb767	-0.042167094
54	0xbd7e71a7	-0.062120106
55	0xbd5e511f	-0.05427658
56	0x3cd66446	0.026170861
57	0xbdae9802	-0.08525087
58	0x3d80a197	0.06280821
59	0x3d8860eb	0.06659111
60	0x3dbd92d9	0.092565246
61	0x3db6f5c0	0.08933592
62	0xbd62d6cf	-0.05538064
63	0xbd2e6269	-0.04257432
64	0x3d8fb7d8	0.07017487
65	0xbc6c81fd	-0.0144352885
66	0xbd8eae9c	-0.06966898
67	0xbd34f987	-0.04418328
68	0x3d8ba81b	0.06819173
69	0xbd6000cb	-0.054688256
70	0x3d0cb4ec	0.034352228
71	0xbda5cdf1	-0.08095921
72	0x3d8720e6	0.06598072
73	0x3cdcc916	0.026951354
74	0x3d90a878	0.07063383
75	0x3b6795d8	0.0035337117
76	0x3d4813a3	0.048846852
77	0x3da66d62	0.08126332
78	0xbc43ea31	-0.011957691
79	0xbd972283	-0.073796295
80	0xbd89c038	-0.06726116
81	0x3d7c0172	0.061524816
82	0xbd80cc9e	-0.06289028
83	0xbdb2713f	-0.08713006
84	0xbdaae933	-0.083452605
85	0xbd2a151c	-0.041524038
86	0x3c963036	0.018333536
87	0xbdb3f779	-0.08787436
88	0xbd3d785e	-0.04625737
89	0x3dbe2e6b	0.09286197
90	0xbc6c4423	-0.014420542
91	0xbcfa87ed	-0.030582393
92	0x3d4d149c	0.050068483
93	0xbda3fbfd	-0.08007047
94	0xbd9d0bdb	-0.07668277
95	0x3c9abb8a	0.018888254
96	0x3d0d1e96	0.034452997
97	0xbdc54127	-0.096315674
98	0x3db18e31	0.08669699
99	0xbd15396a	-0.036431707

layers.2.layers.0.weight f4 [100, 100]
0	0x3c847a9f	0.016171752
1	0x3d97d14a	0.074129656
2	0x3d1b5eaf	0.037932094
3	0x3d03d1f3	0.032182645
4	0xbdb942d2	-0.09045948
5	0xbdbc67bd	-0.09199474
6	0x3d1c7f7e	0.038207524
7	0x3b884581	0.004158676
8	0x3d7dcb2a	0.06196133
9	0x3d545471	0.051838342
10	0xbda255f4	-0.079265505
11	0x3c9e50b8	0.0193256
12	0xbd9eab40	-0.07747507
13	0xbd5f6db0	-0.054547966
14	0x3cea0e34	0.028571226
15	0xbb9271cb	-0.0044691316
16	0xbd80798e	-0.06273185
17	0x3d120a68	0.035654455
18	0x3d8eea86	0.069783255
19	0xbdc6d4a9	-0.097085305
20	0x3dc16428	0.094429314
21	0x3d654051	0.05596954
22	0xbbff926b	-0.007799437
23	0xbdc4fb58	-0.096182525
24	0xbd2ab208	-0.04167369
25	0x3cffd85b	0.031231096
26	0xbd2d0de9	-0.042249594
27	0xbd07b5ea	-0.03313247
28	0xbd248331	-0.040164176
29	0x3db1ff19	0.08691234
30	0x3db2ce9b	0.08730813
31	0xbd9d9584	-0.076945335
32	0xbcfd1c01	-0.030897142
33	0x3dbce280	0.09222889
34	0xbba353b6	-0.0049843444
35	0xbd48cda3	-0.049024235
36	0x3c5560ca	0.013023565
37	0x3da3762a	0.079815224
38	0xbc46f43e	-0.012143193
39	0xbdbfa6dc	-0.09357998
40	0xbd068fa0	-0.032851815
41	0x3d529912	0.05141551
42	0xbc4eda73	-0.012625325
43	0x3d947be1	0.072501905
44	0x3d10f082	0.035385616
45	0x3b113aae	0.002216022
46	0x3d204844	0.039131418
47	0xbc3a355f	-0.011365264
48	0xbdae2263	-0.085026525
49	0xbdae9f3d	-0.08526466
50	0xbd9e81b3	-0.07739582
51	0xbc769745	-0.015050714
52	0xbd91e72c	-0.07124171
53	0x3c716556	0.014733633
54	0x3c53b874	0.012922395
55	0x3d9d3c8a	0.076775625
56	0x3bd292f1	0.006426208
57	0x3c905a3f	0.017621158
58	0x3d131018	0.03590402
59	0xbce14377	-0.02749799
60	0xbd485b6d	-0.048915315
61	0xbdbd77d5	-0.09251372
62	0xbdc62c1b	-0.09676381
63	0x3bf4280c	0.007451063
64	0xbd418ef4	-0.04725547
65	0x3cf3c11b	0.029755166
66	0x3cda1fe0	0.026626527
67	0x3da09bd0	0.07842219
68	0xbc29fd78	-0.010375373
69	0x398ac7a5	0.00026470158
70	0x3d8ec961	0.06972004
71	0x3c910723	0.017703598
72	0x3d41e3ca	0.047336377
73	0xbd575af1	-0.052576963
74	0xbd90f641	-0.07078219
75	0x3d9ef6e9	0.07761938
76	0x3d975625	0.07389478
77	0xbd15d1e8	-0.036577135
78	0x3c92256d	0.017840112
79	0xbdb538cc	-0.08848724
80	0x3bfe7f5a	0.0077666463
81	0xbdbd330a	-0.092382506
82	0x3d6c1adf	0.057642814
83	0xbdc9caca	-0.09853132
84	0xbcbc7bdf	-0.023008285
85	0x3dc3ce84	0.09560874
86	0xbd08fe62	-0.033445723
87	0xbd6d9286	-0.058001064
88	0x3dba5167	0.090975575
89	0xbd45fed6	-0.048338734
90	0x3cbb1d53	0.022841131
91	0x3d69a628	0.057043225
92	0x3ceb3630	0.028712362
93	0xbd8cfdb4	-0.068843275
94	0x3dbc75ee	0.09202181
95	0x3d4a3934	0.04937096
96	0xbd7ca69b	-0.061682325
97	0xbd688c1e	-0.05677425
98	0xbcb39d35	-0.021925548
99	0x3d0e4900	0.034737587
100	0x3d131207	0.035905864
101	0x3c2d1d07	0.010566003
102	0x3d85e277	0.06537335
103	0x3dc98bb1	0.09841097
104	0x3ca24823	0.019809788
105	0x3d17767e	0.036978237
106	0x3d63f216	0.055650793
107	0x3c978a3e	0.018498536
108	0x3ba59291	0.0050528725
109	0x3db481f3	0.08813848
110	0x3d895df3	0.067073725
111	0x3d83a768	0.064284146
112	0xbd2552a7	-0.040362027
113	0xbd46f707	-0.048575427
114	0xbd624fbd	-0.055251826
115	0xbdae5b50	-0.0851351
116	0xbc4e4fd2	-0.012592273
117	0x3d5fc006	0.054626487
118	0x3c5e70d1	0.013576702
119	0xbd1810aa	-0.037125267
120	0xbc6a914f	-0.014316871
121	0xbd9f17d0	-0.07768214
122	0xbd86297c	-0.06550881
123	0x3bfefea4	0.0077818204
124	0xbd71929a	-0.0589777
125	0x3c385d2a	0.011252681
126	0x3da62cff	0.08114051
127	0x3ccaed85	0.024771461
128	0x3d998508	0.07496077
129	0xbd828bcc	-0.063743204
130	0x3a3f2f32	0.00072931044
131	0xbdcc1ebc	-0.099667996
132	0x393de752	0.00018110618
133	0xbd98f8bc	-0.07469317
134	0x3dbce4b7	0.092233114
135	0xbdb0ac68	-0.08626634
136	0x3d023e64	0.03179778
137	0xbd7727d5	-0.06034072
138	0x3cda0d6d	0.02661773
139	0xbadd876f	-0.0016901324
140	0xbc61faa9	-0.013792672
141	0xbd2bf672	-0.041983075
142	0x3d7afd89	0.061276946
143	0xbc9e1715	-0.019298116
144	0x3bef2303	0.007297875
145	0xbcfb81db	-0.030701568
146	0xbd97aef1	-0.07406414
147	0xbd33a68d	-0.043860007
148	0x3db42bd2	0.087974206
149	0x3dbf276a	0.093336895
150	0xbd41dd01	-0.047329906
151	0x3c0f54f5	0.008748283
152	0x3c638453	0.013886529
153	0x3db2f402	0.08737947
154	0x3c50ec90	0.012751713
155	0x3b88d03f	0.0041752155
156	0xbcfb3547	-0.030665053
157	0x3ca2fe61	0.019896688
158	0xbdcc8555	-0.099863686
159	0xbdce5ad3	-0.10075917
160	0xbc51578e	-0.012777222
161	0xbd931918	-0.07182521
162	0xbd902ebe	-0.07040165
163	0xbc90a9b5	-0.017659048
164	0x3d6272f9	0.055285428
165	0x3d435029	0.04768387
166	0xbd17ebdc	-0.037090167
167	0xbbf63671	-0.007513814
168	0x3db9bc4f	0.0906912
169	0x3ca7e7d6	0.02049629
170	0x3d892cf0	0.06698024
171	0xbd2c7bb5	-0.042110164
172	0xbdba7243	-0.09103825
173	0xbd459358	-0.04823622
174	0x3bee32e5	0.0072692507
175	0xbcd0f88e	-0.025509145
176	0xbd66434d	-0.056216527
177	0x3dc0b13c	0.09408805
178	0xbdbf2733	-0.093336485
179	0x3ae1a62e	0.0017215663
180	0x3d1da341	0.03848577
181	0xbce72a40	-0.028218389
182	0x3d2d0926	0.042245053
183	0xb98663e3	-0.00025632893
184	0xbd771cf4	-0.060330346
185	0xbd65d4ea	-0.056111254
186	0xbd3a0903	-0.04541875
187	0xbdc86fbf	-0.09786939
188	0x3d7a7a52	0.06115181
189	0x3db4e080	0.088318825
190	0xbd56d192	-0.052445956
191	0x3b62f7bb	0.0034632522
192	0x3cff3aaf	0.031155912
193	0x3ce0fc2c	0.027463995
194	0xbd678fae	-0.056533508
195	0xbd7f8eb8	-0.062391967
196	0x3dc478e6	0.09593372
197	0x3d6be1c8	0.05758837
198	0x3db98941	0.09059382
199	0x3d8ca22f	0.068668716
200	0xbbfd1c95	-0.0077243545
201	0x3d8eeb9a	0.06978531
202	0xbb5d7b19	-0.0033795296
203	0xba3a82ce	-0.00071148283
204	0xbd31eab3	-0.043436717
205	0x3d9f0336	0.07764284
206	0xbcaf8ce6	-0.02142949
207	0x3c6b63d6	0.014367064
208	0xbda360be	-0.079774365
209	0x3d0b27d2	0.033973522
210	0xbd439fac	-0.047759697
211	0xbcbaca32	-0.022801492
212	0xbc15b000	-0.0091362
213	0x3d173490	0.036915362
214	0x3b7bb3d1	0.003840674
215	0x3c8cc232	0.017182443
216	0xbd858659	-0.065197654
217	0xbd9b15c4	-0.07572511
218	0x3d1307b0	0.035896003
219	0xbd29cdad	-0.041455913
220	0xbdb0999f	-0.08623051
221	0xbd2945ae	-0.041326217
222	0xbdc94134	-0.0982689
223	0x3ca2121b	0.019784024
224	0x3bed89cb	0.007249092
225	0x3dbc9f5d	0.09210084
226	0xbd62265a	-0.055212356
227	0xbd53fe71	-0.051756326
228	0x3cc189f1	0.023625346
229	0xbcd87293	-0.02642182
230	0x3d9e998e	0.07744132
231	0x3c732de6	0.014842486
232	0xbb0ee633	-0.002180469
233	0xbd1e48cf	-0.038643654
234	0x3d76d866	0.060264967
235	0xbd402b68	-0.046916395
236	0x3d234a0d	0.039865542
237	0x3d835271	0.06412209
238	0xbda0e7a1	-0.0785668
239	0xbdb5b75d	-0.088728644
240	0xbd67583a	-0.056480624
241	0x3d42db9c	0.047572717
242	0xbd6415be	-0.055684797
243	0x3c14ceb5	0.009082486
244	0x3c7453e0	0.0149125755
245	0x3caa5891	0.020794185
246	0xbd51d660	-0.051229835
247	0x3b45699e	0.0030122767
248	0x3d8d47ec	0.06898484
249	0x3d532b09	0.051554713
250	0x3c9a64d3	0.018846905
251	0xbda33b43	-0.07970288
252	0x3d3e95f0	0.04652971
253	0xbd23599b	-0.039880376
254	0x3d8ed202	0.069736496
255	0x3d2964c6	0.04135587

layers.2.layers.0.bias f4 [100]
0	0xbd23ceb0	-0.039992034
1	0xbd14156c	-0.036153242
2	0xbdae7d77	-0.08520024
3	0x3b7e5f8e	0.003881428
4	0x3d7f9719	0.062399957
5	0xbd780dea	-0.060560144
6	0xbc297e46	-0.010345047
7	0x3d8843e0	0.06653571
8	0xbd89feb4	-0.06738034
9	0x3cd0e770	0.025500983
10	0xbcd2e0ea	-0.025742013
11	0x3da6eb34	0.0815033
12	0xbadab3f5	-0.0016685711
13	0x3dad6b75	0.084677614
14	0xbd1092d3	-0.035296272
15	0xbd9e5ee1	-0.077329405
16	0x3ac52078	0.0015039584
17	0xbd7b8a36	-0.061411105
18	0xbd5f2584	-0.054479137
19	0x3d893245	0.06699041
20	0x3db579ce	0.08861123
21	0xbd92ac73	-0.07161798
22	0xbdcc634a	-0.099798754
23	0x3cc06028	0.02348335
24	0xbda6a738	-0.08137363
25	0xbc9b73de	-0.018976148
26	0x3d2f618c	0.042817637
27	0x3d2e4ddd	0.042554725
28	0x3c33eca1	0.01098171
29	0x3d35821a	0.044313528
30	0xbd6879d5	-0.056756813
31	0xbcc4b7d0	-0.02401343
32	0xbcea74ab	-0.028620085
33	0xbdbe07d6	-0.09278838
34	0xbd734f6f	-0.059401926
35	0x3bef32e9	0.00729977
36	0x3ca8f3e9	0.020624118
37	0xbd3539c9	-0.04424456
38	0x3d83b5c2	0.06431152
39	0xbd60bbaa	-0.05486647
40	0x3cd12d4b	0.025534293
41	0x3dabd208	0.0838967
42	0x3d9c0fed	0.07620225
43	0x3de4a564	0.11164358
44	0x3d09b111	0.03361613
45	0xbd88202e	-0.06646763
46	0xbcfa754e	-0.030573513
47	0xbce2918f	-0.027657298
48	0xbd91945a	-0.07108374
49	0xbcb3bcc6	-0.0219406
50	0xbdc1516b	-0.09439357
51	0xbd39d112	-0.0453654
52	0xbdc4058d	-0.09571371
53	0x3db4c2f8	0.0882625
54	0x3cf5f239	0.030022727
55	0x3debe70a	0.115186766
56	0x3d740f96	0.059585176
57	0x3dc47d21	0.09594179
58	0xbd021b1f	-0.031764146
59	0xbd1ea9c2	-0.038736112
60	0xbd3aa43f	-0.045566794
61	0xbdba754b	-0.09104403
62	0xbbe6e8cf	-0.007046796
63	0x3cbf3c3b	0.02334415
64	0x3d6e1f21	0.058135156
65	0xbc1473bc	-0.009060796
66	0x3d325c1c	0.043544874
67	0x3d259875	0.040428597
68	0x3c9d8c71	0.019232007
69	0x3d0e57b8	0.034751624
70	0xbcecdab8	-0.028912887
71	0x3d8262b7	0.063664846
72	0xbdc4849c	-0.09595606
73	0x3c453f84	0.012039069
74	0x3d3bfddd	0.0458964
75	0x3db0c4a7	0.086312585
76	0x3d5f7563	0.054555308
77	0xbc496fe7	-0.012294746
78	0x3d8b64fb	0.0680637
79	0xbdc248ee	-0.094865665
80	0xbcad2019	-0.02113347
81	0xbd1c0de9	-0.038099203
82	0x3d752f9f	0.05985987
83	0x3dc7b39b	0.09751054
84	0xbcddc47b	-0.027071228
85	0x3ca7a4cc	0.020464323
86	0xbca777c2	-0.020442847
87	0xbd0305f7	-0.03198811
88	0x3d1c8837	0.038215842
89	0x3d1039b7	0.03521129
90	0xbd5401e9	-0.051759634
91	0x3cb1a144	0.021683343
92	0x3de3c182	0.11120893
93	0xbd9f6f29	-0.07784874
94	0xbc916e91	-0.017752917
95	0xbdb39976	-0.08769505
96	0xbc92a212	-0.017899547
97	0x3dc1df94	0.09466472
98	0x3d779ea1	0.060454015
99	0xbdc5c4da	-0.09656687

layers.3.weight f4 [2, 100]
0	0xbdb9c6c4	-0.09071115
1	0x3a0cd0a4	0.0005371666
2	0xbc4f1703	-0.012639764
3	0x3d928de9	0.071559735
4	0xbd24e464	-0.040256873
5	0x3d9a8123	0.07544162
6	0xbd77dcf0	-0.060513437
7	0xbcb5abc3	-0.022176629
8	0xbbbb89c8	-0.005723212
9	0xbd5f7858	-0.054558128
10	0x3aa19d24	0.0012330157
11	0xbcdc9173	-0.026924824
12	0xbd4bbb87	-0.049739387
13	0xbdb0c9bf	-0.0863223
14	0xb9eae259	-0.000448006
15	0x3dbf521e	0.093418345
16	0x3d1cba05	0.03826334
17	0xbda7018b	-0.08154591
18	0xbd5619d4	-0.052270725
19	0x3d679fc5	0.056548852
20	0xbd217cea	-0.039425768
21	0xbc3ab262	-0.011395069
22	0xbd40a292	-0.04703004
23	0x3d19c75a	0.037543632
24	0xbd8c2320	-0.06842637
25	0xbdd5db7e	-0.104422554
26	0xbd96d3af	-0.07364594
27	0xbdbad45a	-0.09122534
28	0x3c1b08ac	0.009462517
29	0x3c7098da	0.01468488
30	0xbd0823a0	-0.0332371
31	0x3d0b0339	0.03393862
32	0x3b5d23e2	0.0033743312
33	0x3cb70a75	0.022343853
34	0x3d51d3c4	0.051227346
35	0x3bd474c6	0.006483647
36	0x3dcd99bc	0.10039088
37	0x3d90011b	0.07031461
38	0xbd841205	-0.064487495
39	0x3d98da64	0.0746353
40	0xbca201e9	-0.019776301
41	0xbc0a6e0d	-0.00844909
42	0x3a0ed6b6	0.00054488645
43	0xbdc2a23c	-0.095036
44	0x3d7e98c7	0.06215742
45	0x3d83f1b5	0.06442586
46	0x3dbf6dae	0.093470916
47	0x3c716e81	0.014735819
48	0xbce853bb	-0.028360238
49	0xbca89e3c	-0.020583265
50	0xbd072b48	-0.03300026
51	0xbdbb764f	-0.09153425
52	0x3d02239b	0.031772237
53	0x3b9533ae	0.00455328
54	0xbd3c07ff	-0.045906063
55	0xbd931d60	-0.07183337
56	0xbce27bbb	-0.02764689
57	0x3c45454c	0.012040447
58	0x3d94bbe3	0.07262399
59	0x3d15487e	0.036446087
60	0x3d997885	0.074936904
61	0x3da4aa01	0.08040238
62	0xbd4d1597	-0.050069418
63	0xbbc84240	-0.0061114132
64	0xbdc46921	-0.09590364
65	0xbd8919c5	-0.06694368
66	0x3ceb9393	0.028756892
67	0x3d095123	0.033524644
68	0x3d30426d	0.0430321
69	0x3da2340e	0.07920085
70	0x3d161f1f	0.036650773
71	0xbd59c9d5	-0.053170998
72	0xbcc3fb5a	-0.023923565
73	0x3b9894b6	0.0046563996
74	0x3d431dc9	0.047635827
75	0xbd95cc44	-0.07314351
76	0xbd4e9b0c	-0.050440833
77	0x3d18d2c6	0.037310384
78	0x3d06ce31	0.032911483
79	0x3dc15377	0.09439748
80	0x3da5c5e1	0.08094383
81	0xbd443e80	-0.047911167
82	0x3cda159c	0.026621632
83	0xbd916aca	-0.071004465
84	0xbb796102	-0.0038052206
85	0xbbf32d7d	-0.007421194
86	0x3caaab70	0.0208337
87	0x3da87fb5	0.08227483
88	0xbda432ec	-0.08017525
89	0x3da63ba2	0.08116843
90	0x3d8a7abe	0.067616925
91	0xbd470d54	-0.048596695
92	0xbd1b7744	-0.037955537
93	0xbce06a01	-0.027394297
94	0x3d7f305e	0.062301986
95	0xbcd68fe8	-0.026191667
96	0x3cf70589	0.030154007
97	0xbd4a6ef5	-0.049422223
98	0x3d9d6bb5	0.07686559
99	0xbc913276	-0.017724257
100	0x3dcc58f4	0.09977904
101	0xbd804566	-0.06263237
102	0xbcd2cc1c	-0.025732093
103	0x3d9e266c	0.07722172
104	0x3d9a6d9f	0.0754044
105	0xbd4885f9	-0.04895589
106	0xbd9d3ce3	-0.07677629
107	0xbd7e5f6e	-0.062102728
108	0xbd91dced	-0.071222164
109	0xbd3515fb	-0.044210415
110	0xbd4c2194	-0.04983671
111	0xbc35ad78	-0.011088721
112	0x3dc128e0	0.094316244
113	0xbab40cf6	-0.0013736773
114	0xbd75bf1f	-0.05999672
115	0x3d45f718	0.04833135
116	0xbd69df2a	-0.05709759
117	0xbd02d798	-0.031943887
118	0xbc2d43fe	-0.010575293
119	0x3c8925c2	0.016741637
120	0xbd5c0dc0	-0.05372405
121	0xbd9267d7	-0.07148712
122	0xbdc7ab1a	-0.09749432
123	0xbbfa776e	-0.0076436317
124	0x3d5be78d	0.05368762
125	0x3d2ad275	0.041704614
126	0x3da4937e	0.080359444
127	0x3d0dcca5	0.034618992
128	0xbd96de0f	-0.07366573
129	0x3c497777	0.012296549
130	0xbc9db6f9	-0.019252287
131	0x3da86280	0.082219124
132	0x3d4184df	0.047245856
133	0x3dd9c483	0.10633185
134	0xbdaeb429	-0.085304566
135	0xbb30b45c	-0.0026962971
136	0xbdb0b214	-0.08627716
137	0x3ca10adf	0.019658504
138	0xbd15bf4c	-0.036559388
139	0xbd299e67	-0.04141083
140	0x3e012700	0.12612534
141	0xbcba92df	-0.022775112
142	0x3d9d455d	0.076792456
143	0x3dbb6fa5	0.09152154
144	0x3daa4833	0.08314552
145	0x3db05603	0.086101554
146	0x3d9544c5	0.07288507
147	0x3cb8d1f2	0.022561047
148	0x3db4a991	0.08821405
149	0x3defe3c6	0.11713366
150	0xbd8bb5aa	-0.06821759
151	0x3cc8b4b8	0.024500236
152	0x3d9da5b5	0.07697622
153	0xbd05f4e0	-0.032704234
154	0x3dba0242	0.09082462
155	0x3de096db	0.109662734
156	0x3ca65a9a	0.020306874
157	0x3caf0277	0.02136348
158	0x39807ac0	0.00024505518
159	0x3dd45d70	0.10369384
160	0xbd9d9e72	-0.07696237
161	0x3d258fec	0.040420458
162	0xbd4fa1e5	-0.050691504
163	0x3da4d3b7	0.08048194
164	0x391825a6	0.00014509875
165	0x3d5f4459	0.05450854
166	0x3dc78581	0.09742261
167	0xba54f4f7	-0.0008123661
168	0xbc43c53d	-0.011948881
169	0x3de47b5e	0.11156343
170	0x3ddda84d	0.108231165
171	0x3d8a8950	0.067644715
172	0x3c6581c9	0.014007994
173	0x3c0cda2e	0.00859694
174	0xbd525fa2	-0.051360734
175	0x3e110aa4	0.14164215
176	0x3d96439c	0.07337114
177	0x3daa0a9f	0.08302807
178	0xbd8039fc	-0.0626106
179	0x3cd78b9a	0.026311684
180	0x3cc8a2dc	0.02449172
181	0xbccb25d6	-0.024798315
182	0x3c6f972a	0.014623443
183	0x3d4ed606	0.050497077
184	0xbce1cb8c	-0.027562879
185	0x3dbc84e0	0.092050314
186	0xbdab42ec	-0.08362374
187	0x3b2cb831	0.0026354904
188	0xbd267aea	-0.040644564
189	0x3de5431a	0.11194439
190	0xbceabfb0	-0.028655857
191	0xbcb50379	-0.022096382
192	0x3dfdf0e9	0.123994656
193	0xbd8cfb39	-0.068838544
194	0xbd023597	-0.03178939
195	0x3db372e1	0.08762146
196	0x3db2c14a	0.08728273
197	0x3b7712e2	0.0037700464
198	0xbbd5d09b	-0.006525112
199	0xbd28dc03	-0.041225445

layers.3.bias f4 [2]
0	0xbd231789	-0.039817367
1	0x3e69543b	0.22786038
