clients_data/clients_fair_trained_model/client7.pth (torch, 86087 bytes, 6 tensors)

layers.1.layers.0.weight f4 [100, 105]
000000 d8 62 99 3d 1a 21 a5 3d dd 25 ba bc 39 51 b8 3d
       0.07489556 0.08062954 -0.022723133 0.08999867
000010 85 de ae bc f8 8e a2 3c 46 44 42 bd 27 d0 6a 3d
       -0.02134634 0.019843563 -0.047428392 0.057327416
000020 62 30 b0 3d 13 d5 91 bd 75 2b ad 3d 0b 3e 99 3c
       0.08602978 -0.07120719 0.084555544 0.018706342
000030 d2 82 92 3d 72 d5 56 3c bf 6b 44 3d d8 f5 63 bc
       0.07153858 0.013112413 0.047954317 -0.013913594
000040 0a 53 99 3d dd b6 69 3c c7 f6 39 bd 96 58 c7 3c
       0.074865416 0.014264789 -0.04540136 0.024334233
000050 49 5a 37 bd 91 ca 3c bc 13 7f 21 bd 8c 23 85 3d
       -0.044763837 -0.011522905 -0.039427828 0.06500921
000060 54 ba 9d bd a9 0f 38 bd 90 24 df bc 67 4f 6e bd
       -0.07701555 -0.04493681 -0.027239114 -0.058181193
000070 de bd 1e 3c 01 5c c6 bd b4 bd b2 3d 32 54 aa bd
       0.009688823 -0.09685517 0.08727589 -0.0831684
000080 08 0a 9a 3d eb 29 85 3c d8 17 01 bd fb c0 75 3d
       0.075214446 0.01625534 -0.03151688 0.059998494
000090 50 f7 73 3c 43 16 a2 3d 29 e7 30 3c f9 8a f8 bc
       0.014890507 0.07914402 0.0107973 -0.030339705
0000a0 75 94 d3 3c 79 3f da bc 7d 02 29 3d 80 42 b2 3d
       0.025827626 -0.026641594 0.04126214 0.0870409
0000b0 50 d5 66 3d d0 7e 2e bd bd a1 65 3d 3c 0b 8f 3c
       0.056355774 -0.042601407 0.05606245 0.017461412
0000c0 bc 44 4b 3d 47 36 73 bd 9a db c4 bd f4 0d 1c bd
       0.049626097 -0.059377935 -0.09612198 -0.038099244
0000d0 3e 45 99 bd 6b 3d a3 3d ca 02 e6 3c 08 3f 26 3d
       -0.0748391 0.07970699 0.028077502 0.040587455
0000e0 ab 3c fb 3c 09 f3 e3 ba b6 75 9c 3d ce b0 8e bd
       0.030668577 -0.0017391156 0.07639639 -0.069673166
0000f0 a7 4b d4 3b 0a 47 88 bd b2 07 f7 3c cf 95 08 bd
       0.006478745 -0.066541746 0.030155037 -0.033345994
000100 13 8f f4 3c 66 64 a6 bc 9b 28 a5 3d 3e c3 6c bd
       0.02985338 -0.020311546 0.080643855 -0.057803385
000110 d1 11 6f bd 70 2c 6e bd d7 cb b3 3d a7 b5 05 3d
       -0.0583666 -0.058147848 0.08779114 0.03264394
000120 8e 16 c0 3d 7d e0 a4 bd 78 29 c6 bd dc 4c 9c bd
       0.09379302 -0.0805063 -0.09675878 -0.07631847
000130 40 5a 86 bd ee d8 21 3d 18 22 0f 3d 77 5a a6 3d
       -0.065601826 0.03951352 0.034944624 0.081227235
000140 10 4c 4e bd fa 2e 88 bd 6a c5 53 3d 32 6d 21 bd
       -0.050365508 -0.06649585 0.05170194 -0.039410777
000150 c0 cf 72 3d 10 ae bc bc 8e 40 65 3d 9c 3c 9b bd
       0.059280157 -0.023032218 0.055969767 -0.0757992
000160 aa 9a 49 bd 58 bc f3 3c 6a 27 a9 3c 4d 97 cb bc
       -0.049219765 0.029752895 0.020648677 -0.02485242
000170 23 c1 6d 3d 43 2a 87 3d 16 e8 90 bd ff 44 55 bd
       0.058045518 0.06599858 -0.07075517 -0.052067753
000180 94 b6 b6 3d 3b c3 06 bd 59 a0 0d bd a2 5b c1 bd
       0.08921543 -0.03290103 -0.034576748 -0.09441306
000190 9e be 64 bd 65 f9 ca 3c 12 92 52 bc 27 14 91 bd
       -0.05584585 0.024777124 -0.012852209 -0.07083922
0001a0 60 05 16 3b 04 1b 88 bd 42 ce a9 bd a7 99 5b bd
       0.0022891387 -0.06645778 -0.08291294 -0.05361333
0001b0 92 83 ae bd d1 1d 7f bd b9 ce c7 3d 53 33 97 3c
       -0.08521189 -0.062284295 0.09756226 0.01845709
0001c0 d7 8a f6 3c 0b 69 ba bd f2 35 83 bd 93 15 05 bd
       0.0300955 -0.091020666 -0.064067736 -0.032491278
0001d0 84 01 7a 3c 4a 9e b0 bd a1 e8 2b bd 8f a7 6e bd
       0.01525915 -0.08623941 -0.0419699 -0.058265265
0001e0 d8 9e 84 38 3f a5 13 bd b0 3e db bb 35 76 87 bd
       6.3238374e-05 -0.036046263 -0.0066908225 -0.06614343
0001f0 70 f3 88 bd 69 a1 68 bd 4c b1 08 bd 74 01 9e bd
       -0.06687057 -0.056794558 -0.03337221 -0.07715121
000200 69 14 a7 3d 07 9a 9e bc f5 cc ab 3d c2 ef f9 3c
       0.0815819 -0.019360555 0.08388702 0.030509833
000210 6e f1 a7 bd 86 88 89 3d 89 ff de bc 32 a2 19 bd
       -0.08200346 0.06715493 -0.027221458 -0.037508197
000220 c6 fd a5 bd a1 62 c6 bd 41 ea e4 3c 49 38 ae bc
       -0.08105044 -0.09686781 0.027943732 -0.021267073
000230 23 18 1c 3d c3 6d a3 bd 1f 12 93 3d b8 cd 91 bd
       0.038108956 -0.0797992 0.07181191 -0.07119316
000240 ea 59 88 bc ea fc a9 3c 0c 7b 4f 3d 56 6d 9f 3d
       -0.016644437 0.020750482 0.050654456 0.07784526
000250 8e 8c b5 3d 0d e8 9d bd f8 f6 c7 3c cd 58 2b bd
       0.08864699 -0.07710276 0.024409756 -0.041832734
000260 7d 37 2f bc c7 04 95 bd 74 05 b6 3d af 97 91 bd
       -0.010694382 -0.07276302 0.08887759 -0.071090095
000270 a8 ab 54 3d 2e 8e 0b 3d 3a 4a ff 3c 55 75 59 bd
       0.051921517 0.03407114 0.031163324 -0.053090412
000280 fc 58 b6 3d cd 79 af 3c 74 9f 48 3c 39 82 af bd
       0.08903691 0.021420384 0.012245048 -0.0856976
000290 8d c8 22 3d 37 cc 5b bc ab bc 36 bd 3f c3 ab 3d
       0.03974204 -0.013415388 -0.04461352 0.083868496
0002a0 f7 60 b5 3c 6e c8 5d bd 8b 30 4a bd b0 a5 9a bb
       0.022140963 -0.054146223 -0.0493627 -0.0047194585
0002b0 92 47 5e 3d ae 7b cc bc e3 b5 63 bd 13 cb 08 bd
       0.054267474 -0.024961319 -0.055593383 -0.03339679
0002c0 3c 26 95 bd 81 de 0f 3d 95 3c 9b 3d 3b 0a bc bd
       -0.07282683 0.035124306 0.075799145 -0.09181639
0002d0 af 3e c0 3c 16 0a 4f 3d 11 56 90 3c 6d 5a 0e bd
       0.02346739 0.050546728 0.017619165 -0.034754205
0002e0 06 b1 4f 3d 50 3a 51 3d cc 56 14 3d 54 2b 8c bc
       0.050705932 0.051081 0.03621559 -0.017110504
0002f0 72 75 d4 bc b4 e1 2a 3c e5 af 8c bc 91 ec ed bc
       -0.025934909 0.010429788 -0.017173717 -0.029043468
000300 70 b7 7f 3d a2 2e ab 3d d0 49 1e bc 53 ae b2 bc
       0.0624308 0.08358504 -0.009661153 -0.02181164
000310 ee 5f de 3a 0e eb bd bb da e0 bd 3c 79 8f e4 3c
       0.0016965845 -0.005795843 0.023178507 0.027900444
000320 2c 6d b5 bd 43 55 13 bd 86 55 a8 3d 3c c6 1b 3d
       -0.088587135 -0.035969984 0.08219437 0.038030848
000330 2b 53 9e bb c2 bd 70 bd 05 66 74 bd db f0 b2 bd
       -0.0048316917 -0.058774717 -0.059667606 -0.08737346
000340 e9 4b 02 bd 73 fd 06 3d 3e 4d 7f 3d d2 92 37 3d
       -0.031810675 0.03295655 0.062329523 0.044817753
000350 50 77 b0 bd d2 9b 6e bd 30 0d 7b bc 82 4b c1 3d
       -0.08616507 -0.05825407 -0.015322968 0.0943823
000360 71 be 66 3c 0c e1 ce bc b4 5f 25 3d 56 52 18 bd
       0.014083491 -0.025253795 0.040374473 -0.037187897
000370 46 97 7f bd 68 fe 92 3d 39 8f 35 bd ce d4 a6 bc
       -0.062400125 0.071774304 -0.04432604 -0.020365145
000380 00 3d c6 bd 4d e9 84 3d ad f8 96 3d c3 8e 11 3d
       -0.096796036 0.06489811 0.0737165 0.03553654
000390 28 2d 8b bd ed 07 c5 bd 36 92 a1 bd a4 63 94 3d
       -0.06795722 -0.09620652 -0.07889216 0.072455674
0003a0 1f 37 3c 3d 7c b3 a9 3d 06 a7 4f 3d 79 d2 c6 3c
       0.045951005 0.08286187 0.050696395 0.024270283
0003b0 46 cd 9f 39 08 13 98 bd 11 64 ab bd 06 9b ba bd
       0.00030479784 -0.07425505 -0.083686955 -0.091115996
0003c0 88 11 23 3d ad 6c 44 bd 6e f5 a0 bc ad f7 65 bd
       0.03981164 -0.047955204 -0.01964828 -0.056144405
0003d0 5f 06 94 bc 48 bf 8d bd 31 a7 82 bd a7 5b 05 3d
       -0.018069444 -0.0692125 -0.063795455 0.03255811
0003e0 64 44 e8 bc e1 5b 79 3d 96 ca 00 bd 81 46 93 bd
       -0.028352924 0.06087864 -0.0314432 -0.07191182
0003f0 de a3 8b bc b7 97 42 bd 86 05 fa bc 4c 81 be bd
       -0.017045911 -0.047507968 -0.030520212 -0.09302005

layers.1.layers.0.bias f4 [100]
000000 8e e6 81 3d 3a d9 29 3d e7 f2 b6 bb 55 90 62 3d
       0.06342803 0.04146693 -0.0055831554 0.055313427
000010 13 ae 85 bb a0 6b 56 bc 38 35 17 bd ae 9a ac bd
       -0.004079589 -0.013087183 -0.036915988 -0.0842794
000020 3c a7 a7 3d 2b cb 6f bd c6 2a b6 bd e2 a9 3a bd
       0.08186194 -0.058543365 -0.08894877 -0.04557217
000030 59 0e 94 3c ab d3 0e bc f5 75 36 3d 2e 03 79 3d
       0.018073248 -0.008717458 0.044546086 0.060794048
000040 91 1d 6b 3d 06 c6 a9 bd 47 b1 25 3d df 64 50 3d
       0.057401244 -0.08289723 0.040452268 0.05087745
000050 f5 c1 64 bd 97 fd a5 3a 91 e5 8e 3c d1 59 83 3c
       -0.055849034 0.0012664077 0.01744345 0.016034039
000060 21 0b 5c 3d a1 d3 a6 3d 5d 6e bf 3d 67 85 bf 3c
       0.05372155 0.08145834 0.09347222 0.02337904
000070 b8 c7 60 3d e4 64 27 3d aa c9 49 bd a1 81 84 3d
       0.054877967 0.0408677 -0.049264587 0.06470037
000080 92 52 04 bc a0 1f 35 3d 9f 9b 84 bd 1a 57 a4 3d
       -0.008076327 0.044219613 -0.06474995 0.08024426
000090 c4 3f ac 3c bf 7a bc 3c 1f 4a b4 bd a1 89 f7 bb
       0.0210265 0.023007749 -0.088032 -0.0075542484
0000a0 bb a6 02 bd 0e 08 bc 3d 67 b3 b6 bd fc b4 bd bc
       -0.031897288 0.09181224 -0.08920937 -0.02315759
0000b0 a0 c7 44 bd d3 e3 95 bd d1 b2 1a 3d 25 9b 83 bd
       -0.04804194 -0.07318845 0.03776819 -0.06426076
0000c0 fe 6a 3c 3d af 1e 44 3c 04 ec 4a bd 3b 20 1c bc
       0.046000473 0.011970206 -0.04954149 -0.009529169
0000d0 be ac 52 3c ae f2 2b bd 9d 60 7d bd 6e 1b 5f bd
       0.012858568 -0.041979484 -0.061859716 -0.05446952
0000e0 24 30 db 3c 05 d6 ae bd 57 16 81 3d af 10 88 3d
       0.026756354 -0.08536915 0.06303089 0.06643807
0000f0 97 65 bd 3d 52 4b b6 3d 75 7b 63 bd 53 a1 2d bd
       0.09247892 0.08901085 -0.05553766 -0.04239018
000100 d7 c8 8f 3d c5 70 6c bc 27 e5 8e bd be a4 37 bd
       0.07020729 -0.014431183 -0.06977301 -0.044834845
000110 e1 07 8c 3d 0b ba 61 bd a1 5f 0c 3d a0 d2 a5 bd
       0.0683744 -0.055109065 0.034270886 -0.08096814
000120 b7 5f 87 3d 50 a8 da 3c 47 52 91 3d 9b 40 60 3b
       0.06610053 0.026691586 0.07095771 0.0034218195
000130 11 80 47 3d e1 62 a5 3d 42 3a 46 bc 01 46 97 bd
       0.048706118 0.080755 -0.012098851 -0.07386399
000140 d9 22 8a bd 75 36 7a 3d 54 4c 80 bd d2 9c b3 bd
       -0.06744928 0.06108709 -0.062645584 -0.087701455
000150 10 96 aa bd 9a 6a 2a bd e9 57 94 3c 4e c8 b3 bd
       -0.083294034 -0.04160557 0.018108325 -0.087784395
000160 9f 7f 3d bd 77 9c be 3d 26 d6 6e bc f1 94 fb bc
       -0.046264287 0.09307187 -0.014577424 -0.03071067
000170 1e 1d 4c 3d 88 5d a4 bd 40 d9 9c bd 8b b5 9a 3c
       0.049832456 -0.08025652 -0.07658625 0.018885395
000180 a8 c9 0a 3d 83 74 c5 bd dd c0 b1 3d c8 54 16 bd
       0.03388372 -0.096413635 0.08679364 -0.036701947

layers.2.layers.0.weight f4 [100, 100]
000000 16 c5 85 3c 40 07 97 3d 08 aa 1d 3d b0 e2 01 3d
       0.01632933 0.0737443 0.038492233 0.031710327
000010 c8 e1 b9 bd 60 19 bd bd f8 75 1c 3d 9d 07 91 3b
       -0.090762675 -0.092333555 0.03819844 0.0044259564
000020 36 a1 7e 3d be 01 53 3d bd 35 a1 bd 22 cc 99 3c
       0.06216546 0.051515333 -0.07871578 0.018774096
000030 79 f2 9d bd 66 3d 5d bd 13 be ea 3c 2a 51 84 bb
       -0.077122636 -0.054013632 0.028655088 -0.004037996
000040 67 51 80 bd fa df 10 3d 34 3b 8f 3d 46 92 c6 bd
       -0.06265526 0.03536985 0.06993714 -0.09695868
000050 72 bf c1 3d dd da 67 3d d7 55 01 bc 97 e6 c4 bd
       0.094603434 0.05660521 -0.007894001 -0.09614294
000060 a7 ab 29 bd 18 29 fc 3c bd 66 2a bd 96 e6 06 bd
       -0.041423466 0.030781314 -0.041601885 -0.032934748
000070 a4 1b 25 bd b7 fa b1 3d 61 42 b1 3d a6 c6 9e bd
       -0.040309563 0.08690398 0.08655239 -0.07752733
000080 e4 61 fe bc 44 89 bc 3d 5b 09 b3 bb 3d 59 4a bd
       -0.031052537 0.09205869 -0.0054637617 -0.04940151
000090 2f 15 56 3c 87 7d a3 3d 94 31 41 bc 6f 25 bf bd
       0.013066574 0.07982927 -0.0117916055 -0.09333312
0000a0 bb 2a 06 bd d2 e3 51 3d 6e 52 50 bc 3d 4a 93 3d
       -0.032755595 0.051242657 -0.012714965 0.07191894
0000b0 2b 75 13 3d 66 e4 0b 3b 95 13 23 3d bd ed 3c bc
       0.036000412 0.0021345853 0.039813597 -0.011531291
0000c0 05 de ae bd df 44 ae bd ad fe 9e bd 16 8e 73 bc
       -0.085384406 -0.0850923 -0.07763419 -0.014865419
0000d0 db e4 91 bd d9 3a 80 3c b0 b2 57 3c 9e b6 9d 3d
       -0.07123729 0.01565306 0.013165161 0.07700847
0000e0 b1 66 e6 3b 80 1b 95 3c 30 67 13 3d b5 79 e3 bc
       0.0070312847 0.01820159 0.03598708 -0.027767995
0000f0 83 77 49 bd 77 d0 be bd 5d ef c5 bd cb d8 f0 3b
       -0.04918624 -0.09317105 -0.096647955 0.0073500625
000100 49 94 41 bd c8 d6 f2 3c 50 a6 d5 3c 22 a0 9f 3d
       -0.047260556 0.029643431 0.02608028 0.07794215
000110 8c e7 25 bc d9 4e 1c 3a c3 c9 8e 3d 86 9e 91 3c
       -0.010126006 0.0005962677 0.06972077 0.017775785
000120 28 a6 43 3d 51 7d 56 bd bf e9 8f bd 70 39 9f 3d
       0.04776588 -0.052365605 -0.070270054 0.07774627
000130 e3 59 96 3d 41 f5 14 bd 75 19 91 3c f7 21 b6 bd
       0.07341363 -0.036366705 0.017712334 -0.08893197
000140 3f ae 06 3c cb 44 bd bd 61 17 6b 3d 5a cc c9 bd
       0.008220254 -0.09241637 0.057395343 -0.0985343
000150 12 a0 bf bc 27 8f c4 3d 09 28 09 bd dc 38 6c bd
       -0.023391757 0.09597617 -0.033485446 -0.057671413
000160 df 64 b9 3d 8f 14 44 bd 7c 3c bc 3c 38 20 6a 3d
       0.09052443 -0.04787117 0.02297806 0.057159632
000170 28 08 f0 3c 21 67 8d bd 20 4b bd 3d 26 5a 4a 3d
       0.029300764 -0.06904436 0.092428446 0.04940238
000180 62 86 7c bd 4f a6 66 bd 86 c8 b3 bc 4d 6e 0b 3d
       -0.061651595 -0.056310948 -0.021946203 0.034040738
000190 f3 ed 12 3d 9a 9e 31 3c 39 26 86 3d 4f 8b c8 3d
       0.035871457 0.010841036 0.06550259 0.09792196
0001a0 e2 a7 a2 3c 71 7b 18 3d 00 17 63 3d 32 62 97 3c
       0.019855443 0.037227098 0.055441856 0.01847944
0001b0 f4 1d 98 3b 4a fb b4 3d 45 29 89 3d 0b 0b 84 3d
       0.0046422426 0.08836992 0.06697325 0.06447419
0001c0 ed 0f 26 bd 2d d3 46 bd 5e db 62 bd a0 90 ae bd
       -0.04054253 -0.048541237 -0.055384986 -0.08523679
0001d0 be fe 49 bc 12 fd 5e 3d 33 8e 60 3c c5 e3 17 bd
       -0.012328802 0.054440565 0.013705778 -0.037082452
0001e0 fb ad 6a bc 5a 96 9f bd e4 5b 86 bd dc 7c 01 3c
       -0.014323707 -0.07792349 -0.065604955 0.007903304
0001f0 92 51 71 bd 9a b3 39 3c 95 a6 a5 3d 12 58 cb 3c
       -0.058915682 0.011334324 0.080884136 0.024822269
000200 1e 47 9a 3d f4 a9 82 bd 50 40 64 3a cc 77 cc bd
       0.07533096 -0.06380072 0.0008707093 -0.09983787
000210 88 6d b0 39 42 02 99 bd 7a 9a bc 3d 3d 57 b0 bd
       0.00033650943 -0.07471134 0.092091516 -0.086103894
000220 c8 5e 02 3d 6c 29 77 bd cd 00 da 3c f5 2c e8 ba
       0.03182867 -0.060342237 0.02661171 -0.0017713594
000230 ca f7 62 bc e8 94 2b bd 06 c6 7b 3d 40 a6 a2 bc
       -0.013853023 -0.041890055 0.061468147 -0.019854665
000240 ca fe e7 3b 1e d5 fb bc 97 d4 97 bd 95 77 33 bd
       0.007079934 -0.03074127 -0.07413595 -0.043815214
000250 e6 e5 b4 3d 6a 96 bf 3d 0a 42 42 bd ed 17 12 3c
       0.08832912 0.09354861 -0.04742626 0.008916837
000260 d1 20 5f 3c c2 61 b2 3d 0b ca 4c 3c b2 66 84 3b
       0.013618664 0.08710052 0.012499343 0.0040405625
000270 e0 11 fc bc 0c 43 a4 3c b6 9f cc bd 9d 1f ce bd
       -0.030770242 0.020051502 -0.099914 -0.100646235
000280 57 36 5b bc 5a 07 93 bd ef ff 90 bd 0e f4 90 bc
       -0.013379655 -0.071791366 -0.070800655 -0.0176945
000290 18 18 62 3d a7 7b 44 3d 9f b1 17 bd d0 72 f5 bb
       0.05519876 0.047969487 -0.037034627 -0.0074904934
0002a0 62 ed b8 3d ad ea a7 3c 8c 26 89 3d 7c 13 2c bd
       0.09029652 0.020497644 0.06696805 -0.04201077
0002b0 86 9a ba bd e9 20 46 bd 27 02 ef 3b 0d ce d0 bc
       -0.09111504 -0.04837123 0.0072939578 -0.025488878
0002c0 e1 13 67 bd 52 4e c0 3d 0c 81 be bd ec 52 c5 3a
       -0.056415442 0.093899384 -0.093019575 0.001505462
0002d0 c6 ad 1d 3d d4 41 e7 bc 5a 14 2d 3d d8 fd b1 b9
       0.0384958 -0.028229631 0.042255737 -0.000339492
0002e0 15 33 77 bd da 27 65 bd 01 a6 3b bd 4e b4 c8 bd
       -0.06035145 -0.05594621 -0.04581261 -0.098000154
0002f0 61 60 7a 3d de 39 b5 3d bd 01 57 bd f7 8d 4d 3b
       0.06112707 0.08848928 -0.052491892 0.0031365135
000300 4a 83 fe 3c 59 ba e0 3c 1f da 66 bd 38 a6 7e bd
       0.031068463 0.027432607 -0.05636036 -0.062170237
000310 cb 9b c4 3d 12 46 6b 3d ec 81 b9 3d 1d cc 8c 3d
       0.09600028 0.05743987 0.09057984 0.06874869
000320 6b 6e fb bb a8 1f 8f 3d 96 f5 5a bb 56 4a 3e ba
       -0.007673075 0.0698846 -0.003341054 -0.0007259002
000330 ee cc 31 bd c8 15 9f 3d d3 20 af bc 32 2a 6a 3c
       -0.043408327 0.07767826 -0.021377956 0.014292287
000340 fe 77 a3 bd 1c 45 0b 3d 8c a8 43 bd 09 83 b9 bc
       -0.07981871 0.034001455 -0.04776816 -0.02264549
000350 56 26 15 bc 62 21 17 3d 45 e4 7c 3b 4d d2 8c 3c
       -0.009103378 0.03689707 0.0038588208 0.017190123
000360 ed 5a 85 bd 3c 07 9b bd 44 7d 13 3d a2 b0 29 bd
       -0.06511483 -0.07569739 0.036008134 -0.041428216
000370 8a b6 b0 bd 18 5a 29 bd 60 e1 c8 bd 6f be a1 3c
       -0.086285666 -0.041345686 -0.09808612 0.019744126
000380 0a 6f ed 3b 8d 23 bd 3d 43 4d 62 bd 37 fb 53 bd
       0.007245903 0.092352964 -0.055249464 -0.05175325
000390 cf 67 c2 3c e1 a8 d8 bc 64 ff 9e 3d 0d 82 76 3c
       0.02373114 -0.026447715 0.07763556 0.015045655
0003a0 54 1d 0b bb ed ea 1d bd d8 b6 76 3d 3f 79 3f bd
       -0.0021227198 -0.03855412 0.060232967 -0.04674649
0003b0 41 11 23 3d d7 91 83 3d 04 da a0 bd db b3 b5 bd
       0.039811376 0.06424301 -0.07854083 -0.08872195
0003c0 73 20 67 bd d6 51 43 3d af 09 64 bd 18 3d 16 3c
       -0.05642743 0.047685467 -0.055673297 0.009169839
0003d0 c7 a6 73 3c e9 68 ab 3c 64 96 51 bd 02 48 4c 3b
       0.014871306 0.020924048 -0.051168814 0.003117085
0003e0 bb 8a 8d 3d c1 47 53 3d 91 55 9b 3c e7 dd a2 bd
       0.06911226 0.0515821 0.0189617 -0.07952481
0003f0 25 86 3e 3d 22 80 23 bd 93 ec 8e 3d bc 13 2a 3d
       0.04651465 -0.03991712 0.06978717 0.041522726

layers.2.layers.0.bias f4 [100]
000000 8f 50 25 bd 9d e1 14 bd 66 e9 ad bd 19 76 69 3b
       -0.04036003 -0.036347974 -0.08491783 0.003562337
000010 2d e7 7c 3d 8b 42 7a bd ce f1 2f bc d3 3a 87 3d
       0.061743904 -0.061098617 -0.010738803 0.06603017
000020 d5 0a 8b bd fc 93 d2 3c 25 bc cb bc cb dc a6 3d
       -0.067891754 0.02570533 -0.024869988 0.08147582
000030 9a ad 4e bb fc 5c ad 3d c6 47 10 bd c4 3c 9e bd
       -0.003153658 0.08465001 -0.0352247 -0.07726434
000040 5d 0c 04 3b 9a 0d 7b bd 59 eb 5e bd 0c 51 89 3d
       0.002014897 -0.06129227 -0.054423664 0.067049116
000050 ec 7f b6 3d 25 c8 93 bd c4 7a cc bd 49 b3 bf 3c
       0.08911118 -0.07215909 -0.09984353 0.02340092
000060 44 b8 a6 bd c8 70 99 bc 0c 9f 30 3d a2 b5 2c 3d
       -0.08140615 -0.018730536 0.04312043 0.042165406
000070 bd 66 3f 3c 4e 9b 35 3d 6c 37 68 bd 8b 3b bc bc
       0.01168221 0.044337563 -0.05669348 -0.022977611
000080 31 f4 ed bc e0 73 bd bd 0a 87 72 bd 00 75 f4 3b
       -0.029047104 -0.09250617 -0.059210815 0.0074602365
000090 64 b8 aa 3c bc f9 34 bd ed 8a 83 3d 26 16 61 bd
       0.020839877 -0.044183478 0.06422982 -0.054952763
0000a0 ec 8b ca 3c d7 29 ac 3d 45 17 9d 3d 56 b5 e4 3d
       0.024724923 0.08406418 0.07670454 0.111673996
0000b0 36 f1 05 3d d2 f7 88 bd d7 78 fb bc 5e a2 df bc
       0.03270074 -0.06687893 -0.03069727 -0.027299102
0000c0 51 98 90 bd ea 2f bb bc 00 69 c1 bd 8f 73 39 bd
       -0.07060302 -0.022849996 -0.09443855 -0.04527622
0000d0 be d3 c5 bd d6 e0 b4 3d ed 1c f0 3c bd 2d ea 3d
       -0.09659527 0.088319466 0.029310668 0.11434505
0000e0 57 01 74 3d dc 4e c4 3d 49 50 02 bd f0 85 22 bd
       0.05957159 0.09585354 -0.031814847 -0.039678514
0000f0 a4 0b 38 bd af b0 ba bd 42 6f de bb 5d 5f c1 3c
       -0.044932976 -0.09115731 -0.0067881653 0.023605043
000100 90 34 6c 3d 62 9f 17 bc e3 6c 30 3d 64 fb 24 3d
       0.057667315 -0.009254308 0.043072592 0.040278807
000110 57 7a 9d 3c ba 5b 0a 3d cd 4a ea bc 17 88 80 3d
       0.019223375 0.033778884 -0.02860012 0.06275957
000120 e3 08 c5 bd 0d 52 44 3c b9 b1 3e 3d fd 1d af 3d
       -0.09620836 0.011982453 0.04655621 0.08550642
000130 0e cf 5d 3d cf b8 47 bc 7e e3 8c 3d 76 38 c2 bd
       0.05415254 -0.012190058 0.06879328 -0.09483425
000140 a7 fb ac bc 36 12 1c bd 8c eb 74 3d e8 0b c7 3d
       -0.021116091 -0.038103305 0.059794948 0.09719068
000150 cc 90 db bc 8a fd a7 3c 8c b8 a4 bc 58 17 04 bd
       -0.026802443 0.020506639 -0.02010753 -0.032248825
000160 1c cd 1c 3d 1c 32 0d 3d 46 df 53 bd 16 31 b1 3c
       0.038281545 0.034471616 -0.051726602 0.021629851
000170 39 db e2 3d 8d 13 a1 bd 43 62 92 bc 1a d7 b3 bd
       0.1107697 -0.07865057 -0.01786912 -0.08781262
000180 35 81 99 bc b7 3b c2 3d d9 85 78 3d 9d 4f c5 bd
       -0.018738369 0.09484046 0.060674522 -0.09634326

layers.3.weight f4 [2, 100]
000000 98 76 b9 bd ce aa 69 3a 90 7a 47 bc 55 d8 93 3d
       -0.09055823 0.00089136965 -0.012175217 0.072189964
000010 0b 4a 21 bd df a1 99 3d 2e f7 77 bd b3 86 bc bc
       -0.039377254 0.075015776 -0.060538463 -0.023013448
000020 59 4a a0 bb 15 fa 5b bd 09 7f 19 3b 2b cd dd bc
       -0.0048916754 -0.053705294 0.0023421666 -0.02707537
000030 0b cb 4b bd c3 01 b1 bd 00 63 01 ba 61 b4 be 3d
       -0.049754184 -0.08642914 -0.00049357116 0.09311748
000040 fc 61 1d 3d 65 9d a7 bd 27 7f 57 bd e7 4d 6a 3d
       0.038423523 -0.081843175 -0.052611496 0.0572032
000050 09 97 22 bd 32 6b 42 bc 1a 41 41 bd fa 9d 1c 3d
       -0.03969482 -0.011866378 -0.047181226 0.038236596
000060 ad 57 8c bd eb fc d5 bd ec e3 96 bd 83 67 ba bd
       -0.0685266 -0.10448631 -0.073676914 -0.091017745
000070 e3 4c 1b 3c f8 d8 6f 3c fd f3 0a bd ff 90 09 3d
       0.00947878 0.014639132 -0.03392409 0.033585545
000080 4c 12 78 3b c1 87 bc 3c 64 05 52 3d 4b d8 bf 3b
       0.0037852703 0.023013951 0.051274672 0.0058546416
000090 0a 2b cc 3d 5a 05 90 3d a4 25 82 bd 34 e4 98 3d
       0.099691465 0.07032271 -0.06354836 0.07465401
0000a0 fe 7e 9f bc e4 e4 04 bc 68 7d 8c 39 b5 19 c4 bd
       -0.019469734 -0.008111212 0.00026796316 -0.09575216
0000b0 7b 5e 80 3d 33 3d 85 3d 4d df be 3d ff f6 5e 3c
       0.06268021 0.065058134 0.09319935 0.013608693
0000c0 77 b4 ed bc cc 98 aa bc 55 8f 07 bd 48 97 bb bd
       -0.029016716 -0.020824812 -0.033095676 -0.09159714
0000d0 1c 41 02 3d e5 56 a3 3b a0 7d 35 bd c5 f5 92 bd
       0.031800374 0.004984724 -0.04430926 -0.07175783
0000e0 89 9a e3 bc 2a d5 4c 3c 27 aa 93 3d 2a 92 15 3d
       -0.027783649 0.012501994 0.07210188 0.036516346
0000f0 95 b0 99 3d b0 b0 a4 3d ac 43 4d bd a2 e1 c5 bb
       0.075043835 0.08041513 -0.050113365 -0.0060388604
000100 6d 46 c1 bd fc e9 8a bd 49 70 f0 3c 79 01 0a 3d
       -0.09437261 -0.0678291 0.029350417 0.03369281
000110 ee 85 30 3d e4 23 a7 3d a2 ed 15 3d 82 dc 57 bd
       0.043096475 0.081611425 0.036603577 -0.052700527
000120 64 33 be bc 67 4c a2 3b 2b 57 44 3d 1a 71 94 bd
       -0.023217864 0.0049529555 0.047934692 -0.07248135
000130 8c 3f 49 bd e0 5e 18 3d c4 b3 07 3d 41 dc c0 3d
       -0.04913287 0.037199855 0.033130422 0.0941701
000140 bb b4 a4 3d 3f 21 44 bd 36 4a e0 3c ed 11 91 bd
       0.08042284 -0.04788327 0.027379137 -0.07083497
000150 b1 88 81 bb 22 0f e1 bb 3d 41 ab 3c 91 0f a7 3d
       -0.0039530625 -0.006868259 0.020905131 0.08157266
000160 9e 83 a4 bd 0a 5f a4 3d b5 09 8b 3d 26 96 47 bd
       -0.080329165 0.0802594 0.06788961 -0.048727177
000170 9a 5b 1a bd 92 f8 dd bc e3 ff 7c 3d 7f 03 d3 bc
       -0.037685014 -0.027096067 0.06176747 -0.025758503
000180 8f 95 f4 3c 95 a5 4c bd 60 68 9c 3d f9 94 92 bc
       0.029856471 -0.0499626 0.076370955 -0.017893301
000190 de 6a cb 3d de 64 82 bd 72 9c dd bc 2b fd 99 3d
       0.09932493 -0.06366895 -0.027052138 0.07518991
0001a0 0e ec 94 3d c6 5d 43 bd cc e4 9c bd bb 5a 74 bd
       0.07271586 -0.04769685 -0.07660827 -0.05965684
0001b0 bf f0 96 bd 66 67 3f bd 98 7a 59 bd c6 17 30 bc
       -0.073701374 -0.046729468 -0.05309543 -0.0107478555
0001c0 fe 3b c1 3d d4 04 68 ba fc b4 75 bd 2b ed 49 3d
       0.09435271 -0.0008850817 -0.059987053 0.049298447
0001d0 f2 d9 6b bd c9 1f ff bc 74 03 1d bc 2b 3b 70 3c
       -0.057580896 -0.031143086 -0.009583343 0.014662544
0001e0 c4 b0 58 bd 00 d2 8f bd 97 c7 c6 bd 86 67 25 bc
       -0.05290295 -0.07022476 -0.097060375 -0.010095483
0001f0 09 0b 5d 3d 17 db 2b 3d 7b ca a4 3d 59 d2 0b 3d
       0.053965602 0.041956987 0.080464326 0.03413615
000200 20 c4 96 bd f4 b6 4b 3c 1d 99 8d bc 96 c4 aa 3d
       -0.073616266 0.012433756 -0.017284924 0.08338277
000210 6b 3b 3b 3d 55 16 d5 3d 89 1d af bd da 49 62 ba
       0.045710962 0.1040465 -0.08550555 -0.00086322206
000220 65 7f ac bd 91 8f a1 3c 08 6e 21 bd a8 d1 29 bd
       -0.08422736 0.019721778 -0.039411575 -0.04145971
000230 1a 32 00 3e 59 db c2 bc 56 0c 9f 3d 67 f4 bf 3d
       0.12519112 -0.023786234 0.07766025 0.09372788
000240 8e 95 a6 3d 4b 64 ac 3d 4c 0d 97 3d d2 4f d5 3c
       0.08133994 0.08417567 0.07375583 0.026039038
000250 35 cf b8 3d 2f 9b f1 3d 8f 1a 8b bd 05 0d ca 3c
       0.090238966 0.11797177 -0.06792175 0.024664411
000260 d0 68 9d 3d 91 00 0b bd 0f 40 af 3d fa 23 e0 3d
       0.07686007 -0.033936087 0.0855714 0.10944362
000270 c5 be a9 3c 7c e8 a3 3c 13 22 ef 3a aa 2d d3 3d
       0.020720849 0.020008318 0.0018244408 0.10311444
000280 2a 5f 9e bd 5d 7a 25 3d e4 77 4f bd 39 60 a4 3d
       -0.07732995 0.040399898 -0.050651446 0.080261655
000290 4d 04 94 bb c2 e3 69 3d 71 3a c3 3d 26 f1 bb ba
       -0.0045171143 0.057101972 0.09532631 -0.0014338836
0002a0 eb 4c 47 bc 68 3e d5 3d 8b eb dd 3d d6 d7 87 3d
       -0.012164335 0.10412294 0.10835942 0.06632964
0002b0 1a 91 43 3c 3f 26 fb 3b 7b 04 56 bd 5a f2 0e 3e
       0.01193645 0.0076644714 -0.052250367 0.13959637
0002c0 0d 4e 8e 3d b5 a5 aa 3d 5e 8b 81 bd 7e fa dc 3c
       0.06948481 0.08332387 -0.0632541 0.026974913
0002d0 ed 8b d5 3c de 25 cc bc aa 98 4a 3c 10 2c 4d 3d
       0.026067698 -0.0249204 0.0123654995 0.05009085
0002e0 87 97 de bc 1f 00 b9 3d 5d b9 ab bd f6 c6 9d 3b
       -0.027171863 0.09033226 -0.083849646 0.0048149778
0002f0 f3 e6 24 bd f2 5f eb 3d 55 a9 f1 bc 4b d4 b1 bc
       -0.040259313 0.114929095 -0.02949969 -0.021707674
000300 68 ec fb 3d f4 b2 8e bd be 04 f8 bc a1 cd b0 3d
       0.1230095 -0.06967726 -0.030275699 0.086329706
000310 72 b1 b4 3d ad 7a af 3b 52 75 a4 bb b8 9b 27 bd
       0.088229075 0.0053552003 -0.0050188685 -0.04091999

layers.3.bias f4 [2]
000000 21 26 1e bd e4 65 65 3e
       -0.03861058 0.2240215
