clients_data/clients_fair_trained_model/client0.pth (torch, 86087 bytes, 6 tensors)

layers.1.layers.0.weight f4 [100, 105]
0.07509076 0.08073229 -0.022524841 0.08951175 -0.02122532 0.019746903 -0.04746086 0.057323594
0.08602978 -0.07133014 0.08447249 0.01871849 0.07189657 0.013062783 0.048013624 -0.013853909
0.07481058 0.014114839 -0.04541995 0.024674606 -0.044798493 -0.011501391 -0.039689958 0.06504531
-0.07703845 -0.044968642 -0.027202588 -0.058095146 0.0097615 -0.096959375 0.08722714 -0.08314652
0.07527774 0.016251527 -0.03163299 0.060194973 0.014795814 0.07894168 0.01078452 -0.03025145
0.026008802 -0.026504459 0.041174345 0.08682771 0.05642774 -0.042558484 0.05612357 0.017461412
0.049877953 -0.059431978 -0.09616102 -0.038319815 -0.07492188 0.08000509 0.027757814 0.040572256
0.030565755 -0.0015871188 0.07677449 -0.06956456 0.006370191 -0.066547774 0.030133843 -0.03348916
0.029861217 -0.020321365 0.08073667 -0.057804715 -0.058176298 -0.05820538 0.08777663 0.03272218
0.09377633 -0.08052363 -0.09677868 -0.07631879 -0.06562156 0.03907518 0.034944624 0.0813508
-0.050374046 -0.06650689 0.051805887 -0.03942496 0.059301198 -0.02313199 0.055920184 -0.0758058
-0.04922259 0.029869864 0.020611696 -0.024900708 0.058107655 0.066065826 -0.070758976 -0.052069943
0.08917026 -0.032908678 -0.03458658 -0.094406195 -0.055854816 0.024048107 -0.012859842 -0.07082852
0.002299818 -0.06668167 -0.08284317 -0.053731106 -0.08527731 -0.06229337 0.09770905 0.018344507
0.03008902 -0.091020666 -0.06419715 -0.032620843 0.015377444 -0.08616558 -0.04209117 -0.05849688
0.00046272523 -0.036166433 -0.006578546 -0.06607655 -0.06701886 -0.056971613 -0.033415172 -0.07708123
0.08183494 -0.019277846 0.083918445 0.03036592 -0.08218064 0.06720328 -0.026976725 -0.037459917
-0.081247754 -0.09705003 0.027937252 -0.021308664 0.03793252 -0.07972196 0.07188839 -0.0712954
-0.01676937 0.020809459 0.050811306 0.07794151 0.088482946 -0.07712692 0.024732152 -0.041675244
-0.010694382 -0.07290867 0.08917732 -0.07125477 0.051800948 0.03420843 0.031270955 -0.05298118
0.088858694 0.021364441 0.012654427 -0.08583188 0.040010504 -0.013683843 -0.044783928 0.08343998
0.022026293 -0.054196034 -0.049378388 -0.0044830055 0.05456507 -0.024822937 -0.05559541 -0.033419
-0.072852485 0.03475076 0.07621595 -0.09184793 0.022697208 0.050228976 0.017127618 -0.034754205
0.051171333 0.051156577 0.03625762 -0.017008914 -0.025878757 0.010698501 -0.01720114 -0.02905969
0.062187947 0.083643906 -0.009889785 -0.021827862 0.0016187186 -0.0058592563 0.023354081 0.027363714
-0.08859229 -0.035982955 0.08220111 0.038020812 -0.0048224367 -0.058790367 -0.05969035 -0.08738644
-0.03179496 0.032972265 0.062828705 0.044771962 -0.08617861 -0.05818574 -0.014918951 0.09425962
0.013907894 -0.025258968 0.040374473 -0.037214525 -0.062647134 0.07154808 -0.044209134 -0.020466847
-0.09688644 0.065633275 0.074134484 0.035301074 -0.06804251 -0.09622533 -0.07897198 0.07258598
0.046254016 0.082543954 0.050717443 0.024400564 0.00012403558 -0.07357709 -0.08400019 -0.09159421
0.03989366 -0.048032794 -0.019696718 -0.056149565 -0.017810168 -0.069201246 -0.06418799 0.032608043
-0.02813822 0.06064663 -0.031579845 -0.07177084 -0.016732717 -0.04774588 -0.030491533 -0.09284917
00000000: 2fc9 993d f956 a53d 0486 b8bc f051 b73d
00000010: b9e0 adbc 42c4 a13c 5266 42bd 25cc 6a3d
00000020: 6230 b03d 8915 92bd eaff ac3d 8557 993c
00000030: 823e 933d 4805 563c efa9 443d 82fb 62bc
00000040: 4a36 993d ed41 673c 450a 3abd 6622 ca3c
00000050: a07e 37bd 5570 3cbc f091 22bd 7a36 853d
00000060: 56c6 9dbd 0a31 38bd f6d7 debc 2df5 6dbd
00000070: b3ee 1f3c a392 c6bd 25a4 b23d b948 aabd
00000080: 372b 9a3d ec21 853c 9891 01bd 018f 763d
00000090: 246a 723c 2dac a13d 8eb1 303c e4d1 f7bc
000000a0: 6910 d53c e11f d9bc 6ea6 283d bad2 b13d
000000b0: c620 673d ce51 2ebd d4e1 653d 3c0b 8f3c
000000c0: d34c 4c3d f26e 73bd 12f0 c4bd 3df5 1cbd
000000d0: a570 99bd b5d9 a33d 5b64 e33c 182f 263d
000000e0: 0965 fa3c df06 d0ba f23b 9d3d dd77 8ebd
000000f0: 09bd d03b 334a 88bd 40db f63c ee2b 09bd
00000100: 839f f43c fe78 a6bc 4459 a53d a3c4 6cbd
00000110: 454a 6ebd c468 6ebd 3cc4 b33d b107 063d
00000120: ce0d c03d 93e9 a4bd e733 c6bd 074d 9cbd
00000130: 9964 86bd 4c0d 203d 1822 0f3d 409b a63d
00000140: 0455 4ebd c434 88bd 6932 543d 117c 21bd
00000150: d0e5 723d 4d7f bdbc 900c 653d 1240 9bbd
00000160: a09d 49bd a5b1 f43c dcd9 a83c 92fc cbbc
00000170: 4b02 6e3d 854d 873d 15ea 90bd 4b47 55bd
00000180: e69e b63d 40cb 06bd a8aa 0dbd 0958 c1bd
00000190: 05c8 64bd 8900 c53c 16b2 52bc 8b0e 91bd
000001a0: 8bb8 163b 6690 88bd aea9 a9bd 2615 5cbd
000001b0: dfa5 aebd 5527 7fbd af1b c83d 3847 963c
000001c0: 407d f63c 0b69 babd cc79 83bd 6f9d 05bd
000001d0: adf1 7b3c 9477 b0bd ca67 2cbd 6d9a 6fbd
000001e0: ee99 f239 4123 14bd d890 d7bb 2453 87bd
000001f0: 2f41 89bd 115b 69bd 59de 08bd c4dc 9dbd
00000200: 1499 a73d 93ec 9dbc 6fdd ab3d f3c1 f83c
00000210: 534e a8bd e0a1 893d 4bfe dcbc 926f 19bd
00000220: 3965 a6bd 2bc2 c6bd aadc e43c 828f aebc
00000230: 215f 1b3d 4445 a3bd 383a 933d 5303 92bd
00000240: eb5f 89bc 9978 aa3c 841f 503d cc9f 9f3d
00000250: 8c36 b53d b8f4 9dbd 159b ca3c a9b3 2abd
00000260: 7d37 2fbc 2451 95bd 99a2 b63d 05ee 91bd
00000270: 3b2d 543d 241e 0c3d f915 003d cb02 59bd
00000280: 8cfb b53d 7b04 af3c 8454 4f3c a0c8 afbd
00000290: 0ee2 233d 3332 60bc 5a6f 37bd 95e2 aa3d
000002a0: 7c70 b43c a9fc 5dbd fe40 4abd 2de6 92bb
000002b0: 9f7f 5f3d 7959 cbbc 03b8 63bd 5de2 08bd
000002c0: af33 95bd d056 0e3d 1c17 9c3d c41a bcbd
000002d0: 7fef b93c e6bc 4d3d 384f 8c3c 6d5a 0ebd
000002e0: 0899 513d 8f89 513d df82 143d 4756 8bbc
000002f0: b0ff d3bc c448 2f3c 68e9 8cbc 960e eebc
00000300: cab8 7e3d 7f4d ab3d c408 22bc 58d0 b2bc
00000310: 2f2b d43a 01ff bfbb 0f51 bf3c de29 e03c
00000320: e06f b5bd dd62 13bd 0e59 a83d b6bb 1b3d
00000330: 8805 9ebb 2bce 70bd de7d 74bd a9f7 b2bd
00000340: 6f3b 02bd ed0d 073d 56ac 803d ce62 373d
00000350: 697e b0bd 2c54 6ebd 9e6e 74bc 300b c13d
00000360: efdd 633c e5eb cebc b45f 253d 426e 18bd
00000370: 244d 80bd cd87 923d a314 35bd 17aa a7bc
00000380: 666c c6bd bd6a 863d d2d3 973d dc97 103d
00000390: df59 8bbd c911 c5bd 10bc a1bd f5a7 943d
000003a0: da74 3d3d ce0c a93d 18bd 4f3d b1e3 c73c
000003b0: 8c0f 0239 96af 96bd 4b08 acbd bf95 bbbd
000003c0: 8967 233d 09be 44bd 035b a1bc 16fd 65bd
000003d0: a1e6 91bc 62b9 8dbd fe74 83bd 0390 053d
000003e0: 2082 e6bc 9a68 783d de59 01bd 97fc 92bd
000003f0: 0d13 89bc 2f91 43bd 61c9 f9bc b527 bebd

layers.1.layers.0.bias f4 [100]
0.063637055 0.041821748 -0.0052999393 0.054254003 -0.0043930924 -0.012759106 -0.03680795 -0.084020324
0.08174588 -0.0585962 -0.08870068 -0.04542357 0.018181507 -0.008823525 0.044580318 0.06083977
0.05734211 -0.082616106 0.04027128 0.050738983 -0.055596568 0.0009946229 0.0169907 0.016501868
0.05404485 0.08151459 0.093588576 0.022868425 0.054725002 0.04101358 -0.048666153 0.064681426
-0.008508587 0.044343237 -0.06478408 0.07996254 0.02084972 0.022930188 -0.08801091 -0.0077716024
-0.032749306 0.09182192 -0.089083366 -0.02339218 -0.047929723 -0.07307096 0.03797305 -0.06411906
0.046086054 0.011879674 -0.04988131 -0.009159575 0.012282021 -0.042329855 -0.062359057 -0.05408604
0.026148103 -0.08550389 0.06255474 0.066501155 0.09226284 0.08941202 -0.055363096 -0.04232616
0.070370235 -0.014597471 -0.069843024 -0.04460963 0.0681154 -0.054499406 0.034210276 -0.08069925
0.06592611 0.027093647 0.07053427 0.0033067467 0.04877089 0.08075238 -0.012388777 -0.073993005
-0.067517124 0.06131593 -0.0628944 -0.08706215 -0.08329878 -0.041512802 0.018454242 -0.08801256
-0.045983914 0.09287934 -0.014594538 -0.03106942 0.049822874 -0.08040156 -0.07678853 0.01884073
0.033690188 -0.0963323 0.08637478 -0.036397986
00000000: 2554 823d 484d 2b3d 1dab adbb 7239 5e3d
00000010: eef3 8fbb 920b 51bc efc3 16bd d912 acbd
00000020: 626a a73d 9202 70bd b4a8 b5bd 110e 3abd
00000030: 62f1 943c 8c90 10bc da99 363d 1f33 793d
00000040: 8fdf 6a3d a232 a9bd 7ff3 243d aed3 4f3d
00000050: 3ab9 63bd 025e 823a 1530 8b3c ed2e 873c
00000060: 225e 5d3d 1ff1 a63d 5eab bf3d 9056 bb3c
00000070: 5327 603d dbfd 273d 2956 47bd b277 843d
00000080: 9a67 0bbc 41a1 353d 84ad 84bd 66c3 a33d
00000090: 08cd aa3c 17d8 bb3c 103f b4bd eda8 febb
000000a0: 2324 06bd 210d bc3d 5771 b6bd f5a0 bfbc
000000b0: f551 44bd 3aa6 95bd a189 1b3d db50 83bd
000000c0: bbc4 3c3d f7a2 423c 5850 4cbd 0b12 16bc
000000d0: 883a 493c 1262 2dbd 366c 7fbd 5389 5dbd
000000e0: 8c34 d63c aa1c afbd b31c 803d c231 883d
000000f0: 4df4 bc3d a61d b73d 6ac4 62bd 325e 2dbd
00000100: 451e 903d 3b2a 6fbc dc09 8fbd 96b8 36bd
00000110: 1680 8b3d c53a 5fbd 1320 0c3d a645 a5bd
00000120: 4504 873d 7ff3 dd3c 4574 903d 01b6 583b
00000130: fcc3 473d 8161 a53d 4cfa 4abc a589 97bd
00000140: 6b46 8abd 6a26 7b3d c7ce 80bd a44d b2bd
00000150: 8d98 aabd 5409 2abd 5a2d 973c ee3f b4bd
00000160: a159 3cbd 8637 be3d ee1d 6fbc 4c85 febc
00000170: 1213 4c3d 93a9 a4bd 4e43 9dbd e057 9a3c
00000180: b9fe 093d de49 c5bd 43e5 b03d 0e16 15bd

layers.2.layers.0.weight f4 [100, 100]
0.016229643 0.07414618 0.038427867 0.03201551 -0.09052738 -0.092242435 0.038122322 0.00398538
0.062000025 0.051808324 -0.07869228 0.01923555 -0.07752532 -0.054412104 0.028564198 -0.0039120885
-0.062400747 0.035408475 0.06993988 -0.097039945 0.09463691 0.056249004 -0.0075845704 -0.096339196
-0.04182652 0.03154629 -0.04204229 -0.03315951 -0.040642194 0.08665683 0.08719307 -0.077535614
-0.030540235 0.092199676 -0.0050298055 -0.04897771 0.012760344 0.07958829 -0.012090373 -0.09368653
-0.032611012 0.051479835 -0.012630301 0.07242564 0.035842393 0.0024722782 0.039314125 -0.011802541
-0.085183874 -0.08534644 -0.077602245 -0.01496152 -0.07116396 0.014940397 0.013054882 0.076899596
0.0069417185 0.017620914 0.03618604 -0.027289942 -0.049028948 -0.092668235 -0.09708846 0.0074176667
-0.04704168 0.029232936 0.026250329 0.078590736 -0.010603792 0.0005205595 0.06999264 0.017633978
0.04722545 -0.052558843 -0.070270136 0.07797914 0.0739039 -0.03646585 0.017564751 -0.08894517
0.007997113 -0.09217601 0.05771926 -0.09867206 -0.023523685 0.09596244 -0.033601973 -0.058321185
0.09086427 -0.04831242 0.022832274 0.056739923 0.028668554 -0.06863306 0.09188031 0.04922622
-0.061789095 -0.056986716 -0.021817997 0.034777924 0.03594723 0.010472339 0.06520262 0.09787266
0.019482063 0.03673949 0.0554296 0.01834378 0.0049091047 0.08789721 0.06687726 0.06423449
-0.040369906 -0.04867081 -0.055400286 -0.08557954 -0.012442037 0.054342173 0.013156629 -0.03706795
-0.014744825 -0.07787138 -0.065690994 0.0078171985 -0.05927416 0.011057578 0.08080001 0.024806425
0.074997656 -0.06420467 0.0005691369 -0.09960826 -1.9722862e-05 -0.0746767 0.0919408 -0.086023286
0.031814747 -0.060309574 0.026599418 -0.001815161 -0.013585519 -0.04204308 0.06099221 -0.019384453
0.007125248 -0.031423602 -0.07424819 -0.04363681 0.08783824 0.09354179 -0.047412023 0.008640809
0.013785988 0.08720464 0.01244238 0.0038296524 -0.030664233 0.020014511 -0.100258105 -0.10075414
-0.013342215 -0.071961105 -0.07039758 -0.017945763 0.05513884 0.04777492 -0.03705641 -0.007722371
0.09003602 0.020472685 0.066952676 -0.04206872 -0.09117429 -0.048419856 0.0070050205 -0.025864396
-0.0568776 0.093842335 -0.093126625 0.0015836166 0.038278576 -0.028547935 0.04231567 -0.0007592291
-0.060825095 -0.056035466 -0.045828514 -0.097842835 0.06105325 0.08851734 -0.052741025 0.0032177719
0.031270526 0.027322816 -0.056292996 -0.062485006 0.0956195 0.057624985 0.09020284 0.06850808
-0.0078088674 0.06977261 -0.0034108446 -0.0007658079 -0.043521486 0.07763145 -0.021468777 0.014269582
-0.079791784 0.03396578 -0.047796782 -0.022847917 -0.009194361 0.03696121 0.0038236862 0.017123135
-0.06519455 -0.075662024 0.035913587 -0.041369416 -0.08632226 -0.0414105 -0.0982421 0.019687057
0.0071886363 0.09208285 -0.055316363 -0.051817667 0.023651535 -0.02652459 0.077463165 0.014924682
-0.0022973132 -0.038595803 0.060257502 -0.04689557 0.039867334 0.064170584 -0.078559235 -0.08868501
-0.056440745 0.047582574 -0.05570073 0.009146336 0.014856615 0.020778494 -0.051204786 0.003087711
0.068946704 0.05153824 0.01892119 -0.07962155 0.04660103 -0.03987903 0.06980376 0.041338857
00000000: 07f4 843c f4d9 973d 8a66 1d3d b222 033d
00000010: 6b66 b9bd 9ae9 bcbd 2726 1c3d ca97 823b
00000020: bdf3 7d3d f734 543d 6b29 a1bd df93 9d3c
00000030: 98c5 9ebd 3adf 5ebd 77ff e93c fa30 80bb
00000040: ed97 7fbd 7a08 113d a43c 8f3d e1bc c6bd
00000050: ffd0 c13d 5b65 663d fd87 f8bb 7c4d c5bd
00000060: 4952 2bbd af36 013d 8934 2cbd 44d2 07bd
00000070: 6e78 26bd 2379 b13d 4892 b23d feca 9ebd
00000080: 842f fabc 2fd3 bc3d 11d1 a4bb da9c 48bd
00000090: c310 513c 2fff a23d b316 46bc b9de bfbd
000000a0: 2093 05bd 85dc 523d 52ef 4ebc e553 943d
000000b0: 79cf 123d f205 223b d907 213d 725f 41bc
000000c0: e274 aebd 1dca aebd eded 9ebd 2a21 75bc
000000d0: 69be 91bd 91c8 743c 25e4 553c 897d 9d3d
000000e0: 5b77 e33b bc59 903c d037 143d 288f dfbc
000000f0: 94d2 48bd d8c8 bdbd 51d6 c6bd e60f f33b
00000100: c7ae 40bd e979 ef3c ee0a d73c 2ef4 a03d
00000110: 87bb 2dbc 2876 083a 4d58 8f3d 2275 903c
00000120: 796f 413d f147 57bd cae9 8fbd 87b3 9f3d
00000130: ee5a 973d 375d 15bd f4e3 8f3c e328 b6bd
00000140: 5306 033c c7c6 bcbd 086b 6c3d 9414 cabd
00000150: beb4 c0bc f587 c43d 39a2 09bd 32e2 6ebd
00000160: 0c17 ba3d 3ee3 45bd c00a bb3c 1f68 683d
00000170: 51da ea3c 7d8f 8cbd be2b bc3d 6fa1 493d
00000180: 9016 7dbd e76a 69bd a8bb b2bc 4c73 0e3d
00000190: 673d 133d 2c94 2b3c f488 853d 7671 c83d
000001a0: d998 9f3c 267c 163d 260a 633d b245 963c
000001b0: 8edc a03b 7403 b43d f2f6 883d 5f8d 833d
000001c0: ea5a 25bd 0b5b 47bd 69eb 62bd 5344 afbd
000001d0: b0d9 4bbc e695 5e3d e78e 573c 90d4 17bd
000001e0: 4794 71bc 087b 9fbd 0089 86bd b513 003c
000001f0: 76c9 72bd d82a 353c 7a7a a53d d836 cb3c
00000200: 5f98 993d bd7d 83bd 2132 153a 6aff cbbd
00000210: 8672 a5b7 19f0 98bd 754b bc3d fa2c b0bd
00000220: 2e50 023d 2c07 77bd 06e7 d93c b2ea edba
00000230: cc95 5ebc 5d35 2cbd f8d2 793d 25cc 9ebc
00000240: ea7a e93b 09b6 00bd 6f0f 98bd 83bc 32bd
00000250: 89e4 b33d d792 bf3d 1c33 42bd 2e92 0d3c
00000260: a0de 613c 5998 b23d 20db 4b3c e8fa 7a3b
00000270: 8f33 fbbc 79f5 a33c 1f54 cdbd 3058 cebd
00000280: 4e99 5abc 5860 93bd 9b2c 90bd fe02 93bc
00000290: 44d9 613d a2af 433d 76c8 17bd f10b fdbb
000002a0: ce64 b83d 55b6 a73c 7c1e 893d 4050 2cbd
000002b0: 96b9 babd e653 46bd 5f8a e53b 92e1 d3bc
000002c0: 7cf8 68bd 6930 c03d 2cb9 bebd 5b91 cf3a
000002d0: ffc9 1c3d 5cdd e9bc 3253 2d3d 0107 47ba
000002e0: bc23 79bd 7285 65bd aeb6 3bbd d361 c8bd
000002f0: f912 7a3d 9448 b53d f906 58bd 41e1 523b
00000300: 8615 003d 19d4 df3c 7c93 66bd 47f0 7fbd
00000310: 28d4 c33d 2d08 6c3d 44bc b83d f74d 8c3d
00000320: 87e1 ffbb f1e4 8e3d 7a88 5fbb 80c0 48ba
00000330: 9643 32bd 3dfd 9e3d 4adf afbc f7ca 693c
00000340: e069 a3bd b41f 0b3d 8fc6 43bd 8e2b bbbc
00000350: f2a3 16bc a364 173d cf96 7a3b d145 8c3c
00000360: b884 85bd b1f4 9abd 201a 133d fa72 29bd
00000370: bac9 b0bd 0e9e 29bd 2733 c9bd c046 a13c
00000380: a78e eb3b ef95 bc3d 6993 62bd c33e 54bd
00000390: ddc0 c13c 194a d9bc 02a5 9e3d a786 743c
000003a0: 858e 16bb a216 1ebd 92d0 763d 9215 40bd
000003b0: ee4b 233d de6b 833d aae3 a0bd 7da0 b5bd
000003c0: 692e 67bd f2e5 423d 7326 64bd 83da 153c
000003d0: 2969 733c a937 aa3c 1cbc 51bd 325b 4a3b
000003e0: ee33 8d3d c319 533d 9d00 9b3c a010 a3bd
000003f0: b9e0 3e3d 3258 23bd 46f5 8e3d ef52 293d

layers.2.layers.0.bias f4 [100]
-0.040124334 -0.03650135 -0.08528246 0.0031065468 0.061071515 -0.06106095 -0.0105774 0.06625627
-0.06809903 0.025733124 -0.025008004 0.08145979 -0.0015830813 0.08487768 -0.03554228 -0.077224344
0.0016659945 -0.061416898 -0.05444617 0.0670398 0.088500254 -0.071541905 -0.10002946 0.023840249
-0.08133283 -0.019997008 0.043107215 0.04288665 0.011966191 0.044288367 -0.056654237 -0.024212202
-0.028719708 -0.09435311 -0.05906787 0.00736777 0.022153761 -0.044237684 0.064666614 -0.054763354
0.0231016 0.08436834 0.07606218 0.11116498 0.03338977 -0.067204565 -0.030608272 -0.0276152
-0.07133948 -0.02270298 -0.09455988 -0.045698248 -0.0958608 0.08867873 0.030098867 0.114574134
0.05959939 0.09590706 -0.03174226 -0.040299088 -0.046312034 -0.091115244 -0.006719768 0.02252448
0.05776167 -0.00924848 0.04253831 0.040302116 0.019115673 0.034532055 -0.028610857 0.06389637
-0.096375644 0.011957377 0.04654525 0.08520244 0.0544307 -0.011843903 0.068570144 -0.09488391
-0.021134237 -0.03795097 0.059906773 0.09658908 -0.026729016 0.020577159 -0.01958168 -0.03199453
0.038258936 0.03549631 -0.051438224 0.021689456 0.110698186 -0.07820637 -0.01793492 -0.08750577
-0.017871026 0.094564706 0.060066406 -0.09648374
00000000: 6a59 24bd 7182 15bd 92a8 aebd 3597 4b3b
00000010: 2026 7a3d 0c1b 7abd d54c 2dbc 5eb1 873d
00000020: 8177 8bbd 46ce d23c 96dd ccbc 64d4 a63d
00000030: 657f cfba 59d4 ad3d c894 11bd cc27 9ebd
00000040: 805d da3a 4990 7bbd f202 5fbd 2a4c 893d
00000050: 9f3f b53d 9084 92bd 3fdc ccbd a04c c33c
00000060: d491 a6bd c4d0 a3bc 3191 303d e9a9 2f3d
00000070: d80d 443c b867 353d 460e 68bd ab58 c6bc
00000080: 9845 ebbc 343c c1bd 27f1 71bd 566d f13b
00000090: ce7b b53c 9332 35bd ee6f 843d 8a4f 60bd
000000a0: 913f bd3c 4fc9 ac3d 7dc6 9b3d 77aa e33d
000000b0: b6c3 083d 8ca2 89bd 33be fabc 4639 e2bc
000000c0: 6f1a 92bd 9afb b9bc 9ca8 c1bd 162e 3bbd
000000d0: ab52 c4bd 329d b53d e691 f63c d8a5 ea3d
000000e0: 7d1e 743d ec6a c43d 2c04 02bd a810 25bd
000000f0: b0b1 3dbd a19a babd 8031 dcbb 4285 b83c
00000100: 8097 6c3d f086 17bc a73c 2e3d d513 253d
00000110: 7998 9c3c 7c71 0d3d 5161 eabc 1adc 823d
00000120: 9860 c5bd e0e8 433c 3ba6 3e3d 9e7e ae3d
00000130: baf2 5e3d ee0c 42bc 816e 8c3d 7f52 c2bd
00000140: b521 adbc 7a72 1bbd ce60 753d 7fd0 c53d
00000150: cff6 dabc 6e91 a83c c269 a0bc b20c 03bd
00000160: 67b5 1c3d 9464 113d e3b0 52bd 16ae b13c
00000170: bbb5 e23d a92a a0bd 41ec 92bc 3a36 b3bd
00000180: 4266 92bc 24ab c13d 3108 763d 4499 c5bd

layers.3.weight f4 [2, 100]
-0.091178305 5.3465046e-06 -0.01266057 0.07230205 -0.038477458 0.07520088 -0.06056402 -0.022933688
-0.005370167 -0.05438107 0.00186159 -0.02649037 -0.049619034 -0.08685781 -9.426332e-05 0.09342061
0.03817113 -0.08098443 -0.05226636 0.05720502 -0.040402528 -0.0108288275 -0.04708962 0.037023913
-0.06804314 -0.1030332 -0.07373893 -0.091790825 0.009175545 0.014517209 -0.033891834 0.035003465
0.004491417 0.024012223 0.05178964 0.007424631 0.10026172 0.071031176 -0.06448774 0.074700624
-0.017923739 -0.008151912 0.001019611 -0.09517067 0.0625931 0.06455271 0.0936387 0.01422955
-0.028044593 -0.019868895 -0.03296511 -0.091271855 0.031753406 0.0048895907 -0.045855053 -0.07192763
-0.027892735 0.012079258 0.07209652 0.03864509 0.07430903 0.08067927 -0.04977985 -0.005768085
-0.09464028 -0.06680606 0.03022139 0.033391725 0.043016043 0.080462076 0.036516845 -0.053199556
-0.022648985 0.0050398125 0.048197653 -0.07236488 -0.049052462 0.037372343 0.0330472 0.09393034
0.08058899 -0.047563717 0.026565187 -0.06961886 -0.0036197323 -0.0071309805 0.021069746 0.08251273
-0.08038382 0.079673976 0.067503326 -0.04846043 -0.03701237 -0.027108606 0.061912987 -0.02592392
0.029585402 -0.04896494 0.07644575 -0.01756842 0.101297006 -0.06119368 -0.025626373 0.074762724
0.06984742 -0.048297364 -0.07669436 -0.05998306 -0.07218679 -0.04488149 -0.051823284 -0.012606534
0.09383714 0.0003829113 -0.06119471 0.048289225 -0.056823794 -0.03374511 -0.010685159 0.01466531
-0.050671436 -0.07331382 -0.09732663 -0.006294669 0.052575063 0.03732533 0.080714226 0.03636344
-0.07267091 0.012784983 -0.017382456 0.078760825 0.043543268 0.10095114 -0.08706851 -0.005716486
-0.085911736 0.017426098 -0.036679756 -0.041606244 0.12026753 -0.02373306 0.07522836 0.091840684
0.08172265 0.085694574 0.07240315 0.024255246 0.08719619 0.115029156 -0.06829715 0.023666356
0.07707474 -0.033575892 0.09020377 0.109869055 0.02098612 0.0211344 0.0018147568 0.09662996
-0.07514017 0.039585408 -0.05163497 0.07934239 -0.0037960268 0.054101516 0.0926462 -0.0005600633
-0.011885884 0.10756664 0.10859979 0.06767841 0.010166616 0.0073851887 -0.053029887 0.13893436
0.06910892 0.08278087 -0.06303252 0.027716046 0.025521586 -0.025928505 0.0145848645 0.04627506
-0.028191589 0.091155455 -0.084441386 0.0019393152 -0.040081184 0.116630636 -0.028240332 -0.022513645
0.1210748 -0.06973685 -0.03070524 0.08679232 0.089016944 0.0022765684 -0.0052854293 -0.04189561
00000000: b1bb babd 2066 b336 486e 4fbc 1913 943d
00000010: 8a9a 1dbd eb02 9a3d fa11 78bd 6edf bbbc
00000020: 3af8 afbb afbe 5ebd 9800 f43a 5502 d9bc
00000030: 543d 4bbd 82e2 b1bd 3caf c5b8 4e53 bf3d
00000040: 5559 1c3d 2adb a5bd 4015 56bd d04f 6a3d
00000050: 1f7d 25bd 656b 31bc 0ce1 40bd 63a6 173d
00000060: 345a 8bbd 1203 d3bd 7004 97bd d4fc bbbd
00000070: 0655 163c 96d9 6d3c 2ad2 0abd cb5f 0f3d
00000080: bd2c 933b 48b5 c43c 6021 543d 524a f33b
00000090: 0456 cd3d cb78 913d 2612 84bd a4fc 983d
000000a0: ced4 92bc 998f 05bc 78a4 853a d7e8 c2bd
000000b0: d030 803d 3634 843d a6c5 bf3d 0f23 693c
000000c0: c6bd e5bc 18c4 a2bc 6c06 07bd bdec babd
000000d0: dc0f 023d dc38 a03b 82d2 3bbd cb4e 93bd
000000e0: 4e7f e4bc 15e8 453c 57a7 933d 504a 1e3d
000000f0: 552f 983d 2c3b a53d f5e5 4bbd 3402 bdbb
00000100: c3d2 c1bd 9ed1 88bd d992 f73c c3c5 083d
00000110: 9731 303d 4dc9 a43d b092 153d c7e7 59bd
00000120: 5d8a b9bc 0325 a53b e76a 453d 0a34 94bd
00000130: 3ceb 48bd be13 193d 805c 073d 8d5e c03d
00000140: d70b a53d 2cd2 42bd 3c9f d93c 5594 8ebd
00000150: 0839 6dbb 00ab e9bb 769a ac3c 6ffc a83d
00000160: 46a0 a4bd 1c2c a33d 2f3f 8a3d 727e 46bd
00000170: 489a 17bd de12 debc 7998 7d3d 675e d4bc
00000180: 165d f23c 768f 48bd 978f 9c3d a6eb 8fbc
00000190: ce74 cf3d 39a6 7abd 66ee d1bc 331d 993d
000001a0: 2a0c 8f3d 75d3 45bd ef11 9dbd ccb0 75bd
000001b0: abd6 93bd a7d5 37bd a744 54bd a38b 4ebc
000001c0: b02d c03d 7cc1 c839 4ea7 7abd ecca 453d
000001d0: 11c0 68bd 5038 0abd ce10 2fbc c546 703c
000001e0: da8c 4fbd 8e25 96bd 2f53 c7bd 8343 cebb
000001f0: f358 573d 72e2 183d 804d a53d d5f1 143d
00000200: 7cd4 94bd 1b78 513c a765 8ebc 5b4d a13d
00000210: 6d5a 323d 79bf ce3d fa50 b2bd 5c51 bbbb
00000220: 7ef2 afbd 2dc1 8e3c 833d 16bd 4f6b 2abd
00000230: d34e f63d d66b c2bc 5411 9a3d f816 bc3d
00000240: 345e a73d a380 af3d 1a48 943d f0b2 c63c
00000250: eb93 b23d 6894 eb3d 60df 8bbd f2df c13c
00000260: 5cd9 9d3d e086 09bd c1bc b83d 0703 e13d
00000270: 15eb ab3c 0d22 ad3c 22dd ed3a eee5 c53d
00000280: 17e3 99bd 4f24 223d 317f 53bd 437e a23d
00000290: c3c6 78bb 8d99 5d3d 4abd bd3d 36d1 12ba
000002a0: 03bd 42bc e64b dc3d 9169 de3d fa9a 8a3d
000002b0: e191 263c 74ff f13b de35 59bd cf44 0e3e
000002c0: fa88 8d3d 0489 a93d 3217 81bd c30c e33c
000002d0: a512 d13c 0468 d4bc 5bf5 6e3c eb8a 3d3d
000002e0: 0cf2 e6bc b6af ba3d 9bef acbd 9f30 fe3a
000002f0: 2b2c 24bd 0bdc ee3d 4558 e7bc 896e b8bc
00000300: 11f6 f73d 32d2 8ebd 8e89 fbbc 2cc0 b13d
00000310: 844e b63d 7b32 153b 6531 adbb bb9a 2bbd

layers.3.bias f4 [2]
-0.037609547 0.22049987
00000000: 780c 1abd b8ca 613e
