clients_data/clients_fair_trained_model/client5.pth (torch, 86087 bytes, 6 tensors)

layers.1.layers.0.weight f4 [100, 105]
000000 0a da 99 3d 1e 5f a5 3d ce 78 b9 bc 14 da b7 3d
       0.07512291 0.08074783 -0.022640612 0.08977142
000010 72 91 af bc 23 5e a3 3c 25 23 43 bd 96 af 6a 3d
       -0.021431658 0.019942349 -0.04764094 0.057296358
000020 62 30 b0 3d 43 04 92 bd 4f 47 ad 3d 33 4e 98 3c
       0.08602978 -0.07129719 0.08460867 0.018591976
000030 3e 68 92 3d 98 16 56 3c 09 de 44 3d c8 5d 63 bc
       0.07148789 0.01306691 0.04806331 -0.01387734
000040 fb 13 9a 3d dd 79 65 3c 90 14 3a bd d9 61 ca 3c
       0.07523342 0.014006105 -0.045429766 0.02470486
000050 42 2b 38 bd b6 76 3d bc a6 03 22 bd 83 ca 85 3d
       -0.04496313 -0.011563947 -0.03955426 0.06532767
000060 ef b0 9d bd 50 47 38 bd fd 1c dd bc d8 a5 6e bd
       -0.07699763 -0.044989884 -0.026991362 -0.05826363
000070 1b 90 1c 3c 49 b0 c5 bd 86 5a b2 3d b5 61 aa bd
       0.009555842 -0.09652764 0.08708672 -0.083194174
000080 8a 1b 9a 3d f6 88 83 3c 6b 63 01 bd c0 2e 76 3d
       0.07524784 0.016056519 -0.031588953 0.060103178
000090 c3 65 76 3c 95 03 a2 3d 35 33 32 3c 60 ac f7 bc
       0.01503891 0.079108395 0.0108764665 -0.030233562
0000a0 1d a4 d2 3c 9a 70 da bc b4 bf 28 3d e8 2d b2 3d
       0.025713021 -0.02666502 0.041198447 0.08700162
0000b0 03 32 66 3d f5 f3 2e bd 70 d2 64 3d ae 21 90 3c
       0.05620004 -0.042713124 0.05586475 0.017594185
0000c0 fa 19 4a 3d d7 ce 72 bd 0e da c4 bd b3 f0 1b bd
       0.04934118 -0.05927929 -0.09611903 -0.038071346
0000d0 17 6f 99 bd 03 60 a3 3d bb 20 e5 3c 7b 0d 26 3d
       -0.07491892 0.07977297 0.027969709 0.0405402
0000e0 5d 94 fa 3c b1 73 ff ba 0b f6 9c 3d 98 19 8f bd
       0.030588323 -0.0019489435 0.076641165 -0.069873035
0000f0 51 d8 da 3b b9 84 88 bd c6 9d f7 3c 8c ac 08 bd
       0.006678619 -0.0666594 0.0302266 -0.03336768
000100 47 77 f5 3c a3 7d a6 bc 21 42 a6 3d 63 cf 6c bd
       0.029964102 -0.02032358 0.08118082 -0.057814967
000110 3e 48 6e bd db 63 6e bd ed cb b3 3d c6 7b 05 3d
       -0.058174364 -0.0582007 0.0877913 0.032588743
000120 42 86 c0 3d ba e5 a4 bd bb 32 c6 bd f8 54 9c bd
       0.09400608 -0.08051629 -0.09677645 -0.07633394
000130 7a 8c 86 bd 1f e9 23 3d 0b 8d 0e 3d 3b f3 a5 3d
       -0.065697625 0.040017243 0.034802478 0.08103033
000140 69 53 4e bd 16 37 88 bd 00 b4 53 3d b1 7c 21 bd
       -0.050372515 -0.06651132 0.051685333 -0.039425556
000150 da dc 71 3d 34 b6 bd bc c2 cb 64 3d e5 40 9b bd
       0.05904851 -0.02315817 0.05585838 -0.07580737
000160 fb c2 49 bd 19 ce f3 3c 8f 2f a9 3c 33 2d cc bc
       -0.049258213 0.029761361 0.02065256 -0.024923896
000170 00 a9 6d 3d 01 42 87 3d 3e eb 90 bd e3 4d 55 bd
       0.0580225 0.06604386 -0.07076119 -0.05207623
000180 7c c6 b6 3d 15 d5 06 bd 49 a9 0d bd 4d 59 c1 bd
       0.08924577 -0.032918055 -0.03458527 -0.09440861
000190 21 d2 64 bd d7 c6 c7 3c bb 0b 53 bc 76 0c 91 bd
       -0.055864457 0.024386806 -0.012881215 -0.07082455
0001a0 60 05 16 3b 61 fd 87 bd 43 50 a9 bd 3f a8 5c bd
       0.0022891387 -0.06640125 -0.08267262 -0.05387139
0001b0 4c d6 ae bd e7 d8 7e bd d4 3d c7 3d 33 e4 98 3c
       -0.08536968 -0.062218573 0.0972859 0.018663501
0001c0 c6 09 f7 3c 0b 69 ba bd 55 80 83 bd bc 25 05 bd
       0.030156028 -0.091020666 -0.06420962 -0.03250669
0001d0 f6 29 7f 3c 6e 9a b0 bd 1f cc 2c bd d8 97 6e bd
       0.015573969 -0.08623205 -0.042186853 -0.05825028
0001e0 a2 89 91 39 12 59 14 bd 3c 68 d6 bb 7b 6c 87 bd
       0.000277591 -0.036217757 -0.0065431874 -0.06612488
0001f0 c8 1a 89 bd 0f 04 6a bd 01 a7 08 bd f7 97 9d bd
       -0.06694561 -0.057132777 -0.033362392 -0.076950006
000200 65 31 a7 3d 36 4f 9f bc 03 fa ab 3d 1b c1 f8 3c
       0.08163718 -0.01944695 0.08397295 0.030365517
000210 74 9a a8 bd 58 e8 89 3d 8e fb dc bc 33 ae 19 bd
       -0.082325846 0.06733769 -0.02697542 -0.037519645
000220 b4 f4 a5 bd a0 ba c6 bd 7f c4 e3 3c 14 d8 ad bc
       -0.08103314 -0.09703565 0.027803658 -0.021221198
000230 6b 53 1b 3d 33 20 a3 bd ef 42 93 3d f3 5a 92 bd
       0.03792135 -0.07965126 0.07190501 -0.071462534
000240 25 08 8a bc d5 6f a8 3c d4 11 50 3d 8c 76 a0 3d
       -0.016849587 0.020561138 0.050798252 0.07835111
000250 8d 78 b5 3d d8 f6 9d bd 5a 32 c9 3c 69 34 2c bd
       0.08860884 -0.07713097 0.024560142 -0.04204217
000260 24 e6 2e bc e0 99 95 bd c1 be b6 3d 18 07 92 bd
       -0.010674987 -0.0730474 0.08923102 -0.07130259
000270 f5 82 54 3d c2 4a 0c 3d ed bb ff 3c 9b 2e 59 bd
       0.051882703 0.034250982 0.03121754 -0.053022962
000280 9f bb b5 3d 3d 51 af 3c 7e 61 48 3c b7 4d af bd
       0.088736765 0.021401042 0.012230275 -0.08559745
000290 a0 80 23 3d 8c ac 5e bc 85 73 37 bd c4 7a ab 3d
       0.03991759 -0.013590943 -0.044787902 0.08373025
0002a0 89 c2 b3 3c 42 f0 5c bd 27 3d 4a bd 6b d3 9a bb
       0.021943348 -0.053940065 -0.049374726 -0.00472491
0002b0 39 f6 5c 3d d3 db cb bc 53 e6 63 bd 21 bf 08 bd
       0.053945754 -0.024885094 -0.055639576 -0.0333854
0002c0 66 66 95 bd 64 dc 0d 3d 46 0a 9a 3d 1e 10 bc bd
       -0.072949216 0.03463401 0.07521491 -0.091827616
0002d0 25 04 bb 3c 95 e7 4f 3d 71 c8 94 3c ab 3d 0e bd
       0.022829125 0.050757963 0.018161984 -0.03472678
0002e0 68 e3 50 3d e6 db 52 3d 53 30 15 3d d2 de 8e bc
       0.05099812 0.051479243 0.03642304 -0.017440233
0002f0 42 6a d3 bc 69 2b 2d 3c 38 3a 8d bc bd f6 ed bc
       -0.025807504 0.010569432 -0.017239675 -0.029048318
000300 e8 f8 7e 3d bf 2c ab 3d 77 f8 1d bc 7f b8 b2 bc
       0.062249094 0.08358144 -0.009641758 -0.02181649
000310 dd 9c ae 3a 43 aa bd bb 1b 8e be 3c b7 bb de 3c
       0.0013321895 -0.005788119 0.02326112 0.027189119
000320 6b 6a b5 bd 13 67 13 bd 0e d3 a7 3d ca d0 1b 3d
       -0.08858188 -0.03598697 0.08194552 0.038040914
000330 44 89 99 bb d0 c9 70 bd 07 7a 74 bd 27 08 b3 bd
       -0.004685553 -0.058786213 -0.059686687 -0.08741789
000340 8e 6a 02 bd 73 fd 06 3d 98 ac 7f 3d 34 2b 37 3d
       -0.0318399 0.03295655 0.062420458 0.044718936
000350 aa 24 b1 bd a5 4a 6e bd e9 6f 75 bc 24 8a c1 3d
       -0.08649571 -0.058176655 -0.014980295 0.09450176
000360 cb 84 68 3c 7b d0 ce bc b4 5f 25 3d 30 0e 19 bd
       0.014191817 -0.025245896 0.040374473 -0.037367046
000370 1a a8 7f bd e7 3e 92 3d 7e 8a 35 bd d0 8e a5 bc
       -0.062416174 0.07140904 -0.04432153 -0.0202097
000380 66 40 c6 bd ad eb 84 3d c4 cc 97 3d 7e ee 10 3d
       -0.09680252 0.06490264 0.07412103 0.035383694
000390 60 1c 8b bd 5a 05 c5 bd 58 3c a1 bd 77 60 94 3d
       -0.067925215 -0.09620161 -0.07872838 0.07244962
0003a0 4d d2 3a 3d fa bf a9 3d 85 4a 4f 3d b7 eb c6 3c
       0.045610715 0.0828857 0.050608177 0.02428232
0003b0 c8 1d 03 3a f1 3a 98 bd 4e 0e ab bd e3 81 ba bd
       0.0005001691 -0.07433117 -0.08352338 -0.09106805
0003c0 6f 4f 22 3d 95 69 44 bd b0 86 a1 bc dd de 65 bd
       0.039626535 -0.047952253 -0.019717544 -0.056120742
0003d0 e1 14 8f bc c2 cf 8c bd 66 6e 83 bd a6 db 06 3d
       -0.01746601 -0.06875564 -0.06417541 0.032924317
0003e0 65 33 ea bc 64 29 78 3d eb c7 00 bd 16 27 93 bd
       -0.02858896 0.06058635 -0.031440657 -0.071851894
0003f0 86 09 89 bc 39 a7 43 bd 9a bf ff bc 51 23 be bd
       -0.016728174 -0.047766898 -0.031219292 -0.0928408

layers.1.layers.0.bias f4 [100]
000000 a6 93 82 3d 37 7a 2a 3d af e6 b6 bb 19 49 63 3d
       0.06375818 0.04162046 -0.005581699 0.055489633
000010 68 85 8d bb ec 09 5a bc e5 55 16 bd 2f 57 ac bd
       -0.004318882 -0.01330803 -0.03670301 -0.084150665
000020 ef f1 a7 3d 4e 49 6e bd 1f db b5 bd 2b 40 3a bd
       0.08200442 -0.058175378 -0.08879685 -0.04547135
000030 7f 69 93 3c eb 11 13 bc 08 8f 35 3d ee 46 79 3d
       0.01799464 -0.00897644 0.04432586 0.06085866
000040 6c d5 6c 3d 17 78 a9 bd f1 dd 26 3d 38 cc 51 3d
       0.057820722 -0.082748584 0.040739004 0.05122015
000050 d3 b5 63 bd c4 c1 c3 3a 6e c0 90 3c 9d 11 88 3c
       -0.055593323 0.0014935066 0.017669883 0.016609961
000060 23 3d 5b 3d 4e c9 a6 3d 45 75 bf 3d e2 8a bf 3c
       0.0535251 0.081438646 0.09348539 0.023381654
000070 63 45 61 3d 6b 13 28 3d 69 3c 4a bd 46 9f 84 3d
       0.054997813 0.041034143 -0.049374018 0.064756915
000080 4b a0 09 bc 10 7d 36 3d 81 03 85 bd 57 7f a4 3d
       -0.008400033 0.044552863 -0.06494809 0.08032101
000090 a1 55 ab 3c 9a 99 bd 3c 25 85 b4 bd 3e a1 eb bb
       0.020914854 0.023144532 -0.08814458 -0.0071908524
0000a0 69 fd 00 bd 6f 4d bc 3d 49 e5 b6 bd 8d e0 bb bc
       -0.03149167 0.09194457 -0.089304514 -0.022934223
0000b0 7e 6b 44 bd fb 00 96 bd 49 1e 1c 3d b8 2e 83 bd
       -0.047954075 -0.07324406 0.03811482 -0.06405395
0000c0 f5 7c 3c 3d 40 ca 44 3c 7c c5 4b bd 32 91 15 bc
       0.046017606 0.012011111 -0.049748883 -0.009128856
0000d0 38 86 55 3c ce d6 2c bd 44 d8 7d bd 84 cc 5e bd
       0.0130324885 -0.04219704 -0.061973825 -0.05439426
0000e0 3a 7f db 3c ff 7a ae bd 29 27 81 3d b2 f6 86 3d
       0.026794065 -0.085195534 0.06306297 0.06590022
0000f0 dc 6c be 3d f4 24 b6 3d bc 95 63 bd 2f 9b 2b bd
       0.09298107 0.08893767 -0.05556272 -0.04189604
000100 c9 9a 8f 3d d5 a3 69 bc 3f 57 8e bd 6e 62 35 bd
       0.07011945 -0.014260252 -0.069502346 -0.044283323
000110 17 9f 8c 3d 80 b0 60 bd e8 7e 0c 3d b7 75 a5 bd
       0.068662815 -0.054855824 0.034300715 -0.08079093
000120 3d bc 87 3d b9 ed da 3c 9d 13 92 3d e3 fd 59 3b
       0.066277005 0.026724683 0.07132647 0.00332629
000130 37 0b 47 3d fa ca a5 3d 18 0e 44 bc e3 d5 97 bd
       0.04859468 0.08095355 -0.011966251 -0.074138425
000140 6c af 89 bd 7b 99 7b 3d 48 99 80 bd 9a de b3 bd
       -0.06722912 0.061425667 -0.06279236 -0.08782692
000150 88 69 aa bd b4 e4 29 bd 21 37 94 3c d8 97 b3 bd
       -0.0832091 -0.041477874 0.018092694 -0.08769196
000160 d9 37 3c bd f8 aa be 3d 6c 8e 6a bc e0 1c f9 bc
       -0.045951698 0.093099535 -0.014316183 -0.030409276
000170 ff 47 4d 3d d0 78 a4 bd ff fc 9c bd d5 78 98 3c
       0.05011749 -0.08030856 -0.07665443 0.018612305
000180 32 0a 0e 3d 89 91 c5 bd a7 31 b2 3d 18 b6 14 bd
       0.03467769 -0.09646899 0.08700877 -0.03630647

layers.2.layers.0.weight f4 [100, 100]
000000 d8 24 85 3c 20 ad 98 3d 6b 61 1d 3d 2a 1e 05 3d
       0.01625292 0.07454896 0.038422983 0.03249947
000010 86 e4 b8 bd f5 24 bc bd 97 75 1e 3d cc 2f 9a 3b
       -0.090279624 -0.091867365 0.03868636 0.004705405
000020 47 fa 7d 3d 5b 79 55 3d 3b 6f a0 bd 43 97 9c 3c
       0.06200626 0.052117687 -0.078337155 0.019115096
000030 56 78 9e bd 33 b4 5e bd e1 ee ed 3c f3 5b 5c bb
       -0.07737796 -0.05437107 0.02904457 -0.0033624142
000040 12 df 7e bd f0 3a 12 3d c3 99 90 3d 7d bc c5 bd
       -0.062224455 0.03570074 0.07060578 -0.09655092
000050 5c c0 c1 3d 3e 84 67 3d 92 0f fa bb 6a 61 c4 bd
       0.09460518 0.0565226 -0.0076312507 -0.09588893
000060 da 3c 2b bd cd e9 ff 3c c7 ef 2b bd 30 81 06 bd
       -0.04180608 0.031239415 -0.041976716 -0.032838047
000070 62 bd 24 bd 26 0a b2 3d cf 70 b2 3d c7 04 9d bd
       -0.040219672 0.08693342 0.08712923 -0.07666927
000080 33 21 01 bd 96 38 bd 3d 6e 8d a8 bb 47 69 4b bd
       -0.031525802 0.092393085 -0.005143813 -0.049660947
000090 e6 63 5e 3c 83 81 a3 3d 07 0f 44 bc 18 41 be bd
       0.013573622 0.07983687 -0.011966473 -0.092897594
0000a0 1c 8f 04 bd 01 49 55 3d 15 a2 40 bc 47 f7 94 3d
       -0.032363042 0.052071575 -0.011757393 0.07273727
0000b0 59 a7 14 3d 39 d9 37 3b 93 fb 23 3d 2f ae 3f bc
       0.036292408 0.0028053059 0.04003484 -0.011699243
0000c0 f1 9d ad bd 4f b8 ae bd 7c 83 9e bd 6f cc 6c bc
       -0.084773906 -0.08531248 -0.077399224 -0.014453038
0000d0 a1 cc 90 bd af c0 7d 3c f1 04 5c 3c 5a d2 9d 3d
       -0.0707028 0.015487834 0.0134289125 0.07706137
0000e0 54 df e1 3b 47 bf 93 3c 47 64 13 3d 79 21 e0 bc
       0.006893078 0.018035544 0.035984304 -0.027359711
0000f0 b6 b6 47 bd 09 bb bd bd 30 f6 c5 bd 01 37 00 3c
       -0.04875823 -0.0926419 -0.09666097 0.007825614
000100 cc 5e 41 bd 67 cf f9 3c cc ba dc 3c 8e e8 9f 3d
       -0.047209546 0.030494405 0.02694454 0.07808028
000110 51 f7 1d bc 5a fd e7 39 5b c6 8f 3d ef 17 94 3c
       -0.009641484 0.00044248515 0.07020255 0.018077819
000120 a5 c5 42 3d 69 19 58 bd 82 9a 8f bd 15 cb 9e 3d
       0.04755177 -0.052758608 -0.07011892 0.077535786
000130 13 e6 98 3d 59 67 14 bd 16 59 94 3c d8 1c b5 bd
       0.07465758 -0.036231373 0.018108886 -0.08843392
000140 50 21 08 3c d9 f0 bc bd e3 bb 6c 3d dc f9 c8 bd
       0.008308724 -0.092256255 0.05779637 -0.09813282
000150 27 48 b9 bc d9 55 c5 3d 83 f9 06 bd bb a6 6c bd
       -0.022617413 0.09635515 -0.032952797 -0.057776194
000160 01 76 ba 3d a7 30 42 bd ec 19 bc 3c 64 8e 6b 3d
       0.09104539 -0.04740968 0.02296158 0.05750884
000170 d6 96 ee 3c 60 6b 8c bd da 90 bd 3d 64 91 4a 3d
       0.029124659 -0.06856418 0.09256144 0.04945506
000180 e4 2d 7c bd 01 c4 66 bd 57 0a b0 bc 2e 0c 0e 3d
       -0.061567202 -0.056339268 -0.021489305 0.034679584
000190 b6 48 13 3d 5d b7 2d 3c 91 65 85 3d 7d a8 c7 3d
       0.035958014 0.010602799 0.06513513 0.097489335
0001a0 fd f4 a0 3c bd 8a 17 3d cf c4 61 3d 92 a4 94 3c
       0.01964807 0.036997546 0.055119332 0.01814488
0001b0 f6 39 98 3b 8d 93 b4 3d d1 5d 88 3d 0e 3e 84 3d
       0.0046455814 0.088172056 0.06658519 0.064571485
0001c0 f1 bc 26 bd b2 d4 47 bd 84 8b 63 bd 8f 01 af bd
       -0.040707532 -0.048786826 -0.055552974 -0.08545219
0001d0 fc f1 55 bc 84 fc 5d 3d 1c d5 55 3c 9c 3d 19 bd
       -0.013058182 0.054195896 0.0130512975 -0.03741227
0001e0 ea d9 71 bc 18 8d 9f bd e4 12 87 bd 22 cf f7 3b
       -0.014761427 -0.07790583 -0.065954 0.007562534
0001f0 90 60 71 bd 4c f9 34 3c 9b a8 a5 3d 4e 47 c8 3c
       -0.05892998 0.011045765 0.080887996 0.024448063
000200 83 67 99 3d 08 07 83 bd 6e 79 2a 3a 80 87 cc bd
       0.074904464 -0.063978255 0.000650308 -0.09986782
000210 9e 13 df 38 13 cb 99 bd 12 d6 bb 3d 6f 44 b1 bd
       0.000106371226 -0.075094365 0.0917169 -0.08655631
000220 a1 a3 00 3d 95 b2 77 bd 85 60 d8 3c 31 78 05 bb
       0.03140605 -0.060473043 0.026413212 -0.002036583
000230 2e 02 69 bc 73 42 2d bd 4c 46 7a 3d ad a7 a3 bc
       -0.014221711 -0.0422997 0.061102197 -0.019977415
000240 68 2a e2 3b b8 f3 ff bc b9 c8 97 bd 38 2d 33 bd
       0.006902028 -0.031244144 -0.07411332 -0.043744296
000250 50 b4 b4 3d f6 4d bf 3d 04 28 42 bd be e0 09 3c
       0.088234544 0.09341042 -0.047401443 0.008415399
000260 4e 0d 5f 3c 01 b7 b1 3d 06 a7 49 3c 93 aa 71 3b
       0.013614012 0.08677483 0.012307888 0.0036875352
000270 f3 02 fe bc a5 37 a4 3c cd 22 cd bd 11 49 ce bd
       -0.031007266 0.020046065 -0.10016403 -0.1007253
000280 1f a8 5c bc 64 48 93 bd d5 d6 90 bd 32 66 94 bc
       -0.013467818 -0.07191542 -0.07072226 -0.018115137
000290 ce ae 60 3d d4 0b 43 3d fc 9d 18 bd cf df 00 bc
       0.054854207 0.047618702 -0.03726004 -0.00786586
0002a0 dc c1 b7 3d a1 ce a5 3c 01 1a 88 3d 79 2e 2d bd
       0.089725226 0.02024013 0.06645585 -0.042280648
0002b0 cc 15 bb bd cf c3 46 bd 7a fb dc 3b 21 e6 d0 bc
       -0.09135017 -0.04852658 0.0067438455 -0.025500359
0002c0 a6 7b 67 bd 2f d4 bf 3d 6f 0e bf bd 56 c7 bd 3a
       -0.056514405 0.09366643 -0.09328925 0.0014478962
0002d0 69 cb 1c 3d 58 2f e9 bc a1 fb 2b 3d fa 85 13 ba
       0.038279925 -0.028464958 0.04198802 -0.0005627569
0002e0 f8 47 79 bd ed d9 66 bd 85 da 3b bd 9a 36 c9 bd
       -0.06085965 -0.056360174 -0.045862693 -0.098248675
0002f0 7b 51 78 3d f0 9c b4 3d 23 13 58 bd ed 96 4d 3b
       0.06062458 0.08818996 -0.052752625 0.0031370476
000300 e0 f0 fb 3c 2d df dc 3c e1 5f 68 bd 28 30 7f bd
       0.030754507 0.026961887 -0.056732062 -0.062301785
000310 8b b0 c3 3d 29 40 6b 3d 73 7f b8 3d 1d 1c 8c 3d
       0.09555157 0.057434235 0.09008684 0.068413
000320 ac 26 fb bb e5 f7 8e 3d 1e c4 59 bb c1 05 50 ba
       -0.007664522 0.06980876 -0.0033228467 -0.0007935428
000330 61 b2 31 bd de e1 9e 3d 11 80 af bc c7 01 6b 3c
       -0.043383006 0.077579245 -0.021423372 0.0143436855
000340 83 58 a3 bd 74 23 0b 3d 26 96 43 bd ae f8 b9 bc
       -0.07975867 0.033969358 -0.047750615 -0.022701588
000350 cc 9c 16 bc 22 58 17 3d c1 e4 79 3b c8 31 8c 3c
       -0.009192657 0.036949284 0.0038130733 0.017113581
000360 72 91 85 bd 1b 1c 9b bd 27 f2 12 3d ea 9b 29 bd
       -0.06521882 -0.0757372 0.035875466 -0.041408457
000370 9e c7 b0 bd 59 56 29 bd 46 23 c9 bd bc 70 a1 3c
       -0.08631824 -0.041342113 -0.09821181 0.019707076
000380 d1 25 ef 3b 3b 9d bc 3d d4 0f 62 bd 69 30 54 bd
       0.0072982092 0.09209677 -0.055190876 -0.05180398
000390 ca 0d c2 3c 49 d9 d8 bc 73 de 9e 3d d0 9c 74 3c
       0.023688216 -0.026470797 0.077572726 0.014929965
0003a0 c5 d7 0b bb 7e c1 1d bd 37 bf 76 3d 6e 28 40 bd
       -0.0021338325 -0.038514607 0.06024095 -0.046913557
0003b0 b1 00 23 3d 6d 57 83 3d 78 fe a0 bd fe ad b5 bd
       0.03979558 0.064131595 -0.07861036 -0.08871077
0003c0 87 66 67 bd d5 b8 42 3d ad 2d 64 bd 42 88 14 3c
       -0.056494262 0.04753955 -0.055707622 0.0090656895
0003d0 38 1c 73 3c 30 f1 a9 3c 20 03 52 bd d6 b7 4b 3b
       0.014838271 0.02074489 -0.05127251 0.0031084917
0003e0 97 83 8d 3d 7a 89 53 3d 02 c2 9a 3c 0a 37 a3 bd
       0.069098644 0.05164478 0.018891338 -0.07969482
0003f0 b0 e3 3e 3d 70 9a 23 bd e8 df 8e 3d c9 77 29 3d
       0.04660386 -0.039942205 0.069763005 0.041374

layers.2.layers.0.bias f4 [100]
000000 ac d2 20 bd d4 d5 18 bd 93 24 ae bd 1e b1 95 3b
       -0.039263412 -0.037313297 -0.0850307 0.004568233
000010 c3 00 81 3d 2b 44 78 bd a0 aa 2d bc d5 be 86 3d
       0.062989734 -0.060611885 -0.010599762 0.06579367
000020 f7 73 8b bd 71 2f d2 3c d6 26 ce bc e1 1f a7 3d
       -0.06809228 0.025657387 -0.025165003 0.08160377
000030 19 cd 3a bb e6 2f ae 3d 77 4f 12 bd 39 c9 9d bd
       -0.0028503595 0.0850523 -0.035720315 -0.07704396
000040 f9 0e ce 3a 2a 83 7b bd 2c 23 5f bd 0a 4b 89 3d
       0.0015721015 -0.061404385 -0.054476902 0.06703766
000050 30 4c b5 3d 28 dd 92 bd 51 13 cd bd 54 66 c1 3c
       0.08852422 -0.071710885 -0.1001345 0.023608364
000060 b7 cd a6 bd b6 d7 99 bc b2 53 32 3d 64 44 2e 3d
       -0.08144706 -0.018779617 0.04353685 0.04254569
000070 83 19 43 3c 10 71 35 3d f4 36 68 bd 5d 0f bb bc
       0.011907938 0.044297278 -0.056693032 -0.022834474
000080 3c 85 e6 bc 13 9f bb bd 93 8d 71 bd 7d 38 ef 3b
       -0.028139703 -0.091612004 -0.058972906 0.007300435
000090 2a 60 af 3c b8 a1 34 bd d8 af 83 3d 00 94 60 bd
       0.02140816 -0.04409954 0.06430024 -0.054828644
0000a0 27 41 d2 3c 0d 13 ac 3d 02 09 9e 3d c1 36 e5 3d
       0.025665833 0.08402071 0.07716562 0.11192084
0000b0 01 f2 07 3d 66 71 89 bd bb 6c fb bc 14 11 e1 bc
       0.033189777 -0.06711082 -0.030691495 -0.027473964
0000c0 94 ee 8f bd b1 43 b0 bc d0 36 c1 bd 23 ee 37 bd
       -0.07027927 -0.021516653 -0.09434283 -0.04490484
0000d0 25 94 c4 bd 55 27 b5 3d 11 8b f9 3c 40 71 eb 3d
       -0.09598569 0.088453926 0.03046182 0.1149621
0000e0 e6 a1 73 3d 3f f3 c4 3d 74 86 02 bd 06 83 21 bd
       0.05948057 0.09616708 -0.031866506 -0.039431594
0000f0 91 37 3b bd b5 9b ba bd fe 14 da bb 78 e8 bd 3c
       -0.04570729 -0.0911173 -0.0066553345 0.023182139
000100 06 66 6e 3d 82 cc 1c bc 40 09 34 3d 88 4d 25 3d
       0.058202766 -0.009570243 0.043954134 0.040357143
000110 48 e4 9d 3c 4c 20 0b 3d 70 f3 dd bc 29 75 80 3d
       0.019273892 0.033966348 -0.02709362 0.062723465
000120 77 d7 c4 bd 15 5e 44 3c b5 ab 40 3d 0b 2f b1 3d
       -0.09611409 0.0119853215 0.047038753 0.08651551
000130 0c 79 60 3d 02 9e 42 bc 86 24 8b 3d 28 42 c2 bd
       0.05480294 -0.011878492 0.06794076 -0.094852746
000140 ad d1 ac bc c2 05 1c bd db d5 75 3d 86 27 c8 3d
       -0.021096075 -0.03809143 0.0600184 0.097731635
000150 38 d3 d7 bc e6 9d a1 3c 57 fd a2 bc 68 33 04 bd
       -0.026345834 0.019728612 -0.019896192 -0.032275587
000160 dc 84 1c 3d 25 8f 0e 3d 88 1d 55 bd 3a 82 b1 3c
       0.038212642 0.034804482 -0.052030116 0.021668542
000170 44 45 e4 3d a7 be 9f bd a0 e4 92 bc 11 6f b4 bd
       0.11146024 -0.07800036 -0.017931283 -0.08810247
000180 88 80 97 bc c9 40 c2 3d f3 9b 76 3d 8e 56 c5 bd
       -0.018493906 0.09485013 0.06020732 -0.096356496

layers.3.weight f4 [2, 100]
000000 35 db b9 bd 98 0e d1 b8 52 d8 56 bc 45 b0 90 3d
       -0.090750135 -9.968615e-05 -0.013113098 0.07064871
000010 ff 83 2a bd ab cb 99 3d ec 83 79 bd d0 e4 be bc
       -0.041629788 0.0750955 -0.060916826 -0.023302466
000020 d3 c3 bd bb fd fe 5f bd 67 44 90 3a 7c b1 e0 bc
       -0.0057911663 -0.054686535 0.0011006714 -0.027428381
000030 df 07 49 bd 87 0b b3 bd b1 54 0d ba 4d 2d be 3d
       -0.049079772 -0.08742433 -0.0005391343 0.09285984
000040 1f 5b 1c 3d 73 bf a6 bd 95 bb 55 bd d4 b8 68 3d
       0.038172837 -0.08141985 -0.052180845 0.05681689
000050 93 2c 24 bd cb 4f 41 bc 24 90 41 bd d0 6c 17 3d
       -0.04008157 -0.011798809 -0.047256604 0.036969006
000060 6c 08 8c bd 1d 76 d5 bd 82 27 97 bd db ad bb bd
       -0.06837544 -0.10422919 -0.073805824 -0.0916402
000070 cc 1d 1e 3c 1a 3d 6f 3c 68 de 0b bd d2 40 05 3d
       0.009650659 0.01460197 -0.03414765 0.03253252
000080 02 6f 40 3b e6 14 b8 3c 7c 39 52 3d c4 44 b4 3b
       0.002936304 0.022470903 0.051324353 0.0055013616
000090 71 bd ce 3d 95 f7 8e 3d 9a d0 85 bd 3d e5 98 3d
       0.10094727 0.06980816 -0.06533928 0.07465599
0000a0 4e 5a a2 bc c2 a8 0f bc 8d 0b 86 ba d9 f7 c4 bd
       -0.019818451 -0.008768262 -0.0010226831 -0.09617586
0000b0 b5 53 80 3d 91 bd 84 3d 02 d7 c0 3d 13 cd 62 3c
       0.06265966 0.064814694 0.094160095 0.013842839
0000c0 0d 09 ea bc fc 21 ab bc 81 fb 06 bd a5 19 bc bd
       -0.028568769 -0.020890228 -0.032954697 -0.09184579
0000d0 f0 73 02 3d 4c ad 8a 3b fe 91 3c bd 24 25 93 bd
       0.031848848 0.0042320844 -0.046037666 -0.071848184
0000e0 e1 75 e2 bc cb 6a 33 3c f7 ce 93 3d d2 e1 18 3d
       -0.0276441 0.010950754 0.0721721 0.037324734
0000f0 f6 12 9a 3d aa ac a4 3d a6 14 4c bd 83 60 c7 bb
       0.07523148 0.080407456 -0.04982438 -0.006084503
000100 be 49 c5 bd d0 de 88 bd 50 40 e2 3c c6 03 09 3d
       -0.09633206 -0.06683123 0.027618557 0.033450864
000110 3b 62 30 3d 47 e7 a4 3d 79 28 12 3d 93 f7 56 bd
       0.04306243 0.08051925 0.03568313 -0.0524822
000120 db 6e bf bc 89 92 a2 3b 31 0d 46 3d 38 31 96 bd
       -0.02336829 0.004961316 0.048352424 -0.073336065
000130 dc 87 4e bd e9 b7 17 3d 1d 4b 06 3d af ce c0 3d
       -0.050422534 0.037040625 0.032786477 0.09414422
000140 f0 76 a4 3d ec 03 44 bd 43 27 d6 3c 50 a0 91 bd
       0.08030498 -0.047855303 0.026141768 -0.07110655
000150 4c be 41 bb 7d 1b ee bb e1 de aa 3c 0b 2a a8 3d
       -0.0029562889 -0.0072664605 0.02085823 0.08211144
000160 8e c9 a3 bd f2 cc a4 3d e6 4f 8a 3d 93 f0 45 bd
       -0.07997428 0.08046903 0.06753521 -0.048325133
000170 b4 e1 1c bd b7 f8 e0 bc fc df 7d 3d 56 97 d3 bc
       -0.038301185 -0.027462346 0.061981186 -0.025828999
000180 0b c5 f6 3c a2 52 4c bd 92 b8 9c 3d 94 5b 91 bc
       0.030123254 -0.049883492 0.076523915 -0.017743863
000190 56 e3 cc 3d f6 c7 78 bd bb 71 c6 bc 6f c4 a3 3d
       0.100042984 -0.060737573 -0.024224153 0.07996451
0001a0 b3 56 a3 3d 60 65 44 bd 45 bb 9a bd 12 f3 70 bd
       0.07975521 -0.04794824 -0.0755525 -0.05882556
0001b0 fd 37 91 bd 76 7a 33 bd d1 d7 49 bd 2b ea 1a bc
       -0.07090757 -0.04381796 -0.049278084 -0.009455244
0001c0 e4 fe bc 3d 8f 4d 0b 3b 86 52 75 bd bc 48 4d 3d
       0.09228304 0.0021255945 -0.059893154 0.050118193
0001d0 fb ac 68 bd 37 2e 05 bd d3 ef 31 bc d8 92 82 3c
       -0.056805592 -0.032514777 -0.010860401 0.015939161
0001e0 92 7a 53 bd 70 f7 8f bd 0b 5a c6 bd 31 9d c5 bb
       -0.051630564 -0.07029617 -0.09685143 -0.0060307016
0001f0 9b a9 5b 3d ae 15 29 3d 67 a7 a5 3d 95 ac 12 3d
       0.053628545 0.04128044 0.0808857 0.03580912
000200 ed a2 97 bd 33 58 4d 3c 13 cd 87 bc 8e 84 b1 3d
       -0.074041225 0.012533235 -0.01657728 0.08667861
000210 72 b1 45 3d 59 bb d8 3d c7 95 af bd c8 03 3d 39
       0.04826493 0.10582609 -0.0857349 0.00018025853
000220 10 12 b4 bd 97 e3 ae 3c 61 29 0b bd 80 d9 29 bd
       -0.08792508 0.021348758 -0.03397501 -0.04146719
000230 54 72 01 3e 5d 44 b2 bc 69 8e a7 3d 9f e6 c1 3d
       0.12641269 -0.021761114 0.081814595 0.094678156
000240 1e 29 a7 3d 8f 08 ae 3d 65 31 91 3d 09 99 cf 3c
       0.08162139 0.08497726 0.070894994 0.025341528
000250 5d de b5 3d a3 f1 f1 3d b1 fe 8b bd dc 90 d0 3c
       0.08880303 0.11813667 -0.06835688 0.0254597
000260 47 f5 9c 3d 8e f0 00 bd 47 1f bb 3d 88 2e e1 3d
       0.076639704 -0.03147941 0.09136825 0.10995203
000270 f0 9a a6 3c d5 5a cb 3c 73 30 d7 3a 27 8a ce 3d
       0.020337552 0.024823586 0.0016417637 0.10084944
000280 b4 6f 9f bd 4b b2 25 3d ca ad 52 bd 87 b2 a4 3d
       -0.077849776 0.040453237 -0.05143527 0.08041864
000290 6b 9a aa 3a 50 4a 5e 3d 10 83 ce 3d b6 57 26 ba
       0.0013015991 0.05427009 0.10083592 -0.00063454674
0002a0 b1 5b 45 bc 69 33 dc 3d ec 06 e4 3d a4 1b 86 3d
       -0.012045787 0.10751993 0.11134133 0.06548241
0002b0 10 7b 4a 3c 30 e9 ff 3b a9 0c 5b bd d9 de 11 3e
       0.012358442 0.0078097805 -0.05347887 0.14245166
0002c0 9a 57 96 3d 80 b8 ab 3d 30 09 7f bd 2f 51 dd 3c
       0.073409274 0.083848 -0.06226462 0.02701625
0002d0 88 b3 d8 3c 3a 00 cd bc 46 59 83 3c fc 30 50 3d
       0.026452795 -0.025024522 0.01603378 0.050827965
0002e0 31 9b f6 bc 74 89 bb 3d 7d 72 ab bd aa 07 53 3b
       -0.030103298 0.091570765 -0.08371446 0.0032200613
0002f0 c0 09 29 bd d3 00 ea 3d d2 21 e8 bc 88 e6 bb bc
       -0.041269064 0.114259385 -0.02833644 -0.022937074
000300 7e 39 00 3e b8 48 8c bd 8f 59 fd bc 0a 37 b1 3d
       0.12521932 -0.068498075 -0.030926494 0.08653076
000310 e0 01 b3 3d 67 6b aa 3b 0d e4 b3 bb 98 4e 29 bd
       0.08740592 0.0052007916 -0.0054898323 -0.04133472

layers.3.bias f4 [2]
000000 da 20 24 bd b1 4f 6a 3e
       -0.040070392 0.22881962
