clients_data/clients_trained_model/client1.pth (torch, 86081 bytes, 6 tensors)

layers.1.layers.0.weight f4 [100, 105]
0.07507867 0.08095762 -0.022840103 0.08966097 -0.021369467 0.019712318 -0.047498032 0.05731423
0.08602978 -0.07161544 0.08485653 0.018303782 0.072114244 0.013265929 0.04706619 -0.012714803
0.0752463 0.011964556 -0.045548648 0.02517124 -0.044945735 -0.011439565 -0.0396251 0.06474735
-0.07702707 -0.044988144 -0.026864888 -0.058172844 0.009238749 -0.0969591 0.088147484 -0.082887486
0.07534997 0.01624347 -0.031674433 0.060334772 0.015233429 0.079449065 0.010696856 -0.030749701
0.024889102 -0.026323894 0.041097563 0.08714338 0.056429546 -0.04265809 0.05634596 0.017463269
0.049575463 -0.060264513 -0.0961019 -0.037663028 -0.074841715 0.0801003 0.028915908 0.040435523
0.030871028 -0.0016912203 0.07540071 -0.06928916 0.0060947663 -0.06671257 0.030107273 -0.033526786
0.02988043 -0.020332046 0.080944076 -0.057836697 -0.058198124 -0.058201257 0.08777794 0.03252724
0.093908325 -0.08053686 -0.096793264 -0.076346725 -0.06564357 0.039530806 0.034944624 0.08109594
-0.050394736 -0.06652317 0.051782597 -0.039444048 0.059239786 -0.023155546 0.05582824 -0.07582246
-0.0492465 0.029754207 0.020633887 -0.024878211 0.05817228 0.066346064 -0.070769675 -0.05209673
0.08936131 -0.032928728 -0.034595396 -0.09442625 -0.05588342 0.024380198 -0.012879359 -0.07083659
0.0022891387 -0.06680745 -0.08265808 -0.053811245 -0.08545568 -0.062180348 0.09748931 0.018387083
0.030069113 -0.091020666 -0.06429994 -0.032584623 0.015135926 -0.0859159 -0.04220633 -0.058454268
0.0004927497 -0.03636321 -0.0052408054 -0.06616269 -0.06700915 -0.056990296 -0.033421088 -0.07706393
0.08179762 -0.019392323 0.08396019 0.030078169 -0.08276184 0.06744655 -0.02661986 -0.03745054
-0.08104532 -0.097045094 0.027913148 -0.021361021 0.03790126 -0.08016509 0.07251187 -0.07172691
-0.01693931 0.021177538 0.05032147 0.0787021 0.08885945 -0.077434696 0.024542367 -0.042010166
-0.010700314 -0.073095776 0.08930456 -0.07172659 0.052023213 0.034258496 0.031636048 -0.05319356
0.0886649 0.021422757 0.012533362 -0.085449666 0.040807802 -0.0144811515 -0.044669535 0.08377603
0.021758184 -0.053921588 -0.0493941 -0.004672355 0.0544742 -0.024951478 -0.055697557 -0.033423193
-0.072923854 0.034796502 0.07553266 -0.09188777 0.022652065 0.05040092 0.01768655 -0.034754205
0.05091705 0.051274557 0.036475282 -0.01715976 -0.025849221 0.010408023 -0.017248066 -0.029089188
0.062374275 0.08386155 -0.009665346 -0.021858487 0.0014137814 -0.005832859 0.023450632 0.027348
-0.088647895 -0.036020327 0.082179226 0.038010743 -0.0048580836 -0.058848687 -0.059711993 -0.087423824
-0.031819068 0.03295655 0.0623128 0.04515432 -0.0863153 -0.05871803 -0.015430503 0.09435924
0.014085003 -0.025275934 0.040374473 -0.037360147 -0.063237585 0.07114139 -0.044405874 -0.019675367
-0.09710441 0.066058904 0.07390231 0.035750717 -0.0680703 -0.096332416 -0.079300396 0.07276133
0.046826527 0.08210207 0.05110726 0.024695056 -0.0009023636 -0.07409409 -0.083675735 -0.09134178
0.03991998 -0.047941085 -0.019657962 -0.05616952 -0.017813798 -0.06875315 -0.06382121 0.032733023
-0.029067745 0.060183942 -0.031233422 -0.07163112 -0.01727786 -0.047335677 -0.029894782 -0.09291794
00000000: d9c2 993d 1ccd a53d 2b1b bbbc 2ca0 b73d
00000010: 050f afbc ba7b a13c 4c8d 42bd 53c2 6a3d
00000020: 6230 b03d 1eab 92bd 43c9 ad3d d0f1 953c
00000030: a2b0 933d 5759 593c 7ac8 403d c051 50bc
00000040: bb1a 9a3d fc06 443c 3891 3abd eb33 ce3c
00000050: 0519 38bd 036d 3bbc ee4d 22bd 429a 843d
00000060: 5ec0 9dbd 7d45 38bd c113 dcbc a646 6ebd
00000070: 1f5e 173c 7e92 c6bd ab86 b43d eac0 a9bd
00000080: 1651 9a3d 0711 853c 0dbd 01bd 9821 773d
00000090: a295 793c 31b6 a23d de41 2f3c cce6 fbbc
000000a0: 3be4 cb3c 35a5 d7bc eb55 283d 3a78 b23d
000000b0: ab22 673d 40ba 2ebd 05cb 663d 210f 8f3c
000000c0: a40f 4b3d ecd7 76bd 13d1 c4bd 8c44 1abd
000000d0: 9d46 99bd a00b a43d 0ee1 ec3c b89f 253d
000000e0: 3de5 fc3c f0ab ddba b06b 9a3d 7ae7 8dbd
000000f0: 9bb6 c73b 9aa0 88bd 87a3 f63c 6253 09bd
00000100: cec7 f43c 648f a6bc 02c6 a53d 2ce6 6cbd
00000110: 2861 6ebd 7164 6ebd ecc4 b33d 493b 053d
00000120: 0253 c03d 82f0 a4bd 8c3b c6bd ac5b 9cbd
00000130: 2370 86bd 0eeb 213d 1822 0f3d a115 a63d
00000140: b66a 4ebd 4d3d 88bd fd19 543d 1590 21bd
00000150: 6ba5 723d b3b0 bdbc 27ac 643d ce48 9bbd
00000160: b3b6 49bd 18bf f33c 6608 a93c 64cd cbbc
00000170: 0f46 6e3d 72e0 873d b1ef 90bd 6163 55bd
00000180: 1003 b73d 46e0 06bd e7b3 0dbd 8d62 c1bd
00000190: 03e6 64bd fbb8 c73c f203 53bc c612 91bd
000001a0: 6005 163b 58d2 88bd a448 a9bd 2e69 5cbd
000001b0: 6303 afbd d2b0 7ebd 7aa8 c73d 82a0 963c
000001c0: 8053 f63c 0b69 babd b0af 83bd 7477 05bd
000001d0: adfc 773c adf4 afbd 8be0 2cbd be6d 6fbd
000001e0: df2b 013a 97f1 14bd 10bb abbb 4e80 87bd
000001f0: 183c 89bd a86e 69bd 8de4 08bd b2d3 9dbd
00000200: 8385 a73d a6dc 9ebc 52f3 ab3d 7e66 f63c
00000210: 0a7f a9bd 6b21 8a3d e511 dabc bd65 19bd
00000220: 17fb a5bd 94bf c6bd 1daa e43c 4ffd aebc
00000230: 5a3e 1b3d 982d a4bd 1a81 943d 8fe5 92bd
00000240: 4fc4 8abc 847c ad3c e31d 4e3d 912e a13d
00000250: f1fb b53d 1596 9ebd 130d c93c da12 2cbd
00000260: 5f50 2fbc 3db3 95bd 4fe5 b63d 64e5 92bd
00000270: 4b16 553d a352 0c3d cd94 013d 7ee1 59bd
00000280: f195 b53d c77e af3c bb58 4d3c 3c00 afbd
00000290: 1526 273d 5a42 6dbc 67f7 36bd c492 ab3d
000002a0: 383e b23c e2dc 5cbd 7851 4abd 8e1a 99bb
000002b0: 5720 5f3d 0b67 ccbc 1f23 64bd c2e6 08bd
000002c0: 1a59 95bd c786 0e3d deb0 9a3d a82f bcbd
000002d0: d390 b93c 3271 4e3d 62e3 903c 6d5a 0ebd
000002e0: 668e 503d 4505 523d 1b67 153d a092 8cbc
000002f0: bfc1 d3bc 6a86 2a3c d14b 8dbc 734c eebc
00000300: 2b7c 7f3d 9bbf ab3d 665b 1ebc 9210 b3bc
00000310: a24e b93a 9121 bfbb 8a1b c03c ea08 e03c
00000320: 078d b5bd 0d8a 13bd 954d a83d 27b1 1b3d
00000330: 8f30 9fbb 520b 71bd 9094 74bd 430b b3bd
00000340: b654 02bd 73fd 063d b53b 7f3d bcf3 383d
00000350: 13c6 b0bd 5182 70bd 38d0 7cbc 6b3f c13d
00000360: c9c4 663c 7a0f cfbc b45f 253d f406 19bd
00000370: b582 81bd 94b2 913d efe2 35bd 3c2e a1bc
00000380: adde c6bd e449 873d 185a 973d 586f 123d
00000390: 7168 8bbd ee49 c5bd 3f68 a2bd e403 953d
000003a0: 2ccd 3f3d 2125 a83d d955 513d 494d ca3c
000003b0: 998c 6cba a4be 97bd 2f5e abbd 6611 bbbd
000003c0: 2283 233d df5d 44bd bc09 a1bc 0312 66bd
000003d0: 3eee 91bc 74ce 8cbd b2b4 82bd 1013 063d
000003e0: 7b1f eebc 7083 763d 3cdd ffbc 56b3 92bd
000003f0: 4c8a 8dbc 0ee3 41bd e7e5 f4bc c34b bebd

layers.1.layers.0.bias f4 [100]
0.064150035 0.042912208 -0.004370809 0.053238098 -0.0050081736 -0.016395552 -0.037733864 -0.07991525
0.081357196 -0.061525084 -0.09315195 -0.04375738 0.019471588 -0.008882978 0.04431997 0.056043066
0.05720933 -0.08170837 0.03982764 0.048402164 -0.054435845 0.000586366 0.014370653 0.012438825
0.05250962 0.0824903 0.093645714 0.0220442 0.05685873 0.041746352 -0.053022485 0.06526921
-0.006986359 0.04083389 -0.064772144 0.077987045 0.02154515 0.022260768 -0.08681599 -0.00863479
-0.033748332 0.092180185 -0.08934561 -0.02374281 -0.04855591 -0.0704173 0.037361044 -0.06721025
0.045757394 0.011887997 -0.05156817 -0.010968921 0.008637918 -0.043369886 -0.06264292 -0.05498579
0.024301736 -0.086074516 0.061686542 0.06417296 0.09012774 0.083010465 -0.05499859 -0.04249108
0.07125771 -0.0129287625 -0.07185301 -0.046667635 0.06831985 -0.05553736 0.03436169 -0.0813337
0.06391162 0.026584921 0.067510396 0.0031557581 0.04981271 0.079953544 -0.012293367 -0.07348058
-0.06898631 0.057357304 -0.06194785 -0.08527868 -0.08269538 -0.04327081 0.018350735 -0.088764384
-0.0451522 0.093409486 -0.016598405 -0.032820262 0.046010423 -0.08054306 -0.076083295 0.0142813455
0.030645797 -0.0964166 0.085743405 -0.03803449
00000000: 1861 833d b6c4 2f3d 0139 8fbb 3110 5a3d
00000010: 9b1b a4bb f74f 86bc d38e 1abd 9baa a3bd
00000020: 9a9e a63d ba01 7cbd 73c6 bebd f03a 33bd
00000030: e182 9f3c e989 11bc db88 353d 6a8d 653d
00000040: 5554 6a3d b856 a7bd 4f22 233d 5941 463d
00000050: 1ff8 5ebd 5bb6 193a e372 6b3c 37cc 4b3c
00000060: 5414 573d adf0 a83d 53c9 bf3d 0a96 b43c
00000070: b3e4 683d 39fe 2a3d 1b2e 59bd ddab 853d
00000080: d4ed e4bb 7041 273d 42a7 84bd acb7 9f3d
00000090: 747f b03c 375c b63c 95cc b1bd ef78 0dbc
000000a0: b13b 0abd f7c8 bc3d d5fa b6bd 4880 c2bc
000000b0: 90e2 46bd f236 90bd e507 193d 87a5 89bd
000000c0: 1b6c 3b3d e0c5 423c 2539 53bd fdb6 33bc
000000d0: 0e86 0d3c 9fa4 31bd ee4a 80bd c838 61bd
000000e0: 6f14 c73c d647 b0bd 07ab 7c3d 1d6d 833d
000000f0: e494 b83d 6401 aa3d 3446 61bd 200b 2ebd
00000100: 90ef 913d 29d3 53bc ac27 93bd 9026 3fbd
00000110: 47eb 8b3d 257b 63bd d8be 0c3d 4892 a6bd
00000120: 18e4 823d 9fc8 d93c e442 8a3d d6d0 4e3b
00000130: 6a08 4c3d afbe a33d 1e6a 49bc fc7c 96bd
00000140: b248 8dbd 7eef 6a3d 07bd 7dbd 97a6 aebd
00000150: 325c a9bd bc3c 31bd 4854 963c 1aca b5bd
00000160: 83f1 38bd 794d bf3d 61f9 87bc 8a6e 06bd
00000170: 6d75 3c3d c3f3 a4bd 8fd1 9bbd 4efc 693c
00000180: e50c fb3c 1176 c5bd 3d9a af3d 0eca 1bbd

layers.2.layers.0.weight f4 [100, 100]
0.015582762 0.071367845 0.03853935 0.031050254 -0.091237485 -0.09302728 0.037189867 0.0037162423
0.06140399 0.050043225 -0.07954646 0.01840557 -0.0784501 -0.055227626 0.028136099 -0.0055897
-0.063864075 0.034665655 0.069395445 -0.09827798 0.093977526 0.055202793 -0.008428717 -0.09697157
-0.04233248 0.030863097 -0.042502128 -0.03287071 -0.04129689 0.085978545 0.08463005 -0.07799715
-0.030429881 0.09169049 -0.005759871 -0.048687696 0.012092483 0.07912316 -0.012725628 -0.09436133
-0.03342661 0.05137407 -0.014775515 0.07110482 0.034953635 0.00087699894 0.03975063 -0.013212583
-0.08526094 -0.085700504 -0.07865882 -0.01592571 -0.07168568 0.014655006 0.012364935 0.07608824
0.0060826153 0.017667271 0.035906985 -0.028271724 -0.04982846 -0.09406792 -0.09739472 0.006738872
-0.047288753 0.028434942 0.024852991 0.07799291 -0.010862635 -0.00030456512 0.06939004 0.017047297
0.04642385 -0.053999472 -0.070524834 0.076238826 0.072848946 -0.03764251 0.016611671 -0.08890836
0.008572793 -0.09284341 0.056521058 -0.099115096 -0.023547417 0.09482176 -0.033878352 -0.0579646
0.09021045 -0.04919343 0.022055281 0.0558877 0.026867867 -0.06908844 0.0907583 0.048005298
-0.06207014 -0.05629513 -0.023064006 0.03336203 0.03768309 0.0127576515 0.0654712 0.099480644
0.020573283 0.039055448 0.056869436 0.019823527 0.0061655045 0.08991134 0.06875248 0.06531266
-0.038910914 -0.047831587 -0.054498617 -0.08374148 -0.010160017 0.056025993 0.014650858 -0.035373654
-0.013909422 -0.07663236 -0.06423407 0.009206426 -0.05810182 0.012180249 0.082427755 0.025608111
0.076552026 -0.06335553 0.0026007653 -0.09823358 0.0005162008 -0.0741341 0.09385395 -0.08548855
0.034183778 -0.05981815 0.027680611 -0.0005215883 -0.012790489 -0.03948401 0.06429841 -0.018239625
0.0082878275 -0.030136013 -0.073523924 -0.04179575 0.08946456 0.095186554 -0.04646001 0.00996517
0.015971793 0.088217475 0.013578208 0.004655218 -0.029281268 0.02082792 -0.09971499 -0.09977164
-0.01159153 -0.069359064 -0.06945038 -0.017042281 0.055481505 0.049176674 -0.034743574 -0.007066739
0.09226943 0.021582453 0.067847796 -0.041457973 -0.08976287 -0.046364035 0.0080526 -0.024219906
-0.05525807 0.09607067 -0.09230327 0.0025280898 0.039191533 -0.026978493 0.043371152 0.0003549695
-0.059684377 -0.055013735 -0.04498533 -0.097638346 0.062326014 0.091082044 -0.051369406 0.004942739
0.033415426 0.028314149 -0.05550493 -0.060789622 0.097003676 0.057905857 0.09348138 0.070198916
-0.0074695447 0.070373476 -0.0032323564 -0.0006204367 -0.043328453 0.077959806 -0.021260023 0.014518893
-0.079739824 0.03430363 -0.0476109 -0.02258103 -0.008942187 0.03706714 0.0040197577 0.017424334
-0.0649512 -0.07563117 0.036013532 -0.041177977 -0.08623357 -0.04127009 -0.098104596 0.01998042
0.007426679 0.09231182 -0.055153046 -0.051717497 0.023877753 -0.02627623 0.077930726 0.015212536
-0.0022129132 -0.038470946 0.060420897 -0.046809793 0.040211618 0.06424075 -0.07844081 -0.08860346
-0.056394376 0.04783066 -0.05515932 0.009409963 0.015045259 0.020994259 -0.05114078 0.0034694492
0.06924988 0.05183656 0.019103587 -0.07952771 0.0469884 -0.039819147 0.069899775 0.041532207
00000000: d74e 7f3c 4e29 923d 70db 1d3d 1a5d fe3c
00000010: b8da babd 1685 bebd 6754 183d 338c 733b
00000020: c082 7b3d 20fa 4c3d 41e9 a2bd 47c7 963c
00000030: 72aa a0bd 5d36 62bd ad7d e63c cd29 b7bb
00000040: 2bcb 82bd 93fd 0d3d 331f 8e3d f745 c9bd
00000050: 4a77 c03d 531c 623d 9a18 0abc 0899 c6bd
00000060: d364 2dbd 9bd4 fc3c b616 2ebd 70a3 06bd
00000070: ed26 29bd 8515 b03d 8552 ad3d f8bc 9fbd
00000080: 1648 f9bc 39c8 bb3d 4dbd bcbb c06c 47bd
00000090: 8d1f 463c 530b a23d 277f 50bc 8340 c1bd
000000a0: 57ea 08bd 9e6d 523d 0015 72bc 679f 913d
000000b0: 8b2b 0f3d 67e6 653a 8ed1 223d 9779 58bc
000000c0: 4a9d aebd bf83 afbd e017 a1bd a276 82bc
000000d0: f1cf 92bd 8d1b 703c 4c96 4a3c 27d4 9b3d
000000e0: ad50 c73b f4ba 903c 3413 133d 1a9a e7bc
000000f0: ed18 4cbd afa6 c0bd e276 c7bd c1d1 dc3b
00000100: dab1 41bd 65f0 e83c 8098 cb3c bfba 9f3d
00000110: 32f9 31bc 0aae 9fb9 5e1c 8e3d c6a6 8b3c
00000120: ef26 3e3d 8d2e 5dbd 536f 90bd 1a23 9c3d
00000130: d431 953d 082f 1abd 3315 883c 9615 b6bd
00000140: e674 0c3c b024 bebd a082 673d dbfc cabd
00000150: 83e6 c0bc e931 c23d 07c4 0abd 4a6c 6dbd
00000160: 42c0 b83d 0d7f 49bd 47ad b43c 80ea 643d
00000170: 001a dc3c 3d7e 8dbd 7ddf b93d 34a1 443d
00000180: 423d 7ebd b995 66bd baf0 bcbc a0a6 083d
00000190: 9559 1a3d 7805 513c c415 863d 82bc cb3d
000001a0: 4d89 a83c 9bf8 1f3d edef 683d f364 a23c
000001b0: 0008 ca3b 7023 b83d 1ace 8c3d a5c2 853d
000001c0: 0d61 1fbd 0eeb 43bd f139 5fbd a780 abbd
000001d0: 3376 26bc 837b 653d 270a 703c f7e3 10bd
000001e0: 58e4 63bc 6df1 9cbd 278d 83bd 8dd6 163c
000001f0: 2dfc 6dbd ab8f 473c e2cf a83d 1ac8 d13c
00000200: 4fc7 9c3d 8bc0 81bd 9a71 2a3b b02e c9bd
00000210: a651 073a 9ed3 97bd 8036 c03d 9f14 afbd
00000220: 4a04 0c3d e003 75bd 73c2 e23c 33bb 08ba
00000230: 338f 51bc fcb9 21bd e3ae 833d 446b 95bc
00000240: abc9 073c cddf f6bc b693 96bd 0532 2bbd
00000250: 3239 b73d 2bf1 c23d da4c 3ebd f444 233c
00000260: 47d7 823c 5dab b43d 2277 5e3c cd8a 983b
00000270: 45df efbc 509f aa3c 5f37 ccbd 1355 ccbd
00000280: 67ea 3dbc 200c 8ebd 003c 8ebd 419c 8bbc
00000290: 9340 633d 7b6d 493d 474f 0ebd 1a90 e7bb
000002a0: c1f7 bc3d afcd b03c c9f3 8a3d d6cf 29bd
000002b0: 98d5 b7bd 37e8 3dbd 0def 033c d368 c6bc
000002c0: 4956 62bd b3c0 c43d 7f09 bdbd 4fae 253b
000002d0: 4d87 203d 0002 ddbc f3a5 313d 331b ba39
000002e0: 9b77 74bd 1556 61bd 8a42 38bd 9df6 c7bd
000002f0: 9049 7f3d 3989 ba3d ba68 52bd b3f6 a13b
00000300: 9dde 083d 13f3 e73c 2359 63bd 8afe 78bd
00000310: dda9 c63d b12e 6d3d 2a73 bf3d 73c4 8f3d
00000320: 15c3 f4bb f81f 903d f1d5 53bb cda4 22ba
00000330: 2d79 31bd 64a9 9f3d 8029 aebc a7e0 6d3c
00000340: a24e a3bd f781 0c3d a603 43bd dafb b8bc
00000350: 4082 12bc b7d3 173d 2cb8 833b 7abd 8e3c
00000360: 2205 85bd 84e4 9abd ed82 133d 3daa 28bd
00000370: 3a9b b0bd d30a 29bd 10eb c8bd faad a33c
00000380: 805b f33b fb0d bd3d 29e8 61bd bad5 53bd
00000390: 479b c33c 4041 d7bc 259a 9f3d 003e 793c
000003a0: 8606 11bb b693 1dbd e77b 773d a0bb 3fbd
000003b0: f0b4 243d a890 833d 93a5 a0bd bb75 b5bd
000003c0: cafd 66bd 15ea 433d bdee 61bd 3f2c 1a3c
000003d0: 6480 763c 27fc ab3c ff78 51bd b35f 633b
000003e0: e2d2 8d3d 9352 543d 207f 9c3c 6ddf a2bd
000003f0: e976 403d 6719 23bd 9d27 8f3d ad1d 2a3d

layers.2.layers.0.bias f4 [100]
-0.04364707 -0.029078236 -0.08398721 -0.0016811856 0.051735383 -0.059014495 -0.0067385253 0.074763805
-0.059964612 0.029220987 -0.021085495 0.08311272 -0.008614147 0.08323388 -0.03350275 -0.077852435
0.002237138 -0.059493847 -0.05432744 0.06936518 0.09221095 -0.06636075 -0.09948721 0.029320534
-0.084226236 -0.02732294 0.04148617 0.036279038 0.014742675 0.043964088 -0.055871516 -0.03194939
-0.03258179 -0.099289045 -0.05706317 0.012494976 0.025604041 -0.04387211 0.06940823 -0.05475068
0.0060474826 0.08604703 0.06667743 0.09519851 0.027972806 -0.0690878 -0.034473613 -0.028733494
-0.073912136 -0.036900047 -0.09369691 -0.047173012 -0.09973408 0.096876845 0.016585266 0.09664848
0.057068404 0.097734965 -0.030271932 -0.047043197 -0.043292653 -0.091839075 -0.005964858 0.0146914115
0.057474524 -0.018007904 0.032687552 0.042492628 0.02004608 0.02448154 -0.037990022 0.05557019
-0.09681134 0.011858105 0.052916545 0.06486332 0.04527836 -0.014937741 0.07127263 -0.094808616
-0.021302318 -0.037423026 0.060481343 0.088310294 -0.02641781 0.02009388 -0.015019442 -0.029082034
0.040403426 0.023394162 -0.04806827 0.02198274 0.09088697 -0.07066408 -0.016534027 -0.08876868
-0.02482676 0.09464113 0.06362027 -0.09470537
00000000: 45c7 32bd 7b35 eebc 7d01 acbd 3a5b dcba
00000010: 7be8 533d 2fb9 71bd d9ce dcbb c41d 993d
00000020: 749d 75bd da60 ef3c 7dbb acbc 0037 aa3d
00000030: 5a22 0dbc 8676 aa3d 2e3a 09bd 1971 9fbd
00000040: f39c 123b d2af 73bd 7386 5ebd 550f 8e3d
00000050: 18d9 bc3d 25e8 87bd f3bf cbbd 9e31 f03c
00000060: ce7e acbd 5cd4 dfbc 67ed 293d 5499 143d
00000070: 438b 713c b013 343d 88d9 64bd 5ddd 02bd
00000080: 7c74 05bd 0e58 cbbd 12bb 69bd bab7 4c3c
00000090: 91bf d13c 3eb3 33bd e725 8e3d 4042 60bd
000000a0: f629 c63b 6d39 b03d 2d8e 883d 70f7 c23d
000000b0: 3a27 e53c e87d 8dbd 3434 0dbd 8162 ebbc
000000c0: 3f5f 97bd 8124 17bd 2ae4 bfbd 7d38 41bd
000000d0: 6241 ccbd 5e67 c63d d3dd 873c a3ef c53d
000000e0: 8fc0 693d 4529 c83d d8fc f7bc 5eb0 40bd
000000f0: a353 31bd 2016 bcbd db74 c3bb 3fb4 703c
00000100: 686a 6b3d 5085 93bc 62e3 053d c00c 2e3d
00000110: ad37 a43c 838d c83c 6d9b 1bbd 919d 633d
00000120: 0645 c6bd 7f48 423c 05bf 583d 0fd7 843d
00000130: cd75 393d 6dbd 74bc 62f7 913d 052b c2bd
00000140: 3382 aebc e348 19bd 49bb 773d 07dc b43d
00000150: 2a6a d8bc ec9b a43c 1b14 76bc 723d eebc
00000160: 107e 253d 1da5 bf3c 3ce3 44bd 2615 b43c
00000170: f322 ba3d 54b8 90bd 5e72 87bc 5bcc b5bd
00000180: 7d61 cbbc 35d3 c13d 584b 823d e4f4 c1bd

layers.3.weight f4 [2, 100]
-0.090716 0.0035114398 -0.0123270545 0.074981615 -0.029916005 0.0755552 -0.05924962 -0.018046232
-0.0017669714 -0.05308761 0.0028195744 -0.02487012 -0.04744753 -0.07847324 -0.0019033267 0.09275668
0.0376407 -0.07917204 -0.051402602 0.061731018 -0.03792551 -0.012420985 -0.047020067 0.04399366
-0.06803328 -0.09797297 -0.073480524 -0.08690634 0.007322793 0.015503848 -0.033915088 0.038569763
0.0087695625 0.023306353 0.05425937 0.018419586 0.0973488 0.07140627 -0.057555825 0.07466912
-0.014221029 -0.0073415786 0.0070685153 -0.090320095 0.06306589 0.0657089 0.095573336 0.01751844
-0.027296424 -0.01686938 -0.032781433 -0.09042852 0.03385971 0.010401699 -0.032629576 -0.060875304
-0.022602784 0.024647914 0.072820194 0.03946697 0.074261345 0.08000846 -0.05095417 -0.0029440196
-0.08781955 -0.060069807 0.036603097 0.038007803 0.042440023 0.083665356 0.040617775 -0.04989329
-0.023041414 0.0076348432 0.05114328 -0.059665717 -0.044241425 0.037807707 0.033691015 0.09482105
0.079968676 -0.046408392 0.032781415 -0.06304255 -0.0038533038 -0.008976066 0.023014951 0.0867659
-0.08035744 0.08707376 0.06884985 -0.04859596 -0.02850244 -0.023129633 0.06181811 -0.025671685
0.033377256 -0.040043663 0.07873732 -0.017022898 0.09676805 -0.07393717 -0.028968176 0.06497976
0.035602774 -0.050348453 -0.08177706 -0.07567163 -0.08393369 -0.053646453 -0.059167612 -0.025538566
0.086645775 -0.026769865 -0.06006741 0.04919681 -0.057681713 -0.04736057 -0.01563554 -0.008356749
-0.061016925 -0.07637445 -0.0976133 -0.038728256 0.05106953 0.011211135 0.07971481 0.017960679
-0.07272894 0.009420431 -0.023359444 0.059500635 0.027818646 0.099851035 -0.09176426 -0.045792416
-0.08294466 0.011068075 -0.06276024 -0.041523684 0.098974414 -0.03143897 0.051197235 0.067113474
0.0747501 0.08180171 0.06306442 0.010623717 0.08437472 0.09893162 -0.06898149 0.02088275
0.0689357 -0.06308883 0.041030373 0.06501016 0.00337988 -0.025906896 -0.005841558 0.08830179
-0.07805331 0.040205184 -0.052358 0.0683473 -0.037326846 0.024646932 0.06529493 -0.013638682
-0.014135862 0.092155226 0.09528672 0.054064732 0.0045663076 -0.0010886557 -0.06254166 0.076154135
0.046873245 0.08021539 -0.065284275 0.024800826 0.022056395 -0.02977761 -0.008850523 0.021427805
-0.027598303 0.09526023 -0.090179086 -0.013489736 -0.04508057 0.08095677 -0.035105385 -0.0227817
0.08752423 -0.08618185 -0.032516494 0.0859182 0.07204342 -0.02804786 -0.016814204 -0.04669385
00000000: 4fc9 b9bd 2f20 663b 6af7 49bc f68f 993d
00000010: 6912 f5bc afbc 9a3d bbaf 72bd b1d5 93bc
00000020: b999 e7ba 6572 59bd 9cc8 383b 6cbc cbbc
00000030: 5758 42bd 94b6 a0bd 0c79 f9ba 37f7 bd3d
00000040: 222d 1a3d f324 a2bd 898b 52bd aad9 7c3d
00000050: c857 1bbd 6381 4bbc 1d98 40bd b232 343d
00000060: 0855 8bbd 0da6 c8bd f57c 96bd f4fb b1bd
00000070: 0af4 ef3b da03 7e3c 8cea 0abd 54fb 1d3d
00000080: 36ae 0f3c f7ec be3c 133f 5e3d ace4 963c
00000090: cf5e c73d 733d 923d a8bf 6bbd 20ec 983d
000000a0: 52ff 68bc a091 f0bb 019f e73b bef9 b8bd
000000b0: b028 813d 6392 863d f4bb c33d d582 8f3c
000000c0: c09c dfbc a731 8abc d345 06bd 9732 b9bd
000000d0: 7bb0 0a3d e36b 2a3c 97a6 05bd 6258 79bd
000000e0: 7929 b9bc 6cea c93c c122 953d 1ea8 213d
000000f0: 5516 983d 7adb a33d 52b5 50bd 74f0 40bb
00000100: bcda b3bd c20b 76bd 21ed 153d 12ae 1b3d
00000110: 97d5 2d3d be58 ab3d d35e 263d e85c 4cbd
00000120: 59c1 bcbc b52d fa3b 9e7b 513d 0a64 74bd
00000130: 7f36 35bd 41dc 1a3d 97ff 093d 8a31 c23d
00000140: 9ec6 a33d ba16 3ebd ce45 063d 741c 81bd
00000150: b687 7cbb 5910 13bc da89 bc3c 52b2 b13d
00000160: 7192 a4bd ba53 b23d 2601 8d3d 8f0c 47bd
00000170: f37d e9bc 5b7a bdbc fd34 7d3d 6d4d d2bc
00000180: 97b6 083d d304 24bd 0841 a13d 9b73 8bbc
00000190: 542e c63d 5f6c 97bd ab4e edbc 1c14 853d
000001a0: 37d4 113d 2e3a 4ebd bb7a a7bd baf9 9abd
000001b0: 6de5 abbd 62bc 5bbd bd59 72bd 4136 d1bc
000001c0: 5773 b13d 7a4c dbbc 3f09 76bd 9882 493d
000001d0: a943 6cbd 28fd 41bd 1b16 80bc bfea 08bc
000001e0: e2ec 79bd 356a 9cbd 7be9 c7bd 85a1 1ebd
000001f0: 492e 513d e9ae 373c 8541 a33d 4622 933c
00000200: e9f2 94bd 2758 1a3c 4e5c bfbc f0b6 733d
00000210: eee3 e33c b37e cc3d e6ee bbbd d490 3bbd
00000220: e4de a9bd df56 353c 7188 80bd bd14 2abd
00000230: 19b3 ca3d 26c6 00bd 31b4 513d ca72 893d
00000240: 9516 993d a887 a73d eb27 813d 190f 2e3c
00000250: a7cc ac3d a99c ca3d 2b46 8dbd 4d12 ab3c
00000260: 292e 8d3d b734 81bd 770f 283d 0c24 853d
00000270: fa80 5d3b b33a d4bc 8a6a bfbb 92d7 b43d
00000280: 6ada 9fbd 31ae 243d 5875 56bd abf9 8b3d
00000290: 09e4 18bd 5de8 c93c 59b9 853d c774 5fbc
000002a0: 1a9a 67bc e1bb bc3d af25 c33d fb72 5d3d
000002b0: f7a0 953b 39b1 8eba d815 80bd b3f6 9b3d
000002c0: 29fe 3f3d f747 a43d c3b3 85bd 1a2b cb3c
000002d0: 9daf b43c 2df0 f3bc c901 11bc 5d89 af3c
000002e0: d615 e2bc cc17 c33d d0af b8bd 0e04 5dbc
000002f0: 67a6 38bd aacc a53d aaca 0fbd b0a0 babc
00000300: e73f b33d 1c80 b0bd 0430 05bd e2f5 af3d
00000310: 808b 933d a0c4 e5bc f1bd 89bc 0d42 3fbd

layers.3.bias f4 [2]
0.0086428225 0.04046182
00000000: a09a 0d3c 4bbb 253d
