clients_data/clients_trained_model/client7.pth (torch, 86087 bytes, 6 tensors)

layers.1.layers.0.weight f4 [100, 105]
00000000: 56fb 983d 4eb3 a53d c223 bbbc bee2 b73d
00000010: 514e afbc fbe0 a13c 5fb0 42bd 4ac3 6a3d
00000020: 6230 b03d 4b4c 92bd 4c54 ad3d a6aa 963c
00000030: 317c 933d 9c4d 5a3c d1d7 413d 6b5f 63bc
00000040: 0f96 993d 2af3 6a3c e15c 3abd ecfd c93c
00000050: ac11 38bd fd6b 3cbc 4abd 21bd b8e2 843d
00000060: b3d6 9dbd b133 38bd cdcb e1bc 8dc6 6fbd
00000070: 1916 1a3c 42aa c5bd 50a7 b33d 4cd4 a9bd
00000080: e72e 9a3d 3a10 853c b89e 01bd 7792 763d
00000090: c289 773c cebf a13d b703 2f3c 4d52 fbbc
000000a0: df0c d53c c4b2 d8bc 86de 283d f3af b23d
000000b0: 2f65 663d 9d8d 2ebd d72a 663d 3c0b 8f3c
000000c0: fb2c 4b3d 813f 73bd 7696 c5bd e01a 1bbd
000000d0: 4f68 99bd 53d8 a33d 40a4 e63c cccd 253d
000000e0: 3cbf fb3c b10e e2ba c958 9c3d 2618 8ebd
000000f0: 3cc1 ca3b 2168 88bd e9ec f63c 6b99 09bd
00000100: cc4c f53c bf88 a6bc 9f5c a53d 4be5 6cbd
00000110: 38bf 6ebd 0160 6ebd 69c5 b33d 847d 053d
00000120: 3021 c03d daee a4bd 853a c6bd 395b 9cbd
00000130: 9b6e 86bd 44e0 213d 1822 0f3d 4b4e a63d
00000140: d268 4ebd 573d 88bd 30fc 533d b58c 21bd
00000150: 9eaf 723d 6c4e bdbc 07aa 643d c247 9bbd
00000160: 5eb4 49bd 58bc f33c aa25 a93c bdca cbbc
00000170: 6008 6e3d cd5f 873d 84ee 90bd c161 55bd
00000180: 79e0 b63d efdc 06bd 86b2 0dbd 1062 c1bd
00000190: 01e3 64bd e5c4 c83c f5f8 52bc 2714 91bd
000001a0: 6005 163b 430f 89bd ee57 a9bd c621 5cbd
000001b0: be0c afbd 5f12 7fbd 47bb c73d 2bd2 963c
000001c0: 9653 f63c 0b69 babd 0875 83bd df8d 05bd
000001d0: 4521 793c bb20 b0bd 4911 2bbd b457 6fbd
000001e0: 53f3 3939 6d50 14bd aa9b d9bb 0577 87bd
000001f0: be22 89bd 6d99 69bd 06b8 08bd f0cf 9dbd
00000200: 7834 a73d c734 9fbc 6ee8 ab3d 13c7 f73c
00000210: 2115 aabd 5f94 8a3d 0a0f d9bc aa3c 19bd
00000220: 0a14 a6bd 9a88 c6bd 00b3 e43c 4fcb adbc
00000230: e2e1 1b3d b9c9 a3bd 30d5 933d 7fd9 92bd
00000240: 79b5 8abc 5e44 a83c 0793 4f3d 63ee a03d
00000250: a34c b63d 6e80 9ebd d373 c93c 369f 2bbd
00000260: 7d37 2fbc f4d2 95bd 42fb b63d a36f 93bd
00000270: 310e 563d 473a 0c3d 030a 023d b089 58bd
00000280: cbbb b53d 8fe0 af3c aca2 4b3c a2da afbd
00000290: f6f2 263d e875 6cbc 8080 37bd 5f72 ab3d
000002a0: 7577 b23c 7ccb 5cbd a157 4abd 8975 9bbb
000002b0: 37b7 5e3d 358d ccbc b424 64bd b7e6 08bd
000002c0: 2858 95bd 2312 0f3d a2d6 9a3d cf2e bcbd
000002d0: 3941 bb3c 0eb4 4e3d 8bfb 903c 6d5a 0ebd
000002e0: b7d9 4f3d c8bf 513d 9554 153d a992 8cbc
000002f0: ffc6 d3bc 538d 2a3c 1128 8dbc 4f4c eebc
00000300: fa7a 7f3d 8096 ab3d d049 1ebc 110e b3bc
00000310: afc8 ba3a 1360 bdbb e665 bf3c a051 e03c
00000320: 138c b5bd 8b8c 13bd d34a a83d 4bc8 1b3d
00000330: 3f30 9fbb 000c 71bd e795 74bd 810c b3bd
00000340: e94b 02bd 73fd 063d d495 7d3d b6ee 383d
00000350: 5ec3 b0bd 0b5b 70bd 7cf2 7cbc 133d c13d
00000360: 5f85 663c 3507 cfbc b45f 253d a1f7 17bd
00000370: 6250 81bd a090 923d 13aa 35bd 494d a2bc
00000380: f9c4 c6bd b279 853d 5a70 973d 8263 123d
00000390: 8a61 8bbd 273e c5bd 2b67 a2bd de38 953d
000003a0: 94ad 3f3d a4fd a73d c910 513d b145 c93c
000003b0: 1e8a 7aba 5307 99bd 0856 abbd 91ce b9bd
000003c0: 9d26 243d ee70 44bd 4313 a1bc c10a 66bd
000003d0: e96f 92bc 7516 8dbd 3169 82bd 9628 053d
000003e0: d097 edbc 9fc2 763d 2e94 ffbc 8fa1 92bd
000003f0: db01 8cbc ead4 41bd d7c2 f6bc 1550 bebd
0.074698135 0.0809084 -0.0228442 0.089787945 -0.021399649 0.0197606 -0.04753148 0.05731515
0.08602978 -0.07143458 0.08463344 0.018391918 0.07201422 0.013324168 0.04732496 -0.01387773
0.074993245 0.014340201 -0.045498732 0.024657212 -0.04493873 -0.011500356 -0.03948716 0.06488556
-0.07706966 -0.04497117 -0.027563 -0.058538962 0.009404683 -0.09651615 0.08772147 -0.082924455
0.07528477 0.016243089 -0.031645507 0.060198274 0.015108528 0.07897912 0.010682038 -0.030678893
0.026007114 -0.02645243 0.04122784 0.08724966 0.05624884 -0.04261552 0.0561932 0.017461412
0.049603444 -0.059386734 -0.09647839 -0.037867427 -0.074905984 0.08000245 0.028154492 0.040479466
0.030730836 -0.001724681 0.07634122 -0.069382 0.006187586 -0.06660486 0.030142264 -0.033593576
0.029943846 -0.020328877 0.08074307 -0.05783586 -0.05828783 -0.058197025 0.087778874 0.032590404
0.0938133 -0.0805337 -0.096791305 -0.07634587 -0.06564065 0.039520517 0.034944624 0.08120402
-0.050392933 -0.06652325 0.051754177 -0.03944083 0.059249513 -0.023108684 0.055826213 -0.07582046
-0.049244277 0.029752895 0.020647842 -0.024876947 0.058113456 0.066100694 -0.07076743 -0.05209518
0.089295335 -0.032925542 -0.03459408 -0.09442532 -0.05588055 0.02450795 -0.012876739 -0.07083922
0.0022891387 -0.06692364 -0.082687244 -0.053743146 -0.08547352 -0.06227338 0.09752517 0.018410763
0.030069154 -0.091020666 -0.06418806 -0.032606002 0.015205686 -0.08599993 -0.04176453 -0.05843325
0.0001773362 -0.036209513 -0.006640871 -0.06614498 -0.0669608 -0.057031084 -0.033378623 -0.077056766
0.081643045 -0.019434346 0.08393942 0.030246293 -0.08304811 0.06766581 -0.026496429 -0.03741137
-0.08109291 -0.096940234 0.027917385 -0.02121511 0.038057216 -0.0799746 0.07218397 -0.0717039
-0.016932236 0.020540413 0.050677326 0.07857969 0.08901336 -0.0773934 0.024591362 -0.041899882
-0.010694382 -0.07315627 0.089346424 -0.071990274 0.052259628 0.034235265 0.03174783 -0.052865684
0.08873709 0.021469383 0.012428921 -0.08586623 0.04075905 -0.014432408 -0.04480028 0.08371424
0.021785477 -0.053904995 -0.049399976 -0.004744236 0.054373946 -0.024969677 -0.055699065 -0.03342315
-0.07292205 0.034929406 0.07560469 -0.091886155 0.022858249 0.050464682 0.01769807 -0.034754205
0.05074474 0.051208287 0.036457617 -0.017159777 -0.025851725 0.010409671 -0.01723102 -0.029089121
0.06237314 0.08378315 -0.009661153 -0.021857293 0.0014250482 -0.005779275 0.023364019 0.027382672
-0.08864608 -0.036022704 0.082173966 0.03803281 -0.0048580463 -0.058849335 -0.05971327 -0.08742619
-0.031810675 0.03295655 0.061910465 0.045149527 -0.08631013 -0.058680575 -0.015438672 0.09435477
0.014069884 -0.025271991 0.040374473 -0.03710139 -0.0631416 0.07156491 -0.04435165 -0.019812243
-0.09705538 0.06517352 0.07394476 0.03573943 -0.068057135 -0.09630995 -0.07929834 0.07286237
0.046796396 0.08202675 0.0510414 0.024569364 -0.0009557324 -0.074721 -0.083660185 -0.090726025
0.040075887 -0.04795926 -0.019662505 -0.0561626 -0.017875629 -0.06889049 -0.0636772 0.03250941
-0.029003054 0.0602442 -0.031198587 -0.07159721 -0.017090729 -0.04732219 -0.030122204 -0.09292618

layers.1.layers.0.bias f4 [100]
00000000: 7e46 833d 7dc2 2f3d 324e 96bb 436b 5f3d
00000010: 2fd9 94bb bdef 80bc f4d7 18bd 6e05 a8bd
00000020: 4dfe a53d f25c 7abd e565 bbbd 3a67 37bd
00000030: bc3c 9b3c c021 13bc 60cc 313d 579c 6a3d
00000040: c97c 683d b0b4 a7bd 2a1b 253d 8358 483d
00000050: 94e8 61bd 9caf ae39 5661 733c e640 673c
00000060: f3d5 5a3d 4ee0 a73d 00f9 bf3d 035b bc3c
00000070: 3756 693d f818 2a3d 96f3 52bd 77f0 853d
00000080: 0b0c f5bb 1192 2c3d 3b15 85bd 57b8 a13d
00000090: 5dfc b13c 38e9 b73c 8310 b2bd fbb7 0ebc
000000a0: 1882 08bd 2fb0 ba3d 45c7 b6bd 5a3f c0bc
000000b0: 6800 49bd c02d 93bd 8f42 173d 74f6 86bd
000000c0: cfd9 3a3d 2258 443c 206c 4cbd bc47 31bc
000000d0: c9a3 223c d2c6 2dbd 1b80 80bd a54b 61bd
000000e0: f20e c83c 76b9 afbd ef79 7d3d d4b8 853d
000000f0: be9a ba3d 1948 ad3d 585d 63bd f04f 2ebd
00000100: 2ff7 913d 1ad9 66bc e5c8 92bd a011 3bbd
00000110: add9 8b3d 9bb4 62bd 0469 0c3d 6403 a6bd
00000120: ef85 813d 4374 d63c 4f92 8c3d 7a44 773b
00000130: 9805 4d3d 9c81 a53d 4141 49bc 53cd 96bd
00000140: 7054 8bbd b06a 6d3d 2afb 7fbd 4433 b1bd
00000150: dc56 aabd 5130 31bd eab5 963c 6a5b b4bd
00000160: 8dcf 3abd 3576 bf3d bb72 81bc ffe1 04bd
00000170: ee22 413d cd59 a3bd e50c 9bbd aeff 833c
00000180: 6ea6 003d 2962 c4bd 38e8 b13d a55d 1cbd
0.0640993 0.042910088 -0.0045869583 0.054545652 -0.004542492 -0.015739316 -0.037315324 -0.08204161
0.08105145 -0.061123796 -0.09150294 -0.04477618 0.018949859 -0.008980215 0.043407798 0.057278004
0.05675963 -0.0818876 0.04030911 0.048912536 -0.055153444 0.00033318705 0.01485475 0.014114594
0.053426694 0.081970796 0.09373665 0.022992617 0.056966987 0.04152772 -0.051501833 0.06540006
-0.0074782423 0.042131487 -0.0649819 0.07896488 0.021726782 0.022450075 -0.086945556 -0.008710857
-0.033327192 0.091156356 -0.089247264 -0.023467708 -0.049072653 -0.071864605 0.03692871 -0.06589976
0.045617875 0.011983903 -0.049907804 -0.010820325 0.009926745 -0.042425938 -0.06274434 -0.05500378
0.024421189 -0.08580296 0.061883863 0.06529394 0.09111546 0.08461017 -0.05550894 -0.042556703
0.07127225 -0.014089847 -0.07167224 -0.045671105 0.06828628 -0.05534802 0.03427984 -0.081061155
0.06324374 0.026178485 0.06863844 0.0037730024 0.050054163 0.08081362 -0.012283624 -0.07363381
-0.068032146 0.057963073 -0.062495388 -0.08652356 -0.08317348 -0.04325897 0.01839729 -0.08806498
-0.045608092 0.09348718 -0.015801778 -0.03244209 0.047152452 -0.079761125 -0.07570819 0.016113129
0.03140872 -0.09589035 0.0868687 -0.038175244

layers.2.layers.0.weight f4 [100, 100]
00000000: cc2c 823c b588 943d facb 1d3d a4fc 003d
00000010: 5f32 babd 470c bebd 6d89 1a3d 5bc5 883b
00000020: 0389 7d3d 8a2d 503d 4f98 a2bd 80d4 983c
00000030: f02c 9fbd 3e84 5fbd dd70 e63c a082 9bbb
00000040: b571 81bd 8b42 0e3d 470d 8f3d 4fcc c7bd
00000050: cc30 c13d 8d53 653d 68f9 04bc f0a5 c5bd
00000060: 23ee 2abd 8dcb fc3c 3d0c 2cbd 456d 06bd
00000070: 87fa 26bd 604d b13d 9c7a af3d 580c 9fbd
00000080: 9dcc fbbc e536 bb3d 5092 b5bb 5d5e 48bd
00000090: aa14 4f3c 9629 a33d e841 48bc 8e04 c0bd
000000a0: 753a 07bd 5e67 4f3d b96f 60bc b319 923d
000000b0: 24a2 103d 7d0c db3a ee1a 203d 9e09 4cbc
000000c0: bc0e afbd 52c5 aebd d4e2 9fbd 8424 7bbc
000000d0: 34f9 92bd 0c6f 7a3c 5cd1 4a3c 96fd 9c3d
000000e0: b4fd d13b c022 913c 821e 133d 5e49 e4bc
000000f0: e29a 4abd d398 bfbd aaad c6bd ba2c eb3b
00000100: cfc6 40bd af63 eb3c a126 d13c f0e4 9f3d
00000110: fecf 35bc 2986 3e39 7e81 8e3d e22d 8f3c
00000120: dbea 3f3d 3ba0 59bd 7be2 91bd 33f5 9d3d
00000130: 936a 943d 3ab6 17bd db2b 8d3c 1dee b5bd
00000140: 4efe fb3b 0899 bdbd 089f 693d fb3e cabd
00000150: e2e5 c1bc 1118 c23d 428f 09bd 4f48 6cbd
00000160: 2b46 b93d 1671 49bd e3bd b83c adaf 673d
00000170: 47fa e63c 2253 8dbd 6ea5 bb3d 6eb6 473d
00000180: 6594 7ebd e8ea 67bd 2b83 b7bc 069c 0a3d
00000190: 957b 173d b171 443c a419 863d 7d78 ca3d
000001a0: b514 a63c 0517 1d3d a26e 663d eb8a 9d3c
000001b0: bcf3 b43b 93e6 b63d c7b0 8b3d 71f5 843d
000001c0: 2144 22bd 0e2f 45bd 4934 60bd 17bf acbd
000001d0: a4f3 34bc c6b1 633d 409d 693c 5ece 13bd
000001e0: d68b 66bc f203 9ebd bdb6 84bd bd7c 0e3c
000001f0: 8865 6fbd 397c 423c 6080 a73d 95e9 ce3c
00000200: 78a5 9b3d e03d 82bd acd2 f93a 368e cabd
00000210: c991 063a 8cc9 97bd d7b6 be3d bfb1 afbd
00000220: fbf9 073d 83f2 75bd c1f6 de3c b5dc 88ba
00000230: 9c6e 58bc fd27 24bd 965c 813d dcd2 99bc
00000240: 4493 013c 2814 f9bc f15d 96bd 7d2e 2ebd
00000250: 9768 b63d 7a89 c13d aaec 3fbd d61e 1c3c
00000260: 9ba8 783c d4b0 b33d 0562 5b3c 8dba 8f3b
00000270: ddc4 f3bc fd36 a93c 3b40 ccbd ac0d cdbd
00000280: fa35 4abc b60b 90bd 0068 8fbd ca8b 8dbc
00000290: ee9c 623d 8612 483d 4e1e 12bd c25a eebb
000002a0: 66f1 bb3d 0154 ad3c 6664 8a3d a5b9 2abd
000002b0: 1aa0 b8bd 494e 41bd e873 053c bfd0 cabc
000002c0: e6be 62bd 4e0f c33d 39b5 bdbd 9443 083b
000002d0: 04e0 203d f760 e1bc 47b8 2f3d af49 3538
000002e0: 6438 75bd 636b 61bd 6fad 39bd 624e c8bd
000002f0: 2c44 7d3d d8f9 b83d 075f 54bd c1bb 893b
00000300: 2a01 053d 423c e53c 59e4 64bd 113f 7bbd
00000310: 632d c63d ad16 6d3d f00d bd3d 1c83 8e3d
00000320: 0de1 f5bb f7e3 8f3d 1bb2 54bb dd65 2aba
00000330: 5a92 31bd d48a 9f3d c072 aebc b8d7 6c3c
00000340: 235b a3bd 252f 0c3d 34fb 42bd 612d b9bc
00000350: fa4b 13bc 83a2 173d 84aa 833b f938 8e3c
00000360: 661d 85bd 42d3 9abd 4e7a 133d 4def 28bd
00000370: 019d b0bd 0d23 29bd 20eb c8bd b62a a33c
00000380: 8599 f13b 9e15 bd3d be00 62bd 9ee2 53bd
00000390: c43e c33c bba8 d7bc 776e 9f3d f461 783c
000003a0: e82e 0ebb ee59 1dbd ed46 773d cbb1 3fbd
000003b0: e844 243d 368c 833d 59b5 a0bd 3a89 b5bd
000003c0: f509 67bd 5530 443d 757c 62bd 9491 193c
000003d0: 5d62 763c 9bc1 ab3c 2914 51bd c997 5e3b
000003e0: 65cd 8d3d 8e09 543d 6228 9c3c b4e1 a2bd
000003f0: 1625 403d f638 23bd de37 8f3d 2812 2a3d
0.015890501 0.07252637 0.038524605 0.031490937 -0.09091639 -0.092796855 0.037728716 0.004173917
0.061898243 0.05082468 -0.07939207 0.018656015 -0.07772243 -0.054569475 0.02812999 -0.0047457963
-0.06320516 0.03473143 0.06984954 -0.09755766 0.094331354 0.055987883 -0.008116104 -0.09650791
-0.04173101 0.03085878 -0.04200386 -0.03281905 -0.040766265 0.08657336 0.08568308 -0.07766026
-0.030737216 0.0914133 -0.0055411234 -0.048918117 0.012639204 0.07966916 -0.0122227445 -0.09375869
-0.033014733 0.050635688 -0.013698512 0.07133808 0.03531088 0.0016712096 0.039088182 -0.012453465
-0.08547732 -0.085337296 -0.07806936 -0.01532853 -0.07176438 0.015285265 0.012379017 0.07665555
0.0064084176 0.017716765 0.035917766 -0.027867015 -0.049464114 -0.09355321 -0.097010925 0.0071769627
-0.0470646 0.028734056 0.025531115 0.07807338 -0.0110969525 0.0001816979 0.069582924 0.017477933
0.046854835 -0.053131323 -0.07123276 0.07712784 0.0724689 -0.03703902 0.017232826 -0.08883307
0.0076902276 -0.09257704 0.05703643 -0.09875294 -0.023669187 0.094772466 -0.033583887 -0.057686146
0.090465866 -0.049180113 0.022551483 0.05656402 0.028195513 -0.06900622 0.091624126 0.048757963
-0.06215324 -0.05662051 -0.022401413 0.0338402 0.03698309 0.011989997 0.06547859 0.098862626
0.020273546 0.03835203 0.05625785 0.01923128 0.0055222195 0.08930697 0.06820827 0.06492127
-0.039615754 -0.048140578 -0.054737363 -0.08434885 -0.011044417 0.05558946 0.014258683 -0.03608548
-0.014071425 -0.07715596 -0.06480167 0.008696732 -0.058446437 0.011870437 0.081787825 0.025257865
0.0759992 -0.06359458 0.0019059977 -0.09890406 0.0005133418 -0.07411489 0.09312218 -0.08578824
0.033197384 -0.06004573 0.02721727 -0.0010441752 -0.013209965 -0.0400772 0.063164875 -0.018777303
0.007908646 -0.030405119 -0.07342137 -0.042524803 0.08906668 0.0945005 -0.04685656 0.009528836
0.015176917 0.08773962 0.013390069 0.0043862523 -0.029756958 0.020656103 -0.099731885 -0.10012373
-0.012341971 -0.07033484 -0.07002258 -0.01727857 0.05532544 0.04884579 -0.035673432 -0.007274003
0.091769025 0.02115822 0.06757431 -0.04168095 -0.09014912 -0.0471938 0.00814531 -0.024757741
-0.055357836 0.095244035 -0.09263081 0.0020792233 0.039276138 -0.027512057 0.04290035 4.3222386e-05
-0.05986823 -0.055034053 -0.045331415 -0.09780575 0.061832592 0.09032029 -0.051848438 0.00420329
0.032471813 0.027982835 -0.05588183 -0.06133944 0.096766256 0.057882953 0.09231174 0.06958601
-0.007503635 0.07025903 -0.0032454792 -0.0006500164 -0.043352462 0.07790151 -0.021294951 0.014455728
-0.07976367 0.034224648 -0.047602847 -0.022604646 -0.008990282 0.037020218 0.00401813 0.017361151
-0.06499748 -0.075598255 0.03600531 -0.04124384 -0.08623696 -0.041293193 -0.098104715 0.019917827
0.0073730373 0.09232639 -0.05517649 -0.05172979 0.02383364 -0.026325574 0.07784741 0.015160073
-0.0021695439 -0.03841584 0.060370374 -0.046800416 0.040104777 0.064232275 -0.07847089 -0.088640645
-0.05640598 0.047897656 -0.055294473 0.009373087 0.0150381 0.020966342 -0.051044617 0.0033964983
0.069239415 0.051766925 0.019062225 -0.07953206 0.046910368 -0.039849244 0.06993078 0.04152122

layers.2.layers.0.bias f4 [100]
00000000: e545 2dbd 5856 02bd 555e acbd f225 f7ba
00000010: ad72 643d 09b2 77bd 3d53 efbb b733 933d
00000020: e103 82bd 44c9 ef3c ac9c b9bc df47 aa3d
00000030: 1ca7 c8bb cc9c b13d a9af 0abd fe5c 9fbd
00000040: 14e5 173b 9b14 6fbd 2177 5cbd 73f3 863d
00000050: c8e9 bb3d 49a6 8bbd 84f5 cbbd b8b6 cc3c
00000060: 27bc a8bd 66e3 a9bc 1ac0 2d3d 084d 273d
00000070: d4fa 573c f6a0 333d 6dfc 63bd 5261 fcbc
00000080: be19 02bd 36ff c7bd 0ab9 70bd c7d8 1a3c
00000090: 0bbc b43c 5032 3abd cda0 8e3d 1cd8 60bd
000000a0: db31 4b3c 4e36 af3d 44a3 8d3d 8d4f d53d
000000b0: bc5a e63c a30c 8dbd b27b 0fbd 2cd9 ebbc
000000c0: 4f90 94bd 7027 04bd 113f c0bd 9204 3bbd
000000d0: 3cdc cabd 3f8e be3d 57e8 b23c 863b d63d
000000e0: 4b07 703d a525 c33d 3517 03bd 68f5 3abd
000000f0: 2d9b 35bd bf56 bcbd eafe c3bb 874a 913c
00000100: 4c60 793d 7b05 58bc a5cd 0c3d d9d5 253d
00000110: 7742 9f3c d701 cb3c 1e1d 13bd 7809 703d
00000120: dd6f c5bd 704a 3e3c 12b9 483d 3e85 953d
00000130: ddb4 483d 5955 6ebc 1540 8f3d a92b c3bd
00000140: c10f b8bc 61c5 17bd ba34 723d da78 bf3d
00000150: e01b dabc 5078 a73c bc35 8dbc 42bd 05bd
00000160: 378c 283d 48d6 be3c c6e3 4fbd aac2 b43c
00000170: a0cb c93d 6322 95bd e179 8ebc 37d3 b4bd
00000180: 27e5 c2bc 6916 c53d fe91 793d 0877 c2bd
-0.042302985 -0.031820625 -0.0841643 -0.0018855913 0.055773426 -0.060472522 -0.007303624 0.07187598
-0.06348396 0.029270776 -0.022657715 0.083144896 -0.0061234366 0.08672485 -0.03385893 -0.07781409
0.0023177313 -0.05836926 -0.053824548 0.06589403 0.091754496 -0.06818826 -0.09958938 0.02498947
-0.08239012 -0.020738315 0.04241953 0.040844947 0.013182361 0.043854676 -0.055660654 -0.030808125
-0.03176283 -0.097654745 -0.058770217 0.009451098 0.022062322 -0.045458138 0.06964264 -0.054893598
0.012402023 0.0855528 0.06915906 0.10415564 0.028119437 -0.06887176 -0.035030074 -0.028790079
-0.07254087 -0.032264173 -0.09387029 -0.045658655 -0.099052876 0.09304475 0.021839304 0.10460572
0.058600705 0.095286645 -0.032004554 -0.045644194 -0.04433744 -0.09196233 -0.005981316 0.017735733
0.06088285 -0.0131849 0.034375805 0.040487144 0.019440873 0.02478115 -0.03591644 0.05860278
-0.09640477 0.011614427 0.04900462 0.073008046 0.04900061 -0.014546716 0.069946446 -0.09529812
-0.02246845 -0.03705347 0.059132315 0.093492225 -0.02662462 0.020443112 -0.017237537 -0.032651193
0.041149344 0.023295537 -0.05075433 0.02206548 0.098532915 -0.07281949 -0.0173921 -0.088293485
-0.023790909 0.09623415 0.060930245 -0.0949536

layers.3.weight f4 [2, 100]
00000000: 8d29 babd 1849 1eba a8db 4fbc 6312 933d
00000010: 8f3a 2abd ace1 983d 53ea 7bbd 805b ccbc
00000020: 6a79 d4bb bf48 63bd 9a4e 183a 8c04 eabc
00000030: 36f4 4cbd 567c b5bd 5bc8 a7ba d7d0 bd3d
00000040: bbb5 1c3d ce0c acbd 64f7 59bd c3dc 643d
00000050: bca0 27bd 9b9f 5bbc 0886 41bd 5004 0d3d
00000060: db15 8dbd 52ec dbbd 190e 97bd 9dd8 bdbd
00000070: 9ae8 093c 3ef1 693c 277f 0fbd 5641 053d
00000080: a1fc 363b 7664 b63c bb6f 4c3d bf65 273b
00000090: 8533 c83d 9880 8e3d cdfb 88bd 52d9 983d
000000a0: 1796 a4bc 1555 17bc 7e12 f0b9 f519 c8bd
000000b0: eb4d 7f3d a8b0 843d f764 be3d 8f03 483c
000000c0: 725f f0bc ba79 b0bc 24ed 07bd 73f4 bbbd
000000d0: 4b31 fe3c 20b1 983a 5fd8 41bd efb9 98bd
000000e0: 9ca1 ecbc 038d 1c3c df82 923d f75e 0f3d
000000f0: 35e8 973d 7f43 a43d 6aa6 4fbd 493e cdbb
00000100: e062 cabd 9d37 8fbd 401d e43c 1293 073d
00000110: f051 2f3d 032c a63d d5d3 153d 232f 5bbd
00000120: de7c c8bc b79d 843b 5cd6 3f3d 8d44 9cbd
00000130: 6162 4ebd a299 173d b27f 063d cf72 c03d
00000140: 3b2a a43d dae1 45bd b5d6 d43c b65b 93bd
00000150: 8e4b 9abb 7c80 efbb 3935 a33c a831 a53d
00000160: 3df4 a5bd f9ac a23d a5c5 893d 627c 48bd
00000170: 72d9 1fbd 0ecd f3bc 2e74 7b3d 89ee d3bc
00000180: 98b3 ec3c 4302 56bd 6e04 9b3d dca2 9bbc
00000190: 928e c63d c9fe 8ebd 8c5c eabc af91 8b3d
000001a0: 8f85 413d 2b84 4abd 70dd a2bd 48d8 8cbd
000001b0: 3c3c a2bd 08e6 51bd 6f2e 69bd 22ee b2bc
000001c0: 48c1 b63d 6b35 88bc c496 78bd 5bcf 493d
000001d0: 42cc 6ebd 752d 2ebd d27c 62bc 31dc 23bb
000001e0: eea3 6dbd 6d66 9abd 8572 c7bd 45e6 eebc
000001f0: f4af 543d 8df0 a83c a9d2 a33d ea94 c23c
00000200: bd30 97bd c36a 2e3c 1533 b6bc 7938 863d
00000210: b96d 0a3d d2a0 ce3d 3a07 b3bd af29 f5bc
00000220: 9ab3 aabd b83d 533c ecd8 5abd 19ef 29bd
00000230: b6b8 d63d 3006 f2bc 3388 703d 0193 983d
00000240: 4f98 9a3d 6369 a93d e97e 863d 9888 823c
00000250: 57fd b03d ac2e d43d 7f72 8cbd be19 b63c
00000260: 15fa 923d 0094 5cbd 4141 643d ca31 a13d
00000270: 8350 1e3c 8d2d 31bc 456c 95bb 24fc bd3d
00000280: 4aac 9fbd 2dde 233d 4084 57bd 0bc6 923d
00000290: 90a7 d7bc ad57 0d3d 9da8 973d c808 0fbc
000002a0: 8a8b 6dbc 9ce8 c13d 2d6b cb3d 3645 6c3d
000002b0: 0b8f c43b 61c7 233b 6f86 6ebd 3d09 be3d
000002c0: 0b2a 593d 46e9 a53d d1f3 83bd 0d26 d23c
000002d0: 3121 b33c f059 e4bc fa5f 06bb 6986 f83c
000002e0: ea13 dbbc c5ad bf3d aa5a b2bd 41fd f1bb
000002f0: cde2 35bd 6b73 b53d 9f53 09bd 0dc1 b7bc
00000300: 24cd c83d 6deb a2bd 356f 03bd 295e b03d
00000310: e5b9 9c3d c0c9 81bc 2197 61bc 732a 37bd
-0.090899564 -0.00060381135 -0.0126866475 0.07181241 -0.041559752 0.074649185 -0.061502766 -0.024945974
-0.0064842002 -0.055489298 0.00058100524 -0.028566621 -0.050037585 -0.08861606 -0.00128008 0.09268349
0.03825925 -0.0840088 -0.053214446 0.055874597 -0.040924773 -0.013404752 -0.047246963 0.03442794
-0.06888934 -0.10738434 -0.07375736 -0.09269831 0.008417273 0.014278708 -0.03503337 0.032533012
0.0027921575 0.0222647 0.049911242 0.0025542823 0.097754516 0.06958121 -0.06688652 0.074633256
-0.0200911 -0.009236594 -0.00045790145 -0.09770576 0.062330168 0.06479007 0.09296601 0.01220788
-0.029342387 -0.021542419 -0.03318514 -0.09177484 0.031029364 0.0011649467 -0.04732549 -0.07457339
-0.028885655 0.009555104 0.07153868 0.035002675 0.07417337 0.08020686 -0.050695814 -0.0062635285
-0.0988214 -0.06993029 0.027845979 0.03309924 0.04280275 0.08113863 0.036578972 -0.05351175
-0.024473604 0.0040471214 0.04683529 -0.076302625 -0.05038679 0.03701175 0.032836623 0.09396898
0.08015867 -0.048311092 0.025981287 -0.07195227 -0.004708714 -0.0073090177 0.01992284 0.08066112
-0.081032254 0.07943148 0.06727151 -0.048946746 -0.03902573 -0.029760864 0.061390094 -0.025870578
0.02889423 -0.05224825 0.07569204 -0.018998556 0.09695162 -0.0698219 -0.028608583 0.06814896
0.047246512 -0.04944245 -0.07952392 -0.0687719 -0.07921645 -0.051244766 -0.05692905 -0.021842066
0.08923584 -0.016627034 -0.060690656 0.049270015 -0.058300264 -0.04252382 -0.013823705 -0.002500307
-0.058017664 -0.075390674 -0.0973864 -0.029162535 0.051925614 0.020622516 0.079991646 0.023752648
-0.07382343 0.010645571 -0.022241155 0.0655374 0.033796046 0.10089268 -0.08741613 -0.029927103
-0.083350375 0.012893133 -0.05342953 -0.041487787 0.104844496 -0.029543966 0.05872364 0.07449914
0.07548582 0.08272054 0.06567175 0.015934274 0.08642071 0.103604645 -0.06857776 0.022229072
0.071766056 -0.05385208 0.055726293 0.07870825 0.00966275 -0.010814083 -0.004560026 0.09276608
-0.077965334 0.040006805 -0.052616358 0.0716668 -0.026325017 0.034507442 0.07405207 -0.008730121
-0.014498601 0.09468195 0.099325515 0.057683192 0.0059984974 0.0024990665 -0.058233675 0.09279106
0.05301861 0.08101134 -0.06442989 0.02565291 0.021866413 -0.027874917 -0.0020503984 0.03033753
-0.026742894 0.09359316 -0.08708699 -0.0073849265 -0.044405747 0.08859905 -0.033527013 -0.022430921
0.098047525 -0.0795506 -0.032088477 0.086117096 0.07652644 -0.015843272 -0.013768942 -0.044718217

layers.3.bias f4 [2]
00000000: 5e96 5dbd 275c d33d
-0.05409848 0.10320311
