clients_data/clients_trained_model/client4.pth (torch, 86087 bytes, 6 tensors)

layers.1.layers.0.weight f4 [100, 105]
000000 72 15 99 3d 63 d0 a5 3d 9d b1 ba bc 96 aa b7 3d
       0.074747935 0.08096387 -0.02278977 0.089680836
000010 86 74 af bc 27 66 a1 3c d4 ac 42 bd bc 60 6a 3d
       -0.021417867 0.01970203 -0.047528103 0.05722116
000020 62 30 b0 3d 7f 3a 92 bd b0 66 ad 3d b7 bd 96 3c
       0.08602978 -0.071400635 0.08466852 0.01840101
000030 5a 4a 93 3d dc ac 5b 3c 07 3f 41 3d 3e da 62 bc
       0.07191916 0.013407912 0.04717925 -0.013845978
000040 fc af 99 3d 64 a1 6a 3c b1 9d 3a bd ba f3 ca 3c
       0.075042695 0.014320705 -0.045560542 0.024774421
000050 6d 36 38 bd f5 a5 3a bc 6c 52 22 bd 36 a8 84 3d
       -0.04497378 -0.011392106 -0.039629385 0.06477396
000060 63 d5 9d bd 1a 48 38 bd e7 ea e1 bc 3e 08 70 bd
       -0.07706716 -0.044990636 -0.02757783 -0.05860161
000070 22 fe 19 3c 12 7d c5 bd e7 6f b3 3d 49 cd a9 bd
       0.009398969 -0.09642996 0.08761578 -0.08291108
000080 53 69 9a 3d 86 0b 85 3c fc e6 01 bd a0 d9 76 3d
       0.0753962 0.016240846 -0.031714424 0.060266137
000090 8f 4a 78 3c 27 ba a1 3d 7a ce 2d 3c 62 95 fb bc
       0.015154495 0.07896834 0.01060831 -0.03071088
0000a0 c5 80 d5 3c 54 ab d8 bc 3d 75 28 3d 51 af b2 3d
       0.026062379 -0.026448883 0.041127432 0.08724845
0000b0 a9 ba 66 3d bf c1 2e bd 60 b8 66 3d e4 09 8f 3c
       0.056330357 -0.04266524 0.056328177 0.01746077
0000c0 7e 68 4b 3d 77 54 73 bd 9b c0 c5 bd 08 e8 1a bd
       0.0496602 -0.059406724 -0.09655877 -0.03781894
0000d0 2b 85 99 bd 85 fb a3 3d a7 01 e6 3c f8 8c 25 3d
       -0.07496103 0.08006958 0.02807696 0.04041764
0000e0 5f d8 fc 3c 4f a7 e1 ba b1 83 9c 3d 39 1d 8e bd
       0.030864893 -0.0017216 0.07642306 -0.069391675
0000f0 60 12 cb 3b 8c 5a 88 bd f4 c7 f6 3c 11 f1 09 bd
       0.006197259 -0.066578954 0.030124642 -0.033677164
000100 7b 43 f5 3c b6 91 a6 bc 05 b8 a5 3d e2 fc 6c bd
       0.029939404 -0.020333152 0.080917396 -0.057858355
000110 81 67 6e bd 21 6b 6e bd c2 9d b3 3d 72 f0 04 3d
       -0.058204178 -0.058207635 0.08770324 0.03245587
000120 f0 69 c0 3d e5 f1 a4 bd 27 3e c6 bd 54 5e 9c bd
       0.09395206 -0.0805395 -0.09679823 -0.07635179
000130 f0 72 86 bd 62 01 22 3d 0f 3e 0f 3d 75 12 a6 3d
       -0.06564891 0.0395521 0.034971293 0.08108989
000140 24 6f 4e bd 72 40 88 bd c9 ea 53 3d cf 93 21 bd
       -0.05039896 -0.06652917 0.05173758 -0.039447602
000150 f6 b1 72 3d 25 7f bd bc de e0 64 3d 1c 4a 9b bd
       0.059251748 -0.023131916 0.055878513 -0.075824946
000160 84 ba 49 bd 58 bc f3 3c 05 ac a8 3c 7a d5 cb bc
       -0.04925014 0.029752895 0.020589838 -0.024882067
000170 43 03 6e 3d 41 88 87 3d 06 f0 90 bd 13 68 55 bd
       0.05810858 0.06617785 -0.07077031 -0.052101206
000180 bb f3 b6 3d 50 e2 06 bd af b6 0d bd 78 63 c1 bd
       0.08933207 -0.032930672 -0.03459805 -0.094428
000190 16 eb 64 bd be b3 c7 3c 41 fe 52 bc 91 14 91 bd
       -0.055888258 0.0243777 -0.012878002 -0.07084001
0001a0 60 05 16 3b 2e 3a 89 bd f5 42 a9 bd b5 18 5c bd
       0.0022891387 -0.0670055 -0.08264724 -0.0537345
0001b0 8a 18 af bd 67 27 7f bd 14 a3 c7 3d 3c ba 96 3c
       -0.08549602 -0.062293436 0.097479016 0.01839935
0001c0 d9 11 f7 3c 0b 69 ba bd f1 1f 83 bd 00 54 05 bd
       0.030159878 -0.091020666 -0.06402577 -0.03255081
0001d0 7e a1 7b 3c da 2b b0 bd be a0 2b bd d7 60 6f bd
       0.015358327 -0.08602114 -0.041901343 -0.058441963
0001e0 e6 3d 96 39 10 a7 14 bd 5e c3 dd bb bd 8f 87 bd
       0.00028656347 -0.036292136 -0.0067676743 -0.06619213
0001f0 ea 50 89 bd 67 ea 69 bd 28 db 08 bd 3e cb 9d bd
       -0.06704886 -0.05710831 -0.03341213 -0.07704781
000200 36 6e a7 3d b9 17 9e bc 53 f0 ab 3d 9d 59 f8 3c
       0.08175318 -0.019298421 0.083954476 0.030316168
000210 20 4b aa bd b5 a1 8a 3d 15 b8 d7 bc 67 e4 19 bd
       -0.0831511 0.067691244 -0.026332894 -0.037571337
000220 76 0c a6 bd 1f bb c6 bd b6 bb e4 3c 84 4c ae bc
       -0.081078455 -0.09703659 0.027921539 -0.02127672
000230 7e 66 1b 3d 0e c3 a3 bd cc db 93 3d b5 b0 92 bd
       0.03793954 -0.07996188 0.07219657 -0.071626104
000240 84 c7 8a bc 35 f9 a7 3c 39 d2 4f 3d 71 0e a1 3d
       -0.01694084 0.020504573 0.050737593 0.078640826
000250 6c 4c b6 3d 6b 9b 9e bd 2d 04 ca 3c ea 0c 2c bd
       0.08901295 -0.077444874 0.024660194 -0.042004503
000260 5d 68 2f bc 31 03 96 bd fa 2d b7 3d fb 8f 93 bd
       -0.0107060345 -0.073248275 0.08944316 -0.072051965
000270 a6 5d 56 3d 3a 00 0c 3d c9 ef 01 3d c6 ee 58 bd
       0.052335404 0.034179904 0.031722818 -0.052962087
000280 4a c2 b5 3d b7 4e b0 3c 12 96 4d 3c 73 be af bd
       0.08874948 0.02152191 0.012547987 -0.08581247
000290 aa 10 27 3d b1 ec 6c bc 35 aa 37 bd bf bf ab 3d
       0.040787376 -0.0144607285 -0.044840056 0.08386182
0002a0 6b 6b b2 3c ce b7 5c bd 03 ad 4a bd 44 53 97 bb
       0.021779737 -0.053886227 -0.049481403 -0.0046180803
0002b0 8b 34 5e 3d ca 96 cc bc 72 32 64 bd 00 eb 08 bd
       0.054249328 -0.024974246 -0.05571217 -0.03342724
0002c0 ed 58 95 bd 13 52 0e 3d bb a0 9a 3d b6 32 bc bd
       -0.07292352 0.03474624 0.07550188 -0.0918936
0002d0 c5 18 ba 3c ff 64 4e 3d 8e 35 91 3c 10 63 0e bd
       0.02271689 0.050389286 0.017725732 -0.034762442
0002e0 c9 7f 50 3d f4 19 52 3d c2 90 15 3d fb 5f 8d bc
       0.050903115 0.051294282 0.036515005 -0.017257681
0002f0 ef e9 d3 bc 24 dd 2b 3c 4d 79 8d bc c9 5f ee bc
       -0.025868384 0.010489736 -0.017269755 -0.029098408
000300 2f c3 7f 3d d5 ad ab 3d d0 49 1e bc 68 17 b3 bc
       0.062442 0.08382765 -0.009661153 -0.021861747
000310 93 8a d0 3a bc 19 be bb 53 fb bf 3c 50 44 df 3c
       0.0015910439 -0.0058014076 0.02343527 0.027254254
000320 dd 90 b5 bd 0f 90 13 bd 96 5d a8 3d 6a a8 1b 3d
       -0.08865521 -0.036026057 0.08220975 0.03800241
000330 7a 52 9f bb 9e 19 71 bd 92 9a 74 bd d0 11 b3 bd
       -0.004862127 -0.05886232 -0.059717722 -0.08743632
000340 de 5a 02 bd 73 fd 06 3d d0 f7 7d 3d 8d 8c 38 3d
       -0.03182494 0.03295655 0.06200391 0.045055915
000350 96 c6 b0 bd 5f 29 70 bd 95 28 7c bc 83 75 c1 3d
       -0.08631627 -0.058633205 -0.015390535 0.09446242
000360 8a 44 66 3c dc 06 cf bc b4 5f 25 3d 01 38 18 bd
       0.014054427 -0.025271825 0.040374473 -0.037162784
000370 32 7c 81 bd 9f 6c 92 3d 91 87 35 bd c0 d6 a1 bc
       -0.063225165 0.07149624 -0.04431874 -0.019755721
000380 29 d5 c6 bd cc b1 85 3d ed 78 97 3d dd 23 12 3d
       -0.09708626 0.06528053 0.07396112 0.035678733
000390 46 4f 8b bd eb 3e c5 bd 84 5b a2 bd a2 0c 95 3d
       -0.068022296 -0.09631141 -0.079276115 0.072778
0003a0 4f fc 3f 3d 62 03 a8 3d fa d3 50 3d 10 58 ca 3c
       0.04687148 0.0820377 0.050983407 0.024700195
0003b0 39 aa 81 ba c1 ff 98 bd 16 47 ab bd 94 e1 b9 bd
       -0.0009892649 -0.07470656 -0.08363168 -0.09076229
0003c0 12 c2 23 3d 9a 28 44 bd 37 fc a0 bc c3 0b 66 bd
       0.03998 -0.047890283 -0.019651515 -0.05616356
0003d0 20 3d 92 bc 39 18 8d bd 04 a6 82 bd a0 29 05 3d
       -0.017851412 -0.06889386 -0.06379321 0.0325104
0003e0 7b d3 ec bc de c7 76 3d 5a dc ff bc 62 7d 92 bd
       -0.028909435 0.060249202 -0.031233002 -0.07152821
0003f0 c2 b8 8b bc b9 ca 41 bd 84 fa f6 bc b2 57 be bd
       -0.017055873 -0.047312472 -0.030148752 -0.0929407

layers.1.layers.0.bias f4 [100]
000000 c3 93 83 3d fb ac 30 3d 4d bd 95 bb 3e 99 5f 3d
       0.06424668 0.043133717 -0.0045696856 0.054589503
000010 dc 46 94 bb f7 5e 81 bc 9a 21 19 bd 22 62 a7 bd
       -0.0045250487 -0.015792353 -0.03738556 -0.08173014
000020 27 ea a5 3d ee 4f 7a bd 2f 62 bb bd 20 68 37 bd
       0.08101302 -0.061111383 -0.091495864 -0.044777036
000030 f2 92 9b 3c ad 8e 13 bc 13 22 31 3d 74 5b 6a 3d
       0.018990967 -0.0090061845 0.043245386 0.057216123
000040 8b 9f 68 3d 02 6b a7 bd 36 5f 25 3d 79 7d 48 3d
       0.056792777 -0.08174707 0.040374003 0.048947785
000050 3e 0b 62 bd f5 09 9c 39 e7 e2 72 3c 4d 68 6a 3c
       -0.055186503 0.00029762057 0.014824606 0.014307094
000060 7c e2 5a 3d ee cd a7 3d c7 e7 bf 3d ad d3 ba 3c
       0.05343865 0.08193575 0.0937038 0.022806013
000070 e6 d0 68 3d 59 f6 29 3d 83 60 52 bd 5b 04 86 3d
       0.056839846 0.0414947 -0.051361572 0.065437995
000080 00 61 fa bb a4 49 2d 3d 84 1e 85 bd 1c 0d a2 3d
       -0.007640958 0.042306557 -0.06499961 0.07912657
000090 22 9a b1 3c 84 89 b7 3c cf e1 b1 bd 18 b9 0c bc
       0.021679942 0.02240444 -0.08685648 -0.008589052
0000a0 da f3 08 bd 16 98 ba 3d 82 d2 b6 bd 7a 60 c0 bc
       -0.03343568 0.09111039 -0.0892687 -0.023483504
0000b0 4d b7 48 bd 90 2b 93 bd b5 98 17 3d f7 e3 86 bd
       -0.049002934 -0.07186043 0.037010867 -0.065864496
0000c0 af 7c 3a 3d cc fa 44 3c be 3f 4c bd 31 52 2f bc
       0.045529064 0.012022685 -0.049865477 -0.010700748
0000d0 b9 88 21 3c 62 16 2e bd d1 a3 80 bd 1d f8 60 bd
       0.009859257 -0.042501815 -0.062812455 -0.05492412
0000e0 d8 53 c7 3c 1a 93 af bd c9 f9 7c 3d 8e de 85 3d
       0.024331972 -0.08572979 0.06176165 0.065365896
0000f0 dd a0 ba 3d 0e 5d ad 3d 90 33 63 bd b3 8d 2e bd
       0.091127135 0.084650144 -0.055469096 -0.042615604
000100 a0 e9 91 3d e8 44 68 bc 74 be 92 bd a1 b3 39 bd
       0.071246386 -0.014176585 -0.07165232 -0.045337323
000110 f6 fd 8b 3d ea d0 61 bd 51 64 0c 3d e2 1b a6 bd
       0.068355486 -0.055130877 0.034275357 -0.08110787
000120 e2 93 81 3d eb 1c d7 3c 40 6a 8c 3d c3 34 78 3b
       0.063270345 0.026258906 0.06856203 0.0037873245
000130 88 1c 4d 3d 92 eb a5 3d 0d 06 49 bc ea c7 96 bd
       0.050076038 0.08101572 -0.012269509 -0.07362349
000140 05 f4 8a bd 53 d3 6d 3d 05 2e 80 bd 09 dd b0 bd
       -0.06784824 0.058062863 -0.062587775 -0.08635909
000150 5e 71 aa bd c0 45 31 bd d4 82 97 3c bb 8a b4 bd
       -0.08322404 -0.04327941 0.018495 -0.08815523
000160 bf f8 3a bd 7f 64 bf 3d e9 d1 80 bc 76 c1 04 bd
       -0.04564738 0.0934534 -0.015725093 -0.03241106
000170 7e 5c 41 3d e3 59 a3 bd c0 23 9b bd 07 ad 83 3c
       0.047207348 -0.07976129 -0.07575178 0.016073717
000180 42 3f 01 3d c1 2e c4 bd 6a d6 b1 3d e0 53 1c bd
       0.031554468 -0.0957923 0.08683474 -0.038165927

layers.2.layers.0.weight f4 [100, 100]
000000 58 bf 81 3c eb f0 94 3d 68 b0 1c 3d c7 d0 01 3d
       0.01583831 0.07272514 0.03825417 0.031693246
000010 ec f4 b9 bd f2 b5 bd bd ee 90 1a 3d 2d aa 82 3b
       -0.09079918 -0.09263219 0.037735872 0.0039875717
000020 b2 39 7d 3d 0f d3 50 3d 35 39 a3 bd 95 95 9b 3c
       0.0618226 0.05098253 -0.07969896 0.018992225
000030 9d 81 9f bd f0 a7 60 bd 5f 07 e6 3c 16 3a a3 bb
       -0.07788394 -0.054847658 0.028079687 -0.0049812896
000040 23 94 81 bd 6a ce 0e 3d 9c c3 8e 3d 63 ea c7 bd
       -0.06327083 0.03486482 0.06970903 -0.097615026
000050 8f 01 c1 3d a7 fd 63 3d 2a 9b 04 bc 92 aa c5 bd
       0.094241254 0.055661824 -0.008093635 -0.09651674
000060 61 89 2b bd 77 50 fe 3c 5f 3f 2d bd 06 dd 06 bd
       -0.04187906 0.031044228 -0.042296764 -0.032925628
000070 f0 7c 26 bd cc 57 b1 3d 48 3c b0 3d 23 82 9e bd
       -0.040646493 0.08659324 0.08605248 -0.07739665
000080 64 7b fb bc 44 68 bb 3d 05 9a ae bb 32 a2 47 bd
       -0.030698486 0.091507465 -0.005328419 -0.048738666
000090 80 b0 4e 3c 0e 10 a3 3d 33 b2 4a bc e5 61 c0 bd
       0.012615323 0.079620466 -0.012371588 -0.09393672
0000a0 48 79 07 bd cf 5b 4f 3d 50 9e 5f bc 9f b0 92 3d
       -0.033074647 0.050624665 -0.0136485845 0.07162594
0000b0 3b 36 0f 3d 52 83 d4 3a 3a c0 1e 3d 24 1c 4a bc
       0.034963828 0.0016213453 0.03875754 -0.012335811
0000c0 8f af ae bd 7d e8 ae bd 05 ab 9f bd ae 57 7c bc
       -0.08529579 -0.08540437 -0.07796291 -0.015401764
0000d0 30 fb 92 bd 34 97 72 3c c6 ca 48 3c c3 ba 9c 3d
       -0.071768165 0.014806557 0.012255376 0.076528095
0000e0 94 3a c7 3b 53 99 8e 3c db ef 12 3d 66 6e e3 bc
       0.006079981 0.017407095 0.035873275 -0.027762603
0000f0 96 0b 4a bd 15 ff be bd 31 c0 c6 bd 67 a4 ea 3b
       -0.049327455 -0.09325997 -0.09704626 0.0071607116
000100 81 dc 40 bd 2f d3 eb 3c 5b 25 d3 3c 0f 6a a0 3d
       -0.04708529 0.028787224 0.025774648 0.07832729
000110 1d f5 37 bc e1 14 90 37 ad 56 8e 3d 2b f9 8e 3c
       -0.011227873 1.717586e-05 0.06950126 0.017452797
000120 f2 ed 3e 3d 9b d8 59 bd 0d 64 92 bd ee cb 9d 3d
       0.04661364 -0.053185087 -0.071479894 0.07704912
000130 00 e7 94 3d a6 48 18 bd 44 43 8e 3c c0 84 b5 bd
       0.07270622 -0.037178658 0.01736606 -0.08863211
000140 87 fa f2 3b 62 9a bd bd 8f 46 6a 3d 4a 36 ca bd
       0.007415119 -0.09257962 0.057196196 -0.09873636
000150 07 cb c0 bc 52 99 c1 3d 2f 7c 09 bd 3f 0f 6d bd
       -0.023534311 0.09453072 -0.033565696 -0.057875868
000160 9b cc b9 3d 34 7d 4a bd 4c 7b b8 3c f9 80 67 3d
       0.090722285 -0.04943581 0.02251973 0.056519482
000170 7e 62 e4 3c 2d 17 8d bd 3b 4a bb 3d 90 b0 47 3d
       0.027878996 -0.06889186 0.09145018 0.048752367
000180 5d e2 7e bd 10 f5 68 bd f6 96 b7 bc 58 be 0b 3d
       -0.062227596 -0.056874335 -0.022410851 0.034117073
000190 1d b4 17 3d bc 33 43 3c 9c 0a 86 3d f9 ba ca 3d
       0.037037004 0.01191419 0.06544992 0.098989435
0001a0 20 e5 a5 3c 62 d7 1c 3d 54 ce 66 3d 5e b1 9d 3c
       0.020250857 0.038291343 0.056349114 0.019249614
0001b0 55 fc b9 3b 4d b1 b6 3d e6 b9 8b 3d 4b e2 84 3d
       0.0056758323 0.08920536 0.06822567 0.064884745
0001c0 10 e4 21 bd 08 36 45 bd b7 f1 5f bd ce a6 ac bd
       -0.039524138 -0.04814723 -0.054673877 -0.08430253
0001d0 cc da 36 bc 8c c5 63 3d 97 6a 68 3c 1b e6 13 bd
       -0.011160564 0.055608317 0.014185569 -0.036108118
0001e0 0d b6 66 bc 57 d9 9d bd f7 a1 84 bd b6 8f 0d 3c
       -0.01408149 -0.0770747 -0.06476205 0.00864022
0001f0 7a 7f 6f bd a6 29 42 3c 27 b5 a7 3d 98 cf ce 3c
       -0.05847118 0.01185075 0.08188849 0.025245473
000200 cc 59 9b 3d 65 2a 82 bd e9 dd f0 3a 47 73 ca bd
       0.07585487 -0.06355742 0.0018376681 -0.09885269
000210 50 26 e7 39 ac cc 97 bd 09 d9 be 3d f7 c8 af bd
       0.00044088298 -0.07412085 0.0931874 -0.08583253
000220 a1 f9 07 3d 21 f8 75 bd 1a 00 df 3c 42 1a 84 ba
       0.03319705 -0.060051087 0.027221728 -0.0010078626
000230 3a 70 58 bc 5b 45 24 bd be 35 81 3d 65 55 98 bc
       -0.013210351 -0.040105205 0.06309079 -0.018595407
000240 c8 a3 02 3c ea 2b f9 bc 63 47 96 bd 9c 6f 2e bd
       0.007973619 -0.030416448 -0.07337835 -0.042586908
000250 65 33 b6 3d 48 67 c1 3d 09 c4 3f bd f7 e1 1a 3c
       0.088965215 0.094435275 -0.046817813 0.009453288
000260 b9 f0 79 3c 9a e7 b3 3d 62 14 5c 3c bc 0e 91 3b
       0.015255147 0.08784409 0.013432594 0.0044268053
000270 3e b5 f3 bc 41 ae a8 3c 1a 3d cc bd 24 31 cd bd
       -0.029749509 0.020590903 -0.09972592 -0.100191385
000280 37 bc 46 bc 94 18 90 bd 03 1f 8f bd d9 9c 8d bc
       -0.012129835 -0.07035938 -0.06988337 -0.017286705
000290 0a ac 62 3d 06 93 47 3d 31 47 12 bd 83 34 ee bb
       0.05533985 0.048724197 -0.035712425 -0.0072694435
0002a0 c8 45 bc 3d 43 2d ad 3c 64 51 8a 3d 1c dd 2a bd
       0.09192997 0.021139747 0.06753805 -0.041714773
0002b0 29 9c b8 bd 02 1f 41 bd 42 fa 04 3c dc ed ca bc
       -0.0901416 -0.047148712 0.008116307 -0.024771623
0002c0 99 7f 62 bd bf 25 c3 3d 63 ed bd bd 9a 5d 0e 3b
       -0.055297468 0.09528684 -0.092737935 0.0021723271
0002d0 3a e1 20 3d 24 56 e1 bc 32 ab 2f 3d 70 fd 9c 38
       0.039277293 -0.027506895 0.042887874 7.485866e-05
0002e0 ae 2a 75 bd ac b6 61 bd f7 21 39 bd 51 35 c8 bd
       -0.059855156 -0.05510585 -0.045198407 -0.09775794
0002f0 fc 3d 7d 3d 0d d9 b8 3d f1 4b 54 bd 00 0f 8d 3b
       0.06182669 0.09025774 -0.051830236 0.0043047667
000300 f9 12 05 3d 37 02 e5 3c 8b 32 65 bd 97 a7 7b bd
       0.032488797 0.027955158 -0.055956405 -0.061439123
000310 3a 16 c6 3d 56 35 6d 3d ed 01 bd 3d 4e 7b 8e 3d
       0.09672208 0.057912193 0.09228883 0.06957112
000320 70 58 f6 bb 4d da 8f 3d 67 33 55 bb ce f2 29 ba
       -0.007517867 0.070240594 -0.003253186 -0.0006483019
000330 9e 9a 31 bd b4 85 9f 3d cc 92 ae bc c0 2a 6d 3c
       -0.043360345 0.07789174 -0.021310233 0.014475524
000340 8d 55 a3 bd 7f 26 0c 3d 06 fc 42 bd 47 7e b9 bc
       -0.07975302 0.0342164 -0.04760363 -0.022643222
000350 18 63 13 bc b2 a8 17 3d e9 99 83 3b 35 37 8e 3c
       -0.008995794 0.037026115 0.0040161503 0.01736031
000360 d6 27 85 bd 17 d8 9a bd 6e 5c 13 3d df f7 28 bd
       -0.06501739 -0.07560747 0.03597682 -0.041252013
000370 a7 95 b0 bd da 1f 29 bd 45 02 c9 bd 31 39 a3 3c
       -0.08622294 -0.04129014 -0.09814886 0.019924732
000380 64 ba f1 3b 26 f7 bc 3d 35 f8 61 bd 25 e4 53 bd
       0.007376956 0.09226827 -0.05516835 -0.051731247
000390 41 09 c3 3c 83 9b d7 bc b3 56 9f 3d 53 9c 77 3c
       0.023808124 -0.026319271 0.077802084 0.015112954
0003a0 92 1f 0f bb 38 70 1d bd c4 4c 77 3d 69 df 3f bd
       -0.0021838886 -0.0384371 0.060375944 -0.04684392
0003b0 07 54 24 3d 60 7c 83 3d e2 b8 a0 bd df 89 b5 bd
       0.040119197 0.06420207 -0.078477636 -0.088641874
0003c0 71 19 67 bd c8 13 44 3d 99 7f 62 bd 6a 43 19 3c
       -0.056420747 0.047870427 -0.055297468 0.009354452
0003d0 a7 89 76 3c 9c 85 ab 3c bc 21 51 bd 03 d3 5c 3b
       0.015047467 0.020937733 -0.051057562 0.0033695109
0003e0 2a bc 8d 3d a7 00 54 3d 30 ec 9b 3c 59 f9 a2 bd
       0.06920655 0.051758435 0.019033521 -0.079577155
0003f0 40 26 40 3d ce 2f 23 bd d9 2f 8f 3d 9f e6 29 3d
       0.046911478 -0.039840512 0.06991548 0.041479703

layers.2.layers.0.bias f4 [100]
000000 28 70 2c bd b0 24 02 bd 59 80 ac bd c9 38 f7 ba
       -0.042099148 -0.03177327 -0.08422918 -0.0018861528
000010 b8 82 65 3d 6c 62 76 bd cd 92 ed bb 2f 70 93 3d
       0.056032866 -0.060152456 -0.007250166 0.07199132
000020 6f 8d 81 bd 92 07 f0 3c 1a be bc bc db 42 aa 3d
       -0.063258044 0.029300485 -0.023039866 0.08313533
000030 ba e0 b6 bb aa c8 b1 3d 9d dd 0a bd c1 44 9f bd
       -0.0055809887 0.08680852 -0.033902753 -0.07776786
000040 60 12 0a 3b a2 a6 6e bd bf eb 5c bd 15 4e 86 3d
       0.0021068081 -0.058264382 -0.053935762 0.06557862
000050 d7 ba bb 3d 2f 3a 8b bd 9a ed cb bd 95 8e cc 3c
       0.09166496 -0.06798207 -0.09957428 0.024970332
000060 58 7d a8 bd 31 2c ab bc 8a 15 2d 3d e0 55 28 3d
       -0.082270324 -0.020895096 0.04225687 0.04109752
000070 84 f5 53 3c dc a3 33 3d 31 0e 64 bd 0a 54 fd bc
       0.012936953 0.04385744 -0.055677596 -0.030923862
000080 00 98 01 bd 22 01 c8 bd 26 84 71 bd cb be 1a 3c
       -0.0316391 -0.09765841 -0.058963917 0.009444903
000090 1f a7 b2 3c c4 8a 3a bd c6 bb 8e 3d 4c a5 60 bd
       0.021808205 -0.045542493 0.06969409 -0.05484514
0000a0 32 d4 4f 3c 26 18 af 3d 3e 51 8d 3d 31 4b d5 3d
       0.012684869 0.08549528 0.06900261 0.10414732
0000b0 62 c4 e6 3c cc f0 8c bd 2a ac 0f bd 72 15 ec bc
       0.028169814 -0.06881866 -0.035076298 -0.02881882
0000c0 e2 f2 94 bd 4a b8 02 bd fd 3c c0 bd 4e 2a 3b bd
       -0.07272889 -0.031914033 -0.093866326 -0.04569464
0000d0 f5 80 ca bd 57 7c be 3d ef d4 b4 3c ad 19 d7 3d
       -0.09887878 0.0930106 0.02207419 0.10502944
0000e0 0f 2f 70 3d 7b 22 c3 3d 77 c8 02 bd ac 23 3a bd
       0.05863863 0.09528061 -0.03192946 -0.045444176
0000f0 1d 0c 37 bd d5 99 bc bd 2e 5e c4 bb db 47 91 3c
       -0.044689287 -0.09209029 -0.0059926724 0.017734459
000100 b0 86 7a 3d 5d 1c 55 bc b4 27 0d 3d 57 31 26 3d
       0.061163604 -0.013007251 0.034461692 0.040574398
000110 f1 0a 9f 3c fb 52 cc 3c e6 4b 13 bd f2 9e 71 3d
       0.019414397 0.024941912 -0.035961054 0.058989473
000120 fc 25 c5 bd da 6b 3e 3c 35 be 47 3d 47 3f 96 3d
       -0.096263856 0.0116223935 0.04876538 0.07336288
000130 4f 98 49 3d bd 70 6e bc 23 79 8e 3d 12 5d c3 bd
       0.04921752 -0.014553246 0.06956699 -0.09539236
000140 55 81 b6 bc a9 c6 17 bd 56 ea 71 3d 30 ed bf 3d
       -0.022278467 -0.03705469 0.05906137 0.09371412
000150 27 d2 da bc 3d b6 a7 3c b4 d3 8d bc 29 15 04 bd
       -0.026711537 0.02047264 -0.017312862 -0.032246742
000160 96 af 28 3d b1 3f be 3c 40 11 50 bd 5e 10 b4 3c
       0.041183077 0.02322373 -0.0507977 0.02198046
000170 2b 5b ca 3d c2 c9 94 bd 4f f6 8d bc 24 c0 b4 bd
       0.0988067 -0.07265045 -0.017329363 -0.088257104
000180 7e 13 c2 bc 0f 0b c5 3d 1d f9 78 3d 56 98 c2 bd
       -0.023690935 0.0962125 0.060784448 -0.09501712

layers.3.weight f4 [2, 100]
000000 36 81 ba bd 28 4d 7b ba 0a 64 57 bc 1d d8 91 3d
       -0.09106676 -0.00095863873 -0.01314641 0.071212985
000010 31 f6 2d bd d5 c5 99 3d 40 a0 7b bd 1c 85 c4 bc
       -0.042471115 0.075084366 -0.061432123 -0.023989253
000020 b0 75 ee bb d7 1e 67 bd fc ad 1f ba b6 bf e8 bc
       -0.007277213 -0.056425896 -0.00060912943 -0.028411727
000030 97 b7 4c bd 9e 12 b5 bd e0 62 ab ba 6c 68 be 3d
       -0.049979772 -0.088414416 -0.0013075732 0.09297261
000040 14 1a 1c 3d e8 8d ab bd d7 6c 58 bd 77 cf 61 3d
       0.038110808 -0.08376676 -0.052838173 0.055129495
000050 ba d1 26 bd af 4d 54 bc 97 f7 40 bd 49 a1 09 3d
       -0.040727355 -0.012957974 -0.04711112 0.03360108
000060 26 07 8d bd ec 00 dc bd 44 01 97 bd 98 1e be bd
       -0.06886129 -0.10742363 -0.07373288 -0.09283179
000070 23 14 0a 3c 24 c2 6a 3c 63 af 0c bd ff 35 06 3d
       0.0084276525 0.014328513 -0.03434695 0.03276634
000080 96 6b 0e 3b b2 b7 ae 3c bb 74 4c 3d 92 12 46 3b
       0.0021731607 0.021327827 0.04991601 0.003022347
000090 b4 9c c9 3d d4 98 8e 3d 0f 13 8b bd 7b d1 98 3d
       0.09844342 0.069627434 -0.067907445 0.0746183
0000a0 7a f7 a6 bc d8 f7 1c bc 44 63 3b b9 72 a2 c6 bd
       -0.020381678 -0.009580575 -0.00017870689 -0.09698953
0000b0 de 2a 7d 3d ca 5d 83 3d e9 02 bf 3d 76 5c 5a 3c
       0.06180846 0.06414373 0.09326727 0.0133277085
0000c0 8e f9 ea bc 3e 5b ad bc 88 88 07 bd 7e dc bb bd
       -0.02868345 -0.021161672 -0.03308919 -0.09172915
0000d0 a9 f1 fd 3c 34 a3 2d 3a 28 58 49 bd 1f c4 98 bd
       0.030999022 0.00066237454 -0.049156338 -0.07459282
0000e0 d6 a8 eb bc be 1d 14 3c 3a c3 93 3d 27 b3 0e 3d
       -0.02876703 0.009040294 0.07214971 0.03483882
0000f0 71 ab 97 3d 77 2f a4 3d f1 c2 4f bd 48 52 cf bb
       0.07405747 0.08016866 -0.05072302 -0.0063269474
000100 30 0b ce bd 29 70 8d bd 3d cb dd 3c b1 83 06 3d
       -0.100607276 -0.069061585 0.02707445 0.032840434
000110 18 00 2f 3d 8d 2f a1 3d a6 55 15 3d 29 b1 5c bd
       0.0427247 0.07870398 0.036458634 -0.05387989
000120 e8 3d ce bc 04 26 73 3b c2 7a 3e 3d 45 e0 9d bd
       -0.025176004 0.0037101517 0.04650379 -0.07708792
000130 85 fe 53 bd 54 fb 17 3d 31 88 05 3d 9f f1 c0 3d
       -0.0517564 0.03710492 0.032600585 0.094210856
000140 52 44 a5 3d 20 0c 46 bd 55 81 ce 3c a6 c4 93 bd
       0.08069672 -0.048351407 0.025208155 -0.07215242
000150 f9 b6 96 bb af 20 01 bc e8 1f a3 3c 8f c8 a6 3d
       -0.0045994488 -0.0078813275 0.019912675 0.08143722
000160 4d b5 a5 bd d4 d9 a4 3d 0a 0a 89 3d 78 05 48 bd
       -0.08091221 0.0804936 0.06691368 -0.04883334
000170 c3 c7 21 bd ae 64 f6 bc c3 86 7d 3d 1f 66 d7 bc
       -0.03949715 -0.030077305 0.061896097 -0.026293812
000180 4a bb ef 3c fe 4c 54 bd 95 0a 9c 3d 2e 4c 9b bc
       0.029264111 -0.051831238 0.07619206 -0.018957224
000190 3b e6 c6 3d c5 44 8e bd 58 98 e6 bc f5 cb 8c 3d
       0.09711882 -0.069467105 -0.028148815 0.06874839
0001a0 34 41 45 3d 75 4c 4c bd 77 02 a3 bd df cd 8e bd
       0.048157886 -0.049877603 -0.079594545 -0.069728605
0001b0 77 9c a0 bd f0 0f 4e bd 7d 4e 64 bd f7 32 b4 bc
       -0.07842343 -0.050308168 -0.055738915 -0.021996958
0001c0 f9 a2 b6 3d 54 dc 89 bc f0 79 78 bd 31 a0 48 3d
       0.08917803 -0.016828693 -0.060663164 0.048980895
0001d0 9b 30 6e bd 43 2b 2f bd 03 a7 68 bc 9a 0f e6 ba
       -0.058151823 -0.042765867 -0.014199975 -0.0017552257
0001e0 f0 72 6e bd ab 50 9b bd bf b9 c7 bd 34 20 e8 bc
       -0.05821508 -0.075837456 -0.09752225 -0.028335668
0001f0 85 92 54 3d f3 42 a9 3c d4 c5 a3 3d d2 ac c3 3c
       0.051897544 0.020661807 0.07996717 0.023886118
000200 2b 36 97 bd dd 99 2d 3c 9f d2 bb bc 22 be 85 3d
       -0.073833786 0.010595766 -0.02292758 0.065304056
000210 cc f6 0c 3d 02 8c d0 3d bb 09 b3 bd 47 ff f8 bc
       0.03441505 0.10182954 -0.0874209 -0.030395163
000220 ca 1c ac bd f8 7b 52 3c 6e aa 56 bd 76 df 29 bd
       -0.084039286 0.012846939 -0.05240863 -0.041472875
000230 0e 51 d7 3d c7 34 ef bc 78 63 6f 3d 7e 1b 97 3d
       0.10513507 -0.02919997 0.05844447 0.073782906
000240 d6 a9 9b 3d 41 bc aa 3d f5 e0 85 3d 48 b8 72 3c
       0.07600753 0.08336688 0.06537048 0.014814444
000250 da a3 af 3d 11 67 d3 3d d0 a4 8c bd ea b9 b5 3c
       0.08576174 0.10322393 -0.06867373 0.022183377
000260 fd 09 93 3d 05 85 5a bd 09 c1 6b 3d f9 3b a1 3d
       0.071796395 -0.053349514 0.05755714 0.07872767
000270 ef 5e 1c 3c 4c be 28 bc 0b 72 a9 bb 0f 52 be 3d
       0.009544118 -0.010299277 -0.0051710657 0.09292995
000280 86 6f 9f bd 3e 06 24 3d b9 67 57 bd 4a e7 92 3d
       -0.07784943 0.040045016 -0.052589152 0.07173021
000290 3f 06 c9 bc bf c8 09 3d 1a 3d 99 3d 49 cb 0a bc
       -0.024539111 0.033638712 0.07482357 -0.0084713185
0002a0 24 44 6c bc 12 e5 c6 3d 47 aa cb 3d 3c c7 6d 3d
       -0.014420543 0.097116604 0.09944587 0.058051333
0002b0 38 93 db 3b c9 dc 39 3b d5 2a 6d bd f5 a4 bf 3d
       0.0067008995 0.0028360358 -0.057902176 0.09357635
0002c0 2f c6 5e 3d 73 b8 a5 3d 12 78 83 bd c4 2a d0 3c
       0.05438822 0.080918215 -0.06419386 0.025411017
0002d0 d2 b8 ae 3c 59 05 e4 bc ef 69 a7 ba 20 2a fa 3c
       0.021328364 -0.027834581 -0.001277266 0.030537665
0002e0 0d f9 db bc d7 d9 c0 3d 57 55 b2 bd e4 b5 05 bc
       -0.026852155 0.0941655 -0.087076835 -0.008161042
0002f0 b8 60 36 bd 90 46 b3 3d 68 dc 07 bd da ae b8 bc
       -0.044525832 0.08753693 -0.03316918 -0.022544313
000300 47 c4 c9 3d 88 45 a2 bd c9 81 05 bd 0c 3c b1 3d
       0.0985189 -0.07923418 -0.032594476 0.08654031
000310 fd f7 9b 3d 4a 34 85 bc 45 c8 69 bc c6 55 37 bd
       0.076156594 -0.016260285 -0.014268939 -0.044759534

layers.3.bias f4 [2]
000000 7d 5a 64 bd 37 be d6 3d
       -0.05575036 0.10485499
