clients_data/clients_trained_model/client3.pth (torch, 86087 bytes, 6 tensors)

layers.1.layers.0.weight f4 [100, 105]
0	0x3d98e03b	0.074646436
1	0x3da5b874	0.08091822
2	0xbcbad04c	-0.022804402
3	0x3db7cf51	0.08975089
4	0xbcaf263f	-0.021380542
5	0x3ca1827c	0.01971554
6	0xbd42c32d	-0.047549415
7	0x3d6ae4de	0.05734717
8	0x3db03062	0.08602978
9	0xbd927b6d	-0.07152448
10	0x3dad64b2	0.08466472
11	0x3c95e4e0	0.018297613
12	0x3d938aa0	0.07204175
13	0x3c5bb842	0.01341063
14	0x3d417cca	0.04723815
15	0xbc62a734	-0.01383381
16	0x3d99c165	0.0750759
17	0x3c6a313b	0.014293964
18	0xbd3a77e5	-0.045524497
19	0x3ccae796	0.024768632
20	0xbd38263d	-0.044958342
21	0xbc3c1b2b	-0.011481087
22	0xbd2242e3	-0.03961457
23	0x3d84a1f3	0.06476202
24	0xbd9dbfd5	-0.07702605
25	0xbd384476	-0.044987164
26	0xbce20758	-0.027591392
27	0xbd6ffe1e	-0.058591954
28	0x3c1855f7	0.009297839
29	0xbdc5762a	-0.09641679
30	0x3db3b8c8	0.087754786
31	0xbda9d225	-0.08292035
32	0x3d9a8e15	0.07546631
33	0x3c845ce9	0.016157584
34	0xbd01b9a6	-0.03167119
35	0x3d76d81c	0.06026469
36	0x3c787162	0.015163751
37	0x3da1e1ba	0.07904382
38	0x3c2d088d	0.010561121
39	0xbcfcb3ec	-0.030847512
40	0x3cd5ec06	0.026113521
41	0xbcd8a5b3	-0.026446199
42	0x3d28bdd2	0.04119665
43	0x3db2aad4	0.08723989
44	0x3d669be3	0.05630101
45	0xbd2e9e23	-0.04263128
46	0x3d66d792	0.056357928
47	0x3c8f2dce	0.017477896
48	0x3d4abd34	0.049496844
49	0xbd72f911	-0.05931956
50	0xbdc5a6eb	-0.09650978
51	0xbd1b4271	-0.03790516
52	0xbd997652	-0.07493271
53	0x3da40f6d	0.08010755
54	0x3ce56923	0.028004235
55	0x3d25d9e1	0.04049099
56	0x3cfb7119	0.030693578
57	0xbadbf240	-0.001678057
58	0x3d9cb237	0.07651179
59	0xbd8e2f8b	-0.06942662
60	0x3bcc37d0	0.0062322393
61	0xbd887313	-0.06662574
62	0x3cf6b8e2	0.030117456
63	0xbd0984a8	-0.033573776
64	0x3cf593d0	0.029977709
65	0xbca68cf5	-0.020330885
66	0x3da5c084	0.0809336
67	0xbd6ce749	-0.05783776
68	0xbd6e6155	-0.05819829
69	0xbd6e6560	-0.058202147
70	0x3db38eb2	0.08767451
71	0x3d0479b2	0.03234262
72	0x3dc0566d	0.093914844
73	0xbda4f0a0	-0.08053708
74	0xbdc63be4	-0.09679392
75	0xbd9c5c5a	-0.07634802
76	0xbd867066	-0.06564407
77	0x3d2275eb	0.039663237
78	0x3d0f2783	0.03494979
79	0x3da61ce8	0.08110982
80	0xbd4e6a70	-0.050394475
81	0xbd883e78	-0.0665254
82	0x3d5412b4	0.05177565
83	0xbd218f41	-0.03944326
84	0x3d72752b	0.05919377
85	0xbcbdb1fc	-0.023156159
86	0x3d645bc9	0.055751596
87	0xbd9b48ec	-0.07582268
88	0xbd49b75d	-0.049247134
89	0x3cf3bfcb	0.02975454
90	0x3ca87e9a	0.02056818
91	0xbccbcfea	-0.024879415
92	0x3d6e4988	0.058175594
93	0x3d877f12	0.066160336
94	0xbd90eed6	-0.07076804
95	0xbd55654d	-0.05209856
96	0x3db6df83	0.0892935
97	0xbd06e1a6	-0.03293004
98	0xbd0db422	-0.034595616
99	0xbdc1633d	-0.09442756
100	0xbd64e4ed	-0.055882383
101	0x3cc7b785	0.024379501
102	0xbc5304db	-0.012879576
103	0xbd91138b	-0.07083806
104	0x3b160560	0.0022891387
105	0xbd895524	-0.067056924
106	0xbda96f11	-0.08273137
107	0xbd5c3a26	-0.053766392
108	0xbdaf1d38	-0.08550495
109	0xbd7ef8c3	-0.062248956
110	0x3dc7f4b3	0.097634695
111	0x3c96e522	0.018419806
112	0x3cf60045	0.030029425
113	0xbdba690b	-0.091020666
114	0xbd83848c	-0.06421766
115	0xbd057315	-0.032580454
116	0x3c7a4489	0.015275129
117	0xbdb017ef	-0.08598315
118	0xbd2b1a2c	-0.041773006
119	0xbd6f815c	-0.058472976
120	0x392a38be	0.00016233601
121	0xbd148c1c	-0.03626643
122	0xbbdc9074	-0.0067310873
123	0xbd878419	-0.066169925
124	0xbd89387d	-0.067002274
125	0xbd69d0f8	-0.057084054
126	0xbd08e124	-0.033417836
127	0xbd9dc6ec	-0.07703957
128	0x3da7178d	0.08158789
129	0xbc9e223c	-0.019303434
130	0x3dabe862	0.08393933
131	0x3cf74f35	0.030189136
132	0xbdaa335c	-0.08310577
133	0x3d8a89c2	0.067645565
134	0xbcd82273	-0.026383614
135	0xbd192e55	-0.0373977
136	0xbda62686	-0.081128165
137	0xbdc6cca6	-0.09707002
138	0x3ce45e53	0.027877009
139	0xbcae825c	-0.021302395
140	0x3d1b9e84	0.03799297
141	0xbda3cff7	-0.079986505
142	0x3d940f29	0.07229454
143	0xbd92d33a	-0.071691945
144	0xbc8a6f4f	-0.01689878
145	0x3ca81567	0.020518018
146	0x3d4f8d88	0.050672084
147	0x3da0f16b	0.07858547
148	0x3db651cf	0.089023225
149	0xbd9ea2ed	-0.077459194
150	0x3ccacbfa	0.024755467
151	0xbd2bd172	-0.04194779
152	0xbc2f55fa	-0.010701651
153	0xbd95b8f9	-0.07310671
154	0x3db71963	0.08940389
155	0xbd939c2b	-0.07207521
156	0x3d55fd84	0.052243724
157	0x3d0c7a3d	0.034296263
158	0x3d020fb7	0.031753268
159	0xbd5912d8	-0.052996486
160	0x3db5bfc1	0.08874465
161	0x3caf49f3	0.021397566
162	0x3c4d34bf	0.012524783
163	0xbdaf8e03	-0.085720085
164	0x3d2774b9	0.0408828
165	0xbc6e7ce5	-0.014556144
166	0xbd378396	-0.044803225
167	0x3dab60d0	0.08368075
168	0x3cb26010	0.021774322
169	0xbd5c999f	-0.053857442
170	0xbd4a5919	-0.049401376
171	0xbb99e302	-0.004696251
172	0x3d5e9885	0.054344673
173	0xbccd3c54	-0.02505318
174	0xbd642c8c	-0.055706546
175	0xbd08e9fe	-0.033426277
176	0xbd955a62	-0.0729263
177	0x3d0e3f9b	0.034728628
178	0x3d9aae98	0.07552832
179	0xbdbc33d7	-0.09189575
180	0x3cb9f452	0.022699509
181	0x3d4e2a3c	0.050333247
182	0x3c90e17e	0.017685648
183	0xbd0e6534	-0.034764484
184	0x3d50a864	0.05094184
185	0x3d522a49	0.051309858
186	0x3d15390f	0.03643137
187	0xbc8c8965	-0.017155359
188	0xbcd3b8bf	-0.02584493
189	0x3c2d216e	0.010567052
190	0xbc8d54a1	-0.017252268
191	0xbcee52c9	-0.02909221
192	0x3d7dc4c7	0.06195524
193	0x3dabaff1	0.083831675
194	0xbc1e74f0	-0.009671435
195	0xbcb39074	-0.021919467
196	0x3ab696b0	0.0013930406
197	0xbbbfcd83	-0.0058533563
198	0x3cbf7e2c	0.023375593
199	0x3cdfe7cd	0.02733221
200	0xbdb58c96	-0.08864705
201	0xbd139316	-0.036028944
202	0x3da84fc8	0.08218342
203	0x3d1bc02b	0.038025063
204	0xbb9f0d62	-0.0048538903
205	0xbd711d44	-0.0588658
206	0xbd7495f9	-0.059713338
207	0xbdb30d89	-0.08742816
208	0xbd02538a	-0.03181795
209	0x3d06fd73	0.03295655
210	0x3d7d7b62	0.061885245
211	0x3d3877c1	0.04503608
212	0xbdb0c6ba	-0.08631654
213	0xbd70093a	-0.05860255
214	0xbc7ae146	-0.015312498
215	0x3dc16b8c	0.09444341
216	0x3c65b7f8	0.014020912
217	0xbccf0a9e	-0.025273617
218	0x3d255fb4	0.040374473
219	0xbd18836a	-0.0372347
220	0xbd815394	-0.063147694
221	0x3d9286b3	0.07154598
222	0xbd3595ed	-0.044332433
223	0xbca30023	-0.019897526
224	0xbdc6cd51	-0.0970713
225	0x3d8591ff	0.06521987
226	0x3d97b8ea	0.074083164
227	0x3d11f753	0.035636257
228	0xbd8b5de6	-0.06805019
229	0xbdc54258	-0.09631795
230	0xbda24ac7	-0.07924419
231	0x3d95084e	0.072769746
232	0x3d3ff7c8	0.046867162
233	0x3da82297	0.082097225
234	0x3d51196d	0.05104964
235	0x3cc9691d	0.024586255
236	0xba651835	-0.0008739264
237	0xbd9905a3	-0.07471778
238	0xbdab69c3	-0.08369782
239	0xbdb9bdeb	-0.09069427
240	0x3d23d1b0	0.039994895
241	0xbd446e3b	-0.047956686
242	0xbca0e35d	-0.019639665
243	0xbd660c9e	-0.056164376
244	0xbc92099c	-0.017826848
245	0xbd8d2f0c	-0.06893739
246	0xbd82cb7b	-0.06386467
247	0x3d04f4f0	0.032460153
248	0xbcecf96d	-0.02892753
249	0x3d77058f	0.060308035
250	0xbcfefdde	-0.031126913
251	0xbd928ce8	-0.07155782
252	0xbc8bb6cd	-0.01705494
253	0xbd41c7b9	-0.04730961
254	0xbcf6b1dd	-0.030114109
255	0xbdbe3349	-0.092871256

layers.1.layers.0.bias f4 [100]
0	0x3d83657c	0.06415841
1	0x3d307562	0.043080695
2	0xbb93ba48	-0.0045082904
3	0x3d5f05b3	0.054448795
4	0xbb95d829	-0.0045728874
5	0xbc8215a3	-0.015879458
6	0xbd19293d	-0.037392844
7	0xbda7ca6e	-0.08192907
8	0x3da6199b	0.081103526
9	0xbd7a28ca	-0.061074056
10	0xbdbb7900	-0.09153938
11	0xbd36b077	-0.044601884
12	0x3c9b2e2c	0.018942915
13	0xbc13f313	-0.009030121
14	0x3d3145c0	0.04327941
15	0x3d6ab95e	0.057305686
16	0x3d6849af	0.056710895
17	0xbda7a4d1	-0.08185733
18	0x3d25c78e	0.040473513
19	0x3d4816f8	0.04885003
20	0xbd614420	-0.05499661
21	0x39930752	0.0002804348
22	0x3c72a214	0.01480915
23	0x3c659186	0.014011746
24	0x3d5a590c	0.053307578
25	0x3da80181	0.08203412
26	0x3dbfe084	0.09368995
27	0x3cbadd17	0.022810502
28	0x3d693a7b	0.056940537
29	0x3d29f4cf	0.041493233
30	0xbd5313a3	-0.0515324
31	0x3d85f9b0	0.06541765
32	0xbbf22e19	-0.007390749
33	0x3d2c1e95	0.042021353
34	0xbd852a30	-0.06502187
35	0x3da166c5	0.0788093
36	0x3cb1822b	0.021668514
37	0x3cb79213	0.02240852
38	0xbdb1fee6	-0.08691196
39	0xbc0f87bd	-0.00876039
40	0xbd08a3fd	-0.033359516
41	0x3dbaab1f	0.0911467
42	0xbdb6b3ae	-0.0892099
43	0xbcbf4c8d	-0.023351932
44	0xbd48e88a	-0.04904989
45	0xbd932086	-0.07183938
46	0x3d17cadb	0.037058692
47	0xbd8759ed	-0.06608949
48	0x3d3a6d1d	0.045514215
49	0x3c436750	0.011926487
50	0xbd4cd85a	-0.050011016
51	0xbc30c161	-0.010788293
52	0x3c228130	0.009918496
53	0xbd2dbf76	-0.04241892
54	0xbd807ec6	-0.0627418
55	0xbd611800	-0.05495453
56	0x3cc896f6	0.024486046
57	0xbdaf8b3d	-0.085714795
58	0x3d7d62c0	0.061861753
59	0x3d855833	0.06510963
60	0x3dbaa456	0.09113376
61	0x3dacebdc	0.08443424
62	0xbd630a64	-0.05542983
63	0xbd2d9904	-0.042382255
64	0x3d92022e	0.07129322
65	0xbc67e191	-0.0141529
66	0xbd92c191	-0.07165826
67	0xbd39b64f	-0.04533988
68	0x3d8bc0df	0.068238966
69	0xbd62af0d	-0.055342723
70	0x3d0c8b3a	0.034312464
71	0xbda6073e	-0.0810685
72	0x3d8169ff	0.06319045
73	0x3cd6a7df	0.026203094
74	0x3d8c53d3	0.06851926
75	0x3b76a70b	0.0037636186
76	0x3d4d65c1	0.05014587
77	0x3da5700a	0.080780104
78	0xbc4a6494	-0.012353081
79	0xbd96d005	-0.07363895
80	0xbd8b958b	-0.068156324
81	0x3d6d6667	0.057958987
82	0xbd80058c	-0.06251058
83	0xbdb1114d	-0.08645878
84	0xbdaa36d3	-0.08311238
85	0xbd315702	-0.043295868
86	0x3c96020c	0.018311523
87	0xbdb455ac	-0.08805403
88	0xbd3a93bd	-0.04555105
89	0x3dbf6df2	0.09347142
90	0xbc8112fa	-0.015756119
91	0xbd0548e0	-0.032540202
92	0x3d40eb3a	0.04709933
93	0xbda34434	-0.07971993
94	0xbd9ae0f0	-0.07562435
95	0x3c846708	0.01616241
96	0x3d00d58d	0.031453658
97	0xbdc44701	-0.095838554
98	0x3db1c37f	0.08679866
99	0xbd1c7fb0	-0.03820771

layers.2.layers.0.weight f4 [100, 100]
0	0x3c843667	0.016139222
1	0x3d9591a5	0.0730317
2	0x3d1e78f8	0.038689584
3	0x3d006e8f	0.031355437
4	0xbdb9a1b1	-0.09064043
5	0xbdbdbe70	-0.09264839
6	0x3d1b4353	0.037906002
7	0x3b8ab33b	0.0042327917
8	0x3d7d54e7	0.061848547
9	0x3d50b81d	0.050956834
10	0xbda2a391	-0.07941354
11	0x3c9a5ec1	0.01884401
12	0xbd9edeeb	-0.07757362
13	0xbd5fde17	-0.05465516
14	0x3ce8715c	0.028374366
15	0xbb947572	-0.004530602
16	0xbd81389c	-0.063096255
17	0x3d0f6e67	0.035017397
18	0x3d8f9cf4	0.07012358
19	0xbdc796a0	-0.09745526
20	0x3dc0eed1	0.094205506
21	0x3d65376d	0.05596106
22	0xbc0020b2	-0.007820295
23	0xbdc5410c	-0.09631547
24	0xbd2af471	-0.041737024
25	0x3cfef218	0.031121299
26	0xbd2d2b97	-0.0422779
27	0xbd06af30	-0.032881916
28	0xbd262fef	-0.040573057
29	0x3db13665	0.08652953
30	0x3db07576	0.08616154
31	0xbd9ea80a	-0.07746895
32	0xbcfbd376	-0.03074048
33	0x3dbb5e30	0.09148824
34	0xbbad7915	-0.005293975
35	0xbd482a33	-0.04886837
36	0x3c542ae3	0.012949678
37	0x3da39cf5	0.079889216
38	0xbc458068	-0.01205454
39	0xbdc02a6a	-0.0938309
40	0xbd06b2f9	-0.032885525
41	0x3d5164a5	0.051121373
42	0xbc5ad7f3	-0.01335715
43	0x3d92a02a	0.07159455
44	0x3d110fb0	0.03541535
45	0x3aef9354	0.001827816
46	0x3d1f6273	0.038912248
47	0xbc4d1e65	-0.012519454
48	0xbdaeae48	-0.08529335
49	0xbdae4581	-0.085093506
50	0xbd9f50af	-0.07779061
51	0xbc7b3333	-0.015332031
52	0xbd92a733	-0.07160797
53	0x3c796fe3	0.01522443
54	0x3c48e348	0.012261219
55	0x3d9d3eff	0.07678031
56	0x3bcf184e	0.006320036
57	0x3c90ec46	0.017690789
58	0x3d1305f4	0.03589435
59	0xbce35827	-0.027751995
60	0xbd4a7c40	-0.0494349
61	0xbdbf4862	-0.09339978
62	0xbdc698de	-0.09697126
63	0x3be9ba4f	0.0071328054
64	0xbd40c067	-0.04705849
65	0x3ced8d45	0.028998027
66	0x3cd324e3	0.025774425
67	0x3da08243	0.078373455
68	0xbc33900c	-0.010959636
69	0x38ce37d0	9.833241e-05
70	0x3d8f764f	0.070049874
71	0x3c8f77a5	0.017513106
72	0x3d3fa5d3	0.046789
73	0xbd58c06c	-0.052917883
74	0xbd91d92a	-0.07121499
75	0x3d9e1759	0.07719297
76	0x3d9521e7	0.07281857
77	0xbd17a4b8	-0.037022322
78	0x3c921c5d	0.01783579
79	0xbdb5bc3c	-0.088737935
80	0x3bf78bdb	0.007554514
81	0xbdbd348d	-0.09238539
82	0x3d6a2a30	0.05716914
83	0xbdca4d95	-0.09878079
84	0xbcc2baff	-0.023770807
85	0x3dc211c6	0.09476046
86	0xbd08be46	-0.033384584
87	0xbd6d681c	-0.057960615
88	0x3db936d6	0.09043662
89	0xbd48f19d	-0.049058545
90	0x3cb982f1	0.022645446
91	0x3d67bafa	0.0565748
92	0x3ce6e432	0.028184984
93	0xbd8d0467	-0.06885605
94	0x3dbc55c9	0.0919605
95	0x3d48bf73	0.049010705
96	0xbd7ebcbe	-0.062191717
97	0xbd683570	-0.056691587
98	0xbcb69d76	-0.02229188
99	0x3d0c5ae6	0.034266375
100	0x3d17f75d	0.03710114
101	0x3c41fbbf	0.011839806
102	0x3d85c9a3	0.065326
103	0x3dca915c	0.09891006
104	0x3ca54e33	0.02017889
105	0x3d1d1d68	0.038358122
106	0x3d66c6a3	0.05634178
107	0x3c9d1e01	0.019179346
108	0x3bb6029d	0.0055545107
109	0x3db6c18a	0.089236334
110	0x3d8ba541	0.06818629
111	0x3d8504ca	0.06495054
112	0xbd2279ba	-0.03966687
113	0xbd45cd1e	-0.048291318
114	0xbd605aa0	-0.054773927
115	0xbdacce07	-0.08437734
116	0xbc37221b	-0.011177565
117	0x3d634e28	0.055494457
118	0x3c670edf	0.014102667
119	0xbd13e820	-0.036110044
120	0xbc66f8b6	-0.014097383
121	0xbd9dfa25	-0.07713727
122	0xbd84cc90	-0.0648433
123	0x3c0e6199	0.008690261
124	0xbd6f6a74	-0.05845113
125	0x3c410b10	0.011782423
126	0x3da767f8	0.08174127
127	0x3ccd60e5	0.025070617
128	0x3d9b95be	0.075969204
129	0xbd822768	-0.063551724
130	0x3aee6b0b	0.001818986
131	0xbdca7356	-0.0988528
132	0x39f67451	0.0004700744
133	0xbd97bb41	-0.07408763
134	0x3dbeb0c1	0.09311057
135	0xbdafb9bf	-0.0858035
136	0x3d07a5a2	0.033116944
137	0xbd76b11d	-0.060227502
138	0x3cdd78f5	0.027035216
139	0xba963dfa	-0.0011462562
140	0xbc59d8ac	-0.0132962875
141	0xbd246724	-0.040137425
142	0x3d810a6d	0.06300817
143	0xbc9965e7	-0.018725349
144	0x3c009e98	0.007850312
145	0xbcfac0ce	-0.030609515
146	0xbd9643be	-0.073371395
147	0xbd2e0cae	-0.04249256
148	0x3db63210	0.088962674
149	0x3dc1570d	0.09440432
150	0xbd401c42	-0.04690195
151	0x3c196d91	0.009364502
152	0x3c780408	0.01513768
153	0x3db36def	0.087612025
154	0x3c5c0a00	0.013430119
155	0x3b8ee0c8	0.004360292
156	0xbcf4039f	-0.029786883
157	0x3ca7ff99	0.02050762
158	0xbdcc74b5	-0.099831976
159	0xbdcd2d95	-0.1001846
160	0xbc480fd1	-0.012210802
161	0xbd8fd03f	-0.07022142
162	0xbd8f546f	-0.06998526
163	0xbc8e07a5	-0.01733763
164	0x3d6281cc	0.055299565
165	0x3d4767fd	0.048683155
166	0xbd122a4f	-0.03568488
167	0xbbf3a18c	-0.0074350294
168	0x3dbbdd4d	0.09173069
169	0x3cad38e0	0.021145284
170	0x3d8a2674	0.067456156
171	0xbd2b24c3	-0.041783106
172	0xbdb8d982	-0.09025861
173	0xbd413602	-0.047170646
174	0x3c059f25	0.008155619
175	0xbcca8905	-0.02472354
176	0xbd62485c	-0.05524479
177	0x3dc2dd97	0.09514921
178	0xbdbe19ef	-0.0928229
179	0x3b0f181a	0.0021834434
180	0x3d21423c	0.039369807
181	0xbce16a36	-0.027516466
182	0x3d2fba7f	0.042902466
183	0xb86729ff	-5.5113804e-05
184	0xbd7576df	-0.059927817
185	0xbd61d6b1	-0.055136386
186	0xbd393d81	-0.04522467
187	0xbdc8540e	-0.09781657
188	0x3d7d5563	0.06184901
189	0x3db8ff8e	0.09033118
190	0xbd54167c	-0.051779255
191	0x3b8d6248	0.0043146946
192	0x3d04d07a	0.03242538
193	0x3ce3ee1e	0.027823504
194	0xbd65b980	-0.05608511
195	0xbd7c20d6	-0.061554752
196	0x3dc5dd3c	0.09661338
197	0x3d6cc481	0.05780459
198	0x3dbcb10d	0.09213457
199	0x3d8e84de	0.06958936
200	0xbbf6607a	-0.007518825
201	0x3d8fdab9	0.0702414
202	0xbb550e9a	-0.0032509924
203	0xba24be51	-0.0006284463
204	0xbd318502	-0.043339737
205	0x3d9f8dd5	0.07790724
206	0xbcae5944	-0.0212828
207	0x3c6d345f	0.014477818
208	0xbda35c8b	-0.079766355
209	0x3d0c3076	0.034225903
210	0xbd42e547	-0.047581937
211	0xbcb97ea9	-0.022643404
212	0xbc13c9d5	-0.0090202885
213	0x3d17ad27	0.037030365
214	0x3b8359a0	0.004008487
215	0x3c8e1b44	0.017346986
216	0xbd852880	-0.065018654
217	0xbd9acf0e	-0.07559024
218	0x3d1371f3	0.035997342
219	0xbd28f017	-0.041244593
220	0xbdb09ac6	-0.08623271
221	0xbd291f87	-0.041289832
222	0xbdc8fba5	-0.098136224
223	0x3ca338ac	0.019924484
224	0x3bf1ce66	0.007379341
225	0x3dbcfa45	0.092274226
226	0xbd62148e	-0.055195384
227	0xbd53da5c	-0.051721916
228	0x3cc30b73	0.02380917
229	0xbcd7ac88	-0.026327386
230	0x3d9f695b	0.07783767
231	0x3c7828f6	0.015146485
232	0xbb103a79	-0.0022007509
233	0xbd1d4081	-0.038391594
234	0x3d775004	0.060379043
235	0xbd3fd34d	-0.04683237
236	0x3d2447e0	0.040107608
237	0x3d8383c7	0.06421619
238	0xbda0c683	-0.07850363
239	0xbdb586ec	-0.08863625
240	0xbd670e64	-0.05641021
241	0x3d4414cb	0.047871392
242	0xbd627a6e	-0.05529254
243	0x3c197200	0.009365559
244	0x3c764813	0.015031832
245	0x3cab7a8f	0.020932464
246	0xbd5119ad	-0.051049877
247	0x3b5f9b8b	0.003411981
248	0x3d8dbfaf	0.06921326
249	0x3d540e26	0.051771306
250	0x3c9c1564	0.019053169
251	0xbda2f1fb	-0.0795631
252	0x3d404a1f	0.046945687
253	0xbd23347e	-0.039844982
254	0x3d8f44a5	0.06995515
255	0x3d29f656	0.04149469

layers.2.layers.0.bias f4 [100]
0	0xbd29c14c	-0.041444108
1	0xbd02ea91	-0.03196198
2	0xbdac6a2e	-0.0841869
3	0xbafac54e	-0.0019132288
4	0x3d657c20	0.056026578
5	0xbd76276d	-0.060096193
6	0xbbed5299	-0.0072425124
7	0x3d932dd4	0.071864754
8	0xbd81c380	-0.06336117
9	0x3cf00575	0.029299477
10	0xbcb9eefe	-0.022696968
11	0x3daa4a52	0.08314957
12	0xbbcc91d0	-0.006242968
13	0x3db19b68	0.086722195
14	0xbd0b8d18	-0.034070104
15	0xbd9f7702	-0.07786371
16	0x3b18950f	0.0023282205
17	0xbd6f138b	-0.058368247
18	0xbd5d5eee	-0.05404561
19	0x3d86b15d	0.06576798
20	0x3dbbca70	0.09169471
21	0xbd8af7d7	-0.06785553
22	0xbdcbf326	-0.09958486
23	0x3ccdd45b	0.025125673
24	0xbda94e2d	-0.08266864
25	0xbcacb142	-0.021080617
26	0x3d2e369f	0.04253256
27	0x3d266600	0.04062462
28	0x3c5b22e3	0.013375017
29	0x3d339b05	0.04384901
30	0xbd640159	-0.055665348
31	0xbcfd3972	-0.030911181
32	0xbd01ee74	-0.031721547
33	0xbdc8288f	-0.09773361
34	0xbd7081c8	-0.05871752
35	0x3c1cb906	0.009565597
36	0x3cb67a57	0.022275133
37	0xbd3a17b1	-0.04543275
38	0x3d8ea20e	0.06964503
39	0xbd609397	-0.054828253
40	0x3c4cc3a2	0.012497814
41	0x3daf3425	0.08554868
42	0x3d8d595a	0.06901808
43	0x3dd54277	0.10413068
44	0x3ce69103	0.028145319
45	0xbd8d0db2	-0.06887378
46	0xbd0fa7e1	-0.03507221
47	0xbcebe35e	-0.02879494
48	0xbd956df7	-0.07296365
49	0xbd065dfc	-0.032804474
50	0xbdc036c1	-0.093854435
51	0xbd3b5b3b	-0.0457413
52	0xbdcac4aa	-0.09900792
53	0x3dbec63f	0.09315156
54	0x3cb4dc3e	0.022077676
55	0x3dd597b1	0.104293235
56	0x3d701054	0.05860932
57	0x3dc3237e	0.09528254
58	0xbd0244a9	-0.03180376
59	0xbd3b1e9d	-0.045683492
60	0xbd38e0ff	-0.045136448
61	0xbdbc860d	-0.09205256
62	0xbbc4136b	-0.00598376
63	0x3c90540f	0.017618207
64	0x3d78bb05	0.06072523
65	0xbc5f0062	-0.013610931
66	0x3d0c6ff1	0.034286443
67	0x3d2675e9	0.04063979
68	0x3c9fd945	0.019512782
69	0x3ccb6240	0.024827123
70	0xbd144d33	-0.036206435
71	0x3d716dcf	0.058942612
72	0xbdc546a9	-0.09632618
73	0x3c3e5ba9	0.011618533
74	0x3d4a9131	0.04945487
75	0x3d951001	0.07278443
76	0x3d47986b	0.04872934
77	0xbc708d87	-0.01468218
78	0x3d8eebe7	0.069785886
79	0xbdc33338	-0.095312536
80	0xbcb79353	-0.022409117
81	0xbd180c87	-0.037121322
82	0x3d72a4cd	0.059239198
83	0x3dbf9a5a	0.09355612
84	0xbcd91a14	-0.026501693
85	0x3ca6643a	0.020311464
86	0xbc8c05e3	-0.01709265
87	0xbd04f078	-0.03245589
88	0x3d284b52	0.041087456
89	0x3cbe2156	0.023209255
90	0xbd50955f	-0.0509237
91	0x3cb3d097	0.02195005
92	0x3dca7b9b	0.09886857
93	0xbd951ff4	-0.07281485
94	0xbc8e3539	-0.017359363
95	0xbdb54da1	-0.08852697
96	0xbcc2f681	-0.023799183
97	0x3dc4d46b	0.09610828
98	0x3d782b99	0.060588453
99	0xbdc28126	-0.09497289

layers.3.weight f4 [2, 100]
0	0xbdbb4a94	-0.09145084
1	0xbab96c4b	-0.0014146654
2	0xbc5659fb	-0.013082976
3	0x3d938289	0.07202632
4	0xbd2df153	-0.042466473
5	0x3d99ad71	0.075037844
6	0xbd7be26b	-0.061495226
7	0xbccf8fb3	-0.025337076
8	0xbbe48c46	-0.0069747297
9	0xbd66e87f	-0.05637407
10	0x3a91aba2	0.0011113773
11	0xbceaea45	-0.028676162
12	0xbd4a7c61	-0.049435023
13	0xbdb5ced0	-0.08877337
14	0xba6e2dfe	-0.0009085833
15	0x3dbde8e8	0.09272939
16	0x3d1c4d8a	0.038159885
17	0xbda9f2f8	-0.08298296
18	0xbd582d97	-0.052777853
19	0x3d642264	0.05569686
20	0xbd269823	-0.040672433
21	0xbc4aff15	-0.012389918
22	0xbd4149f0	-0.047189653
23	0x3d08c1d3	0.03338797
24	0xbd8c4610	-0.06849301
25	0xbdda2c19	-0.10652942
26	0xbd974152	-0.07385506
27	0xbdbd3ac6	-0.09239726
28	0x3c1118d0	0.008856013
29	0x3c62b6df	0.013837545
30	0xbd10c06b	-0.035339754
31	0x3d07a5b0	0.033116996
32	0x3b53c8e4	0.0032315785
33	0x3cb7c327	0.022431923
34	0x3d4fdee3	0.05074967
35	0x3b317efc	0.0027083745
36	0x3dc9945c	0.098427504
37	0x3d8e7833	0.0695652
38	0xbd89cf93	-0.06729045
39	0x3d98cc60	0.074608564
40	0xbca12a75	-0.019673565
41	0xbc1e3227	-0.009655512
42	0xba11e37e	-0.000556521
43	0xbdc875d2	-0.097880974
44	0x3d7e9353	0.062152218
45	0x3d83c7f5	0.06434623
46	0x3dc004b0	0.09375894
47	0x3c556e2e	0.013026757
48	0xbce868c1	-0.028370263
49	0xbca35b6e	-0.019941058
50	0xbd0762cf	-0.033053216
51	0xbdbb9746	-0.091597125
52	0x3d011680	0.0315156
53	0x3afae9b8	0.001914314
54	0xbd4651ff	-0.04841804
55	0xbd94fd26	-0.07274847
56	0xbced929d	-0.029000575
57	0x3c12dc90	0.008963719
58	0x3d9407b7	0.07228034
59	0x3d14891d	0.036263574
60	0x3d963f6a	0.07336314
61	0x3da3d52e	0.07999645
62	0xbd4e4a57	-0.050363865
63	0xbbc958c4	-0.006144615
64	0xbdc9e0ac	-0.09857306
65	0xbd8bca2d	-0.06825671
66	0x3cead707	0.028666986
67	0x3d09014d	0.033448506
68	0x3d2f83dd	0.042850364
69	0x3da3d1db	0.07999011
70	0x3d18c95d	0.03730141
71	0xbd5b4f79	-0.053542588
72	0xbcc74eeb	-0.024329623
73	0x3b97c457	0.00463156
74	0x3d425bab	0.047450703
75	0xbd99bc6d	-0.075066425
76	0xbd4b213a	-0.049592234
77	0x3d192c9a	0.03739605
78	0x3d060462	0.032719024
79	0x3dc10fe5	0.0942686
80	0x3da42fab	0.080169044
81	0xbd442f72	-0.04789681
82	0x3cd4d2c7	0.025979413
83	0xbd92ab4f	-0.07161581
84	0xbb870c52	-0.0041213417
85	0xbbfc4272	-0.0076983506
86	0x3ca03eda	0.01956122
87	0x3da57f8d	0.08080969
88	0xbda52e0a	-0.08065422
89	0x3da6a123	0.08136203
90	0x3d8a14b2	0.067422286
91	0xbd47a01f	-0.048736688
92	0xbd246451	-0.04013473
93	0xbcf8e7f7	-0.030384047
94	0x3d7c9360	0.061663985
95	0xbcd54472	-0.026033614
96	0x3cf18266	0.029481124
97	0xbd52f3f4	-0.051502183
98	0x3d9c36a2	0.07627608
99	0xbc9ddc19	-0.01926999
100	0x3dc7af99	0.097502895
101	0xbd8d55ae	-0.06901108
102	0xbce71d60	-0.02821225
103	0x3d8b2189	0.06793506
104	0x3d453c56	0.048153244
105	0xbd4c1bb1	-0.049831096
106	0xbda2e163	-0.07953145
107	0xbd8c0b3a	-0.06838079
108	0xbda13b12	-0.07872595
109	0xbd4e4648	-0.050359994
110	0xbd6b5a91	-0.057459418
111	0xbcb20868	-0.021732524
112	0x3db5855b	0.08863326
113	0xbc86eb81	-0.016469719
114	0xbd7a1c4f	-0.061062153
115	0x3d499f36	0.0492241
116	0xbd6e6411	-0.0582009
117	0xbd32611a	-0.043549635
118	0xbc69a3fa	-0.014260286
119	0xbb1836b4	-0.0023225965
120	0xbd6eac87	-0.058270004
121	0xbd9c7a84	-0.076405555
122	0xbdc79090	-0.0974437
123	0xbce6614a	-0.028122563
124	0x3d53105a	0.051529266
125	0x3ca1efa6	0.019767594
126	0x3da405e2	0.080089346
127	0x3cc01d8b	0.023451587
128	0xbd9816c5	-0.07426218
129	0x3c35a522	0.011086734
130	0xbcb3b08c	-0.02193477
131	0x3d85064b	0.06495341
132	0x3d08a0f6	0.03335663
133	0x3dce4926	0.10072546
134	0xbdb4becf	-0.08825456
135	0xbcf66cdd	-0.030081207
136	0xbdac1471	-0.084023364
137	0x3c538100	0.012909174
138	0xbd593164	-0.05302562
139	0xbd29d540	-0.041463137
140	0x3dd5ddcb	0.10442694
141	0xbcee97a3	-0.02912504
142	0x3d70ef9e	0.058822267
143	0x3d98eede	0.07467435
144	0x3d9af59a	0.07566376
145	0x3daa5216	0.08316438
146	0x3d84df2f	0.064878814
147	0x3c77a693	0.015115398
148	0x3daeffa9	0.08544857
149	0x3dd0e71a	0.10200329
150	0xbd8cb7a9	-0.06870968
151	0x3cb4a511	0.022051366
152	0x3d91fb29	0.07127983
153	0xbd5fa5c1	-0.054601435
154	0x3d68badf	0.05681884
155	0x3d9d7503	0.07688334
156	0x3c20328f	0.009777679
157	0xbc277d1e	-0.010222701
158	0xbbadba0a	-0.0053017186
159	0x3dbb6713	0.09150519
160	0xbd9e037f	-0.077155106
161	0x3d24bacb	0.040217202
162	0xbd58e053	-0.052948307
163	0x3d9287b4	0.071547896
164	0xbcd9b05c	-0.026573353
165	0x3d067cc5	0.032833833
166	0x3d95fa25	0.07323102
167	0xbc14c1bb	-0.009079392
168	0xbc6e5332	-0.0145462025
169	0x3dc442c4	0.09583047
170	0x3dc9f069	0.09860308
171	0x3d6c658c	0.05771403
172	0x3bbfd74a	0.005854522
173	0x3afaf434	0.0019146265
174	0xbd710bbe	-0.05884909
175	0x3dbb811b	0.09155484
176	0x3d55e8e4	0.052224055
177	0x3da51fc7	0.08062702
178	0xbd83b629	-0.06431229
179	0x3ccfb1b1	0.025353285
180	0x3cb30b6f	0.021856038
181	0xbce7bec4	-0.028289206
182	0xbb064086	-0.0020485236
183	0x3cf5c4cd	0.030001068
184	0xbcdfe3ba	-0.027330268
185	0x3dc079ea	0.09398253
186	0xbdb19d10	-0.086725354
187	0xbbf6dbae	-0.007533512
188	0xbd376f36	-0.044783793
189	0x3db17f42	0.086668506
190	0xbd09f1be	-0.03367781
191	0xbcb9798a	-0.022640962
192	0x3dcb1292	0.099156514
193	0xbda1a4b5	-0.078927435
194	0xbd048e68	-0.03236237
195	0x3db0b3a5	0.086280145
196	0x3d9b862f	0.07593953
197	0xbc87e65d	-0.016589338
198	0xbc6b28cf	-0.014352991
199	0xbd360dce	-0.04444676

layers.3.bias f4 [2]
0	0xbd57e252	-0.05270607
1	0x3dd08223	0.101810716
