clients_data/clients_trained_model/client9.pth (torch, 86087 bytes, 6 tensors)

layers.1.layers.0.weight f4 [100, 105]
0.07474411 0.0808462 -0.02273038 0.08976216 -0.021410774 0.019756824 -0.04751328 0.057205494
0.08602978 -0.07154255 0.084645696 0.018381927 0.07204583 0.01340448 0.047083978 -0.013861856
0.07507397 0.01429029 -0.045543164 0.02481259 -0.044991527 -0.011475139 -0.039626002 0.064869285
-0.07704708 -0.044988886 -0.027614385 -0.058533665 0.009280356 -0.096448146 0.087639704 -0.08290178
0.07546053 0.016287703 -0.031734936 0.06021651 0.015143543 0.07897237 0.010751594 -0.030778132
0.026065206 -0.026461111 0.041059412 0.087277204 0.05635276 -0.042640142 0.056427035 0.017443633
0.04958743 -0.05934618 -0.09646999 -0.037927568 -0.0749083 0.0800227 0.028060839 0.04040663
0.030795187 -0.0016912839 0.07646273 -0.06948362 0.0062892362 -0.06660319 0.030256411 -0.033578552
0.029932331 -0.020331256 0.08105801 -0.057839427 -0.058200393 -0.058203157 0.08777663 0.032460153
0.09388646 -0.080537595 -0.09679471 -0.07634896 -0.06564581 0.039481387 0.03494959 0.08107311
-0.050395597 -0.06652689 0.051727843 -0.039444387 0.059246738 -0.023156596 0.05574672 -0.07582353
-0.049246415 0.029820777 0.020660909 -0.024879852 0.058150563 0.06629197 -0.070768304 -0.052097965
0.08932296 -0.03292925 -0.034595683 -0.09442678 -0.0558844 0.024266062 -0.012879641 -0.07083922
0.0022891387 -0.067058176 -0.082700685 -0.053758826 -0.08554829 -0.06227749 0.0975741 0.018455116
0.030116053 -0.091020666 -0.06422059 -0.032629505 0.015333627 -0.08604053 -0.041779585 -0.05841936
0.00019929469 -0.03619676 -0.0067020296 -0.06618094 -0.06705329 -0.057064414 -0.033422858 -0.07704089
0.081557535 -0.01944299 0.08382916 0.030262716 -0.08312944 0.067611426 -0.02631105 -0.037471496
-0.081133924 -0.09702891 0.027878998 -0.02127243 0.037974257 -0.079880916 0.072144374 -0.07171764
-0.016952453 0.020686314 0.050672013 0.078627236 0.08901046 -0.07744583 0.024746962 -0.042001687
-0.01070237 -0.07322629 0.08963137 -0.07203718 0.052098125 0.034186002 0.031761844 -0.052814282
0.0887703 0.021426186 0.012530473 -0.085963205 0.040821806 -0.014495162 -0.044826414 0.08363698
0.021716055 -0.053841762 -0.04940208 -0.0047158967 0.054364227 -0.02495869 -0.055759758 -0.033419
-0.07292969 0.0348376 0.075602025 -0.09190047 0.022650221 0.0503157 0.017628755 -0.034768045
0.051061522 0.0512617 0.036503114 -0.01721302 -0.025820628 0.0104669845 -0.017256137 -0.029062351
0.06209593 0.08372169 -0.009735499 -0.02186393 0.0013143132 -0.0058290553 0.023369644 0.027293999
-0.088659436 -0.036074247 0.08222311 0.037999883 -0.0048618754 -0.058862884 -0.05971404 -0.08743386
-0.031810675 0.03295655 0.06188287 0.04509915 -0.086298496 -0.0586664 -0.015399737 0.09440806
0.014048619 -0.02527663 0.040374473 -0.03708254 -0.06317876 0.07153785 -0.044430725 -0.019747691
-0.097083464 0.06517874 0.07406944 0.03573441 -0.06805826 -0.09634964 -0.079244114 0.0727818
0.04672396 0.08194097 0.05111149 0.024558377 -0.0009505788 -0.07460701 -0.08374432 -0.090782404
0.04005316 -0.047971122 -0.019658461 -0.056168064 -0.017773915 -0.06888245 -0.063775145 0.032522388
-0.028984975 0.060250394 -0.031104023 -0.071577415 -0.017121458 -0.047387645 -0.030090367 -0.09293968
00000000: 7113 993d b192 a53d 1035 babc 39d5 b73d
00000010: a665 afbc 10d9 a13c 499d 42bd 4f50 6a3d
00000020: 6230 b03d e784 92bd b95a ad3d b295 963c
00000030: c48c 933d 779e 5b3c 21db 403d d71c 63bc
00000040: 62c0 993d d221 6a3c 788b 3abd c643 cb3c
00000050: 0949 38bd 3902 3cbc e04e 22bd 30da 843d
00000060: dcca 9dbd 4446 38bd 9037 e2bc ffc0 6fbd
00000070: a20c 183c 9b86 c5bd 727c b33d 69c8 a9bd
00000080: 0d8b 9a3d ca6d 853c 7efc 01bd 96a5 763d
00000090: 9f1c 783c 44bc a13d 7427 303c 6c22 fcbc
000000a0: b386 d53c f9c4 d8bc ea2d 283d 64be b23d
000000b0: 27d2 663d 6ea7 2ebd 0920 673d f3e5 8e3c
000000c0: 301c 4b3d fb14 73bd 0f92 c5bd f059 1bbd
000000d0: 8669 99bd f1e2 a33d d8df e53c 6c81 253d
000000e0: 3046 fc3c 12ae ddba 7e98 9c3d 6e4d 8ebd
000000f0: f015 ce3b 4167 88bd 4bdc f73c aa89 09bd
00000100: a634 f53c bc8d a6bc be01 a63d 09e9 6cbd
00000110: 8963 6ebd 6f66 6ebd 3cc4 b33d f0f4 043d
00000120: 8b47 c03d e5f0 a4bd 4e3c c6bd d85c 9cbd
00000130: 4f71 86bd 3cb7 213d 4d27 0f3d a909 a63d
00000140: 9d6b 4ebd 403f 88bd 93e0 533d 7090 21bd
00000150: b5ac 723d e7b2 bdbc ac56 643d 5e49 9bbd
00000160: 9cb6 49bd b44a f43c 1141 a93c d5d0 cbbc
00000170: 492f 6e3d 16c4 873d f9ee 90bd ad64 55bd
00000180: f5ee b63d d2e0 06bd 34b4 0dbd d462 c1bd
00000190: 0ae7 64bd 9fc9 c63c 2105 53bc 2714 91bd
000001a0: 6005 163b cc55 89bd fa5e a9bd 3732 5cbd
000001b0: f133 afbd ae16 7fbd eed4 c73d 2f2f 973c
000001c0: f1b5 f63c 0b69 babd 1686 83bd 84a6 05bd
000001d0: e539 7b3c 0436 b0bd 1221 2bbd 2449 6fbd
000001e0: c3f9 5039 0e43 14bd b39c dbbb df89 87bd
000001f0: 3c53 89bd 60bc 69bd 68e6 08bd 9dc7 9dbd
00000200: a307 a73d e846 9fbc 9fae ab3d 84e9 f73c
00000210: c53f aabd dc77 8a3d 458a d7bc b67b 19bd
00000220: 8b29 a6bd 18b7 c6bd 7f62 e43c 8543 aebc
00000230: e58a 1b3d 9b98 a3bd 6ec0 933d b3e0 92bd
00000240: dfdf 8abc 5876 a93c 758d 4f3d 5107 a13d
00000250: 1e4b b63d eb9b 9ebd 24ba ca3c f609 2cbd
00000260: fe58 2fbc aaf7 95bd a790 b73d 3b88 93bd
00000270: d864 553d 9f06 0c3d b518 023d ca53 58bd
00000280: 34cd b53d f885 af3c 9d4c 4d3c 7a0d b0bd
00000290: c434 273d 1e7d 6dbc e79b 37bd dd49 ab3d
000002a0: dee5 b13c 2e89 5cbd d659 4abd cf87 9abb
000002b0: 06ad 5e3d 2b76 ccbc 5864 64bd 5de2 08bd
000002c0: 295c 95bd dfb1 0e3d 3cd5 9a3d 5036 bcbd
000002d0: f58c b93c d617 4e3d 2e6a 903c f068 0ebd
000002e0: e325 513d caf7 513d 4a84 153d 5202 8dbc
000002f0: c885 d3bc b77d 2b3c be5c 8dbc 2b14 eebc
00000300: 4d58 7e3d 4776 ab3d a481 1fbc fc1b b3bc
00000310: 0845 ac3a a901 bfbb b271 bf3c aa97 df3c
00000320: 1493 b5bd 97c2 13bd 9764 a83d c4a5 1b3d
00000330: 5e50 9fbb 351a 71bd b696 74bd 8610 b3bd
00000340: e94b 02bd 73fd 063d e478 7d3d e3b9 383d
00000350: 44bd b0bd 2e4c 70bd 2e4f 7cbc 0359 c13d
00000360: 2e2c 663c ef10 cfbc b45f 253d dde3 17bd
00000370: de63 81bd 7082 923d fefc 35bd e9c5 a1bc
00000380: b2d3 c6bd 6e7c 853d b8b1 973d 3f5e 123d
00000390: 2162 8bbd f652 c5bd bd4a a2bd a00e 953d
000003a0: a061 3f3d abd0 a73d 485a 513d a62e c93c
000003b0: 4330 79ba 8fcb 98bd 2482 abbd 20ec b9bd
000003c0: c80e 243d 5e7d 44bd c80a a1bc 7c10 66bd
000003d0: 9a9a 91bc 3e12 8dbd 8b9c 82bd 3236 053d
000003e0: e671 edbc 1ec9 763d ddcd febc 2e97 92bd
000003f0: 4d42 8cbc 8c19 42bd 1380 f6bc 2957 bebd

layers.1.layers.0.bias f4 [100]
0.06417877 0.043119814 -0.0043916022 0.05455621 -0.0046605915 -0.01578308 -0.037579153 -0.081870586
0.08117303 -0.06112566 -0.09159864 -0.044600233 0.01895991 -0.009058059 0.043350916 0.057463914
0.056823228 -0.08184902 0.04033413 0.048852757 -0.055132404 0.00027198019 0.014823395 0.014104428
0.053457 0.08195438 0.09371383 0.022920683 0.056913853 0.04144757 -0.051509436 0.06542387
-0.007432317 0.04200386 -0.06494362 0.07901366 0.021541528 0.022450048 -0.0868385 -0.008731907
-0.033479206 0.0911241 -0.08922168 -0.023352543 -0.04901603 -0.07188314 0.03701873 -0.066090025
0.045503635 0.011937797 -0.04985864 -0.010729501 0.009821302 -0.0426071 -0.06274247 -0.05489977
0.024278315 -0.08577599 0.061990768 0.06522113 0.09113152 0.08478618 -0.05542068 -0.042518806
0.071359836 -0.014294277 -0.07160171 -0.045241535 0.068279125 -0.05524683 0.03434365 -0.08114022
0.06326853 0.02623924 0.068748266 0.0038263423 0.050094742 0.08075094 -0.012334887 -0.073737435
-0.06806462 0.057984836 -0.06259086 -0.086579554 -0.08317784 -0.043314546 0.018278651 -0.087945394
-0.045452435 0.09343114 -0.015701776 -0.032404322 0.047195714 -0.07998469 -0.07566197 0.016001951
0.031366773 -0.09582216 0.08675399 -0.03821091
00000000: 2970 833d 679e 303d 6ee7 8fbb 5576 5f3d
00000010: e0b7 98bb 854b 81bc 99ec 19bd c4ab a7bd
00000020: 0c3e a63d e65e 7abd 1198 bbbd bcae 36bd
00000030: d051 9b3c 4168 14bc bb90 313d 485f 6b3d
00000040: 79bf 683d 76a0 a7bd 6735 253d d419 483d
00000050: 84d2 61bd 9098 8e39 d3dd 723c 4216 673c
00000060: baf5 5a3d b3d7 a73d 09ed bf3d 28c4 bb3c
00000070: 801e 693d edc4 293d 8ffb 52bd f3fc 853d
00000080: cb8a f3bb 3d0c 2c3d 2901 85bd ead1 a13d
00000090: dc77 b03c 2ae9 b73c 62d8 b1bd 4610 0fbc
000000a0: 7e21 09bd 469f ba3d dbb9 b6bd d54d bfbc
000000b0: 08c5 48bd 7837 93bd f4a0 173d 355a 87bd
000000c0: 0562 3a3d c096 433c 9338 4cbd caca 2fbc
000000d0: 87e9 203c c884 2ebd 207f 80bd 95de 60bd
000000e0: 51e3 c63c 52ab afbd 08ea 7d3d a892 853d
000000f0: 2aa3 ba3d 60a4 ad3d cc00 63bd 3328 2ebd
00000100: 1b25 923d 8b32 6abc eba3 92bd 304f 39bd
00000110: edd5 8b3d 804a 62bd edab 0c3d d82c a6bd
00000120: ee92 813d adf3 d63c e4cb 8c3d 5fc3 7a3b
00000130: 2530 4d3d c060 a53d 4418 4abc a703 97bd
00000140: 7765 8bbd 8281 6d3d a32f 80bd 9f50 b1bd
00000150: 2559 aabd 986a 31bd 1cbd 953c b71c b4bd
00000160: 552c 3abd d358 bf3d 03a1 80bc 65ba 04bd
00000170: 4b50 413d 03cf a3bd aaf4 9abd 8616 833c
00000180: 727a 003d 693e c4bd 13ac b13d 0b83 1cbd

layers.2.layers.0.weight f4 [100, 100]
0.016259694 0.07293706 0.03861871 0.031681474 -0.09076105 -0.09270503 0.037761267 0.004099112
0.062031068 0.050986547 -0.07954463 0.018871816 -0.077620395 -0.054715604 0.028361138 -0.004575132
-0.06308157 0.03478928 0.069897026 -0.09758668 0.09449191 0.055758055 -0.007976521 -0.09674956
-0.0417773 0.031328015 -0.042089775 -0.032766502 -0.04067254 0.086689025 0.085879005 -0.07731537
-0.030773217 0.091554195 -0.0053858687 -0.048638973 0.012791301 0.07953295 -0.0123527 -0.09376183
-0.032772515 0.050941147 -0.013284614 0.07185026 0.03548755 0.0018139876 0.038708422 -0.012258836
-0.08527807 -0.08538166 -0.077894256 -0.015463941 -0.07176548 0.015116075 0.012452028 0.07684139
0.006487041 0.017556844 0.036001526 -0.0275255 -0.04917261 -0.093245976 -0.097177714 0.0072671035
-0.047075834 0.028841175 0.025790688 0.07853532 -0.011029439 0.0003100664 0.07005502 0.01746297
0.046919312 -0.053117584 -0.07098784 0.07710555 0.073008515 -0.037040118 0.01724249 -0.08861371
0.007671403 -0.09231628 0.057405002 -0.09855947 -0.023602821 0.09486103 -0.033464767 -0.05793447
0.090743266 -0.04885348 0.022875985 0.05682349 0.028241092 -0.06879587 0.09149639 0.048689898
-0.06229913 -0.056700766 -0.02235093 0.0341043 0.036946144 0.011751612 0.065353364 0.09887883
0.020201925 0.038305953 0.056312386 0.01913929 0.0056033125 0.08920119 0.06811824 0.06483199
-0.039716553 -0.048199136 -0.054850508 -0.08441766 -0.01125259 0.055525612 0.01406317 -0.036190983
-0.0142086465 -0.07709379 -0.0648479 0.008708976 -0.05846161 0.011710646 0.081774235 0.025214534
0.07579253 -0.06367427 0.0018622564 -0.0988844 0.0004831236 -0.074215 0.09314203 -0.08579793
0.033123195 -0.06015121 0.027092703 -0.0011367449 -0.013315698 -0.04024319 0.0630089 -0.018786717
0.007830091 -0.030512128 -0.073394164 -0.04250302 0.08896496 0.09430216 -0.046864755 0.009470528
0.015153022 0.08767749 0.013336248 0.0043231207 -0.029727492 0.02058217 -0.09981648 -0.10027931
-0.012297562 -0.07039418 -0.06995234 -0.017436033 0.055293716 0.04866896 -0.03582729 -0.007367509
0.09169525 0.021107843 0.06743121 -0.041744106 -0.09029673 -0.047192298 0.007922376 -0.024806842
-0.05549301 0.09523181 -0.09278012 0.0020799302 0.039210305 -0.02762011 0.04277811 -0.0001266819
-0.059956677 -0.055077583 -0.045332387 -0.097756766 0.06182365 0.09016726 -0.05200608 0.004150793
0.032353494 0.027873527 -0.05602517 -0.06148101 0.09663672 0.057832945 0.09217783 0.06958173
-0.007527307 0.07024363 -0.0032461693 -0.0006582162 -0.043348923 0.07790633 -0.021287937 0.014464201
-0.07974802 0.03422178 -0.04761011 -0.022625536 -0.009010919 0.037022237 0.004014073 0.017338686
-0.06501202 -0.0756037 0.035980284 -0.041251786 -0.086243644 -0.041278183 -0.098142885 0.019928534
0.0073773977 0.09228713 -0.055159297 -0.05172521 0.02383026 -0.026329327 0.077833205 0.015124332
-0.0021611056 -0.03842404 0.060365394 -0.04684141 0.04009682 0.06423619 -0.07847873 -0.08864251
-0.056415867 0.04787239 -0.05529016 0.009318548 0.015031815 0.020945244 -0.05103092 0.0033713658
0.069212146 0.05174687 0.019045372 -0.07956553 0.04690108 -0.039843515 0.069914766 0.041489024
00000000: 0d33 853c 0660 953d a72e 1e3d 6fc4 013d
00000010: eee0 b9bd 23dc bdbd 8fab 1a3d d851 863b
00000020: 4a14 7e3d 45d7 503d 4ce8 a2bd 1199 9a3c
00000030: 71f7 9ebd 781d 60bd 9e55 e83c fdea 95bb
00000040: e930 81bd 347f 0e3d 2c26 8f3d 86db c7bd
00000050: f984 c13d 8f62 643d f4af 02bc a224 c6bd
00000060: ad1e 2bbd ce51 003d 5466 2cbd 2b36 06bd
00000070: 4098 26bd 048a b13d 55e1 af3d 8557 9ebd
00000080: 1d18 fcbc c480 bb3d f17b b0bb a939 47bd
00000090: 9b92 513c 2ce2 a23d fb62 4abc 3406 c0bd
000000a0: 793c 06bd aaa7 503d b6a7 59bc 3b26 933d
000000b0: 655b 113d 53c3 ed3a b98c 1e3d 49d9 48bc
000000c0: 45a6 aebd 94dc aebd 0687 9fbd 785c 7dbc
000000d0: c8f9 92bd 6aa9 773c 9703 4c3c 055f 9d3d
000000e0: 3e91 d43b 5fd3 8f3c 5676 133d 287d e1bc
000000f0: 3869 49bd bff7 bebd 1c05 c7bd e220 ee3b
00000100: 97d2 40bd 5444 ec3c fe46 d33c 20d7 a03d
00000110: d2b4 34bc 6890 a239 0279 8f3d 810e 8f3c
00000120: 772e 403d d391 59bd 1362 91bd 84e9 9d3d
00000130: 7d85 953d 61b7 17bd 1f40 8d3c 1b7b b5bd
00000140: 6460 fb3b 5110 bdbd 8221 6b3d 8cd9 c9bd
00000150: b45a c1bc 8046 c23d 5a12 09bd b24c 6dbd
00000160: 9bd7 b93d 961a 48bd 6b66 bb3c bfbf 683d
00000170: dd59 e73c d9e4 8cbd 7662 bb3d 0f6f 473d
00000180: 5f2d 7fbd 103f 68bd 4c19 b7bc f3b0 0b3d
00000190: d754 173d d589 403c fcd7 853d fc80 ca3d
000001a0: 827e a53c b4e6 1c3d d1a7 663d 00ca 9c3c
000001b0: fe9b b73b 1daf b63d 9381 8b3d a2c6 843d
000001c0: d3ad 22bd 756c 45bd edaa 60bd 2be3 acbd
000001d0: c95c 38bc d36e 633d 3669 663c ff3c 14bd
000001e0: 62cb 68bc 59e3 9dbd face 84bd 18b0 0e3c
000001f0: 7175 6fbd 02de 3f3c 4079 a73d b68e ce3c
00000200: 1d39 9b3d a867 82bd f516 f43a e883 cabd
00000210: c04b fd39 09fe 97bd 40c1 be3d d3b6 afbd
00000220: 30ac 073d 1d61 76bd 84f1 dd3c d4fe 94ba
00000230: 162a 5abc 0bd6 24bd cf0a 813d 9ae6 99bc
00000240: c849 003c 92f4 f9bc ae4f 96bd a617 2ebd
00000250: 4333 b63d 7e21 c13d 42f5 3fbd 462a 1b3c
00000260: 6144 783c 4290 b33d 4780 5a3c f7a8 8d3b
00000270: 1287 f3bc f09b a83c 956c ccbd 3d5f cdbd
00000280: b77b 49bc d32a 90bd 2c43 8fbd 03d6 8ebc
00000290: aa7b 623d 1a59 473d a3bf 12bd 256b f1bb
000002a0: b8ca bb3d 5bea ac3c 6019 8a3d defb 2abd
000002b0: 7eed b8bd b64c 41bd dacc 013c b837 cbbc
000002c0: a34c 63bd e508 c33d 8103 bebd 704f 083b
000002d0: fc9a 203d 9243 e2bc 1938 2f3d ead5 04b9
000002e0: 2295 75bd 0899 61bd 74ae 39bd b334 c8bd
000002f0: cc3a 7d3d 9da9 b83d 5404 55bd 6003 883b
00000300: 1985 043d 0657 e43c a67a 65bd 83d3 7bbd
00000310: 79e9 c53d 3de2 6c3d bbc7 bc3d de80 8e3d
00000320: a1a7 f6bb e4db 8f3d afbd 54bb 248c 2cba
00000330: a48e 31bd 5b8d 9f3d 0a64 aebc 42fb 6c3c
00000340: ee52 a3bd 232c 0c3d d202 43bd 3059 b9bc
00000350: 89a2 13bc a1a4 173d 7c88 833b dc09 8e3c
00000360: 0625 85bd 1dd6 9abd 1060 133d a2f7 28bd
00000370: 82a0 b0bd 5013 29bd 23ff c8bd 2a41 a33c
00000380: 19be f13b 0901 bd3d b7ee 61bd d0dd 53bd
00000390: ad37 c33c 9ab0 d7bc 0467 9f3d 0ccc 773c
000003a0: 56a1 0dbb 8762 1dbd b441 773d c7dc 3fbd
000003b0: 903c 243d 438e 833d 75b9 a0bd 348a b5bd
000003c0: 5314 67bd d715 443d ef77 62bd d3ac 183c
000003d0: 0048 763c 5c95 ab3c cc05 51bd 22f2 5c3b
000003e0: 19bf 8d3d 87f4 533d 0a05 9c3c 41f3 a2bd
000003f0: 591b 403d f432 23bd 792f 8f3d 65f0 293d

layers.2.layers.0.bias f4 [100]
-0.04165264 -0.032021906 -0.08421474 -0.0018801762 0.05605407 -0.059944127 -0.0072044395 0.07190743
-0.06349428 0.029261677 -0.022777393 0.08315106 -0.005905683 0.08670632 -0.03376472 -0.07779854
0.0022835513 -0.058328316 -0.054017425 0.06571421 0.09168748 -0.06806292 -0.09963129 0.025028296
-0.08263872 -0.021154152 0.0421988 0.04042558 0.013095846 0.043857254 -0.055735275 -0.03087805
-0.03183014 -0.09774066 -0.05817822 0.009517966 0.022649892 -0.04555305 0.06962222 -0.055006243
0.012403995 0.08552643 0.06911911 0.104024224 0.028129837 -0.06883522 -0.035094794 -0.028808737
-0.07247903 -0.032770492 -0.09385492 -0.045525856 -0.098915495 0.093047164 0.021992972 0.10435164
0.058810145 0.095253535 -0.03188664 -0.045857288 -0.04517415 -0.09198554 -0.005987164 0.017621696
0.06080099 -0.013582979 0.03432432 0.040680442 0.019536423 0.024842674 -0.035977636 0.05904857
-0.096374206 0.011630946 0.048918057 0.07283253 0.04893149 -0.014554849 0.06975481 -0.09542463
-0.022479322 -0.037081897 0.059146546 0.093466386 -0.026484821 0.020466352 -0.017136415 -0.03267237
0.041161176 0.023250548 -0.05118291 0.021930063 0.09844167 -0.0728127 -0.017333942 -0.08854664
-0.023946833 0.09620594 0.060439985 -0.09502139
00000000: f59b 2abd 6729 03bd c778 acbd 3f70 f6ba
00000010: f498 653d f987 75bd 3813 ecbb 3444 933d
00000020: 4a09 82bd 2fb6 ef3c a897 babc 1a4b aa3d
00000030: 7684 c1bb 1593 b13d e04c 0abd d754 9fbd
00000040: a2a7 153b ace9 6ebd 6041 5dbd 2c95 863d
00000050: a5c6 bb3d 9264 8bbd 7d0b ccbd 2408 cd3c
00000060: 7d3e a9bd 794b adbc a6d8 2c3d 4b95 253d
00000070: f68f 563c aaa3 333d ac4a 64bd f7f3 fcbc
00000080: 5260 02bd 412c c8bd 494c 6ebd 3ef1 1b3c
00000090: 448c b93c d695 3abd 1896 8e3d 3a4e 61bd
000000a0: 203a 4b3c 7b28 af3d 528e 8d3d a70a d53d
000000b0: 8b70 e63c 7bf9 8cbd 8fbf 0fbd 4d00 ecbc
000000c0: e36f 94bd 5a3a 06bd 0237 c0bd 5279 3abd
000000d0: 3594 cabd 838f be3d 9b2a b43c 50b6 d53d
000000e0: e8e2 703d 4914 c33d 919b 02bd dad4 3bbd
000000f0: 8808 39bd ea62 bcbd f92f c4bb 605b 903c
00000100: 750a 793d 258b 5ebc a897 0c3d 89a0 263d
00000110: d90a a03c dd82 cb3c 495d 13bd eadc 713d
00000120: d75f c5bd b98f 3e3c 4d5e 483d 3929 953d
00000130: 636c 483d 7677 6ebc 9cdb 8e3d fd6d c3bd
00000140: 8e26 b8bc 30e3 17bd a643 723d 4e6b bf3d
00000150: b2f6 d8bc 0da9 a73c ab61 8cbc 77d3 05bd
00000160: 9f98 283d ef77 be3c 2ca5 51bd ada6 b33c
00000170: c99b c93d d31e 95bd e9ff 8dbc f157 b5bd
00000180: 262c c4bc 9f07 c53d eb8f 773d 939a c2bd

layers.3.weight f4 [2, 100]
-0.091687106 -0.0011822663 -0.01325968 0.07138901 -0.042462144 0.07522418 -0.060995303 -0.024761343
-0.007204079 -0.055521872 0.0007484267 -0.02866924 -0.049848236 -0.08860457 -0.0004262813 0.09334292
0.03825951 -0.08301549 -0.052375905 0.054776922 -0.04067919 -0.012737927 -0.04727028 0.03330744
-0.06848391 -0.10619997 -0.073756315 -0.0920882 0.008520795 0.014102225 -0.03391751 0.032778904
0.0038242675 0.021498315 0.050792962 0.0025015483 0.09973099 0.069181144 -0.06675885 0.074572265
-0.020471381 -0.008774724 -0.00080152 -0.09831702 0.062102996 0.06432324 0.093400136 0.013341029
-0.028647808 -0.020076822 -0.03305775 -0.09167949 0.031124637 0.0022013392 -0.048862517 -0.07334759
-0.029544698 0.008249494 0.07162542 0.036463488 0.07354263 0.08009906 -0.05083625 -0.0063774134
-0.09915133 -0.06879731 0.028315568 0.033115715 0.042911936 0.079722784 0.036746603 -0.05396565
-0.024185235 0.0044379043 0.046974164 -0.07482089 -0.050265163 0.037110627 0.032930758 0.094142444
0.080042146 -0.04841098 0.024844505 -0.07127807 -0.0043270933 -0.007888785 0.019980237 0.080618516
-0.08098391 0.08057894 0.06647123 -0.048461393 -0.039035574 -0.030292926 0.061495326 -0.02583327
0.029887464 -0.051834103 0.07590082 -0.018506708 0.09773916 -0.06924346 -0.028035546 0.068572365
0.04814891 -0.05001749 -0.08003139 -0.06895653 -0.07849658 -0.05121219 -0.05709647 -0.021739446
0.08904648 -0.016638545 -0.06154445 0.048610553 -0.058300525 -0.043517083 -0.014662232 -0.0014026491
-0.058263246 -0.076057486 -0.0973631 -0.028042043 0.051520146 0.01943813 0.0799906 0.023142528
-0.07392694 0.010822054 -0.023357026 0.06529147 0.03276394 0.101659074 -0.08829785 -0.029874379
-0.08532685 0.013293208 -0.05355724 -0.04142682 0.10522479 -0.030005815 0.05906726 0.0751104
0.075712994 0.08318737 0.065237634 0.014801127 0.08572606 0.10213906 -0.0687052 0.022133706
0.07167081 -0.054888453 0.057263315 0.07748246 0.010321793 -0.009508475 -0.0046467925 0.09130525
-0.0773346 0.040114585 -0.05247592 0.07178069 -0.025995066 0.03337444 0.07358244 -0.008746599
-0.014607769 0.0960978 0.09915786 0.058137093 0.0057101226 0.0021082836 -0.058372553 0.091309324
0.052896984 0.08091243 -0.064524025 0.025479423 0.021982946 -0.027775044 -0.0009136136 0.029663343
-0.027124519 0.09417293 -0.08714436 -0.0073423344 -0.044454105 0.08745159 -0.032726772 -0.02291626
0.09805737 -0.07901856 -0.03219371 0.08607977 0.07553322 -0.016257418 -0.013977698 -0.045210045
00000000: 73c6 bbbd 46f6 9aba 213f 59bc 6734 923d
00000010: c9ec 2dbd 230f 9a3d 36d6 79bd 4dd8 cabc
00000020: 3210 ecbb e76a 63bd 1132 443a c1db eabc
00000030: aa2d 4cbd 5076 b5bd 827e dfb9 932a bf3d
00000040: 01b6 1c3d 0604 aabd 1e88 56bd c45d 603d
00000050: 399f 26bd bdb2 50bc 7b9e 41bd 626d 083d
00000060: 4b41 8cbd 5f7f d9bd 8d0d 97bd bd98 bcbd
00000070: ce9a 0b3c 050d 673c 16ed 0abd 2c43 063d
00000080: 90a0 7a3b 3c1d b03c 480c 503d 04f1 233b
00000090: c33f cc3d d8ae 8d3d ddb8 88bd 58b9 983d
000000a0: 99b3 a7bc dcc3 0fbc 191d 52ba 6f5a c9bd
000000b0: b65f 7e3d e7bb 833d 9248 bf3d 5594 5a3c
000000c0: cfae eabc 2678 a4bc 9067 07bd 75c2 bbbd
000000d0: 18f9 fe3c 5844 103b 1024 48bd 4337 96bd
000000e0: b907 f2bc e328 073c 59b0 923d bd5a 153d
000000f0: 859d 963d fa0a a43d ac39 50bd 9ff9 d0bb
00000100: da0f cbbd 9be5 8cbd 0df6 e73c 58a4 073d
00000110: 6dc4 2f3d b345 a33d 9b83 163d 160b 5dbd
00000120: 1d20 c6bc d76b 913b fb67 403d b23b 99bd
00000130: d8e2 4dbd 5001 183d 67e2 063d c1cd c03d
00000140: 23ed a33d 974a 46bd b486 cb3c 3dfa 91bd
00000150: 4aca 8dbb f63f 01bc 98ad a33c 521b a53d
00000160: e4da a5bd 9206 a53d 1122 883d 747f 46bd
00000170: c4e3 1fbd df28 f8bc 86e2 7b3d 4ba0 d3bc
00000180: 8ed6 f43c ff4f 54bd e471 9b3d 619b 97bc
00000190: 782b c83d 84cf 8dbd cdaa e5bc ab6f 8c3d
000001a0: cb37 453d 24df 4cbd 7fe7 a3bd 1539 8dbd
000001b0: d1c2 a0bd e0c3 51bd fddd 69bd ec16 b2bc
000001c0: 005e b63d 8f4d 88bc 0916 7cbd dc1b 473d
000001d0: 88cc 6ebd f83e 32bd dc39 70bc 18d9 b7ba
000001e0: 71a5 6ebd 07c4 9bbd 4e66 c7bd 6db8 e5bc
000001f0: ca06 533d b73c 9f3c 1dd2 a33d 6695 bd3c
00000200: 0267 97bd fc4e 313c 3c57 bfbc 89b7 853d
00000210: 7b33 063d a232 d03d 81d5 b4bd 1dbb f4bc
00000220: d8bf aebd c1cb 593c d65e 5bbd 2baf 29bd
00000230: 1880 d73d c1ce f5bc 83f0 713d 7bd3 993d
00000240: 6a0f 9b3d 245e aa3d 4f9b 853d 6d80 723c
00000250: 2591 af3d 492e d13d 50b5 8cbd bf51 b53c
00000260: 25c8 923d b7d2 60bd f08c 6a3d 20af 9e3d
00000270: bd1c 293c 6fc9 1bbc 1f44 98bb 3ffe ba3d
00000280: 9a61 9ebd 314f 243d fef0 56bd c101 933d
00000290: 9bf3 d4bc a3b3 083d 64b2 963d e54d 0fbc
000002a0: 6d55 6fbc ecce c43d 4713 cb3d 2921 6e3d
000002b0: fb1b bb3b 212b 0a3b 0f18 6fbd 6200 bb3d
000002c0: 82aa 583d 6bb5 a53d 2c25 84bd 39ba d03c
000002d0: 9415 b43c 7d88 e3bc 927f 6fba 8a00 f33c
000002e0: 3d34 debc bddd c03d be78 b2bd f797 f0bb
000002f0: 8215 36bd d219 b33d 820c 06bd e1ba bbbc
00000300: 4dd2 c83d 7cd4 a1bd 8ddd 03bd 974a b03d
00000310: 29b1 9a3d 472e 85bc b702 65bc 2b2e 39bd

layers.3.bias f4 [2]
-0.053442072 0.102546714
00000000: 13e6 5abd 0304 d23d
