clients_data/clients_trained_model/client0.pth (torch, 86081 bytes, 6 tensors)

layers.1.layers.0.weight f4 [100, 105]
0.0742216 0.08054384 -0.021920487 0.089214146 -0.021414943 0.019860413 -0.04755263 0.057309605
0.08602978 -0.071680225 0.08462827 0.01748262 0.072065815 0.013490106 0.048983455 -0.013815858
0.07519185 0.014401057 -0.045583002 0.024854174 -0.04477573 -0.011456153 -0.039664824 0.06471756
-0.077053174 -0.044996638 -0.02707097 -0.05920158 0.0093671065 -0.09639224 0.08931939 -0.08293133
0.07532215 0.016237529 -0.031722974 0.059936166 0.015282241 0.07883813 0.010444105 -0.029881041
0.026183495 -0.026511576 0.040860467 0.08709789 0.056369923 -0.042676955 0.056306213 0.017461412
0.049517576 -0.059556913 -0.097116396 -0.037365485 -0.07488709 0.080523156 0.028181968 0.040391754
0.03084601 -0.0017136178 0.07631666 -0.0694784 0.0062840097 -0.06655326 0.030296795 -0.03336426
0.029958218 -0.020335363 0.08093097 -0.057853285 -0.0582106 -0.05821701 0.08777663 0.032510478
0.093896665 -0.080543384 -0.09680294 -0.076360844 -0.06565584 0.039521236 0.034944624 0.081074685
-0.05040537 -0.06653489 0.051773388 -0.039452955 0.05920292 -0.023166293 0.055821273 -0.07583006
-0.04925689 0.029748209 0.020626577 -0.024888052 0.05816379 0.06633684 -0.07077301 -0.05210958
0.089352824 -0.032936674 -0.034600567 -0.094434194 -0.055896837 0.024375023 -0.012887842 -0.07084256
0.0022858267 -0.066746294 -0.08297491 -0.05357628 -0.085481174 -0.06220108 0.09786138 0.018355703
0.030067034 -0.091020666 -0.06435877 -0.032634333 0.015042418 -0.08593699 -0.04188225 -0.058473177
0.00020029549 -0.03603199 -0.006807316 -0.06617554 -0.06702576 -0.056587588 -0.033426594 -0.077078655
0.08178683 -0.019403223 0.08395356 0.03049351 -0.08295173 0.06739271 -0.026563292 -0.03694332
-0.08106668 -0.09705801 0.027915265 -0.021384351 0.037960324 -0.079966374 0.07233325 -0.071836546
-0.016697448 0.02031284 0.051011164 0.07860967 0.08883869 -0.07746257 0.024535043 -0.04203102
-0.010694382 -0.073124826 0.089448735 -0.07190318 0.05225325 0.034233835 0.031475384 -0.05262338
0.0886452 0.02141149 0.01252378 -0.08611171 0.040807415 -0.014480766 -0.04472813 0.084203236
0.02215075 -0.053889956 -0.049400378 -0.0046782508 0.054468695 -0.02495293 -0.055703253 -0.033419
-0.072928816 0.034785997 0.07552972 -0.09188606 0.022646496 0.05039882 0.01768338 -0.034754205
0.05090748 0.051270787 0.036479007 -0.017159525 -0.025854511 0.010389528 -0.017255059 -0.0290908
0.062369335 0.08385342 -0.009670031 -0.021858972 0.0014115042 -0.005839485 0.023450866 0.027341727
-0.08865457 -0.03602695 0.08217086 0.038010396 -0.004866448 -0.058856428 -0.05971234 -0.087430455
-0.031816952 0.032950275 0.0625079 0.045030247 -0.08634023 -0.059108447 -0.015487627 0.09503158
0.014010166 -0.02528172 0.040374473 -0.037376832 -0.06337642 0.07147491 -0.044465728 -0.019707754
-0.09715151 0.06521616 0.07383465 0.03550403 -0.06811073 -0.09637196 -0.07856609 0.072742485
0.0467799 0.08206737 0.051075432 0.024681736 -0.0007312927 -0.074229725 -0.08380762 -0.09143303
0.040860098 -0.047997456 -0.019693123 -0.056172315 -0.01787593 -0.06868434 -0.06393003 0.032203536
-0.028809095 0.060656954 -0.031406526 -0.0713605 -0.017410133 -0.0473928 -0.029970359 -0.09294041
00000000: 7f01 983d 2bf4 a43d 9892 b3bc e8b5 b63d
00000010: 646e afbc 4eb2 a23c 8cc6 42bd 7abd 6a3d
00000020: 6230 b03d 15cd 92bd 9651 ad3d b637 8f3c
00000030: 3e97 933d 9b05 5d3c e0a2 483d e95b 62bc
00000040: 2ffe 993d 69f2 6b3c 3eb5 3abd fb9a cb3c
00000050: c266 37bd 97b2 3bbc 9577 22bd a48a 843d
00000060: 0ece 9dbd 654e 38bd f0c3 ddbc 5b7d 72bd
00000070: 7e78 193c 4b69 c5bd 16ed b63d e7d7 a9bd
00000080: 8042 9a3d 9104 853c f3ef 01bd a07f 753d
00000090: 5d62 7a3c e375 a13d c01d 2b3c 16c9 f4bc
000000a0: c57e d63c ce2e d9bc 4e5d 273d 6160 b23d
000000b0: 26e4 663d 08ce 2ebd 58a1 663d 3c0b 8f3c
000000c0: f1d2 4a3d f3f1 73bd f6e4 c6bd 8d0c 19bd
000000d0: 675e 99bd 53e9 a43d dfdd e63c d371 253d
000000e0: c6b0 fc3c 799b e0ba e94b 9c3d b14a 8ebd
000000f0: 18ea cd3b 134d 88bd fc30 f83c f6a8 08bd
00000100: f06a f53c 5996 a6bc 23bf a53d 91f7 6cbd
00000110: 3d6e 6ebd f674 6ebd 3cc4 b33d b529 053d
00000120: e54c c03d eef3 a4bd 9f40 c6bd 1363 9cbd
00000130: 9276 86bd 05e1 213d 1822 0f3d 7c0a a63d
00000140: dc75 4ebd 7243 88bd 5510 543d 6c99 21bd
00000150: c37e 723d 3dc7 bdbc d9a4 643d ca4c 9bbd
00000160: 98c1 49bd 84b2 f33c 11f9 a83c 07e2 cbbc
00000170: 273d 6e3d 9cdb 873d 71f1 90bd db70 55bd
00000180: 9dfe b63d 9be8 06bd 53b9 0dbd b766 c1bd
00000190: 15f4 64bd 21ae c73c 8727 53bc e715 91bd
000001a0: cfcd 153b 48b2 88bd c0ee a9bd cd72 5bbd
000001b0: c110 afbd 8fc6 7ebd 8c6b c83d b35e 963c
000001c0: 244f f63c 0b69 babd 88ce 83bd 94ab 05bd
000001d0: 7974 763c bcff afbd b98c 2bbd 9281 6fbd
000001e0: 6906 5239 4896 13bd e80f dfbb 0b87 87bd
000001f0: cd44 89bd 63c8 67bd 53ea 08bd 6adb 9dbd
00000200: db7f a73d 82f3 9ebc d8ef ab3d 87cd f93c
00000210: 99e2 a9bd 3005 8a3d 439b d9bc e151 17bd
00000220: 4a06 a6bd 5ac6 c6bd 8eae e43c 3c2e afbc
00000230: 497c 1b3d 69c5 a3bd 7423 943d 0a1f 93bd
00000240: 16c9 88bc 1d67 a63c 15f1 503d 1bfe a03d
00000250: 0ff1 b53d b2a4 9ebd b7fd c83c b828 2cbd
00000260: 7d37 2fbc 78c2 95bd e630 b73d f941 93bd
00000270: 8107 563d c738 0c3d 55ec 003d 9d8b 57bd
00000280: 9d8b b53d 2667 af3c 8a30 4d3c 565b b0bd
00000290: ad25 273d bc40 6dbc d834 37bd bf72 ac3d
000002a0: 7d75 b53c b7bb 5cbd 0d58 4abd 034c 99bb
000002b0: 911a 5f3d 166a ccbc 1829 64bd 5de2 08bd
000002c0: b45b 95bd c37b 0e3d 53af 9a3d c22e bcbd
000002d0: 2585 b93c fe6e 4e3d bcdc 903c 6d5a 0ebd
000002e0: 5d84 503d 5101 523d 036b 153d 2292 8cbc
000002f0: d7cc d3bc d738 2a3c 7b5a 8dbc d44f eebc
00000300: fd76 7f3d 58bb ab3d 0d6f 1ebc 9611 b3bc
00000310: 3902 b93a 2759 bfbb 081c c03c c2fb df3c
00000320: 8790 b5bd ff90 13bd 3249 a83d cab0 1b3d
00000330: ba76 9fbb 7013 71bd ed94 74bd bd0e b3bd
00000340: 7e52 02bd def6 063d 2404 803d a371 383d
00000350: 26d3 b0bd b31b 72bd d1bf 7dbc eb9f c23d
00000360: e58a 653c 9c1b cfbc b45f 253d 7318 19bd
00000370: 7fcb 81bd 7061 923d b221 36bd 2872 a1bc
00000380: 5ff7 c6bd 0d90 853d 9f36 973d ac6c 113d
00000390: a37d 8bbd aa5e c5bd 42e7 a0bd 03fa 943d
000003a0: 489c 3f3d f012 a83d 7934 513d 5a31 ca3c
000003b0: 39b4 3fba c105 98bd 54a3 abbd 3e41 bbbd
000003c0: eb5c 273d fb98 44bd 7953 a1bc f114 66bd
000003d0: 8b70 92bc 60aa 8cbd bfed 82bd dbe7 033d
000003e0: 0d01 ecbc 6d73 783d 21a4 00bd 7425 92bd
000003f0: b29f 8ebc f41e 42bd 6684 f5bc 8b57 bebd

layers.1.layers.0.bias f4 [100]
0.064403296 0.043026235 -0.0040540826 0.0540183 -0.0043265373 -0.016051777 -0.03711795 -0.08120115
0.08048561 -0.061457317 -0.09274424 -0.04462053 0.018702732 -0.008943921 0.043427575 0.056864668
0.056720655 -0.08199072 0.040349927 0.04859123 -0.054700837 0.000873252 0.015182819 0.013404474
0.05375861 0.08192086 0.09281329 0.022498487 0.056663465 0.041839365 -0.051525667 0.06514948
-0.008312056 0.041455258 -0.064792775 0.07801471 0.021783877 0.022786234 -0.08682418 -0.007925125
-0.03423975 0.09080882 -0.0894953 -0.024718225 -0.04877794 -0.071453005 0.03773658 -0.06701171
0.04594315 0.012385212 -0.050293975 -0.011253142 0.009132889 -0.04251902 -0.06317018 -0.054522067
0.024289096 -0.08592578 0.06156924 0.06515705 0.09006706 0.08258798 -0.054796867 -0.042919096
0.071164355 -0.013256573 -0.072143 -0.04555401 0.06818697 -0.054743852 0.03422627 -0.081353955
0.0637565 0.026310647 0.06775898 0.003341774 0.049781848 0.08042344 -0.012058207 -0.07326882
-0.068661936 0.05807397 -0.06309627 -0.084932365 -0.08295624 -0.043070555 0.019192474 -0.089341916
-0.045399748 0.09343803 -0.016488349 -0.032469876 0.04622782 -0.080102704 -0.07596032 0.01563628
0.03074679 -0.096209705 0.086337805 -0.038082805
00000000: e0e5 833d 473c 303d 1cd8 84bb 4b42 5d3d
00000010: a0c5 8dbb 047f 83bc fe08 18bd ca4c a6bd
00000020: a4d5 a43d abba 7bbd b1f0 bdbd 04c4 36bd
00000030: 7936 993c 8689 12bc 1de1 313d edea 683d
00000040: eb53 683d c0ea a7bd f745 253d 9907 473d
00000050: fc0d 60bd f3ea 643a 5cc1 783c 709e 5b3c
00000060: fd31 5c3d 20c6 a73d e514 be3d bf4e b83c
00000070: f317 683d c15f 2b3d 940c 53bd 176d 853d
00000080: 4a2f 08bc fdcc 293d 13b2 84bd 2dc6 9f3d
00000090: 1a74 b23c 32aa ba3c e0d0 b1bd 62d8 01bc
000000a0: fb3e 0cbd faf9 b93d 5049 b7bd e07d cabc
000000b0: 61cb 47bd f455 92bd ac91 1a3d 6f3d 89bd
000000c0: e22e 3c3d 58eb 4a3c 0e01 4ebd 195f 38bc
000000d0: 1da2 153c 6d28 2ebd 5e5f 81bd 8852 5fbd
000000e0: edf9 c63c dbf9 afbd 0730 7c3d 0f71 853d
000000f0: 1475 b83d e323 a93d ae72 60bd efcb 2fbd
00000100: 9ebe 913d 1932 59bc b6bf 93bd d796 3abd
00000110: 9ca5 8b3d 173b 60bd d830 0c3d e79c a6bd
00000120: c592 823d 6d89 d73c 38c5 8a3d aa01 5b3b
00000130: 0de8 4b3d 0bb5 a43d c98f 45bc f70d 96bd
00000140: a19e 8cbd f9de 6d3d 9e38 81bd 05f1 adbd
00000150: f6e4 a9bd c06a 30bd 8939 9d3c e5f8 b6bd
00000160: 16f5 39bd 705c bf3d 9312 87bc 22ff 04bd
00000170: 6259 3d3d e30c a4bd 1691 9bbd a817 803c
00000180: b1e0 fb3c 9809 c5bd e0d1 b03d b7fc 1bbd

layers.2.layers.0.weight f4 [100, 100]
0.015752116 0.07246937 0.03941529 0.031562373 -0.0911875 -0.09329845 0.03774213 0.0042974255
0.06203554 0.0501642 -0.079813026 0.01853178 -0.07731302 -0.055278268 0.027765514 -0.0045741363
-0.06310599 0.035157777 0.069395445 -0.09821503 0.09473003 0.05526675 -0.008035153 -0.09683849
-0.040547796 0.030758882 -0.042310316 -0.032091647 -0.040612992 0.08614949 0.085225105 -0.077817164
-0.029556371 0.09101568 -0.004965664 -0.048355106 0.012918372 0.079231195 -0.012725628 -0.09436133
-0.03342661 0.05010493 -0.013942358 0.07065451 0.034391772 0.0011993288 0.03843389 -0.013498164
-0.08572538 -0.08505217 -0.07835906 -0.015927482 -0.071808964 0.014655006 0.011879766 0.07633009
0.00664091 0.017043829 0.03555876 -0.028271724 -0.04982846 -0.09303423 -0.0971671 0.0067315535
-0.04681539 0.027683651 0.025143493 0.07874556 -0.011735931 0.00027496074 0.06973658 0.017054494
0.04628455 -0.053323217 -0.07205012 0.07761976 0.07207436 -0.037482537 0.017288957 -0.08893438
0.0069984556 -0.09275027 0.056521058 -0.099115096 -0.024115127 0.0936824 -0.03318865 -0.056934968
0.090723805 -0.050389174 0.022082089 0.056534927 0.027709575 -0.06908844 0.09081711 0.048478287
-0.06283122 -0.057073247 -0.022798901 0.033637013 0.037129704 0.012032972 0.065841615 0.09900242
0.020492386 0.038837265 0.05629774 0.019445827 0.0061261184 0.08964619 0.06864382 0.065099426
-0.039466437 -0.047820173 -0.054511685 -0.084526494 -0.011032451 0.0556329 0.0142970495 -0.035886306
-0.014176123 -0.07693879 -0.06477316 0.008948745 -0.058279615 0.012127015 0.082367055 0.025830967
0.076125205 -0.063740045 0.0020501134 -0.098633945 0.0006430551 -0.0738836 0.09353075 -0.085247464
0.033251464 -0.059949715 0.027021958 -0.0011174796 -0.013100442 -0.039733604 0.06316475 -0.018423097
0.007939153 -0.030411992 -0.07305677 -0.04193305 0.0894489 0.09499824 -0.047017034 0.009686181
0.0155906305 0.087677464 0.013714333 0.0046022227 -0.029405605 0.020776069 -0.0996568 -0.09984224
-0.011521609 -0.070235156 -0.069500044 -0.017349487 0.055486564 0.049105752 -0.035325997 -0.007185923
0.092245534 0.021310497 0.06777372 -0.041415077 -0.0900139 -0.04641936 0.008562022 -0.024842078
-0.054766577 0.09568852 -0.092788085 0.0022959681 0.039832275 -0.027291982 0.043231357 0.00039361275
-0.059729055 -0.054947246 -0.045008443 -0.09773925 0.0622086 0.09056382 -0.05148323 0.004489909
0.032596752 0.028172852 -0.055789817 -0.061029706 0.0968553 0.058232214 0.09260133 0.070198916
-0.007651946 0.0703256 -0.0032207684 -0.00062981894 -0.043469027 0.07796809 -0.02139022 0.014383393
-0.079771444 0.03426565 -0.047583878 -0.022617307 -0.008973039 0.036889635 0.00390249 0.01737674
-0.06512762 -0.075575106 0.0359072 -0.041225027 -0.08624528 -0.04130201 -0.09820693 0.019925095
0.007185957 0.09208165 -0.05527555 -0.05172976 0.02366177 -0.026298378 0.07784447 0.015112155
-0.002324287 -0.038425263 0.060363647 -0.046894673 0.040145144 0.064068034 -0.078489654 -0.08878893
-0.056394376 0.047814097 -0.055293374 0.00945276 0.015056356 0.020950584 -0.05101277 0.0034547828
0.06916973 0.051703926 0.019020487 -0.07956748 0.046776485 -0.039900735 0.06997179 0.041423447
00000000: 950a 813c d26a 943d ed71 213d 8c47 013d
00000010: 83c0 babd 4213 bfbd 7e97 1a3d 6bd1 8c3b
00000020: fa18 7e3d fa78 4d3d 0375 a3bd f6cf 973c
00000030: 4a56 9ebd 776b 62bd 8174 e33c a3e2 95bb
00000040: b73d 81bd 9a01 103d 331f 8e3d f624 c9bd
00000050: d101 c23d 635f 623d e0a5 03bc 4253 c6bd
00000060: 7215 26bd 0dfa fb3c 954d 2dbd 8872 03bd
00000070: cf59 26bd 256f b03d 808a ae3d 9b5e 9fbd
00000080: 3420 f2bc 6e66 ba3d 02b7 a2bb 0110 46bd
00000090: 94a7 533c f743 a23d 277f 50bc 8340 c1bd
000000a0: 57ea 08bd d43a 4d3d 7d6e 64bc 50b3 903d
000000b0: 63de 0c3d cc32 9d3a db6c 1d3d 6727 5dbc
000000c0: ca90 afbd d52f aebd b77a a0bd 5a7a 82bc
000000d0: 9410 93bd 8d1b 703c 5aa3 423c f352 9c3d
000000e0: fe9b d93b 809f 8b3c 10a6 113d 1a9a e7bc
000000f0: ed18 4cbd bb88 bebd 8bff c6bd 5d94 dc3b
00000100: 7fc1 3fbd d3c8 e23c baf9 cd3c 5a45 a13d
00000110: 1048 40bc 9b28 9039 0dd2 8e3d deb5 8b3c
00000120: de94 3d3d 7269 5abd 038f 93bd 1cf7 9e3d
00000130: b99b 933d 4a87 19bd 92a1 8d3c 3a23 b6bd
00000140: 4d53 e53b dbf3 bdbd a082 673d dbfc cabd
00000150: 168d c5bc 8fdc bf3d d2f0 07bd a434 69bd
00000160: 67cd b93d e164 4ebd 7fe5 b43c 2b91 673d
00000170: 31ff e23c 3d7e 8dbd 52fe b93d 2b91 463d
00000180: a8ad 80bd a3c5 69bd c3c4 babc f7c6 093d
00000190: 5115 183d f125 453c f8d7 863d c8c1 ca3d
000001a0: a6df a73c d313 1f3d 7698 663d db4c 9f3c
000001b0: 9bbd c83b 6c98 b73d 2295 8c3d d952 853d
000001c0: 8fa7 21bd 16df 43bd a547 5fbd 3a1c adbd
000001d0: 74c1 34bc 53df 633d 2c3e 6a3c 85fd 12bd
000001e0: f842 68bc 1692 9dbd caa7 84bd c29d 123c
000001f0: 9bb6 6ebd 63b0 463c 0fb0 a83d 779b d33c
00000200: 88e7 9b3d 248a 82bd 325b 063b 9800 cabd
00000210: b292 283a 4950 97bd 0d8d bf3d 3996 aebd
00000220: b032 083d d58d 75bd 275d dd3c 6578 92ba
00000230: 3ca3 56bc b4bf 22bd 855c 813d 09ec 96bc
00000240: 3913 023c 9222 f9bc ca9e 95bd fdc1 2bbd
00000250: fc30 b73d 708e c23d ef94 40bd cab2 1e3c
00000260: d86f 7f3c 3e90 b33d 15b2 603c 3ece 963b
00000270: 06e4 f0bc 9332 aa3c dd18 ccbd 177a ccbd
00000280: 21c5 3cbc 73d7 8fbd 0a56 8ebd 8320 8ebc
00000290: e145 633d 1d23 493d feb1 10bd e477 ebbb
000002a0: 3aeb bc3d 5a93 ae3c f3cc 8a3d dba2 29bd
000002b0: 3559 b8bd 3a22 3ebd b947 0c3c 9d81 cbbc
000002c0: eb52 60bd 58f8 c33d ae07 bebd f477 163b
000002d0: 2b27 233d 6f93 dfbc 5d13 313d cf5d ce39
000002e0: 74a6 74bd 5d10 61bd c65a 38bd 842b c8bd
000002f0: 72ce 7e3d 8679 b93d 14e0 52bd 1620 933b
00000300: 2c84 053d c1ca e63c dd83 64bd 49fa 79bd
00000310: 125c c63d e784 6e3d c4a5 bd3d 73c4 8f3d
00000320: 2dbd fabb de06 903d 8713 53bb 6f1a 25ba
00000330: 940c 32bd bcad 9f3d 8b3a afbc 53a8 6b3c
00000340: 365f a3bd 235a 0c3d 50e7 42bd ee47 b9bc
00000350: a703 13bc 9619 173d ebc0 7f3b aa59 8e3c
00000360: a161 85bd 1fc7 9abd 6e13 133d 93db 28bd
00000370: 5ea1 b0bd 4c2c 29bd b720 c9bd f439 a33c
00000380: 2d78 eb3b 4e95 bc3d 9d68 62bd 96e2 53bd
00000390: 54d6 c13c b26f d7bc ec6c 9f3d f998 773c
000003a0: 1153 18bb cf63 1dbd df3f 773d a114 40bd
000003b0: 3c6f 243d 1a36 833d 2fbf a0bd f8d6 b5bd
000003c0: cafd 66bd b7d8 433d 4e7b 62bd c0df 1a3c
000003d0: efae 763c 8fa0 ab3c c4f2 50bd a369 623b
000003e0: dca8 8d3d 7fc7 533d dad0 9b3c 46f4 a2bd
000003f0: b398 3f3d f46e 23bd 5f4d 8f3d a2ab 293d

layers.2.layers.0.bias f4 [100]
-0.042675957 -0.030700034 -0.08437018 -0.0016638767 0.052682817 -0.060566887 -0.0073672584 0.074227706
-0.061719008 0.02922309 -0.021932807 0.082977675 -0.008732669 0.08549536 -0.033677414 -0.07719823
0.002838111 -0.058907297 -0.05396118 0.068684496 0.09194353 -0.068652004 -0.099152915 0.02728745
-0.08273248 -0.023856586 0.042629782 0.03986582 0.014046824 0.043939915 -0.05587172 -0.031840343
-0.03201619 -0.09988992 -0.0574985 0.011401765 0.022101883 -0.043726247 0.06939681 -0.05475068
0.0069910083 0.085953 0.06835009 0.100057125 0.027935978 -0.06931678 -0.034652267 -0.028822491
-0.07403004 -0.033723917 -0.09390054 -0.04731484 -0.099377014 0.09552732 0.019557286 0.10152234
0.057329252 0.09658858 -0.031125322 -0.04721977 -0.04431016 -0.09097664 -0.005985466 0.015453647
0.058870964 -0.015872724 0.033297945 0.04159781 0.0190948 0.024503607 -0.037028454 0.05410181
-0.09664749 0.011654792 0.050243314 0.06829677 0.047492694 -0.015006211 0.07097343 -0.094808616
-0.021202968 -0.037222654 0.06035089 0.08970872 -0.02645502 0.020391839 -0.014231592 -0.031234654
0.04049485 0.023206932 -0.048579417 0.021656966 0.096760124 -0.07227533 -0.017785748 -0.08876868
-0.023746943 0.09486637 0.06299995 -0.09516085
00000000: fccc 2ebd a37e fbbc 46ca acbd 7016 daba
00000010: f0c9 573d fc14 78bd 0b69 f1bb b204 983d
00000020: 12cd 7cbd 4365 ef3c 6eac b3bc 33f0 a93d
00000030: 7813 0fbc 3118 af3d 54f1 09bd 1b1a 9ebd
00000040: 9aff 393b c748 71bd 6606 5dbd 75aa 8c3d
00000050: e44c bc3d 6c99 8cbd af10 cbbd ee89 df3c
00000060: a56f a9bd e36e c3bc 919c 2e3d 584a 233d
00000070: a624 663c 57fa 333d bfd9 64bd 056b 02bd
00000080: 6923 03bd 1693 ccbd 8c83 6bbd 78ce 3a3c
00000090: 020f b53c 4b1a 33bd ea1f 8e3d 4042 60bd
000000a0: d414 e53b 2008 b03d 22fb 8b3d c0ea cc3d
000000b0: fed9 e43c f5f5 8dbd 89ef 0dbd 251d ecbc
000000c0: 109d 97bd 1722 0abd ed4e c0bd 35cd 41bd
000000d0: 2d86 cbbd d4a3 c33d 9a36 a03c f2ea cf3d
000000e0: 14d2 6a3d 3cd0 c53d 88fa febc 8469 41bd
000000f0: 927e 35bd f651 babd ba21 c4bb 4b31 7d3c
00000100: ae22 713d 8407 82bc 6d63 083d 7762 2a3d
00000110: b36c 9c3c cabb c83c 26ab 17bd dc99 5d3d
00000120: 1fef c5bd bef3 3e3c efcb 4d3d 2ddf 8b3d
00000130: b387 423d 9cdc 75bc 855a 913d 052b c2bd
00000140: d9b1 adbc c876 18bd 7f32 773d 35b9 b73d
00000150: 33b8 d8bc c90c a73c a02b 69bc d1df ffbc
00000160: eedd 253d 771c be3c 36fb 46bd f369 b13c
00000170: 2c2a c63d 1705 94bd 6bb3 91bc 5bcc b5bd
00000180: f388 c2bc 4d49 c23d 1e06 813d b1e3 c2bd

layers.3.weight f4 [2, 100]
-0.090110384 0.0017040865 -0.012501046 0.07647037 -0.034818653 0.07559972 -0.06307966 -0.01994459
-0.00515798 -0.053734012 0.0042865747 -0.024211109 -0.047607627 -0.084598035 -0.0030432781 0.09407089
0.038815748 -0.07958023 -0.051822443 0.061640434 -0.04023814 -0.012333956 -0.046909798 0.041713186
-0.06796665 -0.09923185 -0.073719546 -0.09233567 0.00780065 0.015719159 -0.032532796 0.03942602
0.0069855857 0.02788657 0.05129786 0.0115976175 0.09695986 0.0734862 -0.06271242 0.07466912
-0.010521046 -0.006454285 0.0016751776 -0.09533871 0.064035684 0.06578904 0.09539012 0.012498279
-0.027325474 -0.017700434 -0.032881856 -0.091101065 0.03264698 0.012161282 -0.040593065 -0.069189005
-0.02331064 0.019315401 0.07525646 0.043677557 0.07457904 0.082873896 -0.05011783 -0.0038154954
-0.09529009 -0.062937275 0.032518208 0.035741385 0.042967282 0.08518107 0.040531114 -0.048580654
-0.021158459 0.0049068155 0.048930965 -0.07095324 -0.04673821 0.03808363 0.03377118 0.09482105
0.08128201 -0.04754194 0.034042895 -0.064060636 -0.0040642936 -0.003444172 0.0221314 0.08444879
-0.0802444 0.085995235 0.069903456 -0.04814922 -0.03474344 -0.029082019 0.062340785 -0.025671685
0.0322621 -0.043230068 0.081453755 -0.017832354 0.09616244 -0.0721298 -0.02879419 0.06349101
0.040505413 -0.05039298 -0.077947006 -0.073773265 -0.08054268 -0.05300005 -0.060634617 -0.026197577
0.086805865 -0.020645106 -0.05892745 0.047882594 -0.058856763 -0.046952385 -0.015215701 -0.008266171
-0.058704298 -0.076461464 -0.097723566 -0.036447782 0.0510029 0.0124700125 0.079953834 0.02339
-0.073206805 0.009205119 -0.024741737 0.058644377 0.029602617 0.09527081 -0.088802755 -0.038970444
-0.082555726 0.008988147 -0.057603642 -0.041523684 0.095274426 -0.03232627 0.056590572 0.07213209
0.0737803 0.081721574 0.063247636 0.015643878 0.08440377 0.099762656 -0.06888107 0.021555299
0.07014844 -0.064848416 0.048993863 0.07332385 0.0040877387 -0.020574382 -0.0082778195 0.08409122
-0.078371 0.037339766 -0.05319434 0.069218755 -0.029856306 0.02751441 0.069379814 -0.011372259
-0.014663116 0.09063951 0.095373355 0.0527521 0.002683357 0.0016393716 -0.060329355 0.08744166
0.049370028 0.07993944 -0.06536443 0.024800826 0.020743063 -0.028644064 -0.01011201 0.022445882
-0.027387312 0.08972834 -0.08929554 -0.011172638 -0.0451936 0.082035296 -0.036158983 -0.023228442
0.09376523 -0.08022945 -0.033039164 0.0859182 0.073158555 -0.024861466 -0.019530639 -0.045884397
00000000: cb8b b8bd a85b df3a 30d1 4cbc 7f9c 9c3d
00000010: 019e 0ebd 07d4 9a3d e92f 81bd d662 a3bc
00000020: 4604 a9bb 3218 5cbd 6576 8c3b 6056 c6bc
00000030: 3700 43bd bc41 adbd bc71 47bb 3da8 c03d
00000040: 43fd 1e3d f6fa a2bd c543 54bd ae7a 7c3d
00000050: bfd0 24bd 5c14 4abc 7d24 40bd 72db 2a3d
00000060: 1932 8bbd 113a cbbd 46fa 96bd 7c1a bdbd
00000070: 989c ff3b 77c5 803c 1c41 05bd 2e7d 213d
00000080: 57e7 e43b 6072 e43c b41d 523d ef03 3e3c
00000090: e492 c63d ef7f 963d 5f6f 80bd 20ec 983d
000000a0: 7760 2cbc 777e d3bb a291 db3a f140 c3bd
000000b0: 2425 833d 67bc 863d e55b c33d 95c5 4c3c
000000c0: acd9 dfbc 8000 91bc 20af 06bd 3293 babd
000000d0: d7b8 053d 1d40 473c ea44 26bd f7b2 8dbd
000000e0: f5f5 bebc 553b 9e3c 0f20 9a3d 3de7 323d
000000f0: e5bc 983d cab9 a93d 5b48 4dbd 640d 7abb
00000100: 7327 c3bd 42e5 80bd d031 053d 8f65 123d
00000110: 76fe 2f3d 6a73 ae3d f403 263d 82fc 46bd
00000120: 8154 adbc 5ac9 a03b d66b 483d ef4f 91bd
00000130: 9170 3fbd 95fd 1b3d a653 0a3d 8a31 c23d
00000140: 2f77 a63d 56bb 42bd 9070 0b3d 3932 83bd
00000150: c42d 85bb 9eb7 61bb e94c b53c 7df3 ac3d
00000160: 2d57 a4bd 451e b03d 8b29 8f3d 1e38 45bd
00000170: 234f 0ebd 6a3d eebc 0d59 7f3d 6d4d d2bc
00000180: 4425 043d 0312 31bd 3ad1 a63d 2815 92bc
00000190: d0f0 c43d cab8 93bd cbe1 ebbc 9307 823d
000001a0: 01e9 253d df68 4ebd aea2 9fbd 7016 97bd
000001b0: 90f3 a4bd 9516 59bd 015c 78bd 4d9c d6bc
000001c0: 46c7 b13d ed1f a9bc e95d 71bd 8a20 443d
000001d0: ca13 71bd 2551 40bd 474b 79bc d66e 07bc
000001e0: eb73 70bd d497 9cbd 4b23 c8bd 454a 15bd
000001f0: 6be8 503d 064f 4c3c d6be a33d 639c bf3c
00000200: 73ed 95bd 11d1 163c 2faf cabc 1635 703d
00000210: 3081 f23c 581d c33d 38de b5bd 799f 1fbd
00000220: fa12 a9bd 0543 133c ccf1 6bbd bd14 2abd
00000230: 3d1f c33d 8d68 04bd 84cb 673d fdb9 933d
00000240: 201a 973d a45d a73d fa87 813d 9727 803c
00000250: e2db ac3d 5d50 cc3d 8511 8dbd bd94 b03c
00000260: fca9 8f3d 3fcf 84bd caad 483d d12a 963d
00000270: 70f2 853b 9b8b a8bc b19f 07bc 0438 ac3d
00000280: fa80 a0bd 95f1 183d 4fe2 59bd 90c2 8d3d
00000290: 3695 f4bc e665 e13c 0117 8e3d b652 3abc
000002a0: 913d 70bc 35a1 b93d 1b53 c33d 9612 583d
000002b0: 43db 2f3b 2fe0 d63a ea1b 77bd 9d14 b33d
000002c0: 3a38 4a3d 4ab7 a33d c9dd 85bd 1a2b cb3c
000002d0: 5bed a93c f5a6 eabc d8ac 25bc 6de0 b73c
000002e0: 5b5b e0bc 7ec3 b73d 94e0 b6bd 710d 37bc
000002f0: ed1c 39bd 1f02 a83d 711b 14bd 9349 bebc
00000300: fc07 c03d 564f a4bd 1354 07bd e2f5 af3d
00000310: 27d4 953d 46aa cbbc b8fe 9fbc 47f1 3bbd

layers.3.bias f4 [2]
-0.021522498 0.070627145
00000000: f34f b0bc f7a4 903d
