clients_data/clients_trained_model/client2.pth (torch, 86087 bytes, 6 tensors)

layers.1.layers.0.weight f4 [100, 105]
0.07472825 0.08085614 -0.022728676 0.089669675 -0.021401072 0.01980502 -0.047526203 0.057312846
0.08602978 -0.07152877 0.084552616 0.018401815 0.07204871 0.013394907 0.047044322 -0.013860942
0.07519581 0.014320361 -0.04550057 0.024742879 -0.044988547 -0.011440068 -0.039611917 0.064891815
-0.077034764 -0.0450016 -0.027659824 -0.058497306 0.009181249 -0.09642543 0.08773703 -0.08285077
0.075359106 0.016240846 -0.031717226 0.060346365 0.015118762 0.07902302 0.010626105 -0.030782353
0.026104169 -0.026431695 0.04109041 0.08720878 0.056343433 -0.04260584 0.05624825 0.017461412
0.049527664 -0.05933594 -0.096417785 -0.03795931 -0.07485692 0.07999079 0.027908118 0.040463287
0.030814787 -0.0016521288 0.07659358 -0.06948054 0.00628615 -0.066623054 0.030078344 -0.033648115
0.029865183 -0.020332046 0.08124112 -0.057842057 -0.058202717 -0.058206286 0.08771891 0.032404836
0.09392505 -0.0805388 -0.096797384 -0.07635113 -0.06564798 0.039491814 0.035020046 0.08107163
-0.050398197 -0.06652835 0.05174832 -0.03944648 0.05928928 -0.023158316 0.055916697 -0.0758244
-0.049245153 0.02982955 0.020689232 -0.024881572 0.058151428 0.06623661 -0.07076976 -0.052100435
0.08935933 -0.03293004 -0.034597356 -0.09442765 -0.055887163 0.024275905 -0.012881321 -0.07083931
0.0022891387 -0.06696229 -0.0826721 -0.053866502 -0.08551136 -0.062324457 0.0976834 0.01842513
0.03006546 -0.091020666 -0.064157866 -0.032518666 0.015389186 -0.086118735 -0.04193685 -0.05850102
0.00030543748 -0.03628483 -0.0065937666 -0.06612623 -0.067028925 -0.057098128 -0.03341638 -0.07706491
0.08168518 -0.019433953 0.08391277 0.030315163 -0.08310252 0.06779266 -0.02643764 -0.03759751
-0.08109939 -0.097079985 0.027921539 -0.021257935 0.03791641 -0.07989971 0.07223414 -0.07160011
-0.016949441 0.02055091 0.050579347 0.07864851 0.08895023 -0.07741506 0.02462324 -0.041969996
-0.010694382 -0.073173165 0.089439146 -0.0720583 0.052232698 0.03428653 0.031748816 -0.05275627
0.08856686 0.021405183 0.012629648 -0.085938334 0.04087515 -0.014548504 -0.044877797 0.08358905
0.021672836 -0.053885467 -0.0493941 -0.00463554 0.054416925 -0.024899237 -0.055698495 -0.03342684
-0.07292788 0.034788806 0.075611375 -0.0918944 0.022592053 0.050342903 0.01765343 -0.034765292
0.050824642 0.051205385 0.03648683 -0.017164344 -0.025862008 0.0105544105 -0.01727978 -0.029089771
0.06242593 0.08380244 -0.009777484 -0.021923855 0.0013444114 -0.0058236895 0.023448408 0.027322376
-0.0886517 -0.036027994 0.08218342 0.038026463 -0.004864985 -0.058883514 -0.0597139 -0.08742897
-0.03182176 0.03295655 0.06191876 0.04504974 -0.08627016 -0.05870819 -0.0152708385 0.094343916
0.014124572 -0.02527372 0.040374473 -0.037164852 -0.06317963 0.07157922 -0.044287156 -0.019910328
-0.09706369 0.065218985 0.074238785 0.035746273 -0.068044916 -0.09632078 -0.07933076 0.07281227
0.046667542 0.08207587 0.05101924 0.024538528 -0.00089065626 -0.07458627 -0.08363805 -0.09084933
0.039958943 -0.048028637 -0.019583566 -0.05616356 -0.01776452 -0.06882215 -0.063775524 0.03240861
-0.028956233 0.060197845 -0.031232614 -0.07153482 -0.017058799 -0.04727168 -0.030088712 -0.09295157
00000000: 200b 993d e797 a53d 7d31 babc bca4 b73d
00000010: 4d51 afbc 233e a23c d6aa 42bd e0c0 6a3d
00000020: 6230 b03d ad7d 92bd ec29 ad3d 67bf 963c
00000030: 468e 933d 5076 5b3c 8cb1 403d 0119 63bc
00000040: 4300 9a3d f39f 6a3c ce5e 3abd 94b1 ca3c
00000050: e945 38bd 1f6f 3bbc 1b40 22bd 00e6 843d
00000060: 67c4 9dbd 9953 38bd db96 e2bc df9a 6fbd
00000070: f36c 163c b27a c5bd 79af b33d aaad a9bd
00000080: e055 9a3d 860b 853c ece9 01bd c02d 773d
00000090: afb4 773c d2d6 a13d 1d19 2e3c 462b fcbc
000000a0: 69d8 d53c 4887 d8bc 6b4e 283d 849a b23d
000000b0: 5fc8 663d 7683 2ebd 9164 663d 3c0b 8f3c
000000c0: 85dd 4a3d 3e0a 73bd b076 c5bd 397b 1bbd
000000d0: 964e 99bd 36d2 a33d 919f e43c d5bc 253d
000000e0: 4b6f fc3c 3e8c d8ba 18dd 9c3d d04b 8ebd
000000f0: 0cfc cd3b ab71 88bd dc66 f63c 9bd2 09bd
00000100: d4a7 f43c 648f a6bc bf61 a63d cbeb 6cbd
00000110: f965 6ebd b769 6ebd f9a5 b33d efba 043d
00000120: c75b c03d 87f1 a4bd b53d c6bd fb5d 9cbd
00000130: 7372 86bd 2bc2 213d 2e71 0f3d e208 a63d
00000140: 576e 4ebd 0440 88bd 0cf6 533d a292 21bd
00000150: 51d9 723d 82b6 bdbc e808 653d d349 9bbd
00000160: 49b5 49bd 1a5d f43c 777c a93c 70d4 cbbc
00000170: 3130 6e3d 0fa7 873d bcef 90bd 4467 55bd
00000180: 0602 b73d a6e1 06bd f5b5 0dbd 4963 c1bd
00000190: f0e9 64bd 43de c63c 2d0c 53bc 3314 91bd
000001a0: 6005 163b 8623 89bd fd4f a9bd 1fa3 5cbd
000001b0: 9420 afbd ee47 7fbd 3c0e c83d 4cf0 963c
000001c0: d74b f63c 0b69 babd 3365 83bd 4b32 05bd
000001d0: ed22 7c3c 055f b0bd f9c5 2bbd c49e 6fbd
000001e0: 2023 a039 679f 14bd 8610 d8bb 306d 87bd
000001f0: 7646 89bd badf 69bd 9ddf 08bd 35d4 9dbd
00000200: 8f4a a73d f433 9fbc 75da ab3d 8157 f83c
00000210: a731 aabd e1d6 8a3d c093 d8bc d9ff 19bd
00000220: 7017 a6bd dfd1 c6bd b6bb e43c 1f25 aebc
00000230: 3d4e 1b3d 76a2 a3bd 7eef 933d 14a3 92bd
00000240: 8ed9 8abc 625a a83c 4a2c 4f3d 7812 a13d
00000250: 8a2b b63d c98b 9ebd adb6 c93c bbe8 2bbd
00000260: 7d37 2fbc d0db 95bd df2b b73d 4d93 93bd
00000270: f4f1 553d 0870 0c3d 0c0b 023d f516 58bd
00000280: 8b62 b53d ec59 af3c 95ec 4e3c 7000 b0bd
00000290: b46c 273d d95c 6ebc c8d1 37bd bc30 ab3d
000002a0: 3b8b b13c 02b7 5cbd 7851 4abd bae5 97bb
000002b0: 48e4 5e3d 7cf9 cbbc 1b24 64bd 95ea 08bd
000002c0: 365b 95bd b57e 0e3d 23da 9a3d 2233 bcbd
000002d0: f812 b93c 5c34 4e3d ed9d 903c 0d66 0ebd
000002e0: 802d 503d bdbc 513d 3773 153d 3d9c 8cbc
000002f0: 90dc d3bc 68ec 2c3c 538e 8dbc ac4d eebc
00000300: 55b2 7f3d 9da0 ab3d be31 20bc a899 b3bc
00000310: f636 b03a a6d4 bebb e016 c03c 2dd3 df3c
00000320: 068f b5bd 1792 13bd c84f a83d a3c1 1b3d
00000330: 746a 9fbb d72f 71bd 9096 74bd f60d b3bd
00000340: 8957 02bd 73fd 063d 879e 7d3d 1386 383d
00000350: 69ae b0bd 0078 70bd 8a32 7abc 6237 c13d
00000360: c06a 673c d50a cfbc b45f 253d 2c3a 18bd
00000370: 5264 81bd 2098 923d 7366 35bd fc1a a3bc
00000380: 54c9 c6bd 8891 853d 810a 983d af6a 123d
00000390: 225b 8bbd d443 c5bd 2a78 a2bd 991e 953d
000003a0: 7726 3f3d 6517 a83d 8df9 503d 0605 c93c
000003b0: ee7a 69ba b0c0 98bd 6d4a abbd 370f babd
000003c0: fdab 233d adb9 44bd b76d a0bc c30b 66bd
000003d0: e686 91bc a1f2 8cbd be9c 82bd e4be 043d
000003e0: 9f35 edbc 0492 763d 8adb ffbc d980 92bd
000003f0: e5be 8bbc f39f 41bd 9a7c f6bc 655d bebd

layers.1.layers.0.bias f4 [100]
0.06422593 0.043112088 -0.004492221 0.05450245 -0.004519295 -0.015585825 -0.037329644 -0.081779994
0.08100817 -0.06106392 -0.09136033 -0.04473528 0.01886808 -0.009000359 0.04326808 0.05745181
0.056862123 -0.08187538 0.040555656 0.048923094 -0.055154543 0.00029498056 0.014679784 0.014277613
0.053478576 0.082009315 0.09366162 0.023164514 0.056778625 0.041542836 -0.051334362 0.065306425
-0.0077767163 0.042753354 -0.06502913 0.079108134 0.021544112 0.022425514 -0.08678628 -0.008655536
-0.033031426 0.09103097 -0.08913649 -0.023414144 -0.04892587 -0.07193039 0.0369332 -0.06583433
0.04548754 0.012082115 -0.05004379 -0.010652057 0.010113529 -0.0422563 -0.062755674 -0.05489477
0.024546308 -0.08574533 0.061852995 0.06550094 0.09142728 0.08479355 -0.055512454 -0.042544812
0.07116433 -0.014164266 -0.07169947 -0.04547339 0.06830782 -0.055108342 0.034330577 -0.081084915
0.063216455 0.026143143 0.06865915 0.003653297 0.050051544 0.08081868 -0.012323448 -0.07353341
-0.06768225 0.05816457 -0.06263564 -0.08652655 -0.083195485 -0.04319079 0.018493373 -0.088196926
-0.045634855 0.09340538 -0.01575475 -0.03244808 0.04728242 -0.07972062 -0.07581667 0.016256895
0.03162153 -0.09575717 0.08680196 -0.038105287
00000000: e288 833d 4d96 303d 7b33 93bb f63d 5f3d
00000010: 9816 94bb b05b 7fbc f8e6 18bd 457c a7bd
00000020: 9de7 a53d 291e 7abd 201b bbbd 573c 37bd
00000030: 3b91 9a3c 3e76 13bc df39 313d 9752 6b3d
00000040: 42e8 683d 47ae a7bd b01d 263d 9563 483d
00000050: bbe9 61bd 9fa7 9a39 7a83 703c a6ec 693c
00000060: 5a0c 5b3d 80f4 a73d aad1 bf3d 82c3 bd3c
00000070: b490 683d d228 2a3d fb43 52bd 60bf 853d
00000080: d3d3 febb 241e 2f3d fe2d 85bd 7203 a23d
00000090: 477d b03c b6b5 b73c 01bd b1bd f3cf 0dbc
000000a0: f64b 07bd 726e ba3d 318d b6bd 05cf bfbc
000000b0: 7e66 48bd 3e50 93bd 4447 173d 26d4 86bd
000000c0: 2551 3a3d 10f4 453c b8fa 4cbd f785 2ebc
000000d0: 37b3 253c f114 2dbd 0c86 80bd 57d9 60bd
000000e0: 5715 c93c 3f9b afbd 9159 7d3d 5b25 863d
000000f0: 3a3e bb3d 3ea8 ad3d 0761 63bd 7843 2ebd
00000100: 9bbe 913d 3d11 68bc 2cd7 92bd 4e42 3abd
00000110: f8e4 8b3d 49b9 61bd 389e 0c3d d90f a6bd
00000120: a177 813d 252a d63c 2b9d 8c3d 276c 6f3b
00000130: d902 4d3d 4484 a53d 4ae8 49bc af98 96bd
00000140: fe9c 8abd f93d 6e3d 1d47 80bd d534 b1bd
00000150: 6562 aabd d3e8 30bd 6a7f 973c 97a0 b4bd
00000160: 9deb 3abd 524b bf3d 1b10 81bc 47e8 04bd
00000170: 36ab 413d 9044 a3bd c545 9bbd 2e2d 853c
00000180: 9485 013d 561c c4bd 3ac5 b13d 4a14 1cbd

layers.2.layers.0.weight f4 [100, 100]
0.01588989 0.07280855 0.038638085 0.031628456 -0.09069315 -0.09275955 0.037629254 0.0042651244
0.06190759 0.050871663 -0.07950704 0.018848488 -0.07763849 -0.054745037 0.028406963 -0.004810049
-0.06332689 0.03473434 0.06993808 -0.09754732 0.09438689 0.05608552 -0.0077423775 -0.09667579
-0.041880168 0.031327225 -0.042175453 -0.032801855 -0.040813703 0.08648941 0.085895844 -0.07731119
-0.030725308 0.09167556 -0.005396068 -0.048632286 0.012573922 0.07985346 -0.012283772 -0.09385411
-0.032902215 0.05095798 -0.013668679 0.071825564 0.035439536 0.0018697667 0.038787823 -0.012528078
-0.085234106 -0.08521537 -0.077807695 -0.015184221 -0.07155585 0.015285098 0.012348185 0.07675864
0.0063025453 0.017751586 0.035974834 -0.02764752 -0.049192775 -0.09337945 -0.09697592 0.0071267504
-0.047067285 0.02859821 0.02584422 0.078320056 -0.011030124 2.544584e-05 0.0701304 0.017381553
0.046781186 -0.053226292 -0.07121244 0.07703571 0.07268094 -0.037120175 0.017215112 -0.08851509
0.007708239 -0.09242598 0.05714827 -0.09874279 -0.023512322 0.09474954 -0.033378255 -0.057853214
0.09052973 -0.04912259 0.02244672 0.05662188 0.028074203 -0.068849586 0.0915099 0.048814304
-0.06218889 -0.05654523 -0.02251945 0.034403175 0.03706992 0.011963809 0.06543547 0.098851055
0.020180888 0.03834104 0.056375276 0.019240215 0.0055496288 0.08922322 0.06814575 0.064942695
-0.039414637 -0.048218824 -0.05480863 -0.084330454 -0.011063527 0.055561572 0.013950427 -0.03606439
-0.014136468 -0.07709585 -0.06479254 0.008678517 -0.0584802 0.011878056 0.081849284 0.025134804
0.07592278 -0.06350209 0.00187101 -0.098896384 0.000524858 -0.0742188 0.09318965 -0.0858693
0.033213943 -0.060182136 0.027201025 -0.001103725 -0.01331376 -0.04011231 0.0629853 -0.018780496
0.007952398 -0.030444175 -0.07332318 -0.04240624 0.08888094 0.094386294 -0.046829715 0.009475781
0.015113197 0.087700516 0.013343424 0.004313571 -0.029762072 0.020608423 -0.099745475 -0.10021045
-0.012280208 -0.070353255 -0.0699002 -0.017237362 0.055261586 0.04878693 -0.035701666 -0.007237984
0.09170487 0.021193063 0.06744296 -0.041656878 -0.090289526 -0.04724072 0.008185838 -0.024740102
-0.055425037 0.095217004 -0.09274403 0.0020798994 0.039264232 -0.02756212 0.042893298 5.159409e-05
-0.05988704 -0.05505362 -0.04539895 -0.097841576 0.061750915 0.090392485 -0.05177086 0.004283407
0.032489687 0.027922874 -0.05599344 -0.06146807 0.09670007 0.05789026 0.09208065 0.06952228
-0.007508474 0.070251144 -0.0032384708 -0.0006443475 -0.04335776 0.077922754 -0.021279246 0.014480966
-0.07975848 0.034222804 -0.04759865 -0.02261992 -0.008971086 0.037037507 0.004022857 0.017367562
-0.06497359 -0.075607225 0.035959847 -0.04122613 -0.08623715 -0.0412916 -0.09813835 0.019926347
0.007381872 0.09227983 -0.055158798 -0.051735166 0.02385508 -0.026322896 0.077844515 0.015134011
-0.00217099 -0.038396247 0.060383637 -0.046839535 0.04013121 0.064194605 -0.07845373 -0.088631675
-0.0564056 0.047871236 -0.055286165 0.009349167 0.01503968 0.020956604 -0.051032536 0.0033884163
0.06920715 0.051755294 0.019056717 -0.07953989 0.046929378 -0.039844036 0.06991873 0.041501652
00000000: 842b 823c a61c 953d f842 1e3d d78c 013d
00000010: 55bd b9bd b8f8 bdbd 2221 1a3d 75c2 8b3b
00000020: d092 7d3d ce5e 503d 96d4 a2bd 2568 9a3c
00000030: ee00 9fbd 553c 60bd b8b5 e83c 9e9d 9dbb
00000040: 87b1 81bd 9845 0e3d b23b 8f3d e4c6 c7bd
00000050: ea4d c13d eeb9 653d c5b3 fdbb f5fd c5bd
00000060: 8a8a 2bbd fa50 003d 2bc0 2cbd 3d5b 06bd
00000070: 452c 27bd 5c21 b13d 29ea af3d 5455 9ebd
00000080: a4b3 fbbc 65c0 bb3d 80d1 b0bb a632 47bd
00000090: da02 4e3c 368a a33d e041 49bc 9536 c0bd
000000a0: 79c4 06bd 51b9 503d 98f2 5fbc 4819 933d
000000b0: 0c29 113d f612 f53a fbdf 1e3d 9142 4dbc
000000c0: 388f aebd 6585 aebd a459 9fbd 3dc7 78bc
000000d0: e08b 92bd 596e 7a3c 0b50 4a3c a233 9d3d
000000e0: 9585 ce3b c66b 913c 595a 133d 0d7d e2bc
000000f0: 5d7e 49bd ba3d bfbd 509b c6bd 8487 e93b
00000100: a0c9 40bd cb46 ea3c 42b7 d33c 4466 a03d
00000110: b1b7 34bc 8674 d537 87a0 8f3d c263 8e3c
00000120: a19d 3f3d d003 5abd d4d7 91bd e6c4 9d3d
00000130: bfd9 943d 530b 18bd b506 8d3c 6647 b5bd
00000140: 6595 fc3b d549 bdbd 4e14 6a3d a939 cabd
00000150: ea9c c0bc 0c0c c23d a3b7 08bd 7ef7 6cbd
00000160: a767 b93d c534 49bd 2fe2 b73c 58ec 673d
00000170: dffb e53c 0301 8dbd 8b69 bb3d 82f1 473d
00000180: c7b9 7ebd f99b 67bd b67a b8bc 58ea 0c3d
00000190: a1d6 173d da03 443c 0803 863d 6c72 ca3d
000001a0: 6452 a53c 7f0b 1d3d c3e9 663d a89d 9d3c
000001b0: a9d9 b53b aaba b63d 0090 8b3d ad00 853d
000001c0: 3e71 21bd 1a81 45bd 047f 60bd 72b5 acbd
000001d0: cc43 35bc 8894 633d 5590 643c 41b8 13bd
000001e0: a59c 67bc 6ee4 9dbd f4b1 84bd 5730 0e3c
000001f0: ef88 6fbd 2e9c 423c 99a0 a73d 81e7 cd3c
00000200: 677d 9b3d 620d 82bd ae3c f53a 308a cabd
00000210: a096 093a 0700 98bd 37da be3d 3edc afbd
00000220: 580b 083d 8b81 76bd afd4 de3c deaa 90ba
00000230: f521 5abc ce4c 24bd 70fe 803d 8ed9 99bc
00000240: c64a 023c 1066 f9bc 772a 96bd 2ab2 2dbd
00000250: 3607 b63d 9a4d c13d 84d0 3fbd 4e40 1b3c
00000260: 589d 773c 549c b33d 609e 5a3c db58 8d3b
00000270: 97cf f3bc ffd2 a83c 5b47 ccbd 233b cdbd
00000280: ed32 49bc 5e15 90bd d627 8fbd 5e35 8dbc
00000290: f959 623d ced4 473d e93b 12bd 9c2c edbb
000002a0: c3cf bb3d 139d ad3c 891f 8a3d 67a0 2abd
000002b0: b7e9 b8bd 7c7f 41bd e51d 063c c1ab cabc
000002c0: 5d05 63bd 2201 c33d 95f0 bdbd ec4e 083b
000002d0: 88d3 203d f5c9 e1bc e2b0 2f3d bb66 5838
000002e0: 1d4c 75bd e87f 61bd 40f4 39bd 2a61 c8bd
000002f0: 87ee 7c3d b21f b93d ae0d 54bd d25b 8c3b
00000300: e813 053d 83be e43c 6159 65bd f1c5 7bbd
00000310: b00a c63d 561e 6d3d c894 bc3d b261 8e3d
00000320: a509 f6bb d5df 8f3d 863c 54bb 6ee9 28ba
00000330: e897 31bd f795 9f3d d051 aebc 9341 6d3c
00000340: 6a58 a3bd 362d 0c3d cdf6 42bd 694d b9bc
00000350: 76fb 12bc a4b4 173d 2cd2 833b 6b46 8e3c
00000360: e010 85bd f6d7 9abd a24a 133d bbdc 28bd
00000370: 1a9d b0bd 6121 29bd c2fc c8bd 943c a33c
00000380: a1e3 f13b 35fd bc3d 31ee 61bd 41e8 53bd
00000390: bb6b c33c 1da3 d7bc f26c 9f3d a5f4 773c
000003a0: 2b47 0ebb 6245 1dbd d554 773d d0da 3fbd
000003b0: a060 243d 7678 833d 59ac a0bd 8684 b5bd
000003c0: 8f09 67bd a114 443d bf73 62bd 402d 193c
000003d0: fd68 763c 2fad ab3c 7e07 51bd 3110 5e3b
000003e0: 7abc 8d3d 5cfd 533d d51c 9c3c cfe5 a2bd
000003f0: 0539 403d 8033 23bd 8d31 8f3d a3fd 293d

layers.2.layers.0.bias f4 [100]
-0.041850254 -0.0320247 -0.0841786 -0.0019068944 0.056403536 -0.060601138 -0.0072629545 0.07180297
-0.063609704 0.02935291 -0.023063218 0.08314496 -0.00564478 0.08704519 -0.03420667 -0.077979565
0.0021866693 -0.05826165 -0.053942107 0.06554725 0.09165346 -0.06817739 -0.09966567 0.024770042
-0.082136154 -0.02039152 0.04264425 0.041632038 0.012820292 0.043858167 -0.05563936 -0.030707909
-0.031638294 -0.09722465 -0.05893472 0.009401561 0.021663122 -0.045409568 0.0697318 -0.054922935
0.013191939 0.085479066 0.069338575 0.10567424 0.028238157 -0.068813674 -0.03511407 -0.02880286
-0.07262002 -0.03173801 -0.09388761 -0.04564044 -0.098904245 0.09285125 0.022561269 0.10542166
0.058614586 0.09517711 -0.031910058 -0.0453697 -0.04483777 -0.09214751 -0.005985721 0.01811973
0.061433367 -0.012964788 0.03464678 0.04049579 0.019480105 0.025015458 -0.035758354 0.059430413
-0.09617257 0.011619181 0.048547372 0.07418684 0.050086174 -0.014582725 0.06969714 -0.09538211
-0.02247932 -0.037093997 0.059109297 0.09409218 -0.026654502 0.020824155 -0.01741614 -0.03247766
0.041140698 0.023322266 -0.051323857 0.022016581 0.09951941 -0.07298143 -0.017447738 -0.08819355
-0.02358603 0.096307844 0.0603381 -0.09504627
00000000: 2c6b 2bbd 552c 03bd d465 acbd c2f0 f9ba
00000010: 6507 673d e638 78bd 14fe edbb 6f0d 933d
00000020: ce45 82bd 8475 f03c 13ef bcbc e847 aa3d
00000030: d9f7 b8bb c044 b23d 4b1c 0cbd c0b3 9fbd
00000040: 394e 0f3b c5a3 6ebd 66f2 5cbd a33d 863d
00000050: cfb4 bb3d 96a0 8bbd 841d ccbd 8bea ca3c
00000060: 0037 a8bd 1e0c a7bc bdab 2e3d 5b86 2a3d
00000070: 340c 523c 9fa4 333d 19e6 63bd 278f fbbc
00000080: 2897 01bd b81d c7bd 8865 71bd 0109 1a3c
00000090: dc76 b13c 62ff 39bd 8ccf 8e3d dff6 60bd
000000a0: 0123 583c a60f af3d 6201 8e3d bc6b d83d
000000b0: b553 e73c 2fee 8cbd c5d3 0fbd faf3 ebbc
000000c0: ceb9 94bd b7ff 01bd 2648 c0bd 78f1 3abd
000000d0: 4f8e cabd cc28 be3d 69d2 b83c 50e7 d73d
000000e0: d915 703d 37ec c23d 1fb4 02bd 94d5 39bd
000000f0: cfa7 37bd d5b7 bcbd de23 c4bb d46f 943c
00000100: 8ea1 7b3d 436a 54bc c8e9 0d3d eade 253d
00000110: be94 9f3c 38ed cc3c 5a77 12bd 4e6d 733d
00000120: 20f6 c4bd 615e 3e3c 9cd9 463d 45ef 973d
00000130: 2927 4d3d 62ec 6ebc 60bd 8e3d b257 c3bd
00000140: 8d26 b8bc e0ef 17bd 971c 723d 67b3 c03d
00000150: 8b5a dabc 6b97 aa3c 4bac 8ebc 4b07 05bd
00000160: 2683 283d 560e bf3c f738 52bd 1e5c b43c
00000170: d5d0 cb3d 4a77 95bd 8fee 8ebc d29e b4bd
00000180: 7d37 c1bc 0c3d c53d 1525 773d 9ea7 c2bd

layers.3.weight f4 [2, 100]
-0.09125971 -0.001347686 -0.013545237 0.07168533 -0.043180067 0.07442624 -0.06164339 -0.024809416
-0.007318997 -0.05726119 0.00080231624 -0.028538655 -0.050031234 -0.089274675 -0.0016326685 0.09275082
0.03809099 -0.08446098 -0.053054545 0.05545023 -0.04101953 -0.013990603 -0.047343295 0.031688493
-0.06902341 -0.10776315 -0.0737897 -0.0939554 0.007389207 0.013866832 -0.035077482 0.03239835
0.002628083 0.020969851 0.049936764 0.0020136065 0.09836819 0.0692208 -0.068275355 0.07466014
-0.021498442 -0.009634981 -0.0010253354 -0.10024326 0.06121473 0.06387159 0.093167394 0.0126824295
-0.02911967 -0.022419062 -0.033066414 -0.09163458 0.030903261 0.00023742329 -0.04859578 -0.07420015
-0.028695155 0.008333026 0.07187627 0.03465868 0.074219175 0.07951075 -0.05102235 -0.007099509
-0.10164248 -0.0699228 0.026865285 0.033271912 0.043020546 0.078133665 0.036344748 -0.054069187
-0.0256799 0.003677868 0.046400398 -0.07837181 -0.05284337 0.03702753 0.032674253 0.09403304
0.08006121 -0.048325352 0.024607157 -0.072153285 -0.0046137413 -0.008657811 0.019924443 0.080873586
-0.080698736 0.07867307 0.06656192 -0.048751775 -0.0406144 -0.030978058 0.06133183 -0.026182245
0.028689763 -0.052504424 0.07561554 -0.018343024 0.09731177 -0.069078036 -0.02774999 0.06827605
0.048866834 -0.049219508 -0.079383254 -0.068908446 -0.078381665 -0.049472872 -0.057150345 -0.02187003
0.089229494 -0.015968436 -0.060338076 0.04920266 -0.058132004 -0.042071603 -0.013983601 -0.0020759641
-0.057922907 -0.07480482 -0.09729006 -0.026423091 0.05205966 0.021001322 0.08002399 0.025009727
-0.07279536 0.011057448 -0.02219705 0.06567203 0.03396013 0.10218754 -0.087441646 -0.029386412
-0.08396405 0.013253573 -0.052040707 -0.041514672 0.106251836 -0.029145567 0.05929108 0.07703665
0.07660127 0.08363902 0.06547035 0.015459727 0.08619799 0.10448129 -0.0686965 0.022088816
0.07189216 -0.052924555 0.056996576 0.078335 0.009472244 -0.009592009 -0.0048976503 0.093110085
-0.07801113 0.0407029 -0.05228982 0.072502784 -0.0235039 0.034499925 0.07503275 -0.00890279
-0.01471637 0.09768692 0.09955974 0.05824063 0.007204792 0.0028683185 -0.057798784 0.09486025
0.05547519 0.08099557 -0.0642675 0.025588822 0.02196387 -0.027860655 -0.00067625666 0.03053854
-0.026837867 0.094941996 -0.08708856 -0.0075974013 -0.044739272 0.08935746 -0.032817464 -0.022625895
0.0996362 -0.07833345 -0.032030217 0.086428784 0.07673094 -0.015587092 -0.013692447 -0.045373734
00000000: 5fe6 babd d7a4 b0ba d7ec 5dbc c2cf 923d
00000010: 95dd 30bd c96c 983d c87d 7cbd 1e3d cbbc
00000020: 32d4 efbb b68a 6abd 8852 523a e6c9 e9bc
00000030: 8ded 4cbd a4d5 b6bd 44ff d5ba 24f4 bd3d
00000040: 4c05 1c3d e1f9 acbd b94f 59bd c81f 633d
00000050: 1804 28bd d838 65bc 0beb 41bd cbcb 013d
00000060: 255c 8dbd edb2 dcbd 0e1f 97bd b06b c0bd
00000070: 2921 f23b b531 633c 68ad 0fbd 22b4 043d
00000080: eb3b 2c3b f7c8 ab3c 7e8a 4c3d b6f6 033b
00000090: 4375 c93d a3c3 8d3d f3d3 8bbd 6ae7 983d
000000a0: 801d b0bc 0adc 1dbc 8c64 86ba 574c cdbd
000000b0: 4cbc 7a3d 1ccf 823d 8cce be3d f7c9 4f3c
000000c0: 608c eebc 2ea8 b7bc a670 07bd e9aa bbbd
000000d0: d628 fd3c d4f4 7839 5e0c 47bd 40f6 97bd
000000e0: 1a12 ebbc 3f87 083c de33 933d 43f6 0d3d
000000f0: 3900 983d 88d6 a23d d0fc 50bd ffa2 e8bb
00000100: ef29 d0bd af33 8fbd 9614 dc3c 2148 083d
00000110: 5036 303d 8b04 a03d 3bde 143d a777 5dbd
00000120: a75e d2bc 6308 713b 580e 3e3d 6681 a0bd
00000130: 4a72 58bd 2eaa 173d 70d5 053d 6594 c03d
00000140: 22f7 a33d cef0 45bd f394 c93c 1ac5 93bd
00000150: de2e 97bb 7ed9 0dbc 9638 a33c 0da1 a53d
00000160: 6145 a5bd 591f a13d 9e51 883d f1af 47bd
00000170: 495b 26bd b2c5 fdbc 1637 7b3d 267c d6bc
00000180: cb06 eb3c e10e 57bd 52dc 9a3d 1c44 96bc
00000190: 654b c73d c978 8dbd f253 e3bc 50d4 8b3d
000001a0: 9728 483d 659a 49bd b093 a2bd df1f 8dbd
000001b0: 9186 a0bd 11a4 4abd 7b16 6abd c728 b3bc
000001c0: f4bd b63d 3dd0 82bc 0f25 77bd ba88 493d
000001d0: d31b 6ebd 4653 2cbd 791b 65bc e60c 08bb
000001e0: 9240 6dbd 4533 99bd 0340 c7bd 3d75 d8bc
000001f0: 833c 553d f70a ac3c 9ee3 a33d 33e1 cc3c
00000200: bc15 95bd 4c2a 353c 96d6 b5bc 0f7f 863d
00000210: c719 0b3d b347 d13d 9b14 b3bd c6bb f0bc
00000220: 58f5 abbd 8425 593c a328 55bd 4a0b 2abd
00000230: 909a d93d afc2 eebc 34db 723d 64c5 9d3d
00000240: 20e1 9c3d ef4a ab3d 5215 863d cb4a 7d3c
00000250: 9288 b03d 49fa d53d c0b0 8cbd 9bf3 b43c
00000260: 323c 933d 6bc7 58bd 3e75 693d 1a6e a03d
00000270: 7931 1b3c cd27 1dbc 787c a0bb 80b0 be3d
00000280: 4dc4 9fbd 16b8 263d da2d 56bd 577c 943d
00000290: 408b c0bc cb4f 0d3d c5aa 993d 02dd 11bc
000002a0: ee1c 71bc 1410 c83d fae5 cb3d ba8d 6e3d
000002b0: 2d16 ec3b 66fa 3b3b 6bbe 6cbd 1746 c23d
000002c0: f439 633d 01e1 a53d ae9e 83bd a69f d13c
000002d0: 93ed b33c 073c e4bc d146 31ba f62b fa3c
000002e0: 16db dbbc f370 c23d 7d5b b2bd 9ff3 f8bb
000002f0: 8740 37bd 0b01 b73d 9b6b 06bd f159 b9bc
00000300: 100e cc3d 4a6d a0bd 1e32 03bd 9301 b13d
00000310: 1c25 9d3d 0161 7fbc 4956 60bc cfd9 39bd

layers.3.bias f4 [2]
-0.06049581 0.10960044
00000000: 74ca 77bd 3276 e03d
