clients_data/clients_trained_model/client5.pth (torch, 86087 bytes, 6 tensors)

layers.1.layers.0.weight f4 [100, 105]
0.07472936 0.080944456 -0.022802893 0.08968513 -0.021418637 0.019793049 -0.047591396 0.057268675
0.08602978 -0.0715224 0.08464161 0.018383611 0.07202366 0.013298715 0.047338787 -0.013847952
0.07519296 0.014203185 -0.045521356 0.024778143 -0.04501277 -0.011466727 -0.039592344 0.06493852
-0.07705652 -0.045017414 -0.027477048 -0.058615938 0.009311094 -0.096310735 0.087679416 -0.08294548
0.07530569 0.01609236 -0.03166602 0.060248308 0.015199357 0.07893511 0.010693432 -0.030669525
0.025970336 -0.026520463 0.04127202 0.0871763 0.056263134 -0.04268491 0.05610338 0.017337944
0.04942429 -0.059351485 -0.096502624 -0.037809316 -0.074937776 0.08005222 0.028015016 0.040484585
0.030774653 -0.001779637 0.076505885 -0.06950408 0.006309676 -0.066662215 0.030116662 -0.03360887
0.029942114 -0.020331575 0.08100978 -0.057840306 -0.058200922 -0.05819991 0.087777436 0.03255731
0.09395028 -0.08053747 -0.09679605 -0.07634996 -0.06566065 0.039660156 0.034914847 0.08104448
-0.050396558 -0.06652734 0.051780924 -0.03944516 0.059186563 -0.02315817 0.055818107 -0.07582339
-0.049260627 0.029753366 0.02065514 -0.024872808 0.058139596 0.06614651 -0.07076922 -0.052098878
0.08929063 -0.032929376 -0.034596592 -0.09442652 -0.055885665 0.024378812 -0.012881215 -0.070838414
0.0022891387 -0.066987865 -0.08262021 -0.05373485 -0.08551294 -0.062227443 0.09730646 0.018504092
0.030129699 -0.091020666 -0.06418784 -0.03267221 0.015359183 -0.08603005 -0.041800108 -0.05848041
0.00036538008 -0.03624028 -0.0066595343 -0.06617005 -0.06704902 -0.057157446 -0.033393003 -0.07707993
0.08168637 -0.019425986 0.08397415 0.030213814 -0.08320089 0.06773142 -0.026310632 -0.03747782
-0.081119195 -0.09705011 0.027864885 -0.021167418 0.037967183 -0.07980436 0.07219135 -0.0717166
-0.017070584 0.02051723 0.050634425 0.07875075 0.08908817 -0.07741811 0.02465219 -0.042195857
-0.010701011 -0.07323547 0.08952476 -0.07211056 0.05226193 0.03430167 0.0317514 -0.052949835
0.08874955 0.021503164 0.012446557 -0.085790776 0.04084882 -0.014522171 -0.044864606 0.08354772
0.021679133 -0.053919986 -0.049400736 -0.0047154515 0.054275114 -0.02494892 -0.055710163 -0.03343048
-0.07294581 0.034739837 0.07546379 -0.09189144 0.022673212 0.05048893 0.017784813 -0.034763586
0.050977066 0.05131134 0.036479406 -0.017222537 -0.025832899 0.0104731275 -0.017239675 -0.029093409
0.0623027 0.08381401 -0.009667782 -0.021861581 0.001394881 -0.0058401865 0.023382017 0.02735588
-0.088655554 -0.036023777 0.082184725 0.038044315 -0.0046944264 -0.05885513 -0.059712697 -0.08741789
-0.0318218 0.03295655 0.061981577 0.045168046 -0.08641179 -0.058654472 -0.0153519185 0.09433559
0.014087885 -0.025273273 0.040374473 -0.037208345 -0.06324885 0.07155703 -0.04437396 -0.019776009
-0.0970797 0.06523957 0.07410469 0.035689916 -0.06804842 -0.0963168 -0.079328224 0.07278109
0.04678744 0.0821043 0.05101432 0.024604097 -0.0009490906 -0.07465454 -0.08363648 -0.090804204
0.040035676 -0.047961585 -0.019664964 -0.05616406 -0.017674884 -0.0687159 -0.06375615 0.032560382
-0.02905747 0.06009009 -0.031222181 -0.07158212 -0.016914112 -0.04740281 -0.030271174 -0.092878275
00000000: b50b 993d 35c6 a53d 22cd babc d6ac b73d
00000010: 2376 afbc 0825 a23c 32ef 42bd 8f92 6a3d
00000020: 6230 b03d 567a 92bd 9558 ad3d 3a99 963c
00000030: 2481 933d dbe2 593c 51e6 413d 85e2 62bc
00000040: c4fe 993d 7ab4 683c 9a74 3abd 88fb ca3c
00000050: 4f5f 38bd f0de 3bbc 952b 22bd 7dfe 843d
00000060: cfcf 9dbd 2e64 38bd 8c17 e1bc 4417 70bd
00000070: 8f8d 183c 903e c5bd 4491 b33d 52df a9bd
00000080: df39 9a3d 20d4 833c 3bb4 01bd eec6 763d
00000090: b906 793c bba8 a13d 8133 2f3c a83e fbbc
000000a0: bebf d43c 7141 d9bc da0c 293d 7d89 b23d
000000b0: 2c74 663d 5fd6 2ebd a8cc 653d 4e08 8e3c
000000c0: 2071 4a3d 8b1a 73bd 2ba3 c5bd f1dd 1abd
000000d0: fa78 99bd 6bf2 a33d bf7f e53c 2ad3 253d
000000e0: 201b fc3c b542 e9ba 1eaf 9c3d 2858 8ebd
000000f0: 66c1 ce3b 3386 88bd 38b7 f63c 74a9 09bd
00000100: 2a49 f53c 678e a6bc 75e8 a53d f5e9 6cbd
00000110: 1764 6ebd 0763 6ebd a8c4 b33d d05a 053d
00000120: 0169 c03d d4f0 a4bd 023d c6bd 5e5d 9cbd
00000130: 1779 86bd b072 223d df02 0f3d a6fa a53d
00000140: 9f6c 4ebd 7c3f 88bd 3c18 543d 4091 21bd
00000150: 9c6d 723d 34b6 bdbc 87a1 643d 4b49 9bbd
00000160: 83c5 49bd 55bd f33c f834 a93c 0fc2 cbbc
00000170: c923 6e3d d277 873d 74ef 90bd a265 55bd
00000180: 01de b63d f4e0 06bd 28b5 0dbd b162 c1bd
00000190: 5ee8 64bd 13b6 c73c bb0b 53bc bb13 91bd
000001a0: 6005 163b ef30 89bd c934 a9bd 1319 5cbd
000001b0: 6921 afbd 34e2 7ebd 9c48 c73d e595 973c
000001c0: 8fd2 f63c 0b69 babd ea74 83bd 4cd3 05bd
000001d0: 15a5 7b3c 8630 b0bd 9736 2bbd 2889 6fbd
000001e0: 7c90 bf39 b070 14bd 3938 dabb 2a84 87bd
000001f0: ff50 89bd ed1d 6abd 1ac7 08bd 15dc 9dbd
00000200: 2f4b a73d 3f23 9fbc a4fa ab3d f682 f73c
00000210: 3a65 aabd c5b6 8a3d 6589 d7bc 5882 19bd
00000220: d221 a6bd 35c2 c6bd e644 e43c 4b67 adbc
00000230: 7a83 1b3d 7870 a3bd 0fd9 933d 27e0 92bd
00000240: 9cd7 8bbc c013 a83c 0b66 4f3d 1348 a13d
00000250: dc73 b63d 638d 9ebd 64f3 c93c 90d5 2cbd
00000260: 4b53 2fbc 7afc 95bd c258 b73d b4ae 93bd
00000270: 9b10 563d e87f 0c3d c20d 023d ede1 58bd
00000280: 53c2 b53d 6727 b03c a5ec 4b3c 13b3 afbd
00000290: 1851 273d 66ee 6dbc f3c3 37bd 111b ab3d
000002a0: 7098 b13c 34db 5cbd 6d58 4abd 1384 9abb
000002b0: 954f 5e3d ad61 ccbc 5730 64bd 66ee 08bd
000002c0: 9d64 95bd 5c4b 0e3d c28c 9a3d 9431 bcbd
000002d0: 2cbd b93c 7bcd 4e3d 75b1 913c 4364 0ebd
000002e0: 54cd 503d d72b 523d 6e6b 153d 4716 8dbc
000002f0: 849f d3bc 7b97 2b3c 383a 8dbc 4d55 eebc
00000300: 1e31 7f3d aea6 ab3d 9e65 1ebc 0f17 b3bc
00000310: 71d4 b63a 095f bfbb a58b bf3c 7019 e03c
00000320: 0b91 b5bd ab8d 13bd 7750 a83d 5bd4 1b3d
00000330: b4d3 99bb 1412 71bd 4d95 74bd 2708 b3bd
00000340: 9357 02bd 73fd 063d 65e0 7d3d 2102 393d
00000350: aaf8 b0bd ac3f 70bd 9d86 7bbc 0533 c13d
00000360: dfd0 663c e509 cfbc b45f 253d c767 18bd
00000370: 9d88 81bd 7e8c 923d 78c1 35bd 4c01 a2bc
00000380: b9d1 c6bd 539c 853d 33c4 973d 972f 123d
00000390: f85c 8bbd be41 c5bd d676 a2bd 410e 953d
000003a0: 30a4 3f3d 4d26 a83d 64f4 503d 888e c93c
000003b0: 64cc 78ba 7be4 98bd 9a49 abbd 8ef7 b9bd
000003c0: 73fc 233d 5e73 44bd 6b18 a1bc 490c 66bd
000003d0: ebca 90bc ecba 8cbd 9692 82bd 095e 053d
000003e0: ee09 eebc 0721 763d a9c5 ffbc a699 92bd
000003f0: 778f 8abc 7329 42bd 41fb f7bc f736 bebd

layers.1.layers.0.bias f4 [100]
0.06419637 0.04304543 -0.0045217867 0.054611813 -0.004604338 -0.015813382 -0.037274502 -0.08199072
0.08116144 -0.06103756 -0.091462515 -0.044722144 0.018879574 -0.009092758 0.043130904 0.05726132
0.056825135 -0.081763804 0.04041969 0.048977006 -0.055117823 0.00042809782 0.014884519 0.014383829
0.053340793 0.081886835 0.09375071 0.023026742 0.057022035 0.041517705 -0.051503506 0.06540114
-0.007597136 0.04232971 -0.06510211 0.07896306 0.021661563 0.022543238 -0.08695851 -0.008588718
-0.03326152 0.09109569 -0.08924806 -0.02333141 -0.049094897 -0.07192453 0.037044995 -0.06581696
0.045495775 0.011973372 -0.05002581 -0.010745476 0.009976315 -0.04248016 -0.06275279 -0.054950394
0.024490926 -0.08577241 0.061948802 0.06513297 0.091325946 0.08448169 -0.055509105 -0.04237374
0.07124283 -0.014125356 -0.07161066 -0.045414876 0.06840219 -0.055213153 0.034252908 -0.08106606
0.06327609 0.026213862 0.06878408 0.003795956 0.050053727 0.08077936 -0.01231107 -0.07377366
-0.067941524 0.058028404 -0.06254425 -0.08658921 -0.083154015 -0.043272976 0.018371737 -0.08803087
-0.04550638 0.093483895 -0.01566069 -0.032379135 0.04723427 -0.079778135 -0.07573494 0.01600703
0.031596795 -0.09581255 0.08695844 -0.038192354
00000000: 6379 833d 6850 303d 7f2b 94bb a3b0 5f3d
00000010: fddf 96bb 118b 81bc 26ad 18bd c0ea a7bd
00000020: f837 a63d 8502 7abd b350 bbbd 912e 37bd
00000030: 56a9 9a3c cbf9 14bc 08aa 303d d98a 6a3d
00000040: 79c1 683d c873 a7bd 1e8f 253d 1d9c 483d
00000050: 3ac3 61bd 5172 e039 33de 733c 27aa 6b3c
00000060: e07b 5a3d 49b4 a73d 5f00 c03d 94a2 bc3c
00000070: f08f 693d 780e 2a3d 57f5 52bd 08f1 853d
00000080: 65f1 f8bb eb61 2d3d 4154 85bd 63b7 a13d
00000090: 9773 b13c 99ac b83c 4e17 b2bd b2b7 0cbc
000000a0: 3b3d 08bd 6190 ba3d b0c7 b6bd 8321 bfbc
000000b0: bb17 49bd 2b4d 93bd 7ebc 173d 0bcb 86bd
000000c0: c759 3a3d f62b 443c dde7 4cbd cb0d 30bc
000000d0: b373 233c adff 2dbd 8984 80bd aa13 61bd
000000e0: 32a1 c83c 72a9 afbd 07be 7d3d 6f64 853d
000000f0: 1909 bb3d bc04 ad3d 845d 63bd 1690 2dbd
00000100: c3e7 913d 0a6e 67bc 9ca8 92bd f304 3abd
00000110: 7316 8c3d 3027 62bd c74c 0c3d f605 a6bd
00000120: e596 813d 74be d63c abde 8c3d 93c5 783b
00000130: 2305 4d3d a66f a53d 5fb4 49bc a516 97bd
00000140: ed24 8bbd 31af 6d3d 3317 80bd af55 b1bd
00000150: a74c aabd 013f 31bd 5380 963c 8749 b4bd
00000160: e664 3abd 7c74 bf3d d94a 80bc fc9f 04bd
00000170: b978 413d b862 a3bd ec1a 9bbd 2d21 833c
00000180: a46b 013d 5f39 c4bd 4417 b23d 966f 1cbd

layers.2.layers.0.weight f4 [100, 100]
0.015881684 0.072948426 0.038479563 0.031887706 -0.090708934 -0.09254726 0.038021617 0.004288479
0.061797906 0.051161226 -0.07925264 0.018874573 -0.07785422 -0.054734327 0.028314015 -0.0044116606
-0.06300873 0.034881413 0.070187956 -0.09736699 0.094305485 0.055968568 -0.007999756 -0.09638501
-0.041936964 0.031123752 -0.042161576 -0.03279489 -0.04069573 0.08662186 0.08597462 -0.07726963
-0.031005293 0.09157222 -0.0054259347 -0.049019016 0.012859482 0.0796875 -0.012298853 -0.093558565
-0.032792352 0.051020503 -0.013209748 0.07172512 0.035430413 0.0020323428 0.039211646 -0.012523969
-0.08517289 -0.08542032 -0.07797967 -0.015091769 -0.07152257 0.015221164 0.012504806 0.076675326
0.006306041 0.01759371 0.03591372 -0.027633214 -0.04922746 -0.09328652 -0.0970056 0.0074039972
-0.047032144 0.029164907 0.025974393 0.078128934 -0.010930229 0.000103414524 0.06979562 0.01760261
0.04673391 -0.05330208 -0.071175195 0.07704431 0.07311001 -0.036997374 0.017491562 -0.08856275
0.0077455766 -0.09251049 0.057216257 -0.09855438 -0.023340277 0.09496027 -0.033328276 -0.05771074
0.09073792 -0.04894064 0.022567853 0.056774113 0.028124942 -0.06873277 0.09169141 0.04879211
-0.062141456 -0.05661028 -0.022197261 0.034138307 0.03701784 0.011910218 0.06535755 0.09868804
0.020181984 0.038259473 0.056136843 0.019119708 0.0055363723 0.08920615 0.068044975 0.064960375
-0.039675526 -0.04822332 -0.054791275 -0.08445564 -0.01134042 0.055440594 0.013999633 -0.036222156
-0.01424024 -0.077157676 -0.06493587 0.008537482 -0.05846228 0.0117666405 0.08180093 0.025144462
0.07581618 -0.06364032 0.0017852281 -0.09893016 0.00042320107 -0.07424661 0.09296909 -0.0859359
0.033030156 -0.06009282 0.02714258 -0.001152716 -0.013384365 -0.040248703 0.062996686 -0.018840024
0.0078513585 -0.030609813 -0.073410116 -0.042523284 0.08904392 0.09442904 -0.046851836 0.009336096
0.015149965 0.08762649 0.013272879 0.004239136 -0.029857311 0.020640189 -0.09983358 -0.100164935
-0.012385283 -0.070397675 -0.070008844 -0.017455826 0.055190142 0.04867956 -0.035763532 -0.007395143
0.09154806 0.021057202 0.06737579 -0.041804213 -0.09024111 -0.047266707 0.007954675 -0.024779081
-0.055424534 0.09513031 -0.09274702 0.0020764866 0.039195552 -0.027599458 0.042783204 -5.113584e-05
-0.060049236 -0.05521161 -0.045356955 -0.09789165 0.061625384 0.09020187 -0.051960133 0.0042132065
0.032343186 0.027789073 -0.05602121 -0.06140113 0.096583255 0.05787049 0.0920992 0.069457725
-0.007503512 0.0702455 -0.0032396126 -0.0006676057 -0.043345872 0.07787881 -0.021308886 0.014470792
-0.079748794 0.034215704 -0.047599044 -0.0226178 -0.009009572 0.037033617 0.00400917 0.017343437
-0.06502329 -0.07560818 0.035975125 -0.041238174 -0.086243354 -0.041291278 -0.09813382 0.01991011
0.0073877065 0.092265956 -0.055163268 -0.05174114 0.023825057 -0.026327956 0.07783443 0.0151327085
-0.0021715688 -0.038404044 0.060372885 -0.046842795 0.04010095 0.06420571 -0.07848844 -0.088640176
-0.056423392 0.047865286 -0.05529947 0.0093511995 0.015029445 0.020923119 -0.05106776 0.0033930305
0.06923572 0.051782988 0.019047154 -0.079574466 0.046932455 -0.039854556 0.06992492 0.041487258
00000000: 4e1a 823c fc65 953d bf9c 1d3d af9c 023d
00000010: 9bc5 b9bd 6b89 bdbd 8ebc 1b3d 5f86 8c3b
00000020: cd1f 7d3d 6f8e 513d 354f a2bd d99e 9a3c
00000030: 0972 9fbd 1a31 60bd cbf2 e73c b18f 90bb
00000040: b90a 81bd d0df 0e3d b4be 8f3d 5868 c7bd
00000050: 3c23 c13d 4c3f 653d 6911 03bc 8165 c5bd
00000060: 18c6 2bbd 3df7 fe3c 9eb1 2cbd ef53 06bd
00000070: 91b0 26bd cd66 b13d 7613 b03d 8a3f 9ebd
00000080: d0fe fdbc 378a bb3d 0acc b1bb 2ac8 48bd
00000090: 94b0 523c 3333 a33d 2181 49bc a29b bfbd
000000a0: 4651 06bd e0fa 503d b36d 58bc 9fe4 923d
000000b0: 7b1f 113d 0e31 053b 649c 203d 5531 4dbc
000000c0: 206f aebd d9f0 aebd ceb3 9fbd 7843 77bc
000000d0: 6d7a 92bd 3062 793c f5e0 4c3c f407 9d3d
000000e0: e8a2 ce3b af20 903c 441a 133d 0d5f e2bc
000000f0: bca2 49bd 010d bfbd dfaa c6bd 3b9d f23b
00000100: c7a4 40bd 3eeb ee3c 40c8 d43c 1002 a03d
00000110: b414 33bc 40e0 d838 02f1 8e3d 5933 903c
00000120: 0e6c 3f3d 4853 5abd 4dc4 91bd 68c9 9d3d
00000130: b3ba 953d 8f8a 17bd 774a 8f3c 6360 b5bd
00000140: 9bce fd3b 2476 bdbd 985b 6a3d e1d6 c9bd
00000150: 1c34 bfbc 887a c23d 3b83 08bd 1962 6cbd
00000160: cdd4 b93d fb75 48bd 38e0 b83c f98b 683d
00000170: 4766 e63c c4c3 8cbd b5c8 bb3d 3cda 473d
00000180: 0a88 7ebd 2ee0 67bd 08d7 b5bc 9cd4 0b3d
00000190: 05a0 173d 1323 433c 2eda 853d f51c ca3d
000001a0: b054 a53c f7b5 1c3d bfef 653d efa0 9c3c
000001b0: 756a b53b b7b1 b63d 2a5b 8b3d f209 853d
000001c0: ce82 22bd d185 45bd d16c 60bd 14f7 acbd
000001d0: 2bcd 39bc ad15 633d b75e 653c af5d 14bd
000001e0: e54f 69bc d804 9ebd 19fd 84bd cbe0 0b3c
000001f0: 2576 6fbd dec8 403c 3f87 a73d c2fb cd3c
00000200: 8345 9b3d db55 82bd 51fe e93a e59b cabd
00000210: 16e1 dd39 9b0e 98bd 9466 be3d 29ff afbd
00000220: a14a 073d e423 76bd 1e5a de3c bb16 97ba
00000230: 184a 5bbc d3db 24bd 6804 813d 6556 9abc
00000240: fca2 003c 6ec1 fabc 0b58 96bd e52c 2ebd
00000250: a95c b63d 0364 c13d b6e7 3fbd 6df6 183c
00000260: 8f37 783c 8475 b33d 7d76 593c 73e8 8a3b
00000270: 5297 f4bc 9d15 a93c 8c75 ccbd 4623 cdbd
00000280: a4eb 4abc a82c 90bd cc60 8fbd 85ff 8ebc
00000290: 0f0f 623d 3864 473d c87c 12bd f552 f2bb
000002a0: 8d7d bb3d 2780 ac3c 51fc 893d e53a 2bbd
000002b0: 55d0 b8bd bc9a 41bd 5354 023c 80fd cabc
000002c0: d604 63bd aed3 c23d 26f2 bdbd aa15 083b
000002d0: 848b 203d 4218 e2bc 713d 2f3d b17a 56b8
000002e0: 30f6 75bd 9225 62bd 37c8 39bd 6b7b c8bd
000002f0: e66a 7c3d c2bb b83d 26d4 54bd f00e 8a3b
00000300: 4a7a 043d e9a5 e33c 7f76 65bd c07f 7bbd
00000310: 71cd c53d 9b09 6d3d 819e bc3d da3f 8e3d
00000320: 05e0 f5bb dfdc 8f3d ae4f 54bb 4302 2fba
00000330: 718b 31bd ed7e 9f3d f98f aebc e716 6d3c
00000340: 5653 a3bd c425 0c3d 37f7 42bd f748 b9bc
00000350: e29c 13bc 90b0 173d 5b5f 833b d313 8e3c
00000360: ee2a 85bd 76d8 9abd a75a 133d 5ce9 28bd
00000370: 5ba0 b0bd 0b21 29bd 62fa c8bd 871a a33c
00000380: 9314 f23b eff5 bc3d e1f2 61bd 85ee 53bd
00000390: c42c c33c baad d7bc a867 9f3d 2eef 773c
000003a0: e150 0ebb 8f4d 1dbd 8f49 773d 3bde 3fbd
000003b0: e540 243d 497e 833d 8cbe a0bd fb88 b5bd
000003c0: 371c 67bd 640e 443d b281 62bd c635 193c
000003d0: 103e 763c f666 ab3c 6d2c 51bd 9b5d 5e3b
000003e0: 75cb 8d3d 661a 543d c708 9c3c f0f7 a2bd
000003f0: 3f3c 403d 883e 23bd cc34 8f3d 8bee 293d

layers.2.layers.0.bias f4 [100]
-0.041684028 -0.03222189 -0.084179915 -0.0018688791 0.056215376 -0.060229905 -0.007272002 0.071767405
-0.06359571 0.029316531 -0.022807628 0.08316892 -0.0059683523 0.08703699 -0.034058917 -0.077949725
0.0021206522 -0.058307037 -0.053914633 0.065715544 0.09165931 -0.06807109 -0.09964954 0.024940357
-0.08234331 -0.020684669 0.04259561 0.041130994 0.013213132 0.043863732 -0.055643138 -0.030756768
-0.031517196 -0.097425625 -0.05880152 0.009297778 0.022269825 -0.045465097 0.06976474 -0.05485166
0.012705821 0.085534476 0.06928589 0.10441727 0.028141037 -0.06888256 -0.035090145 -0.028785644
-0.0724141 -0.03185429 -0.09386316 -0.04537974 -0.098904915 0.09304872 0.02229067 0.10485583
0.058563367 0.095207065 -0.032067202 -0.045625117 -0.04480525 -0.091987856 -0.0059831655 0.017709926
0.061183378 -0.013313925 0.034599256 0.0405125 0.019465754 0.024847174 -0.035589844 0.058635376
-0.0963466 0.011620428 0.049245603 0.073468044 0.04927719 -0.014489692 0.06954274 -0.095364615
-0.022494469 -0.03706547 0.05921314 0.09390804 -0.026493013 0.020191496 -0.017125065 -0.032607436
0.041187637 0.023282057 -0.05099145 0.022009699 0.09890756 -0.072691366 -0.01742689 -0.088421725
-0.02375425 0.09634764 0.060517803 -0.09497402
00000000: dfbc 2abd 1afb 03bd 8566 acbd 2df5 f4ba
00000010: 1842 663d a2b3 76bd f949 eebb cafa 923d
00000020: 783e 82bd 3929 f03c 10d7 babc 7754 aa3d
00000030: 2b92 c3bb 7340 b23d 5d81 0bbd 1ba4 9fbd
00000040: a4fa 0a3b 5cd3 6ebd 97d5 5cbd df95 863d
00000050: e0b7 bb3d db68 8bbd 0f15 ccbd b84f cc3c
00000060: 9ca3 a8bd e572 a9bc bc78 2e3d f978 283d
00000070: e47b 583c 75aa 333d 0fea 63bd 9ef5 fbbc
00000080: 2d18 01bd 1687 c7bd ddd9 70bd b555 183c
00000090: 356f b63c 9c39 3abd d1e0 8e3d 22ac 60bd
000000a0: 132c 503c b32c af3d c3e5 8d3d b9d8 d53d
000000b0: 0888 e63c 4d12 8dbd afba 0fbd dfcf ebbc
000000c0: d84d 94bd a579 02bd 543b c0bd 1be0 39bd
000000d0: a98e cabd 5490 be3d ec9a b63c a7be d63d
000000e0: 24e0 6f3d ecfb c23d e658 03bd 67e1 3abd
000000f0: b685 37bd 2164 bcbd 6e0e c4bb 6814 913c
00000100: 6c9b 7a3d a622 5abc f3b7 0d3d 6ff0 253d
00000110: a576 9f3c 4d8c cb3c a8c6 11bd a62b 703d
00000120: 5e51 c5bd 9c63 3e3c c2b5 493d 6a76 963d
00000130: e1d6 493d 2c66 6dbc 6d6c 8e3d 864e c3bd
00000140: 5246 b8bc f6d1 17bd 7a89 723d dc52 c03d
00000150: e007 d9bc a368 a53c dd49 8cbc 608f 05bd
00000160: 5eb4 283d 03ba be3c 69dc 50bd af4d b43c
00000170: 0c90 ca3d 36df 94bd d6c2 8ebc 7316 b5bd
00000180: 4698 c2bc e951 c53d 84e1 773d bd81 c2bd

layers.3.weight f4 [2, 100]
-0.09113682 -0.0018813536 -0.01366847 0.07038792 -0.043912895 0.074772805 -0.06197036 -0.025406795
-0.0075429874 -0.056673545 -0.0008461083 -0.029068863 -0.04938639 -0.089742966 -0.0014092445 0.09235687
0.038018193 -0.083617955 -0.052768823 0.055364832 -0.04150029 -0.013459143 -0.047319267 0.032868773
-0.068803184 -0.1073272 -0.07390493 -0.09332301 0.008484274 0.014242695 -0.035327006 0.031505316
0.0019073564 0.021660393 0.049960744 0.0019874459 0.09890853 0.06897249 -0.06892573 0.07463229
-0.020285247 -0.009930783 -0.0017584815 -0.0980401 0.062308557 0.064494625 0.09392527 0.012368647
-0.028835319 -0.021337388 -0.033035714 -0.09204496 0.031060677 6.641325e-05 -0.04936871 -0.07485212
-0.028808597 0.00777789 0.07160794 0.035755694 0.07423915 0.080143444 -0.05050349 -0.0063176374
-0.10105435 -0.06907517 0.026126025 0.032827552 0.042761017 0.08005851 0.035728745 -0.05327329
-0.02459448 0.003920938 0.04722078 -0.077355474 -0.051697608 0.03683375 0.032475248 0.09395406
0.08004317 -0.048281297 0.024753416 -0.07226118 -0.0037405207 -0.007742075 0.019911628 0.08112872
-0.080746174 0.07970787 0.066749476 -0.048549555 -0.039712913 -0.0304071 0.061616268 -0.02594768
0.029173095 -0.052431244 0.0758672 -0.018918319 0.097188875 -0.068544365 -0.027626762 0.069573455
0.049599662 -0.04956605 -0.079056315 -0.06831104 -0.07815766 -0.050060514 -0.055501923 -0.021339823
0.088584594 -0.015500145 -0.060561493 0.04959664 -0.058059208 -0.04291466 -0.014269305 -0.0019905719
-0.057442147 -0.07533628 -0.09731412 -0.027603375 0.051839408 0.020565381 0.08013922 0.024377326
-0.07389042 0.0106815845 -0.021947542 0.06656509 0.034680843 0.10149702 -0.087465614 -0.029360268
-0.08450439 0.013501845 -0.051390324 -0.04148681 0.10503865 -0.028849764 0.060024235 0.074833475
0.07550743 0.083015986 0.06471249 0.015773507 0.08591361 0.10339961 -0.06872721 0.02249917
0.07173474 -0.052753527 0.057769507 0.078986965 0.009585689 -0.00903687 -0.004629294 0.092013046
-0.078031115 0.04007019 -0.052808683 0.07172092 -0.024092058 0.033652317 0.07577201 -0.008458434
-0.014456847 0.095762074 0.10017572 0.057444733 0.006119375 0.0026252489 -0.058619168 0.09384387
0.054329433 0.08118935 -0.06406848 0.02566783 0.021981882 -0.027904693 -0.000822519 0.030646423
-0.027711092 0.09402624 -0.08707576 -0.007852569 -0.04469183 0.08832266 -0.03300501 -0.022828119
0.09873468 -0.07890437 -0.032314654 0.08619421 0.07624756 -0.015660293 -0.013944082 -0.044798423
00000000: f1a5 babd c097 f6ba b8f1 5fbc 8b27 903d
00000010: 02de 33bd 7c22 993d a2d4 7dbd e921 d0bc
00000020: 2a2b f7bb 8522 68bd 5ecd 5dba d321 eebc
00000030: 6249 4abd 29cb b7bd 66b6 b8ba 9925 bd3d
00000040: f7b8 1b3d e43f abbd 1f24 58bd 3cc6 623d
00000050: 35fc 29bd bd83 5cbc d9d1 41bd 68a1 063d
00000060: afe8 8cbd 5dce dbbd 785b 97bd 2220 bfbd
00000070: a001 0b3c 315a 693c 0db3 10bd b80b 013d
00000080: 4300 fa3a 2371 b13c a3a3 4c3d cf3f 023b
00000090: 8e90 ca3d 7341 8d3d ef28 8dbd d0d8 983d
000000a0: 3f2d a6bc b9b4 22bc d97c e6ba 3fc9 c8bd
000000b0: 4237 7f3d c215 843d e45b c03d dea5 4a3c
000000c0: 0c38 ecbc bfcb aebc 7550 07bd 1182 bcbd
000000d0: f672 fe3c 5847 8b38 d836 4abd 114c 99bd
000000e0: 0200 ecbc acdd fe3b 2fa7 923d 9074 123d
000000f0: b20a 983d 3f22 a43d bfdc 4ebd 2f04 cfbb
00000100: 95f5 cebd 4877 8dbd 3f06 d63c 2f76 063d
00000110: 2d26 2f3d b7f5 a33d 4e58 123d 1835 5abd
00000120: 5d7a c9bc 367b 803b 946a 413d 8c6c 9ebd
00000130: dfc0 53bd fcde 163d c404 053d fc6a c03d
00000140: aced a33d 9cc2 45bd adc7 ca3c abfd 93bd
00000150: 8623 75bb 3bb1 fdbb b61d a33c d026 a63d
00000160: 405e a5bd e13d a33d f3b3 883d e6db 46bd
00000170: 02aa 22bd 5018 f9bc 5761 7c3d 3b90 d4bc
00000180: 6afc ee3c 25c2 56bd 4360 9b3d 97fa 9abc
00000190: f60a c73d fd60 8cbd 8551 e2bc 877c 8e3d
000001a0: 0429 4b3d c505 4bbd 47e8 a1bd a9e6 8bbd
000001b0: 2011 a0bd 410c 4dbd fc55 63bd dad0 aebc
000001c0: d76b b53d 52f4 7dbc 540f 78bd d925 4b3d
000001d0: 7ecf 6dbd 48c7 2fbd cec9 69bc 4174 02bb
000001e0: 7548 6bbd e849 9abd a04c c7bd 7920 e2bc
000001f0: 8f55 543d bb78 a83c 0820 a43d f5b2 c73c
00000200: dc53 97bd d001 2f3c 55cb b3bc 4753 883d
00000210: 800d 0e3d abdd cf3d 2c21 b3bd f284 f0bc
00000220: a310 adbd d836 5d3c a97e 52bd 13ee 29bd
00000230: 811e d73d 5756 ecbc f9db 753d 4b42 993d
00000240: a4a3 9a3d 4904 aa3d fb87 843d 7137 813c
00000250: 7af3 af3d 2dc3 d33d dac0 8cbd 2e50 b83c
00000260: aae9 923d 1514 58bd b89f 6c3d ebc3 a13d
00000270: 4b0d 1d3c 610f 14bc 55b1 97bb 5671 bc3d
00000280: c7ce 9fbd a420 243d eb4d 58bd 6be2 923d
00000290: b55c c5bc 03d7 093d 5b2e 9b3d 3e95 0abc
000002a0: 69dc 6cbc e81e c43d ee28 cd3d 2b4b 6b3d
000002b0: 0a85 c83b 5e0c 2c3b a71a 70bd 3731 c03d
000002c0: 8a88 5e3d 9a46 a63d 5636 83bd 5745 d23c
000002d0: 5913 b43c 6298 e4bc 519e 57ba 350e fb3c
000002e0: 5f02 e3bc d490 c03d c754 b2bd 10a8 00bc
000002f0: c80e 37bd 83e2 b43d 4330 07bd 0902 bbbc
00000300: 6835 ca3d 9d98 a1bd 5f5c 04bd 9786 b03d
00000310: ae27 9c3d 044a 80bc b875 64bc 8d7e 37bd

layers.3.bias f4 [2]
-0.0564084 0.10551303
00000000: 7f0c 67bd 3717 d83d
