clients_data/clients_trained_model/client6.pth (torch, 86087 bytes, 6 tensors)

layers.1.layers.0.weight f4 [100, 105]
00000000: 9413 993d 66d9 a53d 0620 bbbc f988 b73d
00000010: 7115 afbc 0fa6 a13c 42a6 42bd 6c6c 6a3d
00000020: 6230 b03d bc98 92bd 7547 ad3d 1c67 963c
00000030: 2293 933d 77d2 5b3c 865d 413d e287 63bc
00000040: ffcf 993d 52ff 693c 055f 3abd 850b cb3c
00000050: 1cfa 37bd 0307 3dbc b76a 22bd 14a6 843d
00000060: 43d5 9dbd ac47 38bd 9107 e2bc 301a 70bd
00000070: b636 193c 9b87 c5bd 0add b33d 62d1 a9bd
00000080: 2e73 9a3d 860b 853c 76d6 01bd 6dba 763d
00000090: 6ddd 783c 1493 a13d 6ed4 2e3c 085c fcbc
000000a0: b99c d53c 819f d8bc 97e7 283d 2b8e b23d
000000b0: cacb 663d cd6d 2ebd b3a2 663d de67 8e3c
000000c0: e720 4b3d c04a 73bd a8bf c5bd cce7 1abd
000000d0: b266 99bd 6bfc a33d 021c e63c 25a3 253d
000000e0: c7f4 fb3c 2cba e3ba fd8a 9c3d f41e 8ebd
000000f0: 512e cb3b f580 88bd b85d f73c cb05 0abd
00000100: 8285 f53c a98f a6bc b712 a63d d9eb 6cbd
00000110: 0b66 6ebd 7679 6ebd 0a85 b33d a57b 053d
00000120: 7462 c03d 85f1 a4bd ba3d c6bd fd5d 9cbd
00000130: 7c72 86bd fae7 213d 1822 0f3d daf0 a53d
00000140: 586e 4ebd 1140 88bd 7702 543d b992 21bd
00000150: b27d 723d 5e71 bdbc a5a9 643d d149 9bbd
00000160: 5cb9 49bd 58bc f33c e502 a93c 80d4 cbbc
00000170: cdbc 6d3d ef9b 873d b1ef 90bd 3867 55bd
00000180: 5cde b63d bee1 06bd fab5 0dbd 4d63 c1bd
00000190: f0e9 64bd 78a5 c63c 75e8 53bc 3814 91bd
000001a0: 6005 163b 6f3f 89bd a22f a9bd 29a2 5cbd
000001b0: 4112 afbd ffeb 7ebd a0cd c73d fa33 963c
000001c0: edb2 f63c 0b69 babd be72 83bd b96f 05bd
000001d0: 1567 7b3c b941 b0bd 2b13 2bbd 2006 70bd
000001e0: 1dee 5739 50b1 14bd f2b2 ddbb 2479 87bd
000001f0: 4547 89bd f9cc 69bd 69ce 08bd f1f1 9dbd
00000200: 2c63 a73d bf48 9ebc 0dea ab3d 98d5 f73c
00000210: 944f aabd 3cb7 8a3d 19aa d7bc 88df 19bd
00000220: c83e a6bd 35bf c6bd b6bb e43c 7a7d aebc
00000230: b974 1b3d 38a9 a3bd 8fe8 933d f7e7 92bd
00000240: 0662 8bbc 1544 a83c 7614 503d 4e20 a13d
00000250: 575e b63d 8473 9ebd 031d ca3c 5d83 2cbd
00000260: 925f 2fbc cad5 95bd ba84 b73d f99a 93bd
00000270: 4fd6 553d 52a1 0b3d d1f4 013d 896a 58bd
00000280: 8a89 b53d 3971 af3c 7567 4b3c 0dc5 afbd
00000290: de56 273d 8105 6ebc 66b1 37bd b77e ab3d
000002a0: 4f6f b23c d46c 5cbd a35f 4abd 5157 99bb
000002b0: df55 5e3d 2a08 ccbc 5531 64bd 80ee 08bd
000002c0: 2360 95bd 53e2 0d3d f9ae 9a3d 3b37 bcbd
000002d0: 59c3 b93c d120 4e3d 10f7 903c 6d5a 0ebd
000002e0: 7448 503d b4e0 513d b418 153d 0b9e 8cbc
000002f0: f9d1 d3bc 13ea 2c3c 0a67 8dbc 8e59 eebc
00000300: 895b 7e3d 29a5 ab3d d049 1ebc f9fe b2bc
00000310: 05cb a63a c262 bebb 5889 bf3c ea08 e03c
00000320: 3b91 b5bd 3295 13bd 561d a83d 33da 1b3d
00000330: 4072 9abb 9425 71bd 5f98 74bd 2e12 b3bd
00000340: 465d 02bd 73fd 063d f7ad 7d3d b9f2 383d
00000350: 2bfa b0bd 2553 70bd 3bc3 7abc 7556 c13d
00000360: 4d8b 653c 470e cfbc b45f 253d 67e0 17bd
00000370: e769 81bd 5292 923d c2aa 35bd 6c6b a2bc
00000380: 8bcc c6bd 377d 853d 1972 973d 7231 123d
00000390: a169 8bbd a646 c5bd e556 a2bd 9a16 953d
000003a0: 5100 403d cd1a a83d 3a7c 513d b525 ca3c
000003b0: 97bb 80ba c6ee 98bd 014d abbd fed9 b9bd
000003c0: 3da3 233d 2c7c 44bd 582d a1bc c30b 66bd
000003d0: 7d4d 91bc 1d0b 8dbd 677e 82bd 53ce 043d
000003e0: 2f42 eebc 19fa 763d b3a2 febc 0aa4 92bd
000003f0: 7124 8cbc d4e2 41bd e4ff f5bc 0749 bebd
0.07474437 0.08098106 -0.022842418 0.08961672 -0.021372529 0.019732503 -0.047521837 0.057232305
0.08602978 -0.07158038 0.08460895 0.018359713 0.07205798 0.013416878 0.04720833 -0.013887377
0.07510375 0.0142820645 -0.045500774 0.024785766 -0.044916257 -0.011537316 -0.039652552 0.064769894
-0.07706692 -0.044990227 -0.027591499 -0.058618724 0.009351423 -0.09645005 0.08782394 -0.0829189
0.075415 0.016240846 -0.031698667 0.060236383 0.015189511 0.07889381 0.010670764 -0.030805603
0.026075708 -0.026443245 0.041236486 0.08718523 0.056346692 -0.042585183 0.056307506 0.017383512
0.049591925 -0.05939746 -0.09655696 -0.037818715 -0.07490291 0.08007129 0.028089527 0.04043879
0.030756367 -0.0017374209 0.076436974 -0.069394976 0.0062005897 -0.066652216 0.030196056 -0.03369693
0.029970888 -0.020332174 0.08109038 -0.05784211 -0.058202785 -0.058221303 0.087656096 0.03258862
0.093937784 -0.08053879 -0.09679742 -0.07635114 -0.06564805 0.03952787 0.034944624 0.081025794
-0.0503982 -0.06652845 0.051760163 -0.039446566 0.059201904 -0.023125347 0.055825848 -0.07582439
-0.049249038 0.029752895 0.020631263 -0.024881601 0.058041383 0.06621539 -0.070769675 -0.05210039
0.089291304 -0.03293013 -0.034597374 -0.09442768 -0.055887163 0.024248824 -0.01293384 -0.070839345
0.0022891387 -0.06701552 -0.08261038 -0.053865585 -0.085484035 -0.062236782 0.09756017 0.018335331
0.030114615 -0.091020666 -0.0641837 -0.03257725 0.015344401 -0.086062856 -0.041766327 -0.05859959
0.00020592702 -0.03630191 -0.0067657167 -0.066149026 -0.06703047 -0.057080243 -0.033399973 -0.07712162
0.081732124 -0.019321797 0.08394251 0.030253217 -0.083159596 0.067732304 -0.026326226 -0.03756669
-0.08117443 -0.097044386 0.027921539 -0.021300066 0.037953112 -0.0799126 0.072220914 -0.0717315
-0.017014515 0.020540277 0.050800763 0.0786749 0.08904713 -0.077368766 0.024672037 -0.042117465
-0.010703938 -0.07316168 0.089608625 -0.07207293 0.052206334 0.034089394 0.031727616 -0.052835975
0.08864124 0.021416293 0.012414803 -0.08582506 0.040854327 -0.014527679 -0.044846915 0.08373778
0.021781592 -0.053814724 -0.049407613 -0.0046795984 0.05428111 -0.024906237 -0.05571111 -0.033430576
-0.07293727 0.034639668 0.07552905 -0.09190222 0.022676157 0.050324265 0.017695934 -0.034754205
0.050850347 0.051239684 0.03640051 -0.017165205 -0.025856959 0.0105538545 -0.017261047 -0.029095437
0.062099013 0.08381111 -0.009661153 -0.021850096 0.00127253 -0.0058101127 0.02338092 0.027348
-0.08865591 -0.036030956 0.082087204 0.038049888 -0.0047133267 -0.058873728 -0.059715625 -0.08743702
-0.031827234 0.03295655 0.061933484 0.045153353 -0.08641466 -0.058673043 -0.015305336 0.094403185
0.014010263 -0.025275363 0.040374473 -0.03707924 -0.063190274 0.07156815 -0.0443523 -0.019826613
-0.09706982 0.065180235 0.07394809 0.035691686 -0.068072565 -0.09632616 -0.0792673 0.072797015
0.0468753 0.08208237 0.051143862 0.024676183 -0.0009821531 -0.074674174 -0.08364297 -0.09074782
0.039950598 -0.047969982 -0.019674942 -0.05616356 -0.017737145 -0.06886885 -0.063717656 0.03242333
-0.029084293 0.060297105 -0.03108344 -0.07160194 -0.01710722 -0.04733546 -0.030029245 -0.092912726

layers.1.layers.0.bias f4 [100]
00000000: 5089 833d 83f8 303d 1483 91bb b17f 5f3d
00000010: 3a0e 98bb 1b45 7dbc 3413 19bd e18c a7bd
00000020: d000 a63d 85d3 7abd 892d bbbd d5ca 36bd
00000030: 11c8 9a3c 8a24 14bc d007 313d d9cb 6a3d
00000040: 3048 683d 8969 a7bd 2e07 253d 1a40 483d
00000050: ad90 61bd da03 9a39 f0eb 713c dc43 673c
00000060: 9e7f 5a3d 4d9a a73d 3615 c03d f052 bb3c
00000070: fe2e 693d 3eea 293d cd67 52bd ca00 863d
00000080: 318b f4bb 8b87 2c3d 8e31 85bd ecca a13d
00000090: 9992 b13c 935a b83c 44fd b1bd 5d14 0ebc
000000a0: b075 08bd 7789 ba3d 37d2 b6bd dde3 c0bc
000000b0: fcdd 48bd 6039 93bd f66a 173d 3bcd 86bd
000000c0: e67f 3a3d 4154 443c 0373 4cbd 2b30 31bc
000000d0: 5a12 243c 144e 2dbd af8a 80bd 5a26 61bd
000000e0: f3ed c63c 45d1 afbd de7e 7d3d 9ea9 853d
000000f0: bd8b ba3d 3d37 ad3d f037 63bd f379 2dbd
00000100: b4ee 913d 792c 69bc 26de 92bd 8aa8 39bd
00000110: f806 8c3d ccae 62bd e38e 0c3d 2409 a6bd
00000120: 1481 813d b253 d73c 9273 8c3d 41e8 773b
00000130: 86bb 4c3d 776c a53d d62c 4abc 71da 96bd
00000140: ce08 8bbd 353f 6d3d d4cd 7fbd 21cf b0bd
00000150: d965 aabd 626a 31bd 192a 973c 7d7f b4bd
00000160: 2040 3abd ea4d bf3d f347 81bc 7d94 04bd
00000170: 350a 413d b366 a3bd 1b15 9bbd 5379 843c
00000180: 1ab8 003d bf31 c4bd 46ae b13d db41 1cbd
0.06422675 0.04320575 -0.0044406746 0.054565135 -0.004640368 -0.015458371 -0.03737183 -0.081811674
0.08105624 -0.061236877 -0.091395445 -0.04462703 0.018894227 -0.009041915 0.04322034 0.05732331
0.05670947 -0.08174426 0.04029005 0.048889257 -0.055069614 0.0002937604 0.014765725 0.0141153
0.05334436 0.081837274 0.09379046 0.022866696 0.05692958 0.041483156 -0.051368523 0.06543119
-0.007462882 0.04212145 -0.065035924 0.079000324 0.021676349 0.022504127 -0.08690885 -0.008671847
-0.03331536 0.091082506 -0.08926814 -0.023546154 -0.049039826 -0.07188678 0.03696724 -0.06582113
0.04553213 0.011982978 -0.04991437 -0.010814707 0.010014141 -0.04231079 -0.06276452 -0.054968216
0.024283385 -0.08584837 0.061888568 0.065264925 0.09108684 0.084578015 -0.055473268 -0.042352628
0.07125607 -0.0142317945 -0.07171278 -0.045326747 0.06837267 -0.05534248 0.034315955 -0.08107212
0.06323448 0.026285026 0.06857981 0.0037827643 0.049983524 0.08077329 -0.012339791 -0.07365883
-0.06788789 0.057921607 -0.062452152 -0.08633257 -0.08320207 -0.043314345 0.01845269 -0.08813379
-0.04547131 0.09341033 -0.015781378 -0.032368172 0.047128875 -0.07978573 -0.07572385 0.016171133
0.031425573 -0.09579801 0.08675818 -0.038148742

layers.2.layers.0.weight f4 [100, 100]
00000000: 5236 813c bfe1 943d cd62 1d3d 839c 003d
00000010: bbfb b9bd 50c8 bdbd f420 1a3d 24f8 893b
00000020: 4fb3 7c3d 3908 503d 84b4 a2bd bee2 973c
00000030: 21a5 9fbd 2f95 60bd 95cf e53c b9ea 96bb
00000040: 21a1 81bd c792 0e3d 7586 8e3d 04e6 c7bd
00000050: abbb c13d 9760 653d ae22 02bc 0897 c5bd
00000060: 7b43 2bbd 1d3b fb3c fd33 2dbd 002c 06bd
00000070: 0c87 26bd 2150 b13d 09a8 af3d adae 9ebd
00000080: 709b fbbc 579e bb3d a9ee acbb 46cb 47bd
00000090: 0ddb 4d3c 3f18 a33d 2cb1 49bc d8a6 c0bd
000000a0: ce11 08bd ca26 503d 0089 60bc cd69 923d
000000b0: 2439 0f3d e3c5 e63a a8d5 1e3d 05e2 52bc
000000c0: aff4 aebd 56d2 aebd 865a 9fbd c5d2 7abc
000000d0: 07d9 92bd 0426 743c 7f33 493c 637e 9c3d
000000e0: b9ee cf3b 83cd 8e3c ced8 123d a692 e4bc
000000f0: 28a7 4abd c53f bfbd fdd7 c6bd 70c6 e63b
00000100: d1b5 3fbd 21b7 ec3c 156e d43c 4522 a03d
00000110: 05a1 36bc c09e 1ab9 0cc8 8e3d 055b 8d3c
00000120: 8cda 3e3d fea5 59bd 1cfe 91bd 81f9 9d3d
00000130: 76e6 943d 2e6b 18bd 5a5b 8e3c 04e6 b5bd
00000140: 2cd4 f73b 8550 bdbd 7879 693d fc9d cabd
00000150: 99f3 c0bc 855a c13d 03e9 09bd 9d9f 6dbd
00000160: 5afc b83d 39e6 49bd efe1 b73c 6e79 673d
00000170: 0e9b e53c b15c 8dbd c653 bb3d 4a21 483d
00000180: 0ef1 7ebd a912 69bd 5f5b b6bc 0a59 0c3d
00000190: 1fdd 173d c038 423c 01d2 853d f241 ca3d
000001a0: 3962 a53c fbac 1c3d 723d 663d 38f6 9d3c
000001b0: 3cda b43b 5aaa b63d f589 8b3d 6cf2 843d
000001c0: 18e3 21bd b98b 45bd c03e 60bd 95c7 acbd
000001d0: daf9 36bc c65b 633d bde1 683c ed1b 14bd
000001e0: 61ba 68bc 1d23 9ebd 9fcd 84bd 5897 0c3c
000001f0: e3c6 6fbd 60b8 403c 2d86 a73d 35ab cd3c
00000200: b03c 9b3d 8747 82bd 85fd ef3a 0f8f cabd
00000210: 5862 9f39 dad9 97bd 87a5 be3d e5dc afbd
00000220: abd7 073d fb35 76bd 6663 de3c 8f2d 94ba
00000230: 06eb 57bc d24b 24bd 4339 813d 3525 99bc
00000240: afd2 013c 3988 fabc 574c 96bd e310 2ebd
00000250: 95fe b53d 435e c13d f8db 3fbd 2b8d 1b3c
00000260: 8086 773c ac8f b33d 108d 5c3c 1a66 8d3b
00000270: 357d f4bc 237f a93c 548c ccbd e314 cdbd
00000280: 36b1 48bc 991d 90bd a31e 8fbd f108 8ebc
00000290: 4f47 623d e374 473d 130f 12bd 5de8 f3bb
000002a0: 49e9 bb3d b71f ad3c f94b 8a3d 2403 2bbd
000002b0: 56cd b8bd 7f28 41bd f585 043c ea29 cbbc
000002c0: 06ee 62bd 39f4 c23d 7ee7 bdbd 9230 083b
000002d0: 63a1 203d e0c0 e1bc 2df5 2f3d 35e9 c8b7
000002e0: 65b4 75bd 1a72 61bd a512 3abd 2c76 c8bd
000002f0: 070e 7d3d 4ef6 b83d fa37 54bd d5ac 8b3b
00000300: 3346 053d d62a e43c eb2a 65bd 3faf 7bbd
00000310: eed3 c53d f6ed 6c3d ece1 bc3d d144 8e3d
00000320: 9883 f5bb 1cdb 8f3d e276 54bb 182a 28ba
00000330: a589 31bd a37e 9f3d 5e37 aebc 4b02 6d3c
00000340: 5b58 a3bd fc31 0c3d d9f8 42bd 353e b9bc
00000350: 5856 13bc 0abf 173d 0076 833b 2a1c 8e3c
00000360: 831d 85bd b9da 9abd 946c 133d cfe6 28bd
00000370: 59a3 b0bd 2925 29bd bff4 c8bd a9fd a23c
00000380: 6664 f13b 7f0c bd3d 56eb 61bd d4f7 53bd
00000390: c11e c33c 95bb d7bc a36c 9f3d aae6 773c
000003a0: 86ce 0dbb a25b 1dbd 0746 773d 94c7 3fbd
000003b0: 7442 243d b58c 833d 33b6 a0bd d87f b5bd
000003c0: 7c06 67bd 6e1f 443d a873 62bd 0841 193c
000003d0: 478a 763c bebc ab3c 1119 51bd 4484 5d3b
000003e0: dbb9 8d3d fdfc 533d 90fe 9b3c 5bed a2bd
000003f0: 1233 403d 4d3c 23bd ee3a 8f3d 6306 2a3d
0.015772972 0.0726962 0.038424302 0.03139926 -0.09081217 -0.09266722 0.037629083 0.004210489
0.06169444 0.05078909 -0.07944587 0.018540736 -0.07795168 -0.054829773 0.028053084 -0.004605618
-0.06329561 0.034807947 0.069592394 -0.09760669 0.09459623 0.05600032 -0.007942839 -0.096479475
-0.0418124 0.030667836 -0.042285908 -0.032756805 -0.040656134 0.086578615 0.08576972 -0.077481605
-0.030713767 0.0916106 -0.005277474 -0.04877784 0.012564433 0.07963609 -0.0123103075 -0.09406823
-0.033220105 0.050818242 -0.013704538 0.07149086 0.034966603 0.0017606582 0.038777977 -0.01287127
-0.085427634 -0.08536212 -0.07780938 -0.01530904 -0.07170301 0.014901642 0.012280344 0.07641294
0.0063455966 0.01743198 0.035851292 -0.027901959 -0.04947582 -0.09338335 -0.09709165 0.0070426986
-0.046804253 0.028895916 0.025931397 0.078190364 -0.0111467885 -0.00014745723 0.0697175 0.017255316
0.04659514 -0.053136818 -0.07128546 0.07713605 0.072705194 -0.03721159 0.017377544 -0.088817626
0.0075631347 -0.092438735 0.057000607 -0.098934144 -0.023553656 0.09441093 -0.033669483 -0.058013547
0.09032507 -0.049291823 0.0224466 0.05651229 0.028028037 -0.06902445 0.09146838 0.048859872
-0.062241606 -0.05690256 -0.022260366 0.0342646 0.037076112 0.011854351 0.06534196 0.09875859
0.020188438 0.038250905 0.056210943 0.019282445 0.0055191796 0.08919211 0.068134226 0.06491551
-0.039523214 -0.048228953 -0.054747343 -0.08436505 -0.011167968 0.055507444 0.014213976 -0.036159445
-0.014204592 -0.07721541 -0.064845316 0.008581005 -0.058539283 0.011762708 0.08179889 0.025106052
0.075799346 -0.06361299 0.0018309808 -0.098905675 0.00030400115 -0.07414599 0.093089156 -0.08587054
0.03316466 -0.060110074 0.027147006 -0.0011305081 -0.013178593 -0.04011137 0.0630975 -0.0186945
0.007923766 -0.030582534 -0.073387794 -0.042496573 0.08886448 0.09441807 -0.046840638 0.009494106
0.015107751 0.087676376 0.013461366 0.00431515 -0.02984486 0.020690506 -0.09987703 -0.100137495
-0.012249282 -0.07036895 -0.06988265 -0.017338248 0.055243786 0.048695456 -0.035658907 -0.0074434713
0.09175355 0.021133287 0.06752772 -0.041751042 -0.0902354 -0.04715776 0.0080885785 -0.02480026
-0.055402778 0.09519238 -0.09272669 0.0020780903 0.03921641 -0.02755779 0.042958427 -2.3950453e-05
-0.05998649 -0.055040456 -0.045427937 -0.097881645 0.061780956 0.09031354 -0.051811196 0.0042625465
0.03253765 0.027852457 -0.055949133 -0.061446425 0.09659563 0.057844125 0.09222779 0.069467194
-0.007492494 0.07024214 -0.0032419492 -0.0006414964 -0.04334416 0.07787826 -0.021266636 0.014465879
-0.07975837 0.034227356 -0.0476006 -0.02261267 -0.008992754 0.037047423 0.0040118694 0.017347414
-0.064997695 -0.07561249 0.03599222 -0.04123574 -0.08624906 -0.041295204 -0.098123066 0.019896345
0.0073667048 0.09230899 -0.055156074 -0.05175002 0.023818376 -0.026334563 0.07784393 0.015130678
-0.002163799 -0.038417466 0.060369518 -0.046821192 0.040102437 0.06423322 -0.07847252 -0.08862275
-0.05640267 0.047881536 -0.05528608 0.009353884 0.015047616 0.020964023 -0.051049296 0.003380076
0.06920215 0.05175494 0.019042283 -0.07955428 0.046923704 -0.03985243 0.06993662 0.041509997

layers.2.layers.0.bias f4 [100]
00000000: c955 2bbd 525d 03bd 0975 acbd 4f3b f9ba
00000010: 00ca 643d 2342 77bd b22f efbb b103 933d
00000020: 95c5 81bd f680 ef3c ac65 bbbc 1659 aa3d
00000030: 0445 bebb 059c b23d 7e8d 0bbd 4ab1 9fbd
00000040: b82e 0b3b 2181 6fbd d819 5dbd 18da 863d
00000050: d7c7 bb3d 6925 8bbd 6b0c ccbd 8bf2 cb3c
00000060: e207 aabd 4b74 acbc b1eb 2e3d b409 293d
00000070: ecf7 593c 76a9 333d 60fb 63bd 1301 fdbc
00000080: d5a4 01bd 55a0 c8bd e488 70bd e0de 183c
00000090: 6dd3 b43c 9992 3abd cfc1 8e3d 88e3 60bd
000000a0: 9cd2 4c3c e826 af3d 8726 8d3d 2bf9 d53d
000000b0: 1f32 e63c 150d 8dbd 325e 0fbd c5e9 ebbc
000000c0: c5d7 94bd d135 04bd a744 c0bd c50f 3bbd
000000d0: 32b9 cabd 5aaa be3d da00 b53c 24ba d63d
000000e0: c67b 703d e422 c33d f09c 02bd 5191 3bbd
000000f0: c92e 35bd 149d bcbd 8450 c4bb ee39 913c
00000100: 87b4 793d a2f7 5cbc 5a6a 0c3d c9ae 253d
00000110: 1e3e 9f3c 7647 cb3c 5b13 12bd 9ef3 713d
00000120: 3773 c5bd c748 3e3c ad87 493d 4e93 953d
00000130: 1e64 4a3d 6ef5 6dbc 476c 8e3d 2c52 c3bd
00000140: 43d6 b8bc be12 18bd f879 723d 103a bf3d
00000150: ed49 d9bc bba5 a83c b9e8 8bbc 5485 04bd
00000160: b940 283d 2ea4 be3c c657 50bd 3239 b43c
00000170: 7443 ca3d 56e9 94bd 44f7 8cbc bac0 b5bd
00000180: 7b04 c3bc 0a1a c53d 2484 783d 784e c2bd
-0.041829858 -0.03207142 -0.0842076 -0.0019014868 0.055856705 -0.060365807 -0.007299387 0.071784385
-0.06336514 0.029236298 -0.02287563 0.08317773 -0.005806567 0.087211646 -0.034070484 -0.07797487
0.0021237563 -0.058472756 -0.053979725 0.06584567 0.09168976 -0.06794245 -0.09963306 0.024895927
-0.08302285 -0.021051547 0.04270524 0.04126902 0.013303738 0.043862782 -0.05565965 -0.030884301
-0.031651337 -0.09796206 -0.0587243 0.009330481 0.022073472 -0.045549963 0.0697056 -0.05490449
0.012501385 0.08552343 0.06892114 0.10447916 0.028100071 -0.06887261 -0.03500194 -0.028797993
-0.07267717 -0.032277886 -0.093880944 -0.045669336 -0.098986045 0.09309836 0.022095133 0.10484722
0.05871179 0.09528139 -0.03188795 -0.04579288 -0.04423407 -0.09209648 -0.0059910435 0.017727818
0.06096318 -0.013486775 0.034281112 0.04044989 0.0194388 0.024814349 -0.03566299 0.059070222
-0.09641116 0.011614031 0.049201656 0.07303487 0.049411885 -0.014523847 0.06954246 -0.095371574
-0.022563105 -0.03712725 0.05919835 0.093372464 -0.026524508 0.020586839 -0.017078744 -0.032353714
0.04107735 0.023271646 -0.050864957 0.02199993 0.09876147 -0.07271068 -0.01720775 -0.0887465
-0.023805847 0.09624107 0.060672894 -0.09487623

layers.3.weight f4 [2, 100]
00000000: d81b babd 711f c8ba b1a8 55bc c357 933d
00000010: 87f8 28bd 8803 993d e247 7cbd 1ada ccbc
00000020: 5fb9 e4bb 935b 60bd 6d29 6339 a3ed efbc
00000030: 99c3 4abd 39d0 b7bd d958 4fba 4ee3 bd3d
00000040: cdb8 1c3d b713 aabd 0c4a 59bd fb0b 653d
00000050: 6672 2abd 3d70 3ebc 01b5 41bd ae97 0d3d
00000060: 14bc 8abd ab40 dabd 654d 97bd bab5 bebd
00000070: 0be1 0a3c 9a60 6c3c e611 10bd 8a24 083d
00000080: 9423 4f3b e712 bc3c 70a9 4d3d 98b7 3d3b
00000090: 5e19 cb3d 9930 8e3d 776a 8bbd 53d7 983d
000000a0: 5de5 9ebc af10 22bc 4e88 89b8 7ef7 c7bd
000000b0: 1450 803d ed06 843d 341a c03d dd2f 513c
000000c0: be96 e5bc 8f4c abbc 2ed1 07bd 2d9c bbbd
000000d0: ff3e 003d 4172 143b 8223 47bd ecfb 97bd
000000e0: dced edbc d0a5 103c edd1 933d 662f 173d
000000f0: 4e9b 993d b0eb a43d 762e 4bbd eb90 c8bb
00000100: 5ea8 cbbd e830 8cbd f22c eb3c 01eb 083d
00000110: d3dd 2f3d 3c0c a53d 7e34 163d b71e 5bbd
00000120: 85ef c4bc c2ab 943b 4306 413d eb38 9bbd
00000130: 42e2 51bd 585c 173d c200 073d 3ac7 c03d
00000140: 1748 a43d 3e50 43bd 32d0 ce3c 21cb 90bd
00000150: 56d1 78bb 8ccb fabb 51df a33c 6c9b a63d
00000160: 807f a4bd e3ac a33d 4ae3 883d b372 47bd
00000170: 1611 1fbd 1203 f3bc acae 7c3d 6207 d4bc
00000180: 330c fa3c 7342 55bd 9752 9c3d 1d78 92bc
00000190: dd80 c63d e21a 8dbd 0776 e7bc 4f4c 8b3d
000001a0: 8b43 403d dcc7 4abd a4ae a2bd 9eb8 8cbd
000001b0: 3d38 a1bd 34d3 54bd 5db0 67bd 0a05 adbc
000001c0: f8a8 b53d c0cb 7dbc a497 7abd 69aa 493d
000001d0: 54cf 6ebd a31f 32bd 3132 65bc 05d0 26bb
000001e0: 44d2 6abd 5a0c 9ebd 0a5b c7bd fd0c f0bc
000001f0: 56fc 4f3d ec41 a23c f511 a43d 5f09 c63c
00000200: c94f 97bd 67fb 2b3c a00d b5bc dbc6 843d
00000210: 4aeb 083d 3835 cd3d 15a4 b3bd ecf3 f7bc
00000220: 7399 adbd b9bd 553c 9afb 55bd 23eb 29bd
00000230: 854c d53d 5da8 ecbc d4ec 6e3d 8a70 983d
00000240: 31ef 993d 1e13 aa3d aac9 843d e6e4 7b3c
00000250: 274b ae3d 62e3 d23d 7d80 8cbd a8b8 b43c
00000260: e866 923d 9815 61bd 638c 693d c573 a03d
00000270: 06e9 203c 5c46 25bc 4c5d aabb ed13 ba3d
00000280: 625f a1bd c88d 223d 34fc 5bbd 377b 923d
00000290: 9591 d2bc 404a 073d ace4 953d 8a68 14bc
000002a0: 07bb 6fbc 6208 c33d d63a cb3d ca34 6c3d
000002b0: 9a59 b63b 45ab 033b 56b6 6fbd 98fd bc3d
000002c0: eba9 5c3d ef07 a63d 5734 84bd 55d4 d03c
000002d0: c0a9 b23c 1f7d e9bc 7057 acba 0b44 ee3c
000002e0: a38c e2bc 7a62 c03d 3085 b2bd f44c 04bc
000002f0: 49cc 38bd 8173 b43d e98e 07bd 61d4 b9bc
00000300: f468 c83d ef1d a3bd b3a9 04bd 5e64 b03d
00000310: c063 993d 6349 83bc 5d08 6cbc cbbf 3bbd
-0.09087342 -0.0015268159 -0.013040707 0.071944736 -0.04125264 0.07471377 -0.06159199 -0.025006343
-0.006980106 -0.054774832 0.0002166384 -0.029288119 -0.049502943 -0.08975262 -0.00079096627 0.092718706
0.038262177 -0.083045416 -0.053049132 0.05591963 -0.041613005 -0.011623439 -0.04729176 0.03456848
-0.06774154 -0.10656866 -0.07387809 -0.09312005 0.008476506 0.0144273285 -0.03517332 0.03323797
0.00316069 0.022958232 0.050210416 0.0028948542 0.09916948 0.06942863 -0.06807416 0.07462945
-0.019396478 -0.009891673 -6.558058e-05 -0.09764002 0.06265274 0.064466335 0.09379998 0.012767759
-0.028025981 -0.02091053 -0.033158474 -0.091606475 0.031310078 0.0022651108 -0.048617847 -0.07421097
-0.029044084 0.008828595 0.072177745 0.036910437 0.07500325 0.08052766 -0.049604855 -0.006120791
-0.09944223 -0.068452656 0.028707955 0.033427242 0.042936157 0.08058974 0.036671154 -0.05349609
-0.024039993 0.0045370767 0.047125112 -0.075792156 -0.051241167 0.0369533 0.032959707 0.094129995
0.080215625 -0.047683947 0.02524576 -0.07069994 -0.003796657 -0.007653659 0.020003946 0.08135113
-0.08032131 0.0799196 0.06683977 -0.04869337 -0.038834654 -0.02966455 0.061690018 -0.025882427
0.030523395 -0.052065324 0.0763294 -0.01787954 0.096925475 -0.06889893 -0.028254522 0.06801664
0.046939414 -0.049507007 -0.07943466 -0.068711504 -0.07872055 -0.05195923 -0.056564678 -0.021120567
0.08870119 -0.015490472 -0.061179772 0.04923478 -0.058303192 -0.043487202 -0.013989017 -0.002545358
-0.05732943 -0.077171996 -0.09734161 -0.029303068 0.050777756 0.019806825 0.080112375 0.02417439
-0.07388265 0.010496951 -0.022101223 0.06483241 0.033427514 0.10019916 -0.087715305 -0.030267678
-0.08476534 0.013045722 -0.0522419 -0.04148401 0.104149856 -0.028888876 0.058331326 0.0744334
0.07516325 0.083044276 0.06483777 0.015374398 0.08510428 0.10297276 -0.06860445 0.022060707
0.07148534 -0.054952234 0.05701865 0.07834581 0.009821182 -0.010087576 -0.00519911 0.09085832
-0.07879521 0.039685994 -0.053707317 0.071524076 -0.025704185 0.033029795 0.07319006 -0.009058127
-0.014631993 0.09523083 0.099233314 0.05766753 0.0055648806 0.0020091098 -0.0585235 0.09228057
0.053872984 0.08106982 -0.064552955 0.025491873 0.021809459 -0.028502045 -0.0013148617 0.02908518
-0.027654951 0.09393783 -0.0871681 -0.008074988 -0.045116697 0.08811093 -0.033095274 -0.022684278
0.09785643 -0.07964694 -0.0323884 0.086128935 0.07489729 -0.016026204 -0.014406291 -0.045837205

layers.3.bias f4 [2]
00000000: 4adf 5ebd 9e00 d43d
-0.054412164 0.1035168
