clients_data/clients_trained_model/client8.pth (torch, 86087 bytes, 6 tensors)

layers.1.layers.0.weight f4 [100, 105]
00000000: 8201 993d d3ac a53d 869f babc 71cb b73d
00000010: 0f99 afbc 7af6 a13c 49b0 42bd 05c1 6a3d
00000020: 6230 b03d 015d 92bd 8d65 ad3d a002 963c
00000030: 3d80 933d 795c 5a3c c048 413d fe63 62bc
00000040: e13e 9a3d 9462 693c a784 3abd f4ef ca3c
00000050: 4510 38bd d21e 3cbc e59d 22bd 22d4 843d
00000060: efca 9dbd 5147 38bd 1b36 e1bc 36f3 6fbd
00000070: 24ef 163c 1f58 c5bd e9bf b33d 62e2 a9bd
00000080: 4d6e 9a3d 3696 843c 45af 01bd bbf2 763d
00000090: 78a5 773c 51ad a13d 7917 303c 352a fcbc
000000a0: cc30 d63c 639f d8bc 9435 283d cfbf b23d
000000b0: 1658 663d 51ab 2ebd 4eb9 663d 3c0b 8f3c
000000c0: d06b 4b3d 5e4a 73bd 23bf c5bd b4ca 1abd
000000d0: 9378 99bd 56d3 a33d 8352 e53c b619 263d
000000e0: 69be fb3c e111 dcba bb9f 9c3d d935 8ebd
000000f0: b29c cc3b 456b 88bd 178e f63c 6971 09bd
00000100: 8982 f43c 288f a6bc 682d a63d 4feb 6cbd
00000110: 8665 6ebd 3c69 6ebd 3cc4 b33d 2b52 063d
00000120: 6043 c03d 70f1 a4bd 8e3d c6bd ca5d 9cbd
00000130: 4472 86bd db78 223d 373b 0f3d b02c a63d
00000140: ef6d 4ebd ea3f 88bd 90f3 533d 5792 21bd
00000150: 15a2 723d 1fb6 bdbc d2a9 643d c749 9bbd
00000160: f2b8 49bd 22f1 f33c 4ad9 a83c 02d4 cbbc
00000170: cbff 6d3d a07e 873d b1ef 90bd e566 55bd
00000180: 2102 b73d a6e1 06bd cdb5 0dbd 3763 c1bd
00000190: 87e9 64bd fe68 c53c 650b 53bc 1d14 91bd
000001a0: 6005 163b 8b37 89bd 954d a9bd 6fff 5bbd
000001b0: 321f afbd 741d 7fbd 3498 c73d 1722 973c
000001c0: a144 f63c 0b69 babd 6a86 83bd 6462 05bd
000001d0: c631 7a3c 3330 b0bd f2f3 2abd 8ab1 6fbd
000001e0: 28ec b539 2704 15bd 9cbb dabb 6d9f 87bd
000001f0: 9240 89bd f53e 6abd 80d5 08bd 07cb 9dbd
00000200: ed60 a73d 7daa 9ebc 73e6 ab3d 9ab4 f73c
00000210: 8a4f aabd c8ba 8a3d b6ea d7bc 2092 19bd
00000220: 2922 a6bd a5bd c6bd eb24 e43c 8968 afbc
00000230: 2ec9 1b3d b6a4 a3bd 7d00 943d 00ee 92bd
00000240: 68f0 8abc f9e4 a73c 3dad 4f3d d825 a13d
00000250: 6181 b63d 748d 9ebd 9011 ca3c 917e 2cbd
00000260: 7d37 2fbc ecc9 95bd 326c b73d d5ac 93bd
00000270: fea9 553d 5e74 0c3d d636 023d 861a 59bd
00000280: 79ff b53d 3dc8 b03c c99c 4d3c d6d1 afbd
00000290: d27f 273d 56a9 6ebc 038b 37bd a037 ab3d
000002a0: ca7a b23c 71cb 5cbd 6711 4abd 67fc 9cbb
000002b0: f595 5e3d 5990 ccbc 1f56 64bd 5de2 08bd
000002c0: ca60 95bd 59ea 0e3d a97b 9a3d 6b31 bcbd
000002d0: d6a2 ba3c 6095 4e3d 5054 903c c962 0ebd
000002e0: 58ed 503d a9ae 513d ec92 153d 5fb6 8cbc
000002f0: db7f d3bc 8d7a 2c3c f44a 8dbc f34d eebc
00000300: 6382 7f3d 1b9a ab3d ce3e 1fbc 2852 b3bc
00000310: fe8c ac3a 5530 bebb 69ca bf3c ea08 e03c
00000320: 7791 b5bd aa8f 13bd c84f a83d b9a8 1b3d
00000330: 4c50 9fbb b328 71bd d69c 74bd 660f b3bd
00000340: be57 02bd 73fd 063d 6621 7e3d db7b 383d
00000350: 76b7 b0bd 6736 70bd cb32 7cbc 0b85 c13d
00000360: 11f0 653c 990e cfbc b45f 253d f983 18bd
00000370: 2fa1 81bd 7979 923d 7cc1 35bd 23ad a1bc
00000380: 75db c6bd 71b8 853d 0a91 973d 567e 123d
00000390: a372 8bbd 9a46 c5bd 3554 a2bd 2512 953d
000003a0: 55e4 3f3d 9021 a83d c7f6 503d e85a ca3c
000003b0: ca75 82ba 65bb 98bd e655 abbd e015 babd
000003c0: fdfd 233d ab8f 44bd a7d6 a0bc 730e 66bd
000003d0: 3978 91bc ecfc 8cbd 54ba 82bd b847 053d
000003e0: a4e4 ecbc 728c 763d e073 ffbc d2b0 92bd
000003f0: 4f51 8cbc 0afd 41bd b1aa f5bc 0c58 bebd
0.07470991 0.08089604 -0.022781145 0.0897435 -0.021435289 0.01977085 -0.0475314 0.057312984
0.08602978 -0.07146645 0.08466635 0.018311799 0.07202194 0.013327711 0.04718852 -0.013817785
0.075315244 0.014244694 -0.045536663 0.024772622 -0.04493739 -0.0114819575 -0.03970136 0.064857736
-0.07704722 -0.044989888 -0.02749162 -0.058581553 0.009212289 -0.096359484 0.08776838 -0.08295132
0.075405695 0.016184907 -0.03166129 0.06029008 0.015115134 0.078943856 0.010747784 -0.030781845
0.026146315 -0.026443189 0.04106672 0.08727991 0.05623635 -0.04264385 0.056329064 0.017461412
0.049663365 -0.059397094 -0.09655597 -0.03779097 -0.07493701 0.079992935 0.027993446 0.040551864
0.030730443 -0.0016789996 0.07647654 -0.069438644 0.0062442655 -0.06661085 0.03009705 -0.033555422
0.0298474 -0.020331934 0.08114129 -0.057841595 -0.05820229 -0.058205828 0.08777663 0.032793205
0.09387851 -0.08053863 -0.096797094 -0.07635076 -0.06564763 0.039666038 0.03496858 0.08113992
-0.05039781 -0.06652816 0.05174595 -0.0394462 0.059236605 -0.023158131 0.055826016 -0.07582431
-0.049248643 0.029778067 0.020611424 -0.024881367 0.05810527 0.06615949 -0.070769675 -0.05210008
0.08935953 -0.03293004 -0.034597207 -0.09442752 -0.05588677 0.024097916 -0.012881135 -0.070839144
0.0022891387 -0.06700047 -0.08266751 -0.053710397 -0.08550872 -0.062283948 0.09745827 0.018448872
0.030062022 -0.091020666 -0.06422122 -0.032564536 0.015270656 -0.08602943 -0.04173655 -0.058518924
0.0003469896 -0.036380913 -0.006675197 -0.06622205 -0.06701769 -0.057188947 -0.033406734 -0.0770474
0.08172784 -0.019368405 0.08393564 0.030237485 -0.08315952 0.06773907 -0.026357036 -0.03749287
-0.08111984 -0.097041406 0.027849635 -0.021412151 0.038033657 -0.079904005 0.07226656 -0.07174301
-0.016960338 0.020494925 0.050702322 0.07868546 0.08911396 -0.07741824 0.024666578 -0.04211289
-0.010694382 -0.07313904 0.089561835 -0.072106995 0.05216407 0.034290664 0.031790577 -0.05300381
0.08886618 0.021579856 0.0125495875 -0.08584945 0.040893383 -0.01456674 -0.044810306 0.08360219
0.021787066 -0.053904954 -0.049333002 -0.004790831 0.05434223 -0.024971174 -0.055746194 -0.033419
-0.07293852 0.03489146 0.075431176 -0.09189113 0.022782724 0.050435424 0.017618328 -0.034762178
0.0510076 0.05119196 0.03651707 -0.017176805 -0.025817802 0.010527265 -0.017247654 -0.029089903
0.062380206 0.08379003 -0.009719564 -0.021889761 0.0013164578 -0.0058041015 0.023411946 0.027348
-0.08865636 -0.03602568 0.08218342 0.038002703 -0.004861867 -0.058876704 -0.059719883 -0.087431714
-0.03182196 0.03295655 0.06204357 0.045039993 -0.086287424 -0.058645632 -0.015392969 0.09449204
0.014034287 -0.025275515 0.040374473 -0.037235234 -0.063295715 0.07152075 -0.044373974 -0.019735878
-0.09709827 0.0652932 0.07400711 0.035765015 -0.068089746 -0.09632607 -0.079262175 0.072788514
0.046848614 0.082095265 0.051016595 0.02470155 -0.0009953317 -0.07457618 -0.08365993 -0.090862036
0.040037144 -0.047988575 -0.019633604 -0.056166124 -0.017757522 -0.068841785 -0.063831955 0.0325391
-0.028917618 0.060192533 -0.031183183 -0.07162632 -0.017128615 -0.047360457 -0.029988619 -0.09294137

layers.1.layers.0.bias f4 [100]
00000000: 7385 833d e39d 303d 2753 91bb 8e31 5e3d
00000010: 9a9a 99bb 83eb 80bc 34aa 19bd a738 a7bd
00000020: 7c6f a63d b681 7abd fa6c bbbd 3fb5 36bd
00000030: ec41 9c3c 82ae 13bc 2334 323d c333 6a3d
00000040: 8739 693d 6293 a7bd b298 243d c5f9 473d
00000050: 820f 61bd abf5 b539 0f29 713c 691b 663c
00000060: 5fab 5a3d 456c a83d 490b c03d 58c0 ba3c
00000070: bcb9 683d 90f7 293d c7f9 52bd 2cbb 853d
00000080: 9924 f1bb 18eb 2a3d fd35 85bd e93c a13d
00000090: a4a3 b13c 37d2 b83c a3e7 b1bd f01e 0ebc
000000a0: 5409 0abd 01fc ba3d 8aa4 b6bd 7a40 c0bc
000000b0: dff4 48bd b7d6 92bd adae 173d 5e6a 87bd
000000c0: 4606 3b3d 1145 423c 88f4 4cbd ddef 30bc
000000d0: ff1b 1d3c 6496 2ebd 367b 80bd ff20 61bd
000000e0: 41fb c53c 9caf afbd 68b8 7d3d 0347 853d
000000f0: d532 ba3d 51e9 ac3d 1eb2 62bd f98b 2dbd
00000100: 952a 923d a492 66bc eada 92bd 5145 3bbd
00000110: 8baf 8b3d 28f7 62bd 41f2 0b3d d834 a6bd
00000120: 68d3 813d b4a8 d63c 494b 8c3d 8f28 783b
00000130: 0eff 4c3d 9c24 a53d 1397 4abc a42e 97bd
00000140: d265 8bbd d945 6d3d cd22 80bd d6ed b0bd
00000150: 4b08 aabd 644b 31bd 546f 963c c70b b4bd
00000160: a61b 3abd 123b bf3d 3d48 81bc ec31 05bd
00000170: d572 403d c4b5 a3bd 1d1f 9bbd 972a 823c
00000180: a363 ff3c 6b58 c4bd 7357 b13d 3847 1cbd
0.06421938 0.043119323 -0.0044349614 0.054246478 -0.0046876194 -0.0157373 -0.037515834 -0.081651025
0.08126733 -0.06115886 -0.09151645 -0.044606443 0.019074403 -0.009013774 0.043506753 0.05717827
0.056939628 -0.08182408 0.040184684 0.048822183 -0.05494643 0.00034706047 0.014719262 0.014044621
0.05338609 0.08223776 0.093771525 0.022796795 0.056817755 0.04149586 -0.051507737 0.06529841
-0.007359099 0.04172811 -0.06504438 0.07872946 0.021684475 0.022561176 -0.08686759 -0.008674368
-0.033700302 0.09130097 -0.08918102 -0.023468245 -0.049061652 -0.0716986 0.03703182 -0.06612085
0.04566028 0.011857287 -0.05003789 -0.010799375 0.009589194 -0.042623892 -0.062735006 -0.05496311
0.024167659 -0.08578417 0.06194344 0.06507685 0.09091727 0.08442939 -0.055345647 -0.042369816
0.07137028 -0.014073048 -0.07170661 -0.045720402 0.068205915 -0.055411488 0.03416658 -0.08115548
0.06339151 0.02620349 0.06850297 0.0037865972 0.050047927 0.08063623 -0.01236512 -0.07381943
-0.0680653 0.05792794 -0.06256638 -0.086391136 -0.08302363 -0.04328479 0.018363632 -0.08791309
-0.045436524 0.09337439 -0.015781516 -0.032518312 0.046984512 -0.079936534 -0.07574294 0.015889449
0.03117544 -0.09587177 0.08659258 -0.038153857

layers.2.layers.0.weight f4 [100, 100]
00000000: e102 833c 916b 953d 5009 1d3d b4fd 003d
00000010: b345 babd 9dd7 bdbd d034 1b3d 059f 883b
00000020: f091 7d3d fcb5 503d 91cb a2bd 332a 9c3c
00000030: bceb 9ebd 3b5b 60bd 8f05 e73c 6394 96bb
00000040: 4df2 80bd ed17 0f3d 3709 8f3d 16d1 c7bd
00000050: 1f5a c13d d7a8 653d 7c9b 00bc 8328 c5bd
00000060: 4208 2cbd d142 fc3c c5fe 2bbd c7e4 06bd
00000070: 9f96 26bd becc b03d 7b86 b03d dcd2 9ebd
00000080: bfad fbbc 384a bb3d 2bf9 aebb 6e96 48bd
00000090: 7891 513c 842e a33d eb56 48bc 7341 c0bd
000000a0: b317 07bd 9c71 4f3d 9c2e 5abc 2ce2 923d
000000b0: 60db 103d 3106 e43a be9e 1f3d ed52 4bbc
000000c0: 9cb1 aebd 9cdb aebd d38c 9fbd 8f1b 7abc
000000d0: 07a7 92bd 2435 773c 7c57 493c 17de 9c3d
000000e0: d385 cd3b 7850 903c b79f 133d 3fa0 e3bc
000000f0: 6243 4abd 7d54 bfbd bab3 c6bd c080 ec3b
00000100: 8c65 41bd 93a6 ec3c 6089 d23c 8c6d a03d
00000110: 71d8 37bc 42c2 1539 49a1 8e3d 1988 8e3c
00000120: 1fac 3f3d 3f52 59bd 82f6 91bd 5e7b 9d3d
00000130: 4c22 953d f46d 18bd c83c 8e3c fe0d b6bd
00000140: ef22 f63b c83b bdbd 8ec9 693d d247 cabd
00000150: 582a c2bc 0489 c23d 464b 09bd ac9a 6dbd
00000160: 7e29 b93d 93c9 48bd 5d90 b93c dbc3 673d
00000170: 42a2 e53c 8cf2 8cbd f1e1 bb3d 4600 473d
00000180: 24cc 7fbd 4cf7 68bd 0a27 b7bc a1c1 0a3d
00000190: 21db 173d 1d32 423c 850c 863d e3b1 ca3d
000001a0: a232 a63c 3eed 1c3d 7c82 663d 6e9a 9d3c
000001b0: 4c58 bb3b b09d b63d 758a 8b3d e0f4 843d
000001c0: 4d6b 22bd ca4d 45bd c94d 60bd 05cc acbd
000001d0: 1992 37bc 9970 633d 0581 673c 0be9 13bd
000001e0: dd10 68bc 58ed 9dbd 0deb 84bd 1f27 0c3c
000001f0: d8ab 6fbd c57d 433c 199e a73d 19ac ce3c
00000200: 8a76 9b3d 0b39 82bd f976 f63a 8d29 cabd
00000210: d104 bd39 67c7 97bd b48e be3d 35ca afbd
00000220: e90a 083d 9c39 76bd 60e3 de3c 6f0f 84ba
00000230: 4d52 57bc c7c4 24bd d10a 813d d738 99bc
00000240: dcc2 003c e7cf fabc ca62 96bd 40df 2dbd
00000250: 9e1c b63d e788 c13d 4d09 40bd 09e6 193c
00000260: 1cbd 773c 21b1 b33d 2db7 5b3c b273 8f3b
00000270: 249f f4bc 35f6 a83c 0d6e ccbd ab3d cdbd
00000280: 55f2 48bc 72d5 8fbd 1042 8fbd 73da 8ebc
00000290: 08c9 623d 2f59 473d 1312 12bd 0117 f2bb
000002a0: 150f bc3d 90cd ac3c 0f6b 8a3d 1de4 2abd
000002b0: dffe b8bd 9f28 41bd 22d1 043c fee9 c9bc
000002c0: 90f3 62bd f137 c33d d1b5 bdbd de4d 0b3b
000002d0: eb79 203d 66e9 e1bc fffb 2f3d 82ed f1b6
000002e0: 8157 75bd e48d 61bd 6b5d 39bd 4a34 c8bd
000002f0: 082c 7d3d d11d b93d 0186 54bd ed32 8c3b
00000300: be56 053d a611 e53c 5466 65bd 43a6 7bbd
00000310: b3f6 c53d 3636 6d3d e3fd bc3d 4661 8e3d
00000320: e1eb f5bb 10df 8f3d 2fd1 53bb 9db4 2cba
00000330: 298a 31bd 3488 9f3d 653e aebc 5340 6d3c
00000340: fa51 a3bd e833 0c3d 39fe 42bd 5e5c b9bc
00000350: 4869 13bc a5ca 173d 6cf9 833b 385a 8e3c
00000360: 3321 85bd f5d4 9abd 6f6a 133d a8ee 28bd
00000370: ed9c b0bd c813 29bd 0df9 c8bd 0215 a33c
00000380: 3ce4 f13b 761b bd3d bddb 61bd fbeb 53bd
00000390: 663e c33c f398 d7bc 956a 9f3d cb56 783c
000003a0: c5e0 0dbb 1f59 1dbd 6146 773d 83b6 3fbd
000003b0: ef52 243d fe92 833d 9bb2 a0bd 497c b5bd
000003c0: 83fe 66bd 1222 443d 4076 62bd 7053 193c
000003d0: 9f50 763c 8caf ab3c a610 51bd 2204 5f3b
000003e0: 60bd 8d3d 630d 543d 40fd 9b3c a2ea a2bd
000003f0: 8426 403d d01b 23bd f044 8f3d 3811 2a3d
0.015992584 0.07295907 0.03833896 0.03149195 -0.09095325 -0.092696406 0.037892163 0.004169347
0.061906755 0.050954804 -0.079489835 0.01906309 -0.077598065 -0.054774504 0.028200893 -0.004595326
-0.06296215 0.034934927 0.069841795 -0.09756677 0.09441017 0.05606922 -0.00784957 -0.096268676
-0.042000063 0.03079358 -0.041991014 -0.032933023 -0.040670987 0.086328015 0.086194 -0.07755062
-0.030722497 0.091450155 -0.0053397617 -0.048971586 0.01279103 0.079678565 -0.012227754 -0.093874834
-0.032981586 0.050645456 -0.013316777 0.07172045 0.035365462 0.0017396865 0.038969748 -0.012409908
-0.0852997 -0.08537981 -0.07790532 -0.01526536 -0.07160764 0.015088353 0.012288924 0.07659548
0.0062720566 0.017616495 0.036040988 -0.027786372 -0.049380668 -0.09342287 -0.09702249 0.0072174966
-0.047215983 0.028888023 0.025700271 0.078333944 -0.011221037 0.00014282114 0.069643565 0.01739888
0.046795007 -0.05305695 -0.07127096 0.07689546 0.07281932 -0.037214234 0.017362967 -0.088893875
0.0075114886 -0.09239918 0.057076983 -0.0987698 -0.023701832 0.0949879 -0.033519052 -0.058008835
0.09041117 -0.04902036 0.022651846 0.056583267 0.028031472 -0.068822 0.09173954 0.048584245
-0.062450543 -0.056876466 -0.022357482 0.033876065 0.037074212 0.011852768 0.06545357 0.098972104
0.020287815 0.03831219 0.056276783 0.019238677 0.005717313 0.08916795 0.06813518 0.06492019
-0.03965311 -0.04816989 -0.05476168 -0.08437351 -0.011204266 0.055527303 0.014129882 -0.03611092
-0.014164177 -0.07711285 -0.06490145 0.008554249 -0.058513492 0.011931841 0.081844516 0.025228547
0.07590969 -0.06358536 0.0018803767 -0.098712064 0.00036052478 -0.0741108 0.09304562 -0.0858349
0.03321353 -0.060113534 0.02720803 -0.00100754 -0.013142181 -0.040226724 0.06300891 -0.018703861
0.007858958 -0.030616714 -0.07343061 -0.042449236 0.08892177 0.0944994 -0.04688387 0.009393224
0.015120771 0.08774019 0.013410372 0.0043778056 -0.02986104 0.020625213 -0.09981928 -0.10021528
-0.012264808 -0.07023133 -0.06995022 -0.01743815 0.0553675 0.048669036 -0.03566177 -0.007387996
0.09182564 0.021094114 0.06758701 -0.041721452 -0.09032988 -0.04715788 0.008106502 -0.024647709
-0.05540806 0.09532154 -0.09263194 0.002125613 0.03917877 -0.027577113 0.04296493 -7.2100092e-06
-0.059897903 -0.055066958 -0.045255106 -0.09775598 0.06180957 0.0903889 -0.05188561 0.0042785318
0.032553427 0.027962517 -0.05600579 -0.061437856 0.09666195 0.057913028 0.092281125 0.06952147
-0.0075049256 0.07024968 -0.0032320728 -0.0006588193 -0.04334465 0.077896506 -0.021269986 0.014480668
-0.0797462 0.03422919 -0.047605727 -0.022627052 -0.008997269 0.03705849 0.004027536 0.017377004
-0.06500473 -0.075601496 0.035990175 -0.041243225 -0.08623681 -0.04127863 -0.09813128 0.019907478
0.007381944 0.092337534 -0.0551412 -0.05173872 0.023833465 -0.026318049 0.07784001 0.015157412
-0.0021648866 -0.03841507 0.060369853 -0.046804916 0.040118154 0.06424521 -0.07846566 -0.08861596
-0.056395065 0.047884054 -0.055288553 0.009358272 0.01503387 0.02095773 -0.051041268 0.0034029563
0.06920886 0.05177058 0.019041657 -0.07954909 0.04691173 -0.039821446 0.06995571 0.041520327

layers.2.layers.0.bias f4 [100]
00000000: 48ba 2bbd 12c9 01bd 7958 acbd 4739 f6ba
00000010: 6749 623d aeb7 76bd 99b7 ecbb 0bc7 933d
00000020: 75fa 81bd be5a ef3c a136 b7bc 7d44 aa3d
00000030: 6b7c d2bb 98a4 b03d 85a9 09bd f1c9 9ebd
00000040: b945 203b 80d7 6fbd 223c 5dbd d89e 873d
00000050: 5cf9 bb3d c38e 8abd d9ed cbbd 9202 d23c
00000060: a8a2 a9bd 5473 b4bc 3a9a 2d3d ad9f 263d
00000070: 21b5 5b3c 28af 333d 3c30 64bd 5451 febc
00000080: a15f 02bd 7ea8 c9bd 99de 6cbd b920 1f3c
00000090: bf31 c13c 8f4b 3abd 2d95 8e3d 8684 60bd
000000a0: 7710 333c f59c af3d 8acf 8c3d 32c0 d23d
000000b0: 9b81 e63c ae09 8dbd a695 0fbd 3704 ecbc
000000c0: 2999 94bd 58c4 06bd d354 c0bd 9338 3cbd
000000d0: 45c5 cabd 199d bf3d 0309 ae3c 234e d33d
000000e0: 8dc2 6f3d ac65 c33d 156c 02bd 5414 3dbd
000000f0: 30e2 36bd 9e26 bcbd 1a9a c3bb 7f51 8c3c
00000100: 0010 773d 35f8 65bc b56c 0b3d a568 263d
00000110: 871d a03c 514f cb3c 4ea7 13bd 6f8c 6f3d
00000120: cecb c5bd 089c 3e3c abf3 4b3d 61ba 923d
00000130: 64d2 453d e2f0 6fbc c12b 903d 4e61 c3bd
00000140: 5b94 b6bc d637 18bd 68e9 723d ce48 be3d
00000150: c1e2 d8bc 2a8f a33c 3d05 88bc de3d 03bd
00000160: 00e4 273d 50c3 be3c 89a3 4fbd 7ccb b23c
00000170: fb49 c73d 4314 94bd c975 8cbc 5c52 b5bd
00000180: 8552 c4bc fe8d c43d a522 793d a535 c2bd
-0.0419257 -0.031685896 -0.08415312 -0.001878538 0.055245783 -0.060233764 -0.007224035 0.07215699
-0.06346599 0.029218074 -0.022364916 0.08313844 -0.006423523 0.08625144 -0.033608932 -0.07753361
0.002445562 -0.058555126 -0.054012425 0.06622094 0.09178421 -0.06765511 -0.09957475 0.025635991
-0.08282977 -0.022027649 0.04238341 0.040679622 0.013409884 0.043868214 -0.055710062 -0.03104464
-0.03182948 -0.098465905 -0.057829473 0.0097123915 0.023583291 -0.045482215 0.06962047 -0.054813884
0.0109292185 0.08574859 0.068755224 0.102905646 0.028137973 -0.06886612 -0.035054825 -0.028810604
-0.072557755 -0.03290209 -0.09391179 -0.04595239 -0.099009074 0.09356136 0.021244531 0.10317638
0.058535147 0.09540877 -0.031841356 -0.046161965 -0.044649303 -0.09187053 -0.005969298 0.017128704
0.060317993 -0.014036228 0.034039218 0.04062714 0.01954533 0.024818094 -0.036048226 0.058483537
-0.09658013 0.01163388 0.049792927 0.07164455 0.048296347 -0.014644833 0.070395954 -0.09540044
-0.022287538 -0.037162624 0.059304625 0.0929123 -0.026475312 0.019965727 -0.01660406 -0.032041423
0.040988922 0.023286492 -0.05069307 0.021825545 0.097309075 -0.07230427 -0.017146008 -0.088535994
-0.02396513 0.09597395 0.060824055 -0.09482888

layers.3.weight f4 [2, 100]
00000000: f14a bbbd cdd7 22ba b93f 59bc 92cb 923d
00000010: ad32 27bd 22a5 983d 6404 7dbd 6cad c3bc
00000020: 81f1 01bc 2cba 5dbd 847b 143a 8d78 e8bc
00000030: efb5 4abd 3d77 b4bd 3ec2 1aba 4d66 bf3d
00000040: 3b96 1c3d a3ae a8bd 4858 57bd fc10 643d
00000050: 9f8c 27bd b327 4fbc 3615 42bd 378b 0c3d
00000060: 6c51 8cbd 3ed6 d8bd 4c07 97bd 33d5 bdbd
00000070: 709c 063c 80ec 6d3c 1abb 0dbd 39be 083d
00000080: 89c0 903b d3ae bf3c e219 4f3d 53da 943b
00000090: 93f6 cb3d 7797 8d3d f058 89bd cccc 983d
000000a0: 5f9d 92bc 2da2 0abc a4b9 03ba 054a c6bd
000000b0: c8a2 7c3d 1a04 833d 4d58 bf3d 1bdd 663c
000000c0: 0bbd ebbc 1716 a8bc 9ec9 07bd 0586 bbbd
000000d0: fd8f 013d c873 e23a e9ff 42bd 090a 93bd
000000e0: 80fc ebbc 9bdb 2e3c 0dd3 923d bc65 133d
000000f0: 8ff6 973d b5f7 a43d 5f96 4cbd 8962 babb
00000100: 1ce7 c8bd c52a 8bbd b766 f13c 95a0 073d
00000110: fa45 303d 32d6 a33d 5170 163d e903 59bd
00000120: b559 c8bc 35ba 9d3b 35dc 423d 44de 97bd
00000130: ebbd 4cbd 02b6 183d 2ac3 073d 7fd9 c03d
00000140: 28cb a43d 4d26 44bd d3e4 d53c 76c2 90bd
00000150: bd95 80bb 69f3 ddbb d363 a53c 44da a73d
00000160: a1cc a4bd 6487 a43d c75f 893d 87b9 45bd
00000170: 7fd0 1bbd b8e2 ecbc b6dd 7c3d 0450 d4bc
00000180: c7e5 f13c fa0d 50bd 214b 9b3d 9402 93bc
00000190: f6af c73d abf5 8ebd 84aa e5bc 80d8 8b3d
000001a0: b07d 3e3d 110b 4abd 6650 a2bd cb03 8fbd
000001b0: a245 9fbd 9a74 57bd 221f 69bd 1f7a b4bc
000001c0: 25a2 b53d c149 8cbc ff69 7bbd 63a4 463d
000001d0: c2ac 6ebd bee9 34bd 38f9 6cbc e11f 17bb
000001e0: 0bb8 6dbd 6df5 9bbd ef2a c7bd 11f4 edbc
000001f0: 1a27 533d 3a98 9c3c dccb a33d 4487 c23c
00000200: 39c7 96bd 816f 2a3c 32bb b9bc 077a 843d
00000210: 74c5 033d 3b4e cc3d 505c b4bd c6b9 02bd
00000220: a876 aebd c086 5a3c ac1e 5abd 0dd6 29bd
00000230: 873a d23d 9e5f f8bc f5b6 703d 11c3 963d
00000240: e2ed 9b3d f115 ab3d 938b 853d a837 663c
00000250: b9d4 af3d c315 d23d 4484 8cbd ff5f b43c
00000260: 68be 913d 14e2 5ebd c968 653d e481 9b3d
00000270: 4e06 1d3c 2a7c 43bc 3e6f 9abb caf8 bb3d
00000280: a4ba 9fbd b775 223d 4b94 5abd 4d98 913d
00000290: a696 ddbc f83d 053d 3f56 943d da3e 0fbc
000002a0: a85b 71bc 6d3e c43d ef1c cb3d fc19 6a3d
000002b0: 6d02 c43b c21c e33a 488c 71bd efa2 b93d
000002c0: 9585 573d 165b a53d 8e95 84bd 458b d03c
000002d0: 6a9d b03c 04d1 e7bc a7d0 0ebb 5221 ee3c
000002e0: 5c81 e1bc f894 be3d 4be6 b2bd b943 0ebc
000002f0: 0132 38bd 0099 b33d eb87 08bd ca46 bdbc
00000300: a7c8 c63d 05a6 a4bd bcd8 04bd 8776 b03d
00000310: 596d 9b3d 56b2 8dbc a7cc 63bc 8d7a 3bbd
-0.09145153 -0.00062119664 -0.013259822 0.07167734 -0.040819813 0.074533716 -0.061771765 -0.023886405
-0.007931114 -0.054132625 0.0005664157 -0.028377796 -0.04948991 -0.088118054 -0.0005903578 0.09345684
0.03822921 -0.08236434 -0.052574426 0.05568026 -0.04090559 -0.012643742 -0.04738351 0.034312453
-0.068514675 -0.105877385 -0.07374439 -0.0926918 0.008216009 0.014521718 -0.034602262 0.033384535
0.004417483 0.023398792 0.050561793 0.004542628 0.0995914 0.06913655 -0.067064166 0.07460937
-0.017897306 -0.008461517 -0.0005024916 -0.09682087 0.061678678 0.06397267 0.09343014 0.014090802
-0.028776666 -0.020518346 -0.03315126 -0.091564216 0.03163146 0.0017276937 -0.047607336 -0.071796484
-0.028806925 0.010672475 0.07169161 0.035985693 0.07420074 0.08055059 -0.049948093 -0.005688016
-0.098097056 -0.06795267 0.029467924 0.033112127 0.043035485 0.07999839 0.036728207 -0.052982245
-0.024456838 0.0048134574 0.047573287 -0.07415441 -0.049985807 0.03728295 0.033145107 0.09416484
0.080465615 -0.04788809 0.026110088 -0.070683405 -0.0039241 -0.0067734015 0.020189201 0.08195928
-0.08046842 0.08033636 0.06707721 -0.048272636 -0.038040634 -0.028916702 0.061734878 -0.02591706
0.029528512 -0.05079458 0.07582689 -0.017945565 0.09750359 -0.06980451 -0.02803541 0.068284035
0.046506584 -0.04932696 -0.07925491 -0.06983145 -0.07776953 -0.052601434 -0.056914456 -0.022030888
0.08868817 -0.017125012 -0.061380383 0.048496615 -0.058270223 -0.044168226 -0.014463715 -0.0023059773
-0.058036845 -0.07615171 -0.09724986 -0.029047044 0.051550962 0.019115556 0.079978675 0.02374614
-0.073622175 0.010402561 -0.02267227 0.06468587 0.032170728 0.09975859 -0.0880667 -0.03191545
-0.08518726 0.013337791 -0.053251907 -0.0414639 0.102650695 -0.030319031 0.05876823 0.07361425
0.07613732 0.08353794 0.06520762 0.014051355 0.085854955 0.10258057 -0.06861165 0.02201843
0.07116395 -0.054414824 0.056008134 0.07593134 0.009584023 -0.0119314585 -0.004712968 0.09178312
-0.07799271 0.039663043 -0.05336408 0.07109127 -0.027049374 0.0325298 0.07243013 -0.008743012
-0.014731325 0.09582219 0.09917628 0.057153687 0.0059817345 0.0017327296 -0.058971673 0.0906428
0.052617628 0.08074014 -0.06473838 0.025457034 0.021559436 -0.028297909 -0.0021791847 0.029068623
-0.027527504 0.09305757 -0.08735331 -0.0086831385 -0.044969562 0.08769417 -0.033332746 -0.023105044
0.0970624 -0.08039478 -0.032433257 0.08616357 0.07589216 -0.017296951 -0.013903773 -0.04577117

layers.3.bias f4 [2]
00000000: 2a5f 37bd 8f40 c03d
-0.04476849 0.093873136
