clients_data/clients_trained_model/pre_trained_model.pth (torch, 86087 bytes, 6 tensors)

layers.1.layers.0.weight f4 [100, 105]
-0.0062920833 0.5993763 -0.56370354 -0.15169637 -0.089754224 -0.2599995 -0.0106498245 0.7968828
-0.08296322 0.32456473 0.28371412 -0.30889016 -0.038153905 -0.21971905 0.053605765 0.02601233
-0.04281854 -0.07296481 0.00019779077 0.058021955 -0.120206244 0.16168804 -0.06485472 0.22622505
-0.07793176 0.706534 0.29077482 0.18972145 0.120066874 -0.086225554 -0.26581982 -0.32473603
-0.34547934 0.21341565 -0.17644009 -0.092411704 0.4827789 0.47767243 -0.03576804 0.068694256
0.116702236 -0.18535939 -0.31387904 -0.14936307 0.09283374 0.28322646 0.02661629 0.1350055
0.4087605 0.16018058 -0.21091211 -0.015082101 0.123329505 -0.11801078 -0.1310588 -0.17176831
0.15472913 -0.10592064 0.2771585 0.38312572 -0.40449643 1.229788 -0.2941281 0.06050326
-0.26303127 0.5882008 -0.0077398415 0.1683287 0.023445548 0.07419042 0.51009625 -0.1461057
-0.053868167 0.027084863 -0.07780009 0.22851369 0.51096356 0.06329886 -1.317358e-05 -0.13051742
0.7069059 0.37371135 0.043622095 -0.06940931 0.378725 -0.22828327 0.28779104 0.75503045
0.30228195 0.42442924 0.15179141 0.5125243 -0.053774413 0.18052691 0.76584315 -0.09341895
0.13666588 0.8228983 0.79569346 0.02275408 0.13916112 0.2327202 0.7005592 0.6976173
-0.027786985 0.010828133 0.74598074 -0.75969774 -0.24856223 0.024763271 -0.33411118 -0.16515046
0.9492025 -0.013519925 -0.24380356 0.41705996 -1.0261381 0.4786859 0.032661807 0.057395115
-0.00963451 -0.5732302 0.023339264 0.22573206 0.037924346 0.18663102 -0.43706667 -0.14858097
0.2683845 -0.16691278 0.31207132 0.19136041 -0.33477023 0.174019 0.46545133 -0.35123414
-0.339828 -0.19338624 0.27597606 -0.15221807 0.18237962 0.467007 -0.24450901 0.40461722
-0.35936385 -0.19384001 -0.21102962 -0.3827774 -0.043968745 0.1933443 0.1384657 0.05984508
0.01447438 0.3538326 0.11139789 -0.4357262 0.25598198 0.27036622 -0.28770426 -0.16340707
-0.11473096 0.21488085 0.17175859 0.25713497 0.2883391 -0.28323913 -1.263376 0.26332718
-0.55909425 -0.52667075 0.5886652 -0.03603698 0.32187307 -0.09020216 0.029965885 0.15627976
0.22724362 0.44870389 0.37205923 0.15097788 -0.25148037 -0.23136123 0.28305665 0.5752555
-0.3834541 -0.090924606 0.605869 -0.19540015 -0.083423056 0.15062375 0.35870934 0.10500697
1.023473 0.47763082 0.42437705 0.047072325 0.16703726 0.11003883 0.08643966 1.0244532
0.38335946 0.28251797 0.99441224 1.0179292 -0.217731 -0.08170598 0.3890834 0.91029906
0.35594353 0.09426718 0.35788697 -0.2558394 -0.24874678 -0.36695418 0.13827647 0.34200016
0.26017088 0.44170114 0.06090663 0.79266155 0.30959216 0.15412186 0.17106971 -0.80923516
0.024236577 0.29154387 0.13634191 -0.23989901 -0.36311993 0.23719496 0.2649884 0.28680283
0.0825179 0.053748343 -0.11211649 0.22651184 0.3946379 0.20232461 -0.69345593 0.15533917
0.10728842 -0.08542426 -0.021596218 -0.14884849 -0.34547287 0.2775115 0.05478277 -0.32633492
0.27517307 0.29112205 0.56104004 0.008082943 -0.41587648 -0.37745973 -0.3154016 0.03814
00000000: d22d cebb ba70 193f e04e 10bf 4b56 1bbe
00000010: 10d1 b7bd a81e 85be 9a7c 2ebc 8300 4c3f
00000020: 9fe8 a9bd 592d a63e fa42 913e da26 9ebe
00000030: 4547 1cbd 08fe 60be b891 5b3d cf17 d53c
00000040: 7e62 2fbd 936e 95bd 0e66 4f39 6ea8 6d3d
00000050: b12e f6bd 8d91 253e 8dd2 84bd 8aa7 673e
00000060: b09a 9fbd 6adf 343f 70e0 943e 5746 423e
00000070: 9fe5 f53d 0697 b0bd 8919 88be cd43 a6be
00000080: abe2 b0be a289 5a3e b6ac 34be 5942 bdbd
00000090: cc2e f73e 7b91 f43e 8281 12bd 93af 8c3d
000000a0: 9501 ef3d dace 3dbe c1b4 a0be a2f2 18be
000000b0: 9e1f be3d 0f03 913e 680a da3c e23e 0a3e
000000c0: 0e49 d13e 6106 243e 58f9 57be eb1a 77bc
000000d0: 2e94 fc3d a3af f1bd 4734 06be 08e4 2fbe
000000e0: 5071 1e3e ecec d8bd b8e7 8d3e 0e29 c43e
000000f0: 281a cfbe b169 9d3f f597 96be 44d2 773d
00000100: 09ac 86be 5494 163f 7f9e fdbb 5c5e 2c3e
00000110: e110 c03c 26f1 973d ab95 023f bc9c 15be
00000120: dea4 5cbd 13e1 dd3c a755 9fbd 7eff 693e
00000130: 82ce 023f d5a2 813d 1804 5db7 5ca6 05be
00000140: c9f7 343f 1857 bf3e 15ad 323d 7826 8ebd
00000150: 3ee8 c13e 17c3 69be 5959 933e ad49 413f
00000160: b3c4 9a3e ca4e d93e 356f 1b3e cb34 033f
00000170: 8f42 5cbd 0cdc 383e 4c0e 443f 6f52 bfbd
00000180: 24f2 0b3e 77a9 523f 91b2 4b3f c466 ba3c
00000190: 4180 0e3e 344e 6e3e d957 333f 0c97 323f
000001a0: 88a1 e3bc 7b68 313c 98f8 3e3f 8d7b 42bf
000001b0: 1987 7ebe 58dc ca3c 9f10 abbe 341d 29be
000001c0: effe 723f ad82 5dbc a4a7 79be e288 d53e
000001d0: 7e58 83bf 5116 f53e 63c8 053d 2417 6b3d
000001e0: 10da 1dbc 37bf 12bf fc31 bf3c 4e26 673e
000001f0: 8f56 1b3d 341c 3f3e 34c7 dfbe 9c25 18be
00000200: b169 893e 2feb 2abe d0c7 9f3e fcf3 433e
00000210: 0167 abbe 0932 323e a34f ee3e f6d4 b3be
00000220: f0fd adbe 0b07 46be bc4c 8d3e 0edf 1bbe
00000230: b9c1 3a3e 8b1b ef3e 9260 7abe fd29 cf3e
00000240: 8afe b7be ff7d 46be 2618 58be 66fb c3be
00000250: 9218 34bd 0cfc 453e f4c9 0d3e 1d20 753d
00000260: f325 6d3c 8c29 b53e 9424 e43d 8117 dfbe
00000270: 1210 833e 716d 8a3e f94d 93be 2f54 27be
00000280: 11f8 eabd ba09 5c3e 7ce1 2f3e 32a7 833e
00000290: 2fa1 933e b804 91be 4eb6 a1bf d2d2 863e
000002a0: cd20 0fbf e5d3 06bf c3b2 163f 839b 13bd
000002b0: 8ccc a43e e9bb b8bd 047b f53c cd07 203e
000002c0: 8db2 683e 84bc e53e 8c7e be3e f299 1a3e
000002d0: 09c2 80be f5e9 6cbe cdec 903e f243 133f
000002e0: 1954 c4be ae36 babd 3b1a 1b3f fa16 48be
000002f0: b5d9 aabd 1d3d 1a3e c0a8 b73e e50d d73d
00000300: 2a01 833f 078c f43e f347 d93e e9ce 403d
00000310: d10b 2b3e 0a5c e13d 4707 b13d 4821 833f
00000320: b147 c43e 32a6 903e cd91 7e3f 814b 823f
00000330: e0f4 5ebe 7755 a7bd f035 c73e 5c09 693f
00000340: 3b3e b63e 270f c13d f63c b73e 62fd 82be
00000350: 7ab7 7ebe 6be1 bbbe 5998 0d3e a51a af3e
00000360: 1e35 853e a726 e23e 3b79 793d deeb 4a3f
00000370: dd82 9e3e 1fd2 1d3e e62c 2f3e 092a 4fbf
00000380: c98b c63c 3d45 953e 379d 0b3e 16a8 75be
00000390: dbea b9be 3ce3 723e 8fac 873e d2d7 923e
000003a0: 25ff a83d 3927 5c3d 559d e5bd b8f2 673e
000003b0: fb0d ca3e 2f2e 4f3e 5486 31bf 3b11 1f3e
000003c0: 08ba db3d eaf2 aebd 8dea b0bc bd6b 18be
000003d0: d2e1 b0be fd15 8e3e e663 603d 5f15 a7be
000003e0: 7ce3 8c3e f30d 953e 52a0 0f3f 526e 043c
000003f0: c3ed d4be 6742 c1be 527c a1be b038 1c3d

layers.1.layers.0.bias f4 [100]
-0.7192075 -1.0015335 -0.5543462 -0.012464957 -0.111195914 -0.48477906 -0.7454988 -0.48844555
-0.338814 -0.41405377 -0.22342946 -0.19736789 -0.5025292 -0.34698823 -0.28567117 -0.67889065
-0.2139026 -0.6405974 -0.5548835 -0.42314085 -0.7759288 -0.6039048 -1.097423 -0.8160429
-0.9212611 -0.8151973 -0.16913377 -0.4523482 -0.7442393 -0.06846093 -0.73119354 -1.2209404
-0.34657356 -0.5121484 -1.1676302 -0.64989275 -0.8519803 -0.72470677 -0.6683124 -0.54098827
-0.46161178 -0.4348308 -0.92421 -0.75540495 -0.4027789 -0.88815475 -0.10320941 -0.7714995
-0.6206979 -0.8907143 -0.52193576 -0.58407456 -0.888811 -0.81992275 -0.48883948 -0.7722564
-0.5492153 -0.7370877 0.055779666 -0.71852595 -0.8240869 -0.831804 -0.9322395 -0.107747704
-0.30120936 -0.7080927 -0.71254367 -0.75842416 -0.41125587 -0.44382516 -0.8073965 -0.49789238
-0.12122999 -0.5815029 -0.9745945 -0.15036158 -0.48655003 -0.22540085 -0.63951755 -0.19983292
-0.61664546 -0.2358939 -0.92795825 -0.42974234 -0.65418786 -0.2431096 0.010936656 -0.47920352
-0.8572797 -0.78439426 -1.002659 -0.6245285 -0.3825878 -0.76676613 -0.6331317 -0.86265755
-0.9944635 -0.8237557 -0.6154612 -0.74571025
00000000: fc1d 38bf 4032 80bf a2e9 0dbf d239 4cbc
00000010: afba e3bd f634 f8be 02d9 3ebf 8915 fabe
00000020: 0779 adbe dbfe d3be b1ca 64be cf1a 4abe
00000030: c1a5 00bf 71a8 b1be 7e43 92be c7cb 2dbf
00000040: 4809 5bbe 31fe 23bf d80c 0ebf eba5 d8be
00000050: 45a3 46bf 8199 1abf 5b78 8cbf 30e8 50bf
00000060: c4d7 6bbf c5b0 50bf 6731 2dbe 2f9a e7be
00000070: 7786 3ebf 3e35 8cbd 802f 3bbf c647 9cbf
00000080: 1772 b1be 281c 03bf e874 95bf 5f5f 26bf
00000090: 621b 5abf 6286 39bf 8516 2bbf 357e 0abf
000000a0: 6158 ecbe 25a2 debe 0799 6cbf 3862 41bf
000000b0: 0939 cebe 1c5e 63bf 755f d3bd fe80 45bf
000000c0: 0fe6 1ebf da05 64bf 959d 05bf e985 15bf
000000d0: 1e89 63bf 75e6 51bf 2b49 fabe 98b2 45bf
000000e0: 6099 0cbf c8b1 3cbf 3879 643d 51f1 37bf
000000f0: 5cf7 52bf 1bf1 54bf 3fa7 6ebf d4aa dcbd
00000100: 1d38 9abe 9045 35bf 4369 36bf 1628 42bf
00000110: 2190 d2be 0d3d e3be 89b1 4ebf c0eb febe
00000120: 6e47 f8bd 60dd 14bf 067f 79bf 63f8 19be
00000130: 161d f9be 7bcf 66be 6cb7 23bf 00a1 4cbe
00000140: 7adc 1dbf 2c8e 71be ac8e 6dbf 3007 dcbe
00000150: db78 27bf b9f1 78be a92f 333c 2a5a f5be
00000160: af76 5bbf 10ce 48bf 2157 80bf 1ae1 1fbf
00000170: 8ce2 c3be c94a 44bf eb14 22bf 20d7 5cbf
00000180: 2995 7ebf a7e1 52bf dd8e 1dbf dee6 3ebf

layers.2.layers.0.weight f4 [100, 100]
0.06445454 -0.027126439 -0.084308684 -0.017602496 -0.119079836 0.0044662696 -0.04020977 -0.06826564
0.06043841 -0.11196633 -0.022057578 -0.11550516 -0.094746605 -0.12499037 0.087038144 -0.14954072
-0.10531659 -0.011465698 -0.05919729 -0.12012634 -0.012067624 -0.09421185 -0.024493242 -0.039054412
-0.1475388 -0.04689302 -0.13312648 -0.03994638 -0.12083411 -0.15763777 -0.01512808 -0.08074705
0.009671905 -0.008346708 -0.022435984 -0.10215276 -0.019920507 -0.1586921 -0.048624776 -0.112477064
-0.015398927 0.017996807 -0.08747867 -0.14914352 -0.1912231 -0.08222612 0.0062704827 -0.06983664
-0.12990874 -0.1517564 0.05818184 0.031302642 -0.17083989 0.031230623 -0.111374415 -0.008913119
-0.18207823 -0.06445781 -0.15184692 0.038662214 -0.028051576 -0.07334181 0.044117328 0.0094961515
0.04432918 0.0064982604 -0.1524704 0.0034812128 -0.17237665 -0.04421476 0.009567577 -0.05652569
-0.10991737 -0.10970131 -0.060454767 -0.11268383 -0.086004145 -0.056086496 -0.12556392 -0.08020828
0.029035602 -0.11428725 -0.1072333 -0.022649076 -0.08489337 -0.0039058547 -0.13749348 0.007409413
-0.036902472 -0.14454353 0.03569247 0.029822342 -0.13144809 -0.0023645705 -0.093760304 0.038684275
-0.17358932 -0.15252064 -0.0840509 -0.061810963 0.018313823 -0.07386139 -0.013739097 -0.15690014
-0.2295031 0.022366667 -0.20172903 -0.04740302 -0.08278016 -0.31069952 -0.15463693 -0.4887714
-0.17683518 -0.4842341 0.18383847 0.35364673 -0.12924668 0.09552025 -0.10094869 -0.26110917
-0.010867161 -0.20611084 -0.117650084 0.100635156 -0.118631855 -0.45795372 -0.2641836 0.098324716
-0.11418327 0.08985285 0.08526925 -0.06778765 0.12909175 -0.39167133 0.016972153 0.05731793
0.09410255 -0.07298336 -0.03925709 -0.20471413 0.050678678 -0.58745265 -0.10828731 -0.1650152
-0.15427113 -0.046849657 -0.5563263 -0.06688109 0.07167232 0.031791314 -0.35217682 -0.12689109
0.0054342053 -0.18643817 0.2510796 -0.014614455 0.111167744 -0.3220552 -0.10573262 -0.38812944
-0.12827288 -0.036126047 -0.142181 -0.38797474 0.08639884 -0.35170528 -0.2101666 -0.03882259
-0.038379833 -0.08827892 0.1145004 -0.16507678 0.12218699 -0.2209959 -0.14963457 -0.15130919
-0.3480387 0.021053081 0.036174465 0.15970495 -0.4554881 -0.0007858536 -0.111546226 -0.29965076
0.12718233 -0.042212814 -0.09960266 -0.24484134 -0.2487507 -0.15172853 -0.044176772 -0.21337815
-0.23990639 -0.15963037 -0.061380457 -0.022706503 0.07578349 0.11866423 -0.11355047 -0.17476869
0.027315103 -0.048033986 -0.026073758 -0.029322296 0.01506022 0.08224983 -0.11947616 0.079299405
-0.033340342 -0.16746077 -0.08994826 0.04678566 -0.16746913 0.048886523 -0.053129695 -0.13458821
0.11945419 -0.025999373 -0.062201906 -0.099180974 -0.019075943 -0.17065014 -0.10048088 -0.019169278
-0.011118276 -0.09115395 -0.21912535 -0.08970595 -0.14697555 -0.09516325 -0.12260679 0.02627556
-0.17170931 -0.09267045 -0.12852518 0.02950893 0.0169221 -0.16572383 0.013724326 -0.01135452
-0.12899631 -0.02455469 -0.014776152 -0.085667126 0.0024089995 -0.044139873 -0.18713716 -0.05328041
0.06425314 -0.040570326 -0.22433515 0.0070020496 -0.06881429 -0.07970245 -0.092228584 -0.1625795
00000000: be00 843d 4438 debc 08aa acbd 1c33 90bc
00000010: 21e0 f3bd c959 923b 00b3 24bd dbce 8bbd
00000020: 448e 773d 9a4e e5bd 18b2 b4bc f88d ecbd
00000030: 820a c2bd f3fa ffbd 0e41 b23d 3421 19be
00000040: 39b0 d7bd 9fda 3bbc dc78 72bd cc04 f6bd
00000050: 49b7 45bc 24f2 c0bd 0da6 c8bc 85f7 1fbd
00000060: 6914 17be e512 40bd 4f52 08be d19e 23bd
00000070: e077 f7bd cc6b 21be c4db 77bc b65e a5bd
00000080: e976 1e3c a1c0 08bc abcb b7bc 7735 d1bd
00000090: 5530 a3bc 2f80 22be c62a 47bd 605a e6bd
000000a0: c84b 7cbc 0a6e 933c 0428 b3bd 14b9 18be
000000b0: fdcf 43be 2b66 a8bd 9f78 cd3b 8306 8fbd
000000c0: cc06 05be 0866 1bbe 1550 6e3d 3337 003d
000000d0: a7f0 2ebe 5dd7 ff3c 4518 e4bd 5508 12bc
000000e0: b772 3abe 7502 84bd c27d 1bbe 455c 1e3d
000000f0: 6bcc e5bc 3b34 96bd 5fb4 343d bf95 1b3c
00000100: 8492 353d 5cef d43b 3321 1cbe 0f25 643b
00000110: 8183 30be 891a 35bd 54c1 1c3c 7b87 67bd
00000120: 5c1c e1bd 15ab e0bd 6b9f 77bd c8c6 e6bd
00000130: f122 b0bd f4ba 65bd d493 00be 3d44 a4bd
00000140: 12dc ed3c 6f0f eabd 229d dbbd 8e8a b9bc
00000150: 93dc adbd 5ef9 7fbb 17cb 0cbe a9ca f23b
00000160: 0c27 17bd 3803 14be 4432 123d fc4d f43c
00000170: 549a 06be e9f6 1abb 6705 c0bd 6773 1e3d
00000180: 66c1 31be 5f2e 1cbe e122 acbd 7e2d 7dbd
00000190: df06 963c a444 97bd f319 61bc 6eaa 20be
000001a0: dc02 6bbe 4d3a b73c 0e92 4ebe ab29 42bd
000001b0: a588 a9bd 0214 9fbe 2559 1ebe 3f40 fabe
000001c0: 4814 35be 88ed f7be 2740 3c3e 2f11 b53e
000001d0: 3e59 04be 1fa0 c33d 30be cebd 1ab0 85be
000001e0: 2d0c 32bc b80e 53be 87f2 f0bd ce19 ce3d
000001f0: 42f5 f2bd e978 eabe 1343 87be 785e c93d
00000200: ebd8 e9bd c504 b83d a5a1 ae3d 40d4 8abd
00000210: a130 043e 2589 c8be 2f09 8b3c 35c6 6a3d
00000220: d6b8 c03d 4d78 95bd 0bcc 20bd 95a0 51be
00000230: 7294 4f3d 4c63 16bf bdc5 ddbd bff9 28be
00000240: 40f9 1dbe 6de5 3fbd 676b 0ebf f4f8 88bd
00000250: f0c8 923d 9c37 023d 8550 b4be bdef 01be
00000260: 6b11 b23b a6e9 3ebe 818d 803e 7871 6fbc
00000270: eaab e33d 6be4 a4be 588a d8bd e7b8 c6be
00000280: f759 03be e8f8 13bd e597 11be a0a4 c6be
00000290: e0f1 b03d b712 b4be ea35 57be 7004 1fbd
000002a0: 2c34 1dbd 94cb b4bd 307f ea3d e309 29be
000002b0: 2c3d fa3d c04c 62be ce39 19be ccf0 1abe
000002c0: 2132 b2be 8377 ac3c ad2b 143d b289 233e
000002d0: bc35 e9be be01 4eba 5972 e4bd d36b 99be
000002e0: 163c 023e 58e7 2cbd 7bfc cbbd b0b7 7abe
000002f0: 81b8 7ebe b95e 1bbe b4f2 34bd cd7f 5abe
00000300: 05aa 75be 2576 23be 136a 7bbd fd02 babc
00000310: 6034 9b3d 3b06 f33d 268d e8bd 90f6 32be
00000320: ecc3 df3c 49bf 44bd a298 d5bc 5035 f0bc
00000330: 24bf 763c 9972 a83d ebaf f4bd ba67 a23d
00000340: e28f 08bd d67a 2bbe cb36 b8bd 52a2 3f3d
00000350: 077d 2bbe 3c3d 483d 869e 59bd 7ed1 09be
00000360: 66a4 f43d a3fc d4bc 6dc7 7ebd 651f cbbd
00000370: 2745 9cbc e9be 2ebe ebc8 cdbd e408 9dbc
00000380: 6e29 36bc ecae babd 6562 60be c1b7 b7bd
00000390: c280 16be f3e4 c2bd 4519 fbbd d83f d73c
000003a0: 91d4 2fbe 01ca bdbd 1b9c 03be b6bc f13c
000003b0: 37a0 8a3c 82b3 29be ffdb 603c 4f08 3abc
000003c0: 9c17 04be eb26 c9bc ac17 72bc 3f72 afbd
000003d0: 4ee0 1d3b 03cc 34bd e2a0 3fbe 8f3c 5abd
000003e0: 2697 833d 122d 26bd 1db8 65be 7371 e53b
000003f0: 82ee 8cbd 0a3b a3bd 57e2 bcbd 3e7b 26be

layers.2.layers.0.bias f4 [100]
-0.057570864 0.061326966 0.027114093 -0.6044281 -0.16031945 -0.18771796 -0.041239906 -0.15749004
-0.032657288 -0.20864205 -0.12030595 -0.41369486 -0.19355108 -0.07528831 -0.15484214 -0.13116455
-0.101508655 -0.11430917 -0.21916258 -0.027244175 -0.3232378 -0.08620755 -0.016637081 -0.17345898
-0.31449732 -0.3763847 -0.07053482 -0.096433304 -0.0715283 0.03677274 -0.1779491 -0.035406366
-0.18026042 -0.03298255 -0.045949195 -0.013123786 -0.07498313 -0.10760253 0.04330011 -0.47258002
-0.12957212 -0.056523893 -0.071074456 -0.09210954 -0.15101886 0.5539481 -0.09344992 -0.19291449
-0.11508121 0.16746014 0.19497056 -0.37254438 0.005862029 -0.045669377 -0.11508709 0.4001337
-0.15725067 0.031499404 -0.3195791 -0.074683115 -0.03778683 -0.06727571 -0.19912823 -0.046151046
-0.0791172 -0.3271288 -0.14102557 0.19127241 -0.14846627 -0.18340415 -0.10748037 -0.055653404
-0.08800817 -0.060163546 -0.030881703 -0.15472245 -0.15973206 -0.21176374 -0.14220218 -0.23089504
0.5805571 -0.15182857 -0.031026086 -0.24230078 -0.10512665 -0.15184969 -0.02356651 -0.25249568
-0.2322521 -0.10195468 -0.19806743 -0.02847504 -0.11803571 -0.14153872 -0.14880174 -0.1566566
-0.09496523 -0.46872625 -0.18932645 -0.44084913
00000000: 6dcf 6bbd fc31 7b3d 601e de3c cdbb 1abf
00000010: c82a 24be 2339 40be 2deb 28bd 1245 21be
00000020: a6c3 05bd 43a6 55be f762 f6bd d0cf d3be
00000030: 4132 46be c230 9abd f08e 1ebe 0050 06be
00000040: c5e3 cfbd ed1a eabd 286c 60be 2d2f dfbc
00000050: 6d7f a5be 958d b0bd 7d4a 88bc 3b9f 31be
00000060: cb05 a1be 7fb5 c0be 8f74 90bd d37e c5bd
00000070: 6e7d 92bd 039f 163d 4a38 36be 4406 11bd
00000080: 3096 38be b618 07bd 3935 3cbd 2605 57bc
00000090: c190 99bd b75e dcbd 755b 313d 02f6 f1be
000000a0: 8eae 04be 9985 67bd 7c8f 91bd eda3 bcbd
000000b0: b0a4 1abe 8bcf 0d3f ac62 bfbd 608b 45be
000000c0: b3af ebbd ac7a 2b3e 5da6 473e 23be bebe
000000d0: 4316 c03b d00f 3bbd c8b2 ebbd 53de cc3e
000000e0: 5206 21be 8505 013d df9f a3be 76f3 98bd
000000f0: 5dc6 1abd d9c7 89bd 45e8 4bbe e108 3dbd
00000100: 3308 a2bd 6d7d a7be 0269 10be eadc 433e
00000110: 8b07 18be 4cce 3bbe ab1e dcbd d3f4 63bd
00000120: a13d b4bd 0d6e 76bd a0fb fcbc 906f 1ebe
00000130: cd90 23be 98d8 58be 739d 11be c06f 6cbe
00000140: 649f 143f f378 1bbe 6b2a febc b21d 78be
00000150: a44c d7bd 7c7e 1bbe 8e0e c1bc 1d47 81be
00000160: 7fd3 6dbe 9ecd d0bd 30d2 4abe 7d44 e9bc
00000170: b5bc f1bd 87ef 10be 7c5f 18be 966a 20be
00000180: 217d c2bd e3fc efbe cbde 41be fab6 e1be

layers.3.weight f4 [2, 100]
0.053981066 0.01812368 -0.0136182625 -0.024962954 -0.020339718 -0.11076224 -0.073843315 0.029270072
-0.017060358 0.043235295 -0.03201731 -0.06993916 0.012700396 0.020176739 -0.020978538 0.039194804
0.11702251 -0.020615827 -0.07471822 -0.059304338 0.062034953 -0.032197587 0.012160527 -0.019211989
-0.03781432 -0.035884246 -0.02621411 0.1363655 0.05911377 0.09767385 0.0034359004 0.016394451
-0.010560579 0.09674081 0.08956029 -0.01267094 -0.018193118 0.18085675 0.0067079626 -0.20378028
0.031195976 0.035267606 0.10386231 -0.15346572 0.057067793 0.16906857 -0.06301054 -0.04966591
-0.06228771 0.05355558 -0.120207615 -0.17875344 0.10240202 0.057761163 0.052936397 -0.11031053
0.046320904 0.06978868 -0.06523075 0.011385023 -0.08026813 0.028547445 0.049447935 -0.033329837
6.581742e-05 0.123820245 0.08119273 -0.07417048 -0.09787588 0.02367594 -0.009679017 0.0391079
-0.03833854 -0.023553513 0.064923346 -0.06048081 -0.04613647 0.062539935 -0.013209101 -0.049099393
0.20997934 -0.009147667 -0.04341951 0.09092352 0.00056198845 -0.023400575 0.0068123727 -0.055885196
-0.099236265 0.07235239 -0.09269624 -0.025598925 0.016713949 0.022254078 -0.0063974014 -0.059040613
-0.040541664 0.067561984 -0.03661818 0.18361366 0.041714177 0.00076157594 0.024389857 0.0828409
0.057124298 0.078584924 -0.08783491 -0.039921522 -0.004870186 0.032932542 0.049555227 -0.004590115
0.07768928 0.092269614 -0.03619368 0.014092846 0.023332814 -0.12795044 0.012219137 -0.036693722
0.031323813 0.0142775895 0.009023031 0.01962607 -0.007902878 -0.048828382 -0.043670718 -0.27751842
0.033299334 0.09634026 0.0372518 -0.030224437 0.03770497 0.07626216 0.08488793 -0.10128771
0.02365457 -0.17802869 -0.036853842 0.015860425 0.059710152 0.03238011 0.014916258 0.0076595983
-0.022716701 -0.12608516 0.033060048 0.09192205 0.060786273 -0.15169583 0.18337539 0.24935374
0.06861048 0.01794516 0.08590679 0.16444388 0.020292137 -0.08390358 -0.08252504 -0.05483747
-0.018775132 0.09827848 -0.059099372 0.061972138 0.06725369 -0.05074442 -0.009216517 0.09266067
0.052622378 -0.013259313 0.06207872 -0.106498025 0.017424652 -0.07256201 0.1019966 0.0051623886
-0.0026670443 0.056201085 -0.012856634 -0.03467769 -0.22271305 0.11331484 -0.010319192 0.029047083
-0.025152825 0.004349367 0.00925747 0.046321467 -0.03373081 0.0627028 0.020604052 0.058293894
0.066967435 0.0742208 0.009479704 -0.0040150466 -0.039593022 -0.019642983 -0.037799776 -0.12390732
00000000: 401b 5d3d 1d78 943c 221f 5fbc 1c7f ccbc
00000010: 7b9f a6bc 50d7 e2bd 2a3b 97bd cac7 ef3c
00000020: 2ac2 8bbc 7e17 313d 9524 03bd 433c 8fbd
00000030: 5215 503c b049 a53c 2fdb abbc bb8a 203d
00000040: 7fa9 ef3d 86e2 a8bc de05 99bd 1be9 72bd
00000050: 5d18 7e3d 9ee1 03bd f23c 473c 7662 9dbc
00000060: 30e3 1abd 5cfb 12bd f9be d6bc 66a3 0b3e
00000070: 4821 723d 3a09 c83d d82c 613b a84d 863c
00000080: 4706 2dbc 0c20 c63d 636b b73d c699 4fbc
00000090: bc09 95bc 8332 393e 78ce db3b c7ab 50be
000000a0: b48e ff3c c474 103d c3b5 d43d 1e26 1dbe
000000b0: ebbf 693d 5020 2d3e ac0b 81bd 7b6e 4bbd
000000c0: 6621 7fbd 195d 5b3d 692f f6bd 240b 37be
000000d0: 26b8 d13d f896 6c3d d6d3 583d 7dea e1bd
000000e0: fdba 3d3d 5eed 8e3d b397 85bd 3f88 3a3c
000000f0: 9e63 a4bd 55dc e93c eb89 4a3d de84 08bd
00000100: 7507 8a38 7895 fd3d 6048 a63d b1e6 97bd
00000110: 2673 c8bd 0cf4 c13c bd94 1ebc 9b2f 203d
00000120: df08 1dbd 4cf3 c0bc 88f6 843d baba 77bd
00000130: 98f9 3cbd f014 803d fc6a 58bc 721c 49bd
00000140: d304 573e 19e0 15bc a8d8 31bd 1c36 ba3d
00000150: 6852 133a 90b2 bfbc 533a df3b e0e7 64bd
00000160: 623c cbbd 7d2d 943d 87d7 bdbd d6b4 d1bc
00000170: b1eb 883c 2f4e b63c 4ba1 d1bb 92d4 71bd
00000180: 040f 26bd f05d 8a3d f2fc 15bd 3805 3c3e
00000190: 7cdc 2a3d 7fa4 473a 3dcd c73c 7da8 a93d
000001a0: 2bfb 693d 22f1 a03d cae2 b3bd c084 23bd
000001b0: 1596 9fbb 46e4 063d 6cfa 4a3d ad68 96bb
000001c0: 8f1b 9f3d daf7 bc3d d33f 14bd aee5 663c
000001d0: 7524 bf3c 7105 03be c632 483c 284c 16bd
000001e0: 664d 003d 8dec 693c 56d5 133c dac6 a03c
000001f0: 137b 01bc 4500 48bd 11e0 32bd e516 8ebe
00000200: e264 083d 0b4e c53d 5895 183d 3d99 f7bc
00000210: 8770 1a3d 562f 9c3d b9d9 ad3d ee6f cfbd
00000220: 3bc7 c13c 274d 36be 0ef4 16bd b9ed 813c
00000230: a292 743d 02a1 043d 5263 743c 5efd fa3b
00000240: 6018 babc 781c 01be f969 073d a141 bc3d
00000250: 07fb 783d 2756 1bbe c2c6 3b3e 9656 7f3e
00000260: a783 8c3d ba01 933c e6ef af3d fa63 283e
00000270: b23b a63c a4d5 abbd e302 a9bd 419d 60bd
00000280: 4ece 99bc 3a46 c93d 2f12 72bd 7fd6 7d3d
00000290: 4dbc 893d 62d9 4fbd e000 17bc e1c4 bd3d
000002a0: 908a 573d 973d 59bc 4246 7e3d a31b dabd
000002b0: 25be 8e3c 649b 94bd 98e3 d03d 4129 a93b
000002c0: 94c9 2ebb 1c33 663d a2a4 52bc 320a 0ebd
000002d0: e40e 64be 9c11 e83d d411 29bc 26f4 ed3c
000002e0: 4c0d cebc 2385 8e3b a5ac 173c 94bb 3d3d
000002f0: 5129 0abd 536a 803d d4c9 a83c 94c5 6e3d
00000300: 3926 893d 1301 983d c350 1b3c a790 83bb
00000310: 4b2c 22bd 52ea a0bc f0d3 1abd 1fc3 fdbd

layers.3.bias f4 [2]
0.007099653 -0.13432077
00000000: 35a4 e83b 628b 09be
