clients_data/clients_DP_Fair_trained_model/client0.pth (torch, 86093 bytes, 6 tensors)

layers.1.layers.0.weight f4 [100, 105]
0.06859521 0.08811224 -0.026385613 0.08903712 -0.030915858 0.02299094 -0.04892077 0.05293609
0.085321344 -0.06781135 0.08798672 0.019804392 0.071303986 0.017939476 0.04766686 -0.011056968
0.08002094 0.0075281793 -0.053095065 0.02060776 -0.058491543 -0.011168525 -0.04935566 0.054428067
-0.07318288 -0.052581295 -0.032158352 -0.066634275 0.0029924505 -0.106192775 0.09258522 -0.076220006
0.07552835 0.025666533 -0.03125718 0.053590525 0.024613978 0.07350288 0.015728416 -0.02916198
0.028023532 -0.029739145 0.04541277 0.07868622 0.062385578 -0.054621004 0.059413694 0.017650526
0.04769975 -0.06817727 -0.09214785 -0.03654243 -0.087867394 0.079220735 0.028526215 0.035438478
0.033066135 0.013957571 0.06349289 -0.079673335 0.003727137 -0.057411086 0.024766158 -0.026588762
0.033569057 -0.013258926 0.07241507 -0.056230623 -0.05101926 -0.06289357 0.089741826 0.02304445
0.106878206 -0.06867063 -0.104146145 -0.067502744 -0.06567461 0.035243955 0.043111905 0.06764393
-0.06359914 -0.05985968 0.059257455 -0.049017325 0.06386523 -0.03174053 0.047388483 -0.08008206
-0.05757015 0.042266294 0.030391349 -0.034730475 0.06097112 0.07097424 -0.07180785 -0.055771105
0.09049102 -0.03854818 -0.026900753 -0.09711208 -0.050041065 0.01645002 -0.023392415 -0.06740161
0.0066735833 -0.072992094 -0.079126 -0.044439547 -0.07944749 -0.06616366 0.09786516 0.012427602
0.026965639 -0.08077364 -0.05781389 -0.040876094 0.016811652 -0.0914396 -0.038442895 -0.06357571
-0.003940233 -0.03344141 -0.01149952 -0.05628148 -0.07422538 -0.0583494 -0.040401235 -0.067785464
0.08259152 -0.016688164 0.09543373 0.025280785 -0.07095332 0.07805132 -0.011886886 -0.031494316
-0.07491394 -0.095598884 0.030735144 -0.016774297 0.03154966 -0.06765612 0.06912471 -0.07390503
-0.019404214 0.0077631515 0.04978878 0.08864744 0.08793237 -0.082283325 0.016737228 -0.035311323
-0.008431036 -0.062529825 0.08776259 -0.06523605 0.065436676 0.026941659 0.028789764 -0.055554904
0.08587981 0.023763876 0.021733355 -0.079513 0.044969644 -0.01781583 -0.04525505 0.08624881
0.024664842 -0.053639766 -0.04372533 0.0018178396 0.059196584 -0.025237175 -0.042990267 -0.035377495
-0.06572848 0.027007997 0.07549929 -0.09005081 0.025797179 0.046201963 0.017025761 -0.04001562
0.057187624 0.06370028 0.038773388 -0.02292279 -0.021724489 0.012175218 -0.016672127 -0.038813893
0.0698434 0.08554042 0.004054806 -0.019690016 0.00786494 -0.0062870407 0.020841664 0.033973012
-0.08124552 -0.026761686 0.07838849 0.03650463 0.018159082 -0.06336376 -0.056996264 -0.09256263
-0.027714899 0.029948873 0.054123227 0.04221837 -0.07944519 -0.057689954 -0.005202374 0.09381638
0.016049732 -0.032381054 0.032779302 -0.032854203 -0.06756648 0.06557279 -0.04667974 -0.032831397
-0.09332373 0.060255833 0.06721412 0.026859507 -0.06961373 -0.091427915 -0.07552305 0.075145915
0.04764963 0.0892204 0.032290958 0.013836526 -0.005611003 -0.06322278 -0.081575036 -0.107301585
0.033805672 -0.033497483 -0.020900978 -0.056942012 -0.017032431 -0.067065574 -0.062417347 0.029535998
-0.017029654 0.0593394 -0.023302404 -0.075383976 -0.028868774 -0.046786383 -0.022782532 -0.092704244
00000000: a57b 8c3d 3174 b43d a426 d8bc 1859 b63d
00000010: 4143 fdbc 7f57 bc3c 2561 48bd 83d3 583d
00000020: f5bc ae3d ade0 8abd 6232 b43d d23c a23c
00000030: d307 923d cff5 923c 533e 433d 4928 35bc
00000040: 05e2 a33d f2ae f63b 367a 59bd 9bd1 a83c
00000050: d494 6fbd 30fc 36bc 2929 4abd f7ef 5e3d
00000060: e8e0 95bd 7c5f 57bd 7ab8 03bd 8d77 88bd
00000070: fd1c 443b 997b d9bd 529d bd3d 3c19 9cbd
00000080: 9cae 9a3d 9f42 d23c 8707 00bd bd81 5b3d
00000090: 41a3 c93c ae88 963d e1d8 803c 1be5 eebc
000000a0: 9b91 e53c 829f f3bc be02 3a3d 3e26 a13d
000000b0: 0588 7f3d 46ba 5fbd c65b 733d d697 903c
000000c0: d060 433d 86a0 8bbd 03b8 bcbd 84ad 15bd
000000d0: d2f3 b3bd 7b3e a23d cfaf e93c f027 113d
000000e0: 5b70 073d 4cae 643c 8f08 823d c62b a3bd
000000f0: fc42 743b e327 6bbd 66e2 ca3c add0 d9bc
00000100: b57f 093d f73b 59bc 5a4e 943d 1552 66bd
00000110: 92f9 50bd 58ce 80bd 90ca b73d b7c7 bc3c
00000120: f6e2 da3d 30a3 8cbd 934a d5bd e13e 8abd
00000130: 6980 86bd f75b 103d 1c96 303d e788 8a3d
00000140: 4440 82bd 6c2f 75bd f2b7 723d 64c6 48bd
00000150: c6cb 823d 5c02 02bd 6d1a 423d 1002 a4bd
00000160: adce 6bbd 6c1f 2d3d 47f7 f83c 8b41 0ebd
00000170: dabc 793d f15a 913d fe0f 93bd 3e70 64bd
00000180: 5b53 b93d b2e4 1dbd f85e dcbc b3e2 c6bd
00000190: dcf7 4cbd 31c2 863c 73a1 bfbc db09 8abd
000001a0: 13ae da3b e17c 95bd d00c a2bd 3e06 36bd
000001b0: 5eb5 a2bd d080 87bd 876d c83d 249d 4b3c
000001c0: 0be7 dc3c a66c a5bd 42ce 6cbd b16d 27bd
000001d0: 97b8 893c af44 bbbd 4c76 1dbd fb33 82bd
000001e0: 121d 81bb dcf9 08bd 7c68 3cbc 6987 66bd
000001f0: 7a03 98bd c8ff 6ebd c47b 25bd 1bd3 8abd
00000200: be25 a93d 9eb5 88bc c272 c33d a619 cf3c
00000210: f94f 91bd 5fd9 9f3d 37c1 42bc 2f00 01bd
00000220: 7b6c 99bd 59c9 c3bd 45c8 fb3c 406a 89bc
00000230: 373a 013d 4b8f 8abd 4291 8d3d 855b 97bd
00000240: 96f5 9ebc 0962 fe3b 52ef 4b3d ca8c b53d
00000250: e315 b43d 2984 a8bd 831c 893c 9ba2 10bd
00000260: 5422 0abc a30f 80bd dfbc b33d 7a9a 85bd
00000270: aa03 863d c1b4 dc3c 83d8 eb3c 8a8d 63bd
00000280: c1e1 af3d 76ac c23c 260a b23c b6d7 a2bd
00000290: 1732 383d 81f2 91bc 5c5d 39bd 37a3 b03d
000002a0: ec0d ca3c 5fb5 5bbd 5519 33bd 9344 ee3a
000002b0: 1e78 723d 31be cebc 9016 30bd fee7 10bd
000002c0: a79c 86bd e03f dd3c 5f9f 9a3d 8f6c b8bd
000002d0: 9b54 d33c 453e 3d3d 9c79 8b3c 6be7 23bd
000002e0: 923d 6a3d 4b75 823d d8d0 1e3d 93c8 bbbc
000002f0: 8ef7 b1bc 917a 473c fc93 88bc 51fb 1ebd
00000300: 0e0a 8f3d d12f af3d 2ede 843b f54c a1bc
00000310: f3db 003c 8503 cebb 23bc aa3c 4927 0b3d
00000320: 0d64 a6bd 533b dbbc 258a a03d e185 153d
00000330: 5bc2 943c dcc4 81bd ea74 69bd 7a91 bdbd
00000340: 5b0a e3bc 5757 f53c 51b0 5d3d 2bed 2c3d
00000350: 29b4 a2bd 4d4c 6cbd ad78 aabb cd22 c03d
00000360: ba7a 833c ffa1 04bd 9743 063d 2192 06bd
00000370: 4b60 8abd 074b 863d 4133 3fbd 377a 06bd
00000380: 8320 bfbd d2ce 763d 8ea7 893d 7808 dc3c
00000390: a591 8ebd 8f3e bbbd d4ab 9abd 1ae6 993d
000003a0: 422c 433d 2fb9 b63d 8643 043d 99b2 623c
000003b0: 81dc b7bb f27a 81bd d010 a7bd efc0 dbbd
000003c0: d177 0a3d a834 09bd 8738 abbc 073c 69bd
000003d0: 9987 8bbc ad59 89bd 55a9 7fbd 7af5 f13c
000003e0: c681 8bbc df0d 733d afe4 bebc ea62 9abd
000003f0: 357e ecbc 14a3 3fbd 6fa2 babc b9db bdbd

layers.1.layers.0.bias f4 [100]
0.069371186 0.039531782 -0.0054979045 0.056568798 0.0033719377 -0.018128734 -0.046516676 -0.09016717
0.074200496 -0.05412661 -0.080339074 -0.045026883 0.01834018 -0.0054065203 0.05330681 0.06812732
0.058210984 -0.08745891 0.05062413 0.05341831 -0.058238093 -0.0008076434 0.014331047 0.019101106
0.047892388 0.08712872 0.09104315 0.023844594 0.055969436 0.04616251 -0.04297612 0.07230015
-0.003001249 0.046971764 -0.06529247 0.08506507 0.017694665 0.021663217 -0.085107625 -0.00059145986
-0.02994952 0.083090894 -0.0984579 -0.03109778 -0.049639516 -0.08599996 0.044143893 -0.06939859
0.043292023 0.01629517 -0.052771118 0.003023445 0.022580165 -0.034196723 -0.063570604 -0.059879463
0.014820556 -0.089828685 0.066135734 0.05885041 0.09893166 0.08730065 -0.055229567 -0.045560822
0.062432755 -0.019544939 -0.07333327 -0.041404717 0.07974365 -0.058330532 0.03234888 -0.07990628
0.052230436 0.025947703 0.067482404 -0.002577051 0.038417567 0.08944838 -0.011783372 -0.0627269
-0.064363815 0.058203936 -0.06837519 -0.08467082 -0.087757684 -0.027701983 0.011585416 -0.082085855
-0.04484 0.084207505 -0.019271169 -0.034854382 0.060583584 -0.06527554 -0.079598434 0.019949218
0.033741746 -0.09945992 0.08460548 -0.04701432
00000000: 7b12 8e3d 14ec 213d c427 b4bb afb4 673d
00000010: bafb 5c3b b682 94bc 4588 3ebd 91a9 b8bd
00000020: 6ef6 973d ddb3 5dbd d088 a4bd 1c6e 38bd
00000030: 253e 963c 2e29 b1bb 3e58 5a3d 5686 8b3d
00000040: a46e 6e3d a81d b3bd 3f5b 4f3d 28cd 5a3d
00000050: 118b 6ebd 08b8 53ba c5cc 6a3c ec79 9c3c
00000060: cf2a 443d 8b70 b23d d574 ba3d bd55 c33c
00000070: 3540 653d e614 3d3d ba07 30bd 1a12 943d
00000080: 9ab0 44bb 7765 403d 0fb8 85bd 9836 ae3d
00000090: 67f4 903c 0f77 b13c e84c aebd 330c 1bba
000000a0: b258 f5bc 8f2b aa3d 4ca4 c9bd c6c0 febc
000000b0: ce52 4bbd bf20 b0bd 3ad0 343d d920 8ebd
000000c0: fa52 313d 737d 853c 8726 58bd fd24 463b
000000d0: 0afa b83c dd11 0cbd 4e31 82bd 2b44 75bd
000000e0: ebd1 723c 1af8 b7bd 2c72 873d 210d 713d
000000f0: af9c ca3d afca b23d 6638 62bd fc9d 3abd
00000100: 7db9 7f3d b51c a0bc c12f 96bd fe97 29bd
00000110: a450 a33d ffeb 6ebd 4280 043d e7a5 a3bd
00000120: 95ef 553d 4790 d43c 3734 8a3d bee3 28bb
00000130: bd5b 1d3d b630 b73d 0b0f 41bc f676 80bd
00000140: 2dd1 83bd 4067 6e3d 4b08 8cbd e567 adbd
00000150: 4dba b3bd 45ef e2bc c2d0 3d3c a11c a8bd
00000160: 26aa 37bd fc74 ac3d 92de 9dbc 78c3 0ebd
00000170: 7e26 783d 2faf 85bd 8104 a3bd 8b6c a33c
00000180: c934 0a3d a4b1 cbbd a345 ad3d 1692 40bd

layers.2.layers.0.weight f4 [100, 100]
0.02184657 0.06784395 0.047926355 0.03136497 -0.08081022 -0.09333999 0.03632607 0.00030990457
0.073143244 0.047199097 -0.0675454 0.017238341 -0.07076331 -0.04291758 0.024275469 -0.00054555724
-0.063688174 0.028721755 0.07229099 -0.09708989 0.095898055 0.060598858 -0.01291766 -0.10500597
-0.044591088 0.035304382 -0.03629067 -0.03070986 -0.045585457 0.08081915 0.081997454 -0.08766636
-0.03596657 0.0903602 -0.009103275 -0.06279014 0.0102422265 0.072472684 -0.02002001 -0.082402445
-0.04141019 0.05138741 -0.018261727 0.08724702 0.03730944 0.0076868497 0.04607252 -0.013005509
-0.090255246 -0.081958316 -0.08953431 -0.02084563 -0.06947728 0.017255053 0.022218842 0.07934523
0.0045966906 0.007855636 0.040860366 -0.0131043 -0.038101435 -0.09699899 -0.09759377 0.0031834198
-0.04239099 0.016289424 0.025422288 0.075271465 -0.0122990785 -0.0022587478 0.06920164 0.005559528
0.04422729 -0.044282064 -0.06808047 0.07117543 0.076556444 -0.03365437 0.01069862 -0.09073585
0.009988774 -0.08613343 0.054231662 -0.09566779 -0.024541432 0.10535632 -0.03579938 -0.066144936
0.085776545 -0.03998777 0.02950533 0.061466035 0.022810489 -0.06513615 0.092249945 0.053469397
-0.07032686 -0.06504841 -0.021789493 0.041515924 0.027025301 0.0012680411 0.06789217 0.08160026
0.016583769 0.030031672 0.041556727 0.013953711 0.00024587632 0.08520527 0.07363213 0.06262309
-0.04532782 -0.055207837 -0.05528695 -0.082493305 -0.011645663 0.055840977 -0.012169309 -0.03133236
-0.02006244 -0.07717099 -0.06545007 0.011334873 -0.06869845 0.018961515 0.07426528 0.022086147
0.06908512 -0.07428523 0.0033906517 -0.10643636 -0.0014291315 -0.07494705 0.09561664 -0.080938004
0.036684692 -0.053824198 0.022365982 0.00612026 -0.015255093 -0.048383642 0.052568354 -0.02284233
0.0035550124 -0.021174902 -0.07433815 -0.04254662 0.09830045 0.084519796 -0.038654666 0.019188708
0.012858855 0.087258525 0.012155903 0.010219613 -0.03488444 0.019332962 -0.094881654 -0.100898474
0.000991828 -0.0823998 -0.07096211 -0.01832676 0.06645702 0.054807674 -0.030047877 -0.008229909
0.07721088 0.024248276 0.05990231 -0.04533512 -0.08792995 -0.046247315 0.013368078 -0.03698645
-0.05083678 0.09322572 -0.09641037 0.005243609 0.057040226 -0.013407566 0.051229153 -0.0006548535
-0.05634729 -0.06287382 -0.04507941 -0.10117374 0.05818438 0.07877116 -0.054702766 0.0059041316
0.02589694 0.027006308 -0.050689273 -0.05960734 0.0877618 0.061237883 0.09366919 0.06987064
0.0006269312 0.07617509 -0.0050632353 0.0070016286 -0.038761422 0.08317242 -0.020132717 0.012493521
-0.090379156 0.036193606 -0.050904553 -0.02043894 -0.004477895 0.040228885 -0.0024472119 0.011206502
-0.050292615 -0.07474792 0.03042468 -0.040934414 -0.075558834 -0.031319752 -0.10177324 0.010579995
-0.00051488075 0.0887126 -0.06441652 -0.04886316 0.027917475 -0.03204502 0.090572774 0.007380155
0.0003136736 -0.039378367 0.0584556 -0.050558 0.036768258 0.0673152 -0.07007791 -0.0944925
-0.05284726 0.047824677 -0.048462953 0.018248975 0.009252269 0.025141507 -0.05959338 -0.00041690073
0.06819837 0.05481844 0.018247902 -0.08407784 0.053375043 -0.040589806 0.06631225 0.04241789
00000000: 94f7 b23c c5f1 8a3d 6d4e 443d 8e78 003d
00000010: d47f a5bd 0929 bfbd a5ca 143d b07a a239
00000020: 20cc 953d d753 413d 3e55 8abd 6c37 8d3c
00000030: 5bec 90bd 58ca 2fbd 59dd c63c ba03 0fba
00000040: f26e 82bd e349 eb3c 4c0d 943d 10d7 c6bd
00000050: 3366 c43d 8236 783d 98a4 53bc 5f0d d7bd
00000060: 25a5 36bd 549b 103d 87a5 14bd 3f93 fbbc
00000070: d1b7 3abd 8384 a53d 48ee a73d 6c8a b3bd
00000080: af51 13bd c50e b93d e725 15bc 1e98 80bd
00000090: 03cf 273c 8f6c 943d 0101 a4bc 9dc2 a8bd
000000a0: bb9d 29bd 9b7b 523d 9e99 95bc 91ae b23d
000000b0: c9d1 183d f8e1 fb3b 8ab6 3c3d 0f15 55bc
000000c0: bed7 b8bd c3d9 a7bd c45d b7bd 74c4 aabc
000000d0: 1b4a 8ebd 785a 8d3c 4a04 b63c c07f a23d
000000e0: d69f 963b edb4 003c 335d 273d 6bb3 56bc
000000f0: 4010 1cbd 68a7 c6bd 3edf c7bd eca0 503b
00000100: 2da2 2dbd 6671 853c 6742 d03c ed27 9a3d
00000110: 1382 49bc 8007 14bb 97b9 8d3d b32c b63b
00000120: ad27 353d 1c61 35bd c66d 8bbd 6dc4 913d
00000130: a0c9 9c3d 2ad9 09bd 4449 2f3c b8d3 b9bd
00000140: f4a7 233c b966 b0bd 0522 5e3d 79ed c3bd
00000150: 1d0b c9bc 0ec5 d73d 5fa2 12bd ff76 87bd
00000160: 9dab af3d 37ca 23bd 29b5 f13c cfc3 7b3d
00000170: 10dd ba3c 1a66 85bd 8aed bc3d ba02 5b3d
00000180: 8707 90bd 1a38 85bd e17f b2bc 9a0c 2a3d
00000190: 2a64 dd3c 6634 a63a 0d0b 8b3d 0a1e a73d
000001a0: afda 873c fb04 f63c 6337 2a3d 1b9e 643c
000001b0: f6e8 8039 1a80 ae3d 71cc 963d 8940 803d
000001c0: aaa9 39bd 9d21 62bd 9274 62bd 40f2 a8bd
000001d0: 73cd 3ebc 82b9 643d c861 47bc 5c56 00bd
000001e0: fc59 a4bc d30b 9ebd b00a 86bd e7b5 393c
000001f0: c6b1 8cbd 2e55 9b3c 6518 983d 02ee b43c
00000200: 807c 8d3d db22 98bd b235 5e3b 4efb d9bd
00000210: b251 bbba d77d 99bd a8d2 c33d d3c2 a5bd
00000220: b042 163d c376 5cbd dd38 b73c 768c c83b
00000230: 7ff0 79bc ed2d 46bd ea51 573d d71f bbbc
00000240: 36fb 683b fd76 adbc 9a3e 98bd 5d45 2ebd
00000250: bf51 c93d b718 ad3d 5b54 1ebd a331 9d3c
00000260: f2ad 523c 99b4 b23d 8d29 473c 2a70 273c
00000270: fde2 0ebd 2960 9e3c 5051 c2bd dca3 cebd
00000280: 3a00 823a 3ac1 a8bd 9554 91bd 0022 96bc
00000290: 9e1a 883d 037e 603d f726 f6bc bed6 06bc
000002a0: bd20 9e3d 52a4 c63c 205c 753d 52b1 39bd
000002b0: 9e14 b4bd d36d 3dbd c805 5b3c 1b7f 17bd
000002c0: 3a3a 50bd 20ed be3d cd72 c5bd 95d2 ab3b
000002d0: 03a3 693d 68ab 5bbc a9d5 513d 79aa 2bba
000002e0: 6acc 66bd fdc3 80bd 30a5 38bd 2e34 cfbd
000002f0: bf52 6e3d c652 a13d 0210 60bd 7277 c13b
00000300: d225 d43c 553c dd3c 8e9f 4fbd d326 74bd
00000310: 75bc b33d 93d4 7a3d a2d5 bf3d 5718 8f3d
00000320: a458 243a b001 9c3d 7fe9 a5bb eb6d e53b
00000330: 4cc4 1ebd 4d56 aa3d 5eed a4bc a0b1 4c3c
00000340: b518 b9bd bf3f 143d 4b81 50bd 906f a7bc
00000350: 4ebb 92bb 0bc7 243d 6761 20bb 7a9b 373c
00000360: a1ff 4dbd 7015 99bd 2e3d f93c d8aa 27bd
00000370: 97be 9abd 2449 00bd 7d6e d0bd b757 2d3c
00000380: 10f9 06ba f4ae b53d cfec 83bd bd24 48bd
00000390: 30b3 e43c a441 03bd 387e b93d 3ad5 f13b
000003a0: 8f74 a439 364b 21bd 246f 6f3d e815 4fbd
000003b0: 509a 163d 8ddc 893d 0285 8fbd 4985 c1bd
000003c0: 5e76 58bd cfe3 433d 1781 46bd e07e 953c
000003d0: d496 173c 90f5 cd3c 3018 74bd 7893 dab9
000003e0: 96ab 8b3d 4d89 603d a07c 953c 0131 acbd
000003f0: ca9f 5a3d 7f41 26bd b8ce 873d 62be 2d3d

layers.2.layers.0.bias f4 [100]
-0.04228109 -0.029894598 -0.09200048 -0.002374661 0.0691518 -0.061897885 -0.017309513 0.06038107
-0.06783236 0.018470794 -0.02193046 0.08655751 0.0023082441 0.08642685 -0.039550517 -0.06664843
0.0039810543 -0.064320326 -0.05170006 0.06239178 0.08591778 -0.064473934 -0.109116785 0.024831286
-0.08786303 -0.01881996 0.043440036 0.03344603 0.0117425 0.045530166 -0.05519871 -0.026827652
-0.018656448 -0.09144204 -0.067547396 0.008356439 0.017977005 -0.05265225 0.0583804 -0.032557808
0.017673792 0.083010636 0.07764473 0.115599826 0.036749713 -0.06784077 -0.035400126 -0.032224726
-0.06657668 -0.02047759 -0.095176645 -0.050569966 -0.09883701 0.09063566 0.040226914 0.10104621
0.062965505 0.092781626 -0.03243896 -0.036614046 -0.051271796 -0.09290997 -0.0061668186 0.02761953
0.05935946 -0.013282258 0.037372753 0.04454685 0.02274923 0.03234824 -0.033032436 0.0784617
-0.09778109 0.0105373785 0.04266276 0.08602736 0.051566225 -0.009528327 0.06411742 -0.08574581
-0.026459748 -0.030940771 0.054508146 0.09026779 -0.031071708 0.017014133 -0.028208913 -0.028616248
0.038104292 0.03283515 -0.052595243 0.025674988 0.1091144 -0.07581219 -0.021431949 -0.088579305
-0.011926336 0.09656897 0.055015743 -0.08613963
00000000: f02e 2dbd 84e5 f4bc bf6a bcbd 33a0 1bbb
00000010: 759f 8d3d a388 7dbd aecc 8dbc 2452 773d
00000020: b1eb 8abd 1050 973c 82a7 b3bc 1045 b13d
00000030: e945 173b 8f00 b13d b9ff 21bd f97e 88bd
00000040: 8173 823b 60ba 83bd 71c3 53bd 868e 7f3d
00000050: a9f5 af3d e90a 84bd 9f78 dfbd fb6a cb3c
00000060: 88f1 b3bd 512c 9abc 2eee 313d b4fe 083d
00000070: 9d63 403c d77d 3a3d 0b18 62bd aac5 dbbc
00000080: 68d5 98bc f745 bbbd 4a56 8abd 72e9 083c
00000090: 8344 933c e3a9 57bd 4920 6f3d 565b 05bd
000000a0: a1c8 903c 7b01 aa3d 3304 9f3d 9abf ec3d
000000b0: de86 163d 1af0 8abd b9ff 10bd 13fe 03bd
000000c0: 5b59 88bd 9ec0 a7bc f9eb c2bd 7422 4fbd
000000d0: 0f6b cabd 309f b93d fac4 243d 51f1 ce3d
000000e0: 0ff4 803d 4b04 be3d b7de 04bd 9cf8 15bd
000000f0: 6002 52bd 9547 bebd 0613 cabb 5a42 e23c
00000100: e822 733d d49d 59bc 2c14 193d c276 363d
00000110: 985c ba3c 977f 043d 054d 07bd 87b0 a03d
00000120: 7441 c8bd f8a4 2c3c 25bf 2e3d 1d2f b03d
00000130: 1b37 533d b31c 1cbc fe4f 833d 809b afbd
00000140: 1dc2 d8bc 8077 fdbc ef43 5f3d 52de b83d
00000150: 188a febc 3961 8b3c 6116 e7bc 9f6c eabc
00000160: 3f13 1c3d 267e 063d 1c6e 57bd 5a54 d23c
00000170: 5f77 df3d 6c43 9bbd 0e92 afbc 1169 b5bd
00000180: ae66 43bc f4c5 c53d 3058 613d f969 b0bd

layers.3.weight f4 [2, 100]
-0.084276035 0.010292092 -0.013219948 0.07565097 -0.036176335 0.073183484 -0.053020153 -0.019428613
-0.0036010677 -0.05528702 0.0006004224 -0.03121789 -0.047643337 -0.08544279 0.0018879719 0.09956481
0.040143684 -0.09283818 -0.053638473 0.04765107 -0.042932384 -0.0021150908 -0.042652052 0.03907138
-0.06565173 -0.11219799 -0.07132363 -0.09197984 0.0063758497 0.013519616 -0.03253203 0.027397357
0.0041526644 0.027915511 0.04799194 0.0058422107 0.11190184 0.07447769 -0.06268081 0.08436833
-0.017170489 -0.004888588 0.00836832 -0.0830116 0.07445797 0.060423914 0.10974539 0.021251976
-0.043997686 -0.023357388 -0.018935103 -0.10160171 0.036701933 0.008810428 -0.040161915 -0.059271477
-0.02648131 0.009081259 0.07388868 0.052333925 0.07625404 0.08643165 -0.057106353 -0.006464209
-0.103114344 -0.06704142 0.029374976 0.03858549 0.04026511 0.073230356 0.037653934 -0.055856705
-0.014573724 0.013717968 0.044780247 -0.07426416 -0.060728427 0.039374035 0.041588858 0.09145996
0.08099988 -0.048648536 0.03306004 -0.07108129 -0.011904543 -0.01673141 0.022358382 0.08465731
-0.08173036 0.07135496 0.061466835 -0.043299176 -0.038196612 -0.03126709 0.05659599 -0.021975797
0.03382351 -0.050189365 0.07152537 -0.01180473 0.10019601 -0.06925873 -0.023223726 0.07605449
0.070884004 -0.0454303 -0.07657131 -0.06291121 -0.079028435 -0.039732814 -0.03334739 -0.007969538
0.097198464 0.002322791 -0.05151797 0.038014054 -0.052817672 -0.037304055 0.0045671402 0.023906332
-0.057760593 -0.08115928 -0.09947415 -0.0023417803 0.054397922 0.03874561 0.085312024 0.032622
-0.05759144 0.0054070535 -0.023915827 0.07180527 0.047578298 0.1024568 -0.09398119 -0.0024143101
-0.09186559 0.021417273 -0.03934373 -0.02726848 0.11321829 -0.01844118 0.08362204 0.09430421
0.08838269 0.08252367 0.065296836 0.018866288 0.09642863 0.11002358 -0.05449991 0.030378409
0.08161444 -0.034234494 0.09050346 0.1076018 0.025758054 0.0124394465 0.0019094308 0.09571673
-0.07215248 0.04213796 -0.039381765 0.0715447 -0.0025424196 0.056506064 0.08375486 -0.0065689203
-0.006387789 0.12136143 0.09852293 0.0825265 0.019470511 0.012699917 -0.052417483 0.13155207
0.08608426 0.07877881 -0.064901285 0.035258107 0.02781039 -0.031304076 0.011650749 0.042121977
-0.034009818 0.090947166 -0.08331122 0.0069059283 -0.04247125 0.11644496 -0.031929146 -0.016178168
0.122321844 -0.058047406 -0.023256076 0.092000164 0.1023712 -0.0025274374 -0.017998703 -0.04335334
00000000: ea98 acbd 2aa0 283c 7b98 58bc e5ee 9a3d
00000010: a32d 14bd 39e1 953d a92b 59bd c128 9fbc
00000020: e4ff 6bbb a474 62bd aa65 1d3a a9bc ffbc
00000030: a925 43bd a1fc aebd d375 f73a a3e8 cb3d
00000040: b46d 243d f221 bebd 04b4 5bbd c52d 433d
00000050: ded9 2fbd 569d 0abb ebb3 2ebd 5009 203d
00000060: 6a74 86bd 0fc8 e5bd 2012 92bd ed5f bcbd
00000070: 81ec d03b 6181 5d3c 4e40 05bd 6c70 e03c
00000080: 1313 883b 12af e43c 3293 443d 0470 bf3b
00000090: cb2c e53d c287 983d cc5e 80bd 4ec9 ac3d
000000a0: 20a9 8cbc 7330 a0bb 471b 093c fc01 aabd
000000b0: 6c7d 983d 117f 773d 31c2 e03d a018 ae3c
000000c0: eb36 34bd fe57 bfbc ca1d 9bbc 8f14 d0bd
000000d0: c454 163d 9d59 103c d280 24bd a6c6 72bd
000000e0: 55ef d8bc 90c9 143c f352 973d 195c 563d
000000f0: 142b 9c3d 1403 b13d 5ae8 69bd b7d1 d3bb
00000100: 9d2d d3bd 034d 89bd caa3 f03c d20b 1e3d
00000110: 07ed 243d ccf9 953d 033b 1a3d 00ca 64bd
00000120: a1c6 6ebc 54c1 603c 7e6b 373d cf17 98bd
00000130: 5fbe 78bd ab46 213d 1459 2a3d 5c4f bb3d
00000140: 44e3 a53d b043 47bd f769 073d 1193 91bd
00000150: 460b 43bc 4f10 89bc ed28 b73c d060 ad3d
00000160: 3f62 a7bd 8d22 923d a6c4 7b3d 7a5a 31bd
00000170: 0d74 1cbd ec11 00bd 32d1 673d 9606 b4bc
00000180: 858a 0a3d 5d93 4dbd e57b 923d a068 41bc
00000190: 9133 cd3d 85d7 8dbd af3f bebc 75c2 9b3d
000001a0: a22b 913d 1f15 3abd 6bd1 9cbd 98d7 80bd
000001b0: a9d9 a1bd e0be 22bd 4697 08bd aa92 02bc
000001c0: fd0f c73d f739 183b 8204 53bd a0b4 1b3d
000001d0: 5857 58bd 23cc 18bd f3a7 953b 36d7 c33c
000001e0: 5f96 6cbd d636 a6bd 1ab9 cbbd 8e78 19bb
000001f0: 5bd0 5e3d b7b3 1e3d 12b8 ae3d a59e 053d
00000200: 00e5 6bbd a72d b13b 20eb c3bc a40e 933d
00000210: 76e1 423d dfd4 d13d 3679 c0bd 6739 1ebb
00000220: 0724 bcbd 4773 af3c e426 21bd 2662 dfbc
00000230: fede e73d f511 97bc 0842 ab3d 9122 c13d
00000240: fc01 b53d 2b02 a93d 59ba 853d 798d 9a3c
00000250: 607c c53d 0b54 e13d 4c3b 5fbd 24dc f83c
00000260: 7925 a73d 7839 0cbd e159 b93d 555e dc3d
00000270: 8e02 d33c d2ce 4b3c de45 fa3a 2207 c43d
00000280: aec4 93bd db98 2c3d c64e 21bd 0786 923d
00000290: b99e 26bb e772 673d ab87 ab3d 1940 d7bb
000002a0: a850 d1bb 578c f83d 64c6 c93d a703 a93d
000002b0: 9f80 9f3c 5013 503c b7b3 56bd 96b5 063e
000002c0: f24c b03d c956 a13d f7ea 84bd ce6a 103d
000002d0: 9dd2 e33c b438 00bd c8e2 3e3c 1888 2c3d
000002e0: e14d 0bbd 8242 ba3d 139f aabd 204b e23b
000002f0: 55f6 2dbd b27a ee3d 23c8 02bd 1488 84bc
00000300: e083 fa3d 1ec3 6dbd 8783 bebc 956a bc3d
00000310: fea7 d13d 5da3 25bb 0472 93bc 4693 31bd

layers.3.bias f4 [2]
-0.044265546 0.22277382
00000000: ca4f 35bd d21e 643e
