clients_data/client_DP_trained_model/client8.pth (torch, 86087 bytes, 6 tensors)

layers.1.layers.0.weight f4 [100, 105]
000000 01 24 9a 3d 88 bb 98 3d 04 2c 7f bc 6a 43 b0 3d
       0.075263985 0.07457644 -0.015574459 0.08606608
000010 75 76 b2 bc 8a de 25 3c 63 5c 35 bd 3c 02 65 3d
       -0.021785 0.010123858 -0.04427756 0.055910334
000020 8c 66 a9 3d 02 d2 93 bd ce f1 b4 3d 22 eb b3 3c
       0.082715124 -0.0721779 0.08835183 0.021962706
000030 b8 51 95 3d f9 4e 4f 3c b0 f2 54 3d cc 38 64 bc
       0.07290977 0.012653106 0.051989257 -0.013929557
000040 e3 4f a2 3d b8 81 9e 3c 8c 37 55 bd 5f e2 8b 3c
       0.079253934 0.019348964 -0.052054927 0.017075716
000050 b9 b2 48 bd 51 3d cd bc 09 35 21 bd 9a 21 62 3d
       -0.04899857 -0.025053652 -0.03935722 0.055207826
000060 f9 55 9e bd b3 a4 28 bd f7 34 0f bd 82 6f 81 bd
       -0.07731242 -0.041172694 -0.03496262 -0.063200966
000070 35 df 86 3a 4b b7 d3 bd 08 87 a0 3d 36 54 9f bd
       0.001028991 -0.10337695 0.07838255 -0.07779734
000080 da d1 a0 3d 8c 53 86 3c f2 76 b6 bc 41 6f 78 3d
       0.07852526 0.01639726 -0.022273514 0.060652975
000090 58 bc 09 3c bc a2 b5 3d 15 5b ab 3b f7 a7 d1 bc
       0.008406721 0.0886893 0.0052293637 -0.025592787
0000a0 21 5f d1 3c 87 11 c8 bc 9e 9d 1a 3d eb 4a bb 3d
       0.025558056 -0.02442242 0.03774797 0.09145149
0000b0 e6 c9 44 3d 0f 5b 16 bd f9 5c 35 3d 67 1a a9 3c
       0.048044108 -0.036707934 0.04427812 0.020642472
0000c0 de 18 2b 3d d7 2c 7b bd a9 8d d7 bd 84 2d 09 bd
       0.041771762 -0.06132206 -0.105250664 -0.033490673
0000d0 b9 5a 96 bd 4a 38 89 3d bd af dc 3c da 2b 2a 3d
       -0.07341523 0.067001894 0.026939267 0.041545726
0000e0 35 d2 e5 3c fc 00 53 3a 5f 81 bc 3d 19 0c aa bd
       0.028054336 0.0008049158 0.09204363 -0.08303089
0000f0 55 76 80 bb 4f 86 8d bd 50 72 21 3d 9f 90 1e bd
       -0.0039203563 -0.06910383 0.039415658 -0.03871214
000100 25 04 0b 3d d7 3f 88 bc d2 ba b4 3d fb 62 87 bd
       0.0339395 -0.016632004 0.08824696 -0.06610676
000110 ff e3 67 bd b9 0d 51 bd 85 1d aa 3d 89 f2 0e 3d
       -0.05661392 -0.051038478 0.08306412 0.03489927
000120 7e 1f d8 3d ec 17 8a bd 12 f4 ad bd 93 70 ab bd
       0.10552882 -0.06742844 -0.08493818 -0.08371081
000130 4c bc 68 bd ea 90 22 3d b4 34 ff 3c de e8 b6 3d
       -0.0568202 0.039688982 0.03115306 0.08931135
000140 0c 27 25 bd 1a 51 a3 bd 32 4e 6f 3d 1b 73 03 bd
       -0.04032044 -0.07974453 0.058424182 -0.032092195
000150 c7 53 4b 3d 9b ac 98 bc 52 70 41 3d e1 b6 ac bd
       0.049640443 -0.018636992 0.047226258 -0.08433319
000160 a6 8a 50 bd e8 c7 af 3c c2 2a 07 3d 08 86 79 bc
       -0.050913475 0.021457627 0.03299976 -0.015229709
000170 8f 61 45 3d 34 4b 8d 3d 11 92 86 bd 9b ad 59 bd
       0.048188742 0.068991095 -0.06570829 -0.05314408
000180 49 86 d3 3d f7 51 01 bd 98 c7 24 bd 8f a3 b1 bd
       0.10328347 -0.03157231 -0.04022941 -0.086737745
000190 4c f6 6f bd 53 98 f5 3c c6 88 a8 bc 46 a2 a6 bd
       -0.058584496 0.02997986 -0.020573031 -0.0813642
0001a0 b1 de 90 bb 7a 2f 80 bd 3d 7a b6 bd 30 fe 4c bd
       -0.004421078 -0.062590554 -0.08910034 -0.0500471
0001b0 5e 19 9c bd 28 33 67 bd 04 f4 bf 3d 6d 28 98 3c
       -0.07622026 -0.05644527 0.09372714 0.018573964
0001c0 56 f8 09 3d bb cf c0 bd a1 0e 5d bd 6c 9f d6 bc
       0.033684097 -0.094146214 -0.05396903 -0.026199065
0001d0 62 f7 e1 3b aa 35 ad bd d2 7c 40 bd 6c b0 60 bd
       0.0068959454 -0.08457501 -0.046994038 -0.05485575
0001e0 d8 86 a0 ba 09 7c 26 bd ce e7 7f bb ab b2 91 bd
       -0.0012247218 -0.040645633 -0.0039048078 -0.07114156
0001f0 0d 96 6a bd 1b da 83 bd 40 9d 0e bd 8d 1e ac bd
       -0.057272006 -0.06438085 -0.034817934 -0.084042646
000200 16 35 96 3d b8 34 99 bc 84 47 b1 3d 98 3c 2b 3d
       0.07334344 -0.018701896 0.08656219 0.041805834
000210 7e bb b4 bd 84 51 a1 3d 49 3a 80 bc 58 cf b5 bc
       -0.08824824 0.07876876 -0.015652793 -0.022193596
000220 7a 29 ac bd 76 b1 b9 bd 82 f1 ef 3c bd a8 98 bc
       -0.084063485 -0.09067051 0.029289965 -0.018635148
000230 66 6d 2e 3d 84 dc b0 bd 75 85 ac 3d 01 61 98 bd
       0.0425848 -0.0863581 0.084238924 -0.07440377
000240 b6 6d ef bc 1d 92 92 3c fd ca 1a 3d dd ff 9e 3d
       -0.029227119 0.017891938 0.03779124 0.07763646
000250 77 73 cc 3d 53 9a 9f bd 54 bc 9f 3c 1e 2d 4d bd
       0.09982961 -0.07793107 0.019498982 -0.050091855
000260 05 1b 90 bc f0 26 91 bd 86 63 cc 3d 91 3a 96 bd
       -0.017591009 -0.07087505 0.0997992 -0.073353894
000270 d7 da 6d 3d 52 9d 44 3d af 03 c9 3c 9a f6 62 bd
       0.05807003 0.048001595 0.02453789 -0.05541096
000280 d9 6b b3 3d 18 dd 97 3c 27 73 76 3c ac 6a 9d bd
       0.08760805 0.018538043 0.015042103 -0.07686362
000290 a8 9f 40 3d d5 8b 19 bc ab 00 49 bd 1d 52 aa 3d
       0.04702726 -0.009371717 -0.049072903 0.08316443
0002a0 5b 24 91 3c 0b 85 52 bd 08 9b 47 bd b3 a9 59 3a
       0.017717531 -0.05139641 -0.048731834 0.000830318
0002b0 d3 7a 78 3d c1 c4 a7 bc a9 55 65 bd 1d 90 aa bc
       0.06066401 -0.020479562 -0.055989895 -0.020820672
0002c0 8a 30 8b bd c8 1c 2c 3d 1c 92 8a 3d 87 cd bd bd
       -0.067963675 0.042019635 0.067661494 -0.09267717
0002d0 dc 0f c9 3c b4 99 5b 3d 06 f1 5d 3c c2 b0 0e bd
       0.024543695 0.05361338 0.013546234 -0.034836538
0002e0 67 e7 4f 3d 22 dd 69 3d cf 1b 49 3d ca f1 6f bc
       0.05075779 0.057095654 0.049098786 -0.014645049
0002f0 a5 ed 02 bd 6d 31 71 3c 66 1d 81 bc 2c f3 e9 bc
       -0.031964917 0.014721257 -0.015761089 -0.028558336
000300 e1 c6 5e 3d dd 24 bb 3d 24 d4 00 bc b6 b0 03 bc
       0.054388884 0.091378905 -0.007863078 -0.008037737
000310 53 16 6b 3b 47 0d ce 39 fe 58 bc 3c 3b 85 cc 3c
       0.003587146 0.00039301274 0.022991654 0.024965873
000320 1d e1 b6 bd 9b fa ea bc 1c 30 bb 3d 85 f5 0b 3d
       -0.08929656 -0.028683951 0.091400355 0.034169693
000330 c3 cc d0 bb 37 09 12 bd e6 ae 83 bd 5a 8b ad bd
       -0.0063720657 -0.03565332 -0.064298436 -0.08473845
000340 f3 c3 1f bd 72 b1 17 3d c1 cf 71 3d 01 82 14 3d
       -0.03900523 0.03703446 0.05903602 0.036256794
000350 3f 0b b6 bd 1b 6d 54 bd c5 c3 73 bc 2b ba d5 3d
       -0.08888864 -0.051861864 -0.014878218 0.10435899
000360 cd ae 3b 3c 1b 25 bd bc 32 31 08 3d 76 91 37 bd
       0.01145525 -0.023088982 0.03325004 -0.044816457
000370 3e ee 70 bd 4c 85 88 3d 85 eb 4d bd 4b d7 b5 bc
       -0.058820955 0.06666049 -0.050273437 -0.022197386
000380 1e 43 d6 bd 08 18 8d 3d 8a 7a 8c 3d 68 d0 ea 3c
       -0.1046202 0.06889349 0.0685931 0.028663829
000390 c4 c0 9c bd 3e 83 c8 bd 74 64 98 bd 5c d5 9b 3d
       -0.076539546 -0.097906575 -0.07441035 0.076090544
0003a0 5f 65 44 3d 63 56 ab 3d 25 19 6c 3d 6b 2e c8 3b
       0.047948238 0.08366086 0.057641167 0.006109049
0003b0 e0 52 3a bc 29 2e a4 bd 43 1c 96 bd 24 6e b5 bd
       -0.011372298 -0.08016617 -0.07329609 -0.08858898
0003c0 8e 38 05 3d 05 6b 5d bd 8c 37 a5 bb ae 56 6b bd
       0.032524638 -0.05405714 -0.005042022 -0.05745571
0003d0 a8 46 98 bc d7 d2 8b bd 28 48 7d bd 96 51 0c 3d
       -0.018588379 -0.06827324 -0.06183639 0.034257494
0003e0 48 67 ff bc 25 4e 92 3d a9 d0 04 bd 37 e7 81 bd
       -0.031177178 0.07143811 -0.032425556 -0.06342929
0003f0 c6 b8 a9 bc 0f fc 73 bd 1b f1 ed bc a2 f2 ad bd
       -0.02071799 -0.059566554 -0.029045632 -0.08493544

layers.1.layers.0.bias f4 [100]
000000 95 f2 70 3d dd 2e 47 3d 3e 74 d9 bb db 3b 5e 3d
       0.058825094 0.048628677 -0.0066361716 0.0542563
000010 2c 31 12 bb ba 94 00 bc bc 39 30 bd 18 48 bb bd
       -0.002230714 -0.007847959 -0.04302381 -0.0914461
000020 93 37 b2 3d a2 6e 8c bd 14 4a b2 bd c3 04 16 bd
       0.08702006 -0.06857039 -0.087055355 -0.036625635
000030 4f 0d a1 3c 49 71 17 bc 6b 72 40 3d 79 d5 86 3d
       0.019659666 -0.009243318 0.046984117 0.065836854
000040 3a fc 59 3d 85 b3 a5 bd a8 f3 10 3d d2 bd 71 3d
       0.053219058 -0.08090881 0.03538862 0.059018917
000050 d8 2c 55 bd a6 d6 1f bb 3c b0 54 3c 6b ca 37 3c
       -0.05204472 -0.0024389415 0.012981471 0.011217694
000060 07 b2 5c 3d 3b ca 9b 3d 12 f8 cb 3d af 35 a7 3c
       0.053880718 0.07606932 0.09959425 0.02041134
000070 95 c3 6c 3d 43 cd 2f 3d 35 d0 3d bd 16 09 91 3d
       0.05780371 0.042920362 -0.04634114 0.07081811
000080 dd 63 1f bc db 3a 41 3d 31 d8 7f bd 59 0b a0 3d
       -0.009728399 0.04717527 -0.062462036 0.078146644
000090 68 af db 3c 87 b7 a4 3c 70 50 b4 bd fd 37 bc bb
       0.026817039 0.020107044 -0.08804405 -0.005743979
0000a0 c4 7b 2f bd 20 f9 c0 3d 45 8e c8 bd b3 52 07 bd
       -0.04284264 0.09422517 -0.09792761 -0.033037852
0000b0 b2 53 68 bd 16 df 95 bd 8f ce c3 3c bf d6 74 bd
       -0.056720443 -0.07317941 0.023902206 -0.05977511
0000c0 be 0e 63 3d f3 50 13 3c e3 cc 3b bd 29 3c 5a bc
       0.05543398 0.008991468 -0.045849692 -0.013320007
0000d0 74 21 b5 3c ff 9b 01 bd 4b f0 5f bd 5a bc 64 bd
       0.022110678 -0.03164291 -0.05467252 -0.05584369
0000e0 6a 28 db 3c 54 0d c7 bd 0c 4f 6b 3d 43 ab 8c 3d
       0.02675267 -0.09719339 0.05744843 0.06868603
0000f0 fb 4a aa 3d d2 bd ba 3d 92 49 6c bd b0 b4 2c bd
       0.08315083 0.091182366 -0.05768735 -0.042164505
000100 0c 1d 89 3d 0a ee b2 bc b7 39 9d bd 44 ad 4b bd
       0.066949934 -0.021842021 -0.07677024 -0.049725786
000110 2b 4c 92 3d 8a e0 32 bd e2 81 f8 3c ac 9f aa bd
       0.07143434 -0.04367117 0.03033537 -0.08331236
000120 70 bc 81 3d 44 1b 55 3c df 86 89 3d b5 ed 38 3a
       0.0633477 0.013006989 0.06715178 0.0007054464
000130 06 a3 34 3d aa a0 8f 3d 5c b8 5e bb 90 00 96 bd
       0.044100784 0.07013066 -0.0033984398 -0.07324326
000140 32 9e 79 bd 25 d2 7a 3d ae 46 86 bd 50 1b bc bd
       -0.060941882 0.061235566 -0.0655645 -0.09184897
000150 f5 71 a5 bd a8 b6 42 bd f3 29 04 3d db 3d c2 bd
       -0.08078376 -0.047537476 0.03226657 -0.09484454
000160 cc 4a 22 bd eb f6 c0 3d 97 d3 c7 bc 53 37 18 bd
       -0.039622113 0.09422096 -0.024392886 -0.037162136
000170 62 d3 38 3d 97 90 8d bd f4 c9 78 bd 54 52 57 3c
       0.045123465 -0.06912344 -0.060739473 0.013142187
000180 9c 59 04 3d 4c f4 c3 bd 82 ca aa 3d 2e 28 22 bd
       0.03231202 -0.0956808 0.083394065 -0.0395891

layers.2.layers.0.weight f4 [100, 100]
000000 0d df b6 3c 17 93 a0 3d 19 a3 03 3d 9d ab 28 3d
       0.022323156 0.07840555 0.032137964 0.04117929
000010 a7 91 bb bd 19 55 aa bd c0 c4 16 3d 2c 40 14 3b
       -0.0915864 -0.08317012 0.03680873 0.0022621257
000020 f4 bb 80 3d a7 48 7e 3d 0c 26 ac bd c7 15 f7 3c
       0.06285849 0.062081005 -0.08405694 0.030161751
000030 74 aa a3 bd d0 ee 44 bd ac 27 22 3d 72 a6 13 bc
       -0.07991496 -0.04807931 0.039588615 -0.009011852
000040 19 17 82 bd 08 64 0a 3d 80 1a 81 3d 25 d9 c2 bd
       -0.06352062 0.033786803 0.063038826 -0.09514073
000050 49 26 c1 3d 71 b6 6a 3d 83 1b 65 bb ad 24 d0 bd
       0.094311304 0.057302896 -0.0034959025 -0.10163245
000060 c4 00 4a bd 9b 2a e4 3c ea 4d 1d bd 79 58 df bc
       -0.049317136 0.027852347 -0.038404383 -0.027263867
000070 8d 27 1c bd 95 01 a7 3d a1 03 a4 3d 7b a6 a9 bd
       -0.038123656 0.081545986 0.08008505 -0.08283707
000080 b2 d5 b2 bc fe 5f b0 3d ff 6a ed bb e9 af 59 bd
       -0.021830413 0.08612059 -0.007245421 -0.053146277
000090 ee 2f b1 ba c2 c7 9d 3d 19 ae 9f bc be fc d0 bd
       -0.0013518312 0.077041164 -0.019492196 -0.10204457
0000a0 5b 3b 41 bd bd 1f 2b 3d f5 08 5e bc 75 cc 87 3d
       -0.047175746 0.041778315 -0.01355194 0.06630794
0000b0 3d 80 4d 3d 2b 93 52 3b ec 82 34 3d 46 0b b9 bb
       0.050171126 0.0032131176 0.04407017 -0.005647096
0000c0 b7 54 c6 bd 76 96 b9 bd f4 c5 98 bd fa c3 de bc
       -0.09684127 -0.09061901 -0.074596316 -0.027193058
0000d0 f5 cd 9e bd e4 90 8a 3c fd 01 70 3c 03 cc af 3d
       -0.07754127 0.016914792 0.014648912 0.08583834
0000e0 ad 9f cb 39 05 a7 7a 3c 78 e9 d6 3c 2f 49 bd bc
       0.00038838145 0.01529861 0.026234373 -0.023106186
0000f0 68 2e 10 bd f1 2e a9 bd 28 87 cf bd 8a 12 dc 3b
       -0.035200506 -0.082609065 -0.10133201 0.006716077
000100 b0 0c 16 bd 9b 17 09 3d 61 a2 4d 3c d6 e4 9e 3d
       -0.036633193 0.033469778 0.012550921 0.07758491
000110 fa 14 6f bc dd 29 c0 ba 27 cb 88 3d 5a 83 86 3c
       -0.014592404 -0.0014660914 0.06679373 0.016420055
000120 0a 58 35 3d be 2c 66 bd dd 8d 80 bd 79 a0 a1 3d
       0.044273414 -0.056195013 -0.06277058 0.07891936
000130 6c 1a 87 3d fa 6a 0e bd f2 95 a4 3c e3 62 c4 bd
       0.065968364 -0.03476999 0.02009103 -0.09589174
000140 d2 4a 81 3c 1e 2c b9 bd 1d 29 81 3d d7 88 d1 bd
       0.015782747 -0.09041618 0.0630667 -0.10231178
000150 c9 65 ab bc 9e 2e c0 3d a9 df c4 bc e0 13 77 bd
       -0.020922558 0.093838915 -0.02403243 -0.06032169
000160 ce d5 b9 3d db cc 5d bd 51 d4 fd 3c 6a d7 80 3d
       0.09073983 -0.054150444 0.03098503 0.06291087
000170 14 38 05 3d 02 81 98 bd 8b 25 c3 3d 81 a8 48 3d
       0.032524183 -0.07446481 0.09528645 0.048988823
000180 51 0e 6d bd e2 36 86 bd e6 c6 f9 bc 82 a0 09 3d
       -0.05787498 -0.06553437 -0.03049035 0.033600338
000190 2a 42 33 3d 5a ce 55 3b 13 5c 67 3d 4f 7d d0 3d
       0.04376427 0.0032624216 0.056484293 0.10180151
0001a0 29 6a de 3c f9 1a 12 3d cf 3d 4c 3d 1a 87 b8 3b
       0.02715023 0.035670254 0.049863633 0.0056313397
0001b0 67 a2 b0 3a 70 4e ad 3d a7 73 86 3d be bc 93 3d
       0.0013476134 0.084622264 0.06565028 0.07213734
0001c0 09 9f 2a bd 4c 22 59 bd 3d 0f 7a bd c6 23 ac bd
       -0.041655574 -0.053011224 -0.06104969 -0.08405261
0001d0 a8 f0 fe bb 74 b3 67 3d 76 6d 83 3c a4 2a 7b bd
       -0.0077801533 0.056567624 0.016043406 -0.061319962
0001e0 c8 8c 9d bc 65 95 a8 bd 57 2a 83 bd 95 5e 13 3c
       -0.019232169 -0.0823162 -0.0640456 0.008994718
0001f0 22 5c 61 bd 42 80 3c 3b 95 4f b8 3d ef 83 9a 3c
       -0.055019505 0.002876297 0.08999554 0.018861739
000200 b0 f1 93 3d 68 dc 8d bd 11 96 02 bc 25 c4 c3 bd
       0.072238326 -0.06926805 -0.007970349 -0.09558896
000210 3a b9 d1 bb a3 58 9a bd 06 8e be 3d ee 7d a7 bd
       -0.0064002546 -0.07536437 0.093044326 -0.08178316
000220 3c f1 d9 3c 1d a1 61 bd fe 9d 0a 3d e9 11 a7 bb
       0.026604287 -0.05508529 0.03384208 -0.0050985706
000230 de 22 a6 bb a1 2d 2b bd 4d d6 69 3d ca 23 dc bc
       -0.0050700745 -0.041791562 0.05708914 -0.026872534
000240 d4 0f 0e 3c fc 30 0c bd 51 f3 80 bd de 92 2d bd
       0.008670766 -0.034226403 -0.06296409 -0.04237639
000250 b4 1d b9 3d ce fd d7 3d 4f 71 64 bd dd 37 95 3c
       0.090388685 0.10546456 -0.055772122 0.018215114
000260 f6 ac b6 3c ee 6a b2 3d 9b e7 5d 3c ec 73 88 3b
       0.022299271 0.087118015 0.013543989 0.0041642096
000270 fe a5 be bc fd 65 87 3c 7c 95 cd bd 2e 1b c2 bd
       -0.02327251 0.016528124 -0.100382775 -0.0947784
000280 19 5e ce bb af 95 63 bd 87 1c a4 bd 61 9e 93 bc
       -0.0062978384 -0.05556267 -0.08013254 -0.018019857
000290 b4 82 61 3d 20 20 76 3d 0f b4 e8 bc 12 05 d7 b8
       0.05505629 0.06008923 -0.028406171 -0.00010252943
0002a0 18 6e b7 3d 4e de 0d 3c 29 60 92 3d d8 8c 47 bd
       0.089565456 0.008658959 0.07147247 -0.048718303
0002b0 a0 5d bf bd af 15 33 bd 5e 10 2d 3c fb a9 93 bc
       -0.093440294 -0.04372185 0.010562984 -0.018025389
0002c0 6a 6e 6d bd 52 41 d0 3d e0 40 be bd 79 e6 94 ba
       -0.057966627 0.10168709 -0.09289718 -0.001136019
0002d0 fa 86 30 3d cc 07 0c bc 22 4f 6f 3d f0 07 15 3c
       0.043097474 -0.008546781 0.058425076 0.009096131
0002e0 6f 65 70 bd a4 da 4d bd f6 be 54 bd 55 69 c6 bd
       -0.058690485 -0.05025734 -0.051939927 -0.09688059
0002f0 d0 b4 6f 3d 42 b1 b3 3d af 79 7a bd c1 69 26 3b
       0.058522046 0.087740436 -0.061151203 0.0025392624
000300 84 88 ef 3c ac 9b ba 3c 3f 93 66 bd bd 99 64 bd
       0.0292399 0.022779308 -0.05629277 -0.05581068
000310 35 76 cc 3d e6 73 4e 3d 6d d8 c4 3d ff 65 96 3d
       0.09983484 0.050403498 0.096115924 0.07343673
000320 53 d4 08 bc f0 df a0 3d 9c 3b 51 3b cf 39 1a bb
       -0.008351403 0.07855213 0.00319264 -0.0023532992
000330 31 87 11 bd 39 3d a9 3d 6b 86 80 bc de ab 81 3c
       -0.03552932 0.082636304 -0.015689095 0.015829023
000340 45 da a0 bd 0b 63 c1 3c 45 f0 39 bd 89 c2 d2 bc
       -0.078541316 0.023606798 -0.045395155 -0.025727527
000350 3c 12 d9 bb b6 48 2b 3d 06 18 ef 3b 49 4d 35 3c
       -0.006624488 0.04181739 0.007296565 0.0110657895
000360 66 c1 8d bd c9 b1 78 bd 22 5a 17 3d 68 8a 3f bd
       -0.069216534 -0.060716424 0.03695119 -0.046762854
000370 41 ae af bd c9 2c fa bc 0d 4b b4 bd bc b5 85 3c
       -0.08578158 -0.030538933 -0.08803377 0.01632201
000380 ba dd 30 3b 59 73 ad 3d 5d 43 6f bd 3d 14 79 bd
       0.0026987628 0.084692664 -0.058413852 -0.060810316
000390 7f 13 db 3c 29 62 b4 bc 17 fd 93 3d e1 bb e7 3c
       0.026742695 -0.022019463 0.072260074 0.02828783
0003a0 09 20 20 ba 27 b2 12 bd 63 07 74 3d d4 c9 46 bd
       -0.0006108289 -0.03581443 0.059577357 -0.048532322
0003b0 b9 24 15 3d 0f 79 7a 3d 1b 3c 9a bd 9e 18 a4 bd
       0.036411975 0.061150607 -0.075309955 -0.08012508
0003c0 d5 cc 50 bd 56 8e 52 3d ea cf 61 bd e4 10 87 3c
       -0.050976593 0.051405273 -0.055129923 0.016487546
0003d0 10 80 c5 3c 02 a3 7a 3c 26 40 3f bd 76 67 a5 bb
       0.024108917 0.015297653 -0.046692036 -0.005047734
0003e0 63 35 6d 3d f6 e2 50 3d b7 ce b6 3c b4 55 a4 bd
       0.05791224 0.050997697 0.022315366 -0.08024159
0003f0 b5 7f 2d 3d 2e 1a 07 bd fe cc 8d 3d 27 d8 1b 3d
       0.04235812 -0.03298395 0.06923865 0.038047936

layers.2.layers.0.bias f4 [100]
000000 ff f1 36 bd c8 a1 09 bd ad 8d 9d bd d7 fa 0b bc
       -0.04466438 -0.033601552 -0.07693038 -0.008543692
000010 23 9f 4b 3d 2c b8 56 bd 8c cf 01 bc de 9f 85 3d
       0.04971231 -0.052421734 -0.007923018 0.06524633
000020 ba c1 80 bd fe 5c f0 3c 0c 05 f5 bc ae a4 b0 3d
       -0.062869504 0.029341217 -0.029909633 0.0862516
000030 12 15 b5 ba f5 71 b8 3d bf ca 02 bd 7b 4f a8 bd
       -0.0013815484 0.090061106 -0.031931635 -0.08218285
000040 ed c2 39 3c 7b b7 64 bd 24 36 68 bd 3c 6a 8d 3d
       0.011337978 -0.055839043 -0.056692258 0.06905028
000050 d1 af b1 3d f6 df 8e bd c5 f5 bc bd 99 4c 85 3c
       0.086761124 -0.06976311 -0.09226564 0.016271876
000060 ce d2 b8 bd 52 44 e9 bc 22 c8 2e 3d e1 dd 29 3d
       -0.09024583 -0.02847496 0.04267133 0.041471366
000070 f8 ed 88 3b 05 13 36 3d e4 fd 5e bd 11 d1 f2 bc
       0.0041787587 0.044451732 -0.054441348 -0.029640706
000080 86 0a 10 bd b2 68 b5 bd d9 97 61 bd 93 39 eb 3a
       -0.035166286 -0.0885786 -0.055076454 0.0017946236
000090 3b 3f c3 3c 16 a5 4d bd 20 f4 79 3d fe ad 77 bd
       0.023833862 -0.050206266 0.06102383 -0.060468666
0000a0 f5 4f ad 3c 53 6f a6 3d ee b1 89 3d 59 d6 d5 3d
       0.02115629 0.08126702 0.067233905 0.10441274
0000b0 6d c4 05 3d c9 1e 86 bd 9d 70 12 bd 1b 05 07 bd
       0.03265803 -0.065488406 -0.035751928 -0.032963853
0000c0 5b 5a a3 bd e0 a3 ea bc 64 b3 ba bd e9 53 40 bd
       -0.07976218 -0.028642595 -0.09116247 -0.046955023
0000d0 3f b1 d4 bd 3c e9 b8 3d 89 25 bf 3c be 57 e8 3d
       -0.103853695 0.09028861 0.023333328 0.113448605
0000e0 f7 53 68 3d 55 74 c9 3d a8 e3 0c bd e3 82 3f bd
       0.0567207 0.09836642 -0.034396797 -0.046755683
0000f0 83 47 23 bd c4 af c6 bd 96 71 fa bb f4 56 91 3c
       -0.03986312 -0.097014934 -0.007642935 0.017741658
000100 64 7b 81 3d be 36 4b bc ab 35 f3 3c b8 0d 14 3d
       0.06322363 -0.012403188 0.029688677 0.036145896
000110 e2 6f c6 3c d3 ae ea 3c 17 f8 21 bd 83 86 59 3d
       0.024223272 0.028647816 -0.039543238 0.053106796
000120 c9 44 bb bd fa f2 22 3c 5f 23 45 3d 30 76 8b 3d
       -0.09143979 0.009945625 0.048129436 0.06809652
000130 ee 6b 4e 3d a7 21 9c bc 15 3b 95 3d b7 61 cd bd
       0.0503959 -0.019059015 0.0728666 -0.10028403
000140 d4 f0 89 bc 8f 95 2e bd 0c eb 87 3d a1 cb b2 3d
       -0.016838469 -0.0426231 0.066366285 0.087302454
000150 06 67 e7 bc 0a e8 80 3c 75 c5 a3 bc 51 f4 26 bd
       -0.028247368 0.015735645 -0.019991616 -0.040760342
000160 f6 1d 34 3d c5 5c bd 3c e7 68 58 bd 53 2e aa 3c
       0.043973885 0.023115525 -0.052834418 0.020774042
000170 41 1c bf 3d 0b c7 96 bd 6a 29 73 bc 35 6d bd bd
       0.09331561 -0.07362183 -0.014841417 -0.09249345
000180 ed be cc bc 1c 8a ce 3d d5 f9 80 3d b5 3b cc bd
       -0.024993384 0.10084936 0.06297652 -0.09972326

layers.3.weight f4 [2, 100]
000000 da 75 c0 bd 18 db d6 3b 8d ca 33 bb ab ea 92 3d
       -0.093974784 0.0065568797 -0.0027433962 0.071736656
000010 a9 72 1a bd c5 19 9e 3d fc 47 83 bd 9d 9c 89 bc
       -0.037707005 0.07719759 -0.06410214 -0.016798312
000020 83 4b 60 bc ed 22 55 bd 1b 80 45 ba bb ea ef bc
       -0.013689878 -0.05203526 -0.0007534043 -0.029286733
000030 42 e4 5e bd f3 41 b0 bd bb eb 33 3a 7d 51 c3 3d
       -0.054416902 -0.08606329 0.00068634347 0.09537027
000040 b6 63 e0 3c a8 ef a3 bd 10 e4 83 bd d6 f9 5a 3d
       0.027391296 -0.08004695 -0.06439984 0.05346092
000050 69 8c 4c bd 49 40 74 bc 48 1e 1e bd 99 28 21 3d
       -0.049938593 -0.014907905 -0.038603097 0.039345358
000060 61 5a 93 bd 87 8e d3 bd 82 37 a7 bd 57 c8 b9 bd
       -0.07194973 -0.10329919 -0.08164884 -0.09071415
000070 47 c9 0f 3c cd 0e 43 3c 97 7f 11 bd 80 bf 10 3d
       0.008776016 0.011905384 -0.03552207 0.03533888
000080 48 7f 41 3c ea 9a c2 3c 4f e9 5f 3d b2 74 67 3a
       0.011810131 0.02375551 0.05466586 0.00088293396
000090 bf 9a c9 3d a0 9e a4 3d b4 aa 80 bd ba d8 9c 3d
       0.098439686 0.08038068 -0.06282559 0.07658525
0000a0 78 b8 93 bc 2e 95 fa bb b5 12 50 3b 69 9f b5 bd
       -0.018032297 -0.007647178 0.0031749432 -0.08868296
0000b0 53 85 97 3d 91 70 9b 3d d7 18 b8 3d 11 db ee 3c
       0.073984765 0.0758983 0.08989113 0.029157193
0000c0 13 2e 96 bc 47 1e 15 bd 0c 4e 15 bd 22 a8 9e bd
       -0.018332517 -0.036405828 -0.036451384 -0.077469125
0000d0 64 f6 b0 3c 38 1a fb 3b aa 79 32 bd 20 7a 87 bd
       0.021601863 0.0076630376 -0.04357306 -0.0661509
0000e0 c9 38 c8 bc 7d 4d 4f 3c 51 df 8b 3d a4 e4 1b 3d
       -0.02444114 0.012652752 0.068297036 0.038059846
0000f0 8c 0f b4 3d ac 2d a9 3d 75 bc 34 bd 25 35 51 bc
       0.08792028 0.08260664 -0.04412504 -0.012769018
000100 8d 35 bf bd c2 6e 9c bd d0 a8 f5 3c cf 36 01 3d
       -0.09336386 -0.07638313 0.029987723 0.03154641
000110 33 76 45 3d e4 f9 9e 3d b9 54 f6 3c df 88 4f bd
       0.048208427 0.077625066 0.030069696 -0.05066764
000120 a4 7d da bc 82 22 60 3c 37 06 67 3d 60 1c 9d bd
       -0.026671238 0.013680102 0.05640241 -0.07671428
000130 64 08 57 bd 31 18 d7 3c 7a 6e 10 3d f8 e3 d1 3d
       -0.052498236 0.026256653 0.03526161 0.1024856
000140 3d 80 9f 3d 71 0d 41 bd f8 60 d1 3c 0b a4 81 bd
       0.077881314 -0.04713196 0.025558934 -0.06330117
000150 92 4b b6 bb 95 9e 73 bc 2a 37 34 3c 60 22 ab 3d
       -0.005563208 -0.014869352 0.01099948 0.08356166
000160 5e b0 85 bd 92 40 a1 3d f5 0f 70 3d 6c 9b 5d bd
       -0.0652778 0.07873644 0.058608968 -0.0541033
000170 ae 7d 05 bd 77 07 f6 bc c7 9b 6b 3d 48 64 00 bd
       -0.03259056 -0.030032856 0.057521608 -0.031345636
000180 79 1d 0d 3d 82 d8 3b bd 4e 34 99 3d 22 b7 be bc
       0.034451935 -0.045860775 0.074806795 -0.023280684
000190 24 bf d3 3d fa fa 91 bd 17 a7 17 bd 81 b0 8d 3d
       0.103391916 -0.07127948 -0.037024584 0.06918431
0001a0 b8 2e 4b 3d 2e ab 4e bd 0e 7b 9b bd b0 97 8d bd
       0.0496051 -0.05045622 -0.0759183 -0.06913698
0001b0 95 40 a6 bd 73 91 71 bd 2f 83 50 bd c5 8b ab bb
       -0.08117787 -0.0589766 -0.050906356 -0.0052351677
0001c0 64 76 b5 3d 0d ca 64 bc cc 35 6e bd e3 e9 6e 3d
       0.08860472 -0.013964188 -0.058156773 0.05832852
0001d0 9b 64 8e bd b9 c4 26 bd ad a7 90 bc 23 20 60 3c
       -0.06952783 -0.040714953 -0.017658079 0.013679537
0001e0 d1 a2 73 bd e8 50 ab bd 6b 85 d7 bd bb 0e 02 bd
       -0.059481446 -0.08365041 -0.10523494 -0.03175233
0001f0 32 cf 59 3d 10 c7 ad 3c 9f d3 9e 3d 05 8f eb 3c
       0.053176112 0.021213084 0.07755207 0.02875472
000200 69 e0 a3 bd 77 01 ca 3c a0 c5 f7 bc a3 de 6c 3d
       -0.08001787 0.024658902 -0.030245602 0.05782951
000210 84 1d db 3c 69 38 d0 3d 71 ba b2 bd eb 3e 21 bd
       0.026747473 0.101670094 -0.08726967 -0.039366644
000220 13 8b a9 bd a5 2a 0e 3c a3 87 4f bd b8 d5 36 bd
       -0.082784794 0.008677159 -0.050666463 -0.04463741
000230 bc 0d ee 3d 85 2b 19 bd 62 08 82 3d 81 e4 a6 3d
       0.116237134 -0.03739502 0.06349255 0.081490524
000240 ab 98 b2 3d e0 bb b7 3d f6 e8 79 3d 33 fa 18 3c
       0.08720525 0.08971381 0.061013184 0.009336996
000250 0e 1c a4 3d eb c3 e3 3d 2b 10 98 bd 3c ad 12 3d
       0.080131635 0.11121353 -0.07424959 0.03580974
000260 0e 79 92 3d c2 61 53 bd 69 4e 63 3d bd fc 9b 3d
       0.071519956 -0.0516069 0.0554947 0.076165654
000270 b0 6a 07 3c 2e 41 02 bc b7 2d 47 bc 4a 64 ba 3d
       0.008265182 -0.00795011 -0.012156895 0.0910116
000280 47 25 98 bd 27 9d 2d 3d e9 58 50 bd ce 92 a9 3d
       -0.07428985 0.0423862 -0.05086604 0.08279954
000290 de a6 0f bd 2f 88 03 3d bc fe 95 3d b3 16 80 bc
       -0.035071246 0.032112297 0.07323977 -0.015635824
0002a0 17 b9 d2 bb 55 97 cd 3d 4a f9 e3 3d 8d a9 38 3d
       -0.006430756 0.1003863 0.111315325 0.04508357
0002b0 22 9f 9d 3c 00 28 1a 3c 0c 8a 5d bd 8a d8 b7 3d
       0.01924092 0.009408951 -0.05408673 0.089768484
0002c0 ff bb 81 3d 40 9d c4 3d 6d 21 8d bd b5 fb c4 3c
       0.063346855 0.096003056 -0.06891141 0.024045805
0002d0 dc 1f f0 3c f7 96 dd bc c0 d2 0f bc 3c 06 ca 3c
       0.029312067 -0.027049525 -0.008778274 0.024661176
0002e0 46 9b 08 bd 6d 43 b2 3d db 0f b5 bd f5 ca 03 bc
       -0.033351205 0.08704267 -0.08840915 -0.008043994
0002f0 44 19 23 bd 5c e0 af 3d f3 08 05 bd 44 9b e1 bc
       -0.039819017 0.08587715 -0.032479238 -0.027539857
000300 ba 94 c8 3d 61 1c a0 bd 18 a0 a9 bc e1 74 c0 3d
       0.09793992 -0.07817913 -0.020706221 0.09397293
000310 91 4c a5 3d 8a 01 b7 bb 3c 3b 97 bc c3 a6 69 bd
       0.080712445 -0.0055849003 -0.018460862 -0.057043802

layers.3.bias f4 [2]
000000 30 15 3c bd c6 43 c7 3d
       -0.045918643 0.09729724
