clients_data/client_DP_trained_model/client0.pth (torch, 86087 bytes, 6 tensors)

layers.1.layers.0.weight f4 [100, 105]
0	0x3d8c0689	0.06837184
1	0x3db4a277	0.0882005
2	0xbcd9bf20	-0.026580393
3	0x3db6c096	0.089234516
4	0xbcfda0ca	-0.03096046
5	0x3cbc4292	0.022980962
6	0xbd48a2e2	-0.048983462
7	0x3d58cce2	0.052929766
8	0x3daebcf5	0.085321344
9	0xbd8b1392	-0.06790842
10	0x3db4d8fe	0.088304505
11	0x3c9eb6cc	0.019374274
12	0x3d925519	0.07145137
13	0x3c93e772	0.018054698
14	0x3d40dc8e	0.047085337
15	0xbc35a15b	-0.011085833
16	0x3da4771c	0.08030531
17	0x3bfb7e97	0.007675003
18	0xbd59e7a0	-0.05319941
19	0x3ca9d063	0.02072925
20	0xbd6fd922	-0.058556683
21	0xbc36b306	-0.011151081
22	0xbd49e3a5	-0.049289364
23	0x3d5ee7c0	0.054420233
24	0xbd95f1d4	-0.07321516
25	0xbd576cc6	-0.05259397
26	0xbd042830	-0.03226489
27	0xbd8881ed	-0.066654064
28	0x3b1d102d	0.002396594
29	0xbdd8de14	-0.10589233
30	0x3dbe44e5	0.09290484
31	0xbd9beb70	-0.076132655
32	0x3d9ac11e	0.075563654
33	0x3cd2355b	0.025660207
34	0xbd003bea	-0.03130714
35	0x3d5be78b	0.053687613
36	0x3ccb43af	0.024812547
37	0x3d963756	0.07334773
38	0x3c81435b	0.015779188
39	0xbcf0e30e	-0.029405143
40	0x3ce61add	0.028088981
41	0xbcf37b66	-0.029721927
42	0x3d39db49	0.045375142
43	0x3da1b3b1	0.078956015
44	0x3d7f0b97	0.062266912
45	0xbd5ffa9d	-0.054682363
46	0x3d739648	0.05946949
47	0x3c9097d6	0.017650526
48	0x3d436a73	0.04770894
49	0xbd8bbc55	-0.06823031
50	0xbdbcc4c3	-0.09217217
51	0xbd14e28c	-0.036348864
52	0xbdb40379	-0.08789725
53	0x3da1ead9	0.07906122
54	0x3cec9228	0.028878286
55	0x3d10c1b0	0.035340965
56	0x3d07f52e	0.033192806
57	0x3c647611	0.013944165
58	0x3d8135c2	0.063090816
59	0xbda313b0	-0.079627395
60	0x3b714060	0.0036812052
61	0xbd6b0405	-0.05737688
62	0x3ccbbfae	0.024871673
63	0xbcd964dc	-0.026537351
64	0x3d09c2c6	0.033633016
65	0xbc5abffc	-0.013351437
66	0x3d947cb5	0.072503485
67	0xbd666920	-0.0562526
68	0xbd5109d5	-0.051034767
69	0xbd80cfe0	-0.06289649
70	0x3db7ca90	0.089741826
71	0x3cbc2de4	0.022971101
72	0x3ddb2d70	0.10702026
73	0xbd8ca7df	-0.06867956
74	0xbdd55056	-0.104157135
75	0xbd8a48db	-0.06752177
76	0xbd86888e	-0.065690145
77	0x3d11e479	0.03561828
78	0x3d30961c	0.043111905
79	0x3d8a261f	0.06745552
80	0xbd8247b0	-0.063613296
81	0xbd753cb7	-0.059872355
82	0x3d72530d	0.059161235
83	0xbd48d3ae	-0.04903
84	0x3d82ab85	0.06380371
85	0xbd0212a2	-0.03175605
86	0x3d41d547	0.047322538
87	0xbda407cf	-0.08009302
88	0xbd6bc921	-0.05756486
89	0x3d2c9bfb	0.042140942
90	0x3cf80bc8	0.030279055
91	0xbd0e47c1	-0.0347364
92	0x3d79bf05	0.060973186
93	0x3d91959c	0.07108614
94	0xbd93134c	-0.07181415
95	0xbd64830c	-0.05578904
96	0x3db9839a	0.09058304
97	0xbd1df1f6	-0.03856083
98	0xbcdc6c3d	-0.02690708
99	0xbdc6e957	-0.09712475
100	0xbd4d0bce	-0.050060086
101	0x3c87d71e	0.016582068
102	0xbcbfbc07	-0.023405088
103	0xbd8a0d31	-0.06740797
104	0x3bda78ef	0.0066672484
105	0xbd965d28	-0.07341987
106	0xbda1dbf1	-0.079032786
107	0xbd364f79	-0.044509385
108	0xbda30793	-0.07960429
109	0xbd876d20	-0.06612611
110	0x3dc82a8f	0.097737424
111	0x3c4e30a2	0.012584837
112	0x3cdcb1b7	0.02694021
113	0xbda56ca6	-0.08077364
114	0xbd6c9a59	-0.057764385
115	0xbd27d2d2	-0.04097254
116	0x3c892937	0.016743286
117	0xbdbaf33d	-0.09128425
118	0xbd1befdb	-0.03807054
119	0xbd82676b	-0.06367382
120	0xbb847aa2	-0.0040429393
121	0xbd095173	-0.03352494
122	0xbc3dde37	-0.011588625
123	0xbd66df82	-0.056365497
124	0xbd98140c	-0.07425699
125	0xbd6fa25c	-0.058504447
126	0xbd2560d0	-0.04037553
127	0xbd8ad499	-0.06778831
128	0x3da8be98	0.08239478
129	0xbc892da7	-0.016745402
130	0x3dc37eed	0.095456935
131	0x3ccd1e48	0.025038853
132	0xbd93599c	-0.07194826
133	0x3da090d5	0.078401245
134	0xbc3650ff	-0.011127709
135	0xbd00ce7b	-0.031446915
136	0xbd9948ca	-0.074845865
137	0xbdc3d874	-0.095627695
138	0x3cfb92f0	0.030709714
139	0xbc88ef13	-0.016715562
140	0x3d013ce6	0.031552218
141	0xbd8af0b4	-0.06784192
142	0x3d8e40b4	0.06945935
143	0xbd985fc9	-0.074401446
144	0xbca07e8f	-0.019591598
145	0x3bf8a8c1	0.0075884764
146	0x3d4bbcf8	0.04974076
147	0x3db6c9ae	0.08925186
148	0x3db547c2	0.08851577
149	0xbda93244	-0.082615405
150	0x3c89c2a5	0.016816447
151	0xbd114a5d	-0.03547131
152	0xbc0a2254	-0.008431036
153	0xbd80c520	-0.062875986
154	0x3db49541	0.088175304
155	0xbd8757b6	-0.066085264
156	0x3d86da1c	0.0658457
157	0x3cddaa5e	0.027058776
158	0x3cef8e4c	0.029242657
159	0xbd631116	-0.055436216
160	0x3dafa314	0.085760266
161	0x3cc3b5f3	0.023890471
162	0x3cb128b6	0.021625858
163	0xbda3031d	-0.07959578
164	0x3d3bf8e2	0.04589165
165	0xbc99800f	-0.01873782
166	0xbd39dafc	-0.045374855
167	0x3db090e1	0.086213835
168	0x3cc7d6d6	0.024394434
169	0xbd5aa47b	-0.053379517
170	0xbd3333fd	-0.04375075
171	0x3aca40fe	0.0015430746
172	0x3d7157a1	0.05892146
173	0xbccd7eab	-0.025084814
174	0xbd308fc1	-0.043105844
175	0xbd10e7fe	-0.035377495
176	0xbd86caec	-0.06581673
177	0x3cdd1068	0.026985362
178	0x3d9990e2	0.07498337
179	0xbdb883ac	-0.090094894
180	0x3cd39fa3	0.025832957
181	0x3d3d77d6	0.046256863
182	0x3c8fa038	0.017532453
183	0xbd23e76b	-0.04001562
184	0x3d69b98b	0.057061713
185	0x3d82ae31	0.063808806
186	0x3d1f8779	0.038947556
187	0xbcbe45ab	-0.02322658
188	0xbcb2378d	-0.021755004
189	0x3c45c7fb	0.012071605
190	0xbc88dada	-0.016705919
191	0xbd1f210a	-0.038849868
192	0x3d8eeeee	0.06979166
193	0x3daf6bd5	0.08565489
194	0x3b888fe2	0.004167543
195	0xbca19864	-0.019725986
196	0x3bf8de23	0.00759484
197	0xbbccddf2	-0.006252044
198	0x3cac14e9	0.021006064
199	0x3d0b0ca0	0.033947587
200	0xbda689d1	-0.08131755
201	0xbcdba605	-0.026812563
202	0x3da06529	0.07831795
203	0x3d158e4d	0.03651266
204	0x3c94c5bb	0.018160691
205	0xbd81ecea	-0.06344016
206	0xbd698f93	-0.05702169
207	0xbdbdac29	-0.092613526
208	0xbce33faa	-0.027740318
209	0x3cf52204	0.029923446
210	0x3d5a6d0a	0.053326644
211	0x3d2e079d	0.04248773
212	0xbda2f612	-0.079570904
213	0xbd6e05e1	-0.058111075
214	0xbbb4595a	-0.0055038156
215	0x3dc045ee	0.09388338
216	0x3c84cb16	0.01621012
217	0xbd04b320	-0.03239739
218	0x3d064397	0.032779302
219	0xbd06354c	-0.03276567
220	0xbd8b545e	-0.06803201
221	0x3d866446	0.065620944
222	0xbd3fbc25	-0.046810288
223	0xbd043c5b	-0.032284122
224	0xbdbf6e9d	-0.0934727
225	0x3d75cbcb	0.060008805
226	0x3d894f4f	0.0670458
227	0x3cde4e72	0.027137015
228	0xbd8e9f89	-0.06964023
229	0xbdbb75cc	-0.09153327
230	0xbd9b7e89	-0.07592494
231	0x3d9a4c0a	0.075340346
232	0x3d45c12b	0.048279922
233	0x3db60b84	0.08888915
234	0x3d04f368	0.032458693
235	0x3c667bd3	0.014067608
236	0xbbd5e2f2	-0.006527298
237	0xbd833326	-0.0640624
238	0xbda6bee8	-0.08141881
239	0xbdda5a23	-0.106617235
240	0x3d0aee87	0.033918884
241	0xbd08b288	-0.033373386
242	0xbcab2bf4	-0.020894982
243	0xbd694d28	-0.056958348
244	0xbc8c2f97	-0.017112536
245	0xbd88ce20	-0.0667994
246	0xbd7e9900	-0.06215763
247	0x3cf13477	0.029443962
248	0xbc90e1c7	-0.017685784
249	0x3d71bfe9	0.05902091
250	0xbcbcb022	-0.023033205
251	0xbd9a192c	-0.075243324
252	0xbcef57aa	-0.029216606
253	0xbd3e5d18	-0.0464755
254	0xbcb53a71	-0.022122594
255	0xbdbdfe15	-0.09276978

layers.1.layers.0.bias f4 [100]
0	0x3d8ec847	0.069717936
1	0x3d27a052	0.040924378
2	0xbb96d4fd	-0.004603027
3	0x3d678657	0.0565246
4	0x3b4fd5b2	0.0031713066
5	0xbcac86d9	-0.021060394
6	0xbd40f371	-0.047107164
7	0xbdb3f0fa	-0.08786197
8	0x3d96d3ce	0.07364617
9	0xbd67c565	-0.056584734
10	0xbdaad66d	-0.0834168
11	0xbd3576a3	-0.044302594
12	0x3c9b9efc	0.018996708
13	0xbbb95a8c	-0.005656546
14	0x3d54dcf3	0.051968526
15	0x3d83c628	0.0643428
16	0x3d6bea5a	0.057596542
17	0xbdb145f1	-0.086559184
18	0x3d4ef75d	0.050528873
19	0x3d53a956	0.051675163
20	0xbd6cb043	-0.057785284
21	0xbab67c4a	-0.0013922539
22	0x3c453fd3	0.012039143
23	0x3c8bd3b9	0.01706873
24	0x3d4201fa	0.047365166
25	0x3db3cfd3	0.08779874
26	0x3dbb13b3	0.09134617
27	0x3cc2c59b	0.023775866
28	0x3d6e860a	0.0582333
29	0x3d3eb320	0.046557546
30	0xbd3b2544	-0.045689836
31	0x3d9562d7	0.07294243
32	0xbb0fd402	-0.0021946435
33	0x3d375750	0.044761002
34	0xbd8636b6	-0.06553404
35	0x3dabf216	0.083957836
36	0x3c9c5d47	0.019087447
37	0x3cae4db9	0.021277295
38	0xbdac00c0	-0.083985806
39	0xbae1cde1	-0.0017227494
40	0xbcfbb6ea	-0.030726869
41	0x3da894d9	0.082315154
42	0xbdca2036	-0.09869425
43	0xbcff7512	-0.031183753
44	0xbd4ed49b	-0.050495725
45	0xbdadd381	-0.08487607
46	0x3d30f8bb	0.043205958
47	0xbd920a5a	-0.07130881
48	0x3d2e869b	0.04260884
49	0x3c8532ed	0.016259635
50	0xbd57af98	-0.052657694
51	0x3ae32fe5	0.0017332999
52	0x3ca7f8a4	0.020504303
53	0xbd0db567	-0.034596827
54	0xbd82bae5	-0.063833036
55	0xbd78b275	-0.060717065
56	0x3c52af50	0.012859181
57	0xbdb8ca23	-0.090229295
58	0x3d85aecb	0.0652748
59	0x3d6c2a54	0.057657555
60	0x3dc83a05	0.09776691
61	0x3da92fe7	0.0826109
62	0xbd62291f	-0.055214997
63	0xbd3b8613	-0.04578216
64	0x3d820e59	0.06350393
65	0xbc9e159c	-0.019297414
66	0xbd9a5551	-0.07535804
67	0xbd2dcef0	-0.04243368
68	0x3da3dbd1	0.08000911
69	0xbd717727	-0.058951523
70	0x3d04050f	0.032231387
71	0xbda4a0da	-0.080384925
72	0x3d4bedc4	0.049787298
73	0x3ccd3671	0.025050374
74	0x3d86100b	0.06546029
75	0xbb0cac5c	-0.002146504
76	0x3d21de84	0.039518848
77	0x3db75f25	0.08953694
78	0xbc404938	-0.011736207
79	0xbd7f3969	-0.06231061
80	0xbd84d226	-0.06485395
81	0x3d6124d1	0.05496675
82	0xbd8b3be8	-0.067985356
83	0xbdabe3ea	-0.083930805
84	0xbdb32466	-0.08747177
85	0xbcf1719e	-0.029473122
86	0x3c3e6458	0.0116206035
87	0xbda8a480	-0.08234501
88	0xbd3673ff	-0.044544216
89	0x3dadd01c	0.08486959
90	0xbca6ca36	-0.020360094
91	0xbd1523d3	-0.036411118
92	0x3d6da884	0.058022037
93	0xbd846d44	-0.06466153
94	0xbda13b41	-0.0787263
95	0x3c8cea92	0.017201696
96	0x3d009ae8	0.03139773
97	0xbdca725e	-0.09885095
98	0x3dae4591	0.085093625
99	0xbd47a146	-0.048737787

layers.2.layers.0.weight f4 [100, 100]
0	0x3cae5fd0	0.021285921
1	0x3d87e46f	0.06635367
2	0x3d445d14	0.04794033
3	0x3cfd56d2	0.030925188
4	0xbda65386	-0.081213996
5	0xbdc03ab0	-0.09386194
6	0x3d12e61c	0.03586398
7	0x38f2cd50	0.00011577702
8	0x3d956171	0.07293976
9	0x3d3da89f	0.046303388
10	0xbd8bfd73	-0.06835451
11	0x3c896773	0.016772961
12	0xbd91e0d4	-0.07122961
13	0xbd31b5f2	-0.043386407
14	0x3cc1d769	0.023662286
15	0xbab769a5	-0.0013993277
16	0xbd83dc56	-0.0643851
17	0x3ce50b9d	0.02795964
18	0x3d93af1f	0.07211136
19	0xbdc82360	-0.09772372
20	0x3dc39543	0.09549954
21	0x3d7623bd	0.060092676
22	0xbc5a388c	-0.013319146
23	0xbdd79be6	-0.10527782
24	0xbd37a765	-0.044837374
25	0x3d0e8187	0.034791496
26	0xbd15eee5	-0.03660478
27	0xbcfa46b4	-0.030551292
28	0xbd3b9483	-0.04579593
29	0x3da4a76d	0.080397464
30	0x3da56b09	0.08077056
31	0xbdb3fd74	-0.08788577
32	0xbd13c496	-0.03607615
33	0x3db769f6	0.08955757
34	0xbc1b2770	-0.009469852
35	0xbd805bab	-0.06267484
36	0x3c21943c	0.009862002
37	0x3d93fca1	0.072259195
38	0xbca6fb84	-0.020383604
39	0xbda97664	-0.08274534
40	0xbd2b74d5	-0.041859467
41	0x3d4ec677	0.05048224
42	0xbc9d5438	-0.019205198
43	0x3db0f3e0	0.086402655
44	0x3d15fbb1	0.036616985
45	0x3be0942e	0.006853602
46	0x3d3aaf59	0.04557738
47	0xbc623d63	-0.013808581
48	0xbdb98557	-0.09058636
49	0xbda8246e	-0.082100734
50	0xbdb858d6	-0.09001319
51	0xbcaeb365	-0.021325776
52	0xbd8f5956	-0.06999461
53	0x3c8c62a3	0.017136877
54	0x3cb014d8	0.021494314
55	0x3da19de7	0.078914456
56	0x3b8098f8	0.0039244853
57	0x3bf69f19	0.00752629
58	0x3d265434	0.040607646
59	0xbc5e237f	-0.013558268
60	0xbd1ddc73	-0.038540315
61	0xbdc81ecb	-0.09771498
62	0xbdc8256e	-0.09772764
63	0x3b35e41c	0.0027754372
64	0xbd2ddbe3	-0.04244603
65	0x3c7f2710	0.015573278
66	0x3cca8dbe	0.024725791
67	0x3d997319	0.07492656
68	0xbc567fc3	-0.013091984
69	0xbb3508d4	-0.002762367
70	0x3d8cc513	0.068735264
71	0x3baffbfd	0.0053706155
72	0x3d322e78	0.043501347
73	0xbd38155e	-0.044942252
74	0xbd8d8597	-0.06910246
75	0x3d8ff96e	0.07029997
76	0x3d9a11b3	0.07522907
77	0xbd0cd31e	-0.034381025
78	0x3c27ada7	0.010234273
79	0xbdb9d6f5	-0.09074203
80	0x3c1b3130	0.009472176
81	0xbdb11e9f	-0.08648419
82	0x3d5bc036	0.053650104
83	0xbdc47ef5	-0.09594528
84	0xbccc2f8f	-0.024925021
85	0x3dd5289f	0.104081385
86	0xbd130dec	-0.03590195
87	0xbd86e890	-0.065873265
88	0x3daf3b21	0.085562
89	0xbd283adc	-0.041071758
90	0x3ced4bed	0.028966868
91	0x3d79b4e6	0.060963534
92	0x3cb44a5a	0.02200811
93	0xbd85c9b7	-0.06532615
94	0x3dbbcadc	0.09169552
95	0x3d58688b	0.052834075
96	0xbd915199	-0.07095642
97	0xbd855b46	-0.0651155
98	0xbcb7fe50	-0.022460133
99	0x3d270aef	0.04078191
100	0x3ce73d3b	0.02822744
101	0x3b30fc46	0.0027005835
102	0x3d8b909f	0.06814694
103	0x3da93528	0.08262092
104	0x3c8deb62	0.017324153
105	0x3d013962	0.031548865
106	0x3d2dfd66	0.042477988
107	0x3c7139e7	0.014723278
108	0x3a840bcc	0.0010074317
109	0x3db11258	0.08646077
110	0x3d99d4cc	0.07511291
111	0x3d81a2ff	0.06329917
112	0xbd366bda	-0.04453645
113	0xbd5fde92	-0.05465562
114	0xbd5f994a	-0.054589547
115	0xbda677ef	-0.08128344
116	0xbc27f09e	-0.010250239
117	0x3d6a22e2	0.057162173
118	0xbc38147e	-0.0112353545
119	0xbcf79b05	-0.030225286
120	0xbc9fc774	-0.019504286
121	0xbd9c7a19	-0.07640476
122	0xbd843a18	-0.06456393
123	0x3c470298	0.0121466145
124	0xbd8b1eb9	-0.06792969
125	0x3ca189dc	0.019719057
126	0x3d9a0970	0.07521331
127	0x3cb968f8	0.02263306
128	0x3d8f6ad8	0.07002801
129	0xbd96ed68	-0.073695004
130	0x3b9957d5	0.00467966
131	0xbdd86005	-0.10565189
132	0xba83272c	-0.0010006181
133	0xbd980958	-0.07423657
134	0x3dc679b5	0.096911825
135	0xbda50e8b	-0.080594145
136	0x3d1bce0c	0.0380383
137	0xbd5b345e	-0.053516738
138	0x3cbc3c3a	0.022977937
139	0x3be1cda6	0.0068909703
140	0xbc72a92e	-0.014810843
141	0xbd3e06de	-0.046393268
142	0x3d5f8a18	0.054575056
143	0xbcb4f7b7	-0.022090776
144	0x3b8cf089	0.004301135
145	0xbca73a9f	-0.020413695
146	0xbd967f0f	-0.07348453
147	0xbd29211e	-0.04129135
148	0x3dcbe5bf	0.0995593
149	0x3daeff8e	0.08544837
150	0xbd1c1f0f	-0.038115557
151	0x3ca3676d	0.019946778
152	0x3c6b8748	0.014375515
153	0x3db3f0b1	0.087861426
154	0x3c55c6de	0.013047902
155	0x3c2fe253	0.010735112
156	0xbd0b3f1c	-0.033995733
157	0x3ca38c60	0.019964397
158	0xbdc1874e	-0.094496354
159	0xbdcd52fe	-0.10025595
160	0x3b077d58	0.0020674076
161	0xbda57a36	-0.080799505
162	0xbd905538	-0.07047504
163	0xbc914c0b	-0.017736455
164	0x3d888e92	0.06667818
165	0x3d64c0cd	0.05584793
166	0xbcea2258	-0.02858083
167	0xbc009fce	-0.0078506
168	0x3da1bdd2	0.078975335
169	0x3ccc1465	0.024912069
170	0x3d77c9ed	0.060495306
171	0xbd38036a	-0.04492513
172	0xbdb2069a	-0.086926654
173	0xbd382eb3	-0.04496641
174	0x3c6cd42a	0.014454881
175	0xbd12eaa3	-0.0358683
176	0xbd4a69b4	-0.049417213
177	0x3dc1eee4	0.09469393
178	0xbdc481aa	-0.09595044
179	0x3bc0bd18	0.0058819167
180	0x3d6dccde	0.058056705
181	0xbc4aed92	-0.012385743
182	0x3d549e2a	0.05190865
183	0x38341fa8	4.2944826e-05
184	0xbd62f1a2	-0.05540622
185	0xbd7d6e61	-0.061872844
186	0xbd367fca	-0.044555463
187	0xbdcf02a4	-0.101079255
188	0x3d716e50	0.058943093
189	0x3da55bf5	0.0807418
190	0xbd5c8a87	-0.053843047
191	0x3be4cf46	0.0069827167
192	0x3cdec9f2	0.027195904
193	0x3ce1e54e	0.027575161
194	0xbd4ddae7	-0.05025759
195	0xbd6fb865	-0.05852546
196	0x3db60f4f	0.08889639
197	0x3d7c44c0	0.061589003
198	0x3dc40a9e	0.095723376
199	0x3d914de8	0.070949376
200	0x3a6f3b5b	0.0009125971
201	0x3d9d0925	0.0766776
202	0xbba0ccd0	-0.004907228
203	0x3be9b7d2	0.007132509
204	0xbd1dfe7c	-0.038572773
205	0x3daaf014	0.083465725
206	0xbca34c21	-0.019933762
207	0x3c4f983e	0.012670575
208	0xbdb8f24c	-0.090305895
209	0x3d155ea9	0.036467228
210	0xbd4f974d	-0.0506814
211	0xbca5a738	-0.020221338
212	0xbb8c45d3	-0.0042807846
213	0x3d2530c1	0.0403297
214	0xbb134354	-0.002247055
215	0x3c3ba879	0.011453741
216	0xbd4d297d	-0.050088394
217	0xbd98dfd5	-0.074645676
218	0x3cfa1c1f	0.030530987
219	0xbd26eed3	-0.040755104
220	0xbd9a98b2	-0.075486556
221	0xbcff773e	-0.031184789
222	0xbdd03d2d	-0.10167918
223	0x3c30f6aa	0.010800997
224	0xb9a401a7	-0.0003128175
225	0x3db631e0	0.08896232
226	0xbd839c70	-0.064263225
227	0xbd47cb41	-0.048777822
228	0x3ce66683	0.028125053
229	0xbd027344	-0.031848207
230	0x3dba4bf9	0.09096522
231	0x3bf98000	0.0076141357
232	0x39dffff4	0.00042724574
233	0xbd206fae	-0.039169006
234	0x3d701427	0.05861297
235	0xbd4ebcf4	-0.05047317
236	0x3d17a461	0.037022
237	0x3d8a077f	0.06739711
238	0xbd8f4cb6	-0.06997053
239	0xbdc160af	-0.09442269
240	0xbd584b81	-0.05280638
241	0x3d452860	0.048134208
242	0xbd44e981	-0.04807425
243	0x3c978175	0.018494347
244	0x3c1a7163	0.009426448
245	0x3ccf587a	0.025310744
246	0xbd735e4f	-0.05941611
247	0xb8c00a90	-9.157241e-05
248	0x3d8c3bd3	0.06847348
249	0x3d618e41	0.055067305
250	0x3c968cdb	0.018377712
251	0xbdac0302	-0.08399011
252	0x3d5c1c5c	0.053737983
253	0xbd25feaf	-0.04052609
254	0x3d881dcc	0.06646308
255	0x3d2e56ae	0.042563133

layers.2.layers.0.bias f4 [100]
0	0xbd361d6a	-0.044461645
1	0xbccda9aa	-0.025105316
2	0xbdba359b	-0.09092256
3	0xbbf3e740	-0.0074433386
4	0x3d821290	0.06351197
5	0xbd7b2841	-0.061317686
6	0xbc653729	-0.013990202
7	0x3d877b96	0.06615369
8	0xbd8179fb	-0.06322094
9	0x3cb31031	0.021858307
10	0xbca25462	-0.019815627
11	0x3db4ccf1	0.08828152
12	0xbadcba58	-0.0016840203
13	0x3db4b0ad	0.08822761
14	0xbd1ce973	-0.038308572
15	0xbd8a170e	-0.067426786
16	0x3b9b31bf	0.004736155
17	0xbd79c9d0	-0.06098348
18	0xbd52b6f6	-0.051444016
19	0x3d79f43d	0.06102394
20	0x3db6f7a6	0.08933954
21	0xbd79965b	-0.060934406
22	0xbddeb828	-0.10874969
23	0x3cd50f73	0.026008343
24	0xbdb59d84	-0.08867934
25	0xbca77f27	-0.020446373
26	0x3d2f4287	0.042788055
27	0x3d035f29	0.032073174
28	0x3c5e2e46	0.013560837
29	0x3d38f5f9	0.045156453
30	0xbd5de456	-0.054172836
31	0xbd0768f3	-0.03305907
32	0xbcb27edb	-0.021789005
33	0xbdc311af	-0.09524857
34	0xbd89243b	-0.066963635
35	0x3c25c981	0.010118843
36	0x3c97a57c	0.018511526
37	0xbd5d16dc	-0.05397688
38	0x3d8275cc	0.06370124
39	0xbd055d6a	-0.03255979
40	0x3be3f709	0.006956939
41	0x3dac6163	0.084170125
42	0x3d905f04	0.07049373
43	0x3ddd8f32	0.10818328
44	0x3d00a32e	0.03140562
45	0xbd8e9794	-0.06962505
46	0xbd1fe88c	-0.039040133
47	0xbd082251	-0.03323585
48	0xbd8d3958	-0.06895703
49	0xbcf1bc45	-0.02950872
50	0xbdc2061d	-0.09473822
51	0xbd50577b	-0.050864678
52	0xbdd12ab7	-0.10213225
53	0x3dc3493c	0.09535453
54	0x3d038d3a	0.032117106
55	0x3dba739e	0.091040835
56	0x3d7c4dd1	0.06159765
57	0x3dbdf1a1	0.09274603
58	0xbd05d48f	-0.032673415
59	0xbd2a1466	-0.04152336
60	0xbd4d3af6	-0.050105058
61	0xbdbfcc6c	-0.09365162
62	0xbbafdff1	-0.005367272
63	0x3cb844f3	0.022493815
64	0x3d7fe89d	0.062477697
65	0xbc8f12f8	-0.0174651
66	0x3cf3f1f2	0.029778454
67	0x3d3829f1	0.044961873
68	0x3cbc57a5	0.02299101
69	0x3cb03ded	0.021513904
70	0xbd270810	-0.040779173
71	0x3d95ac0b	0.07308205
72	0xbdc90b19	-0.0981657
73	0x3c29477b	0.010331984
74	0x3d39bf21	0.04534829
75	0x3d97a493	0.07404437
76	0x3d39a968	0.045327574
77	0xbc47ff8d	-0.012206924
78	0x3d856cc6	0.065148875
79	0xbdb11dd6	-0.08648269
80	0xbce4f00c	-0.027946495
81	0xbcf5aedd	-0.029990608
82	0x3d5c3e6c	0.053770468
83	0x3db2ed59	0.08736677
84	0xbcfe079e	-0.031009492
85	0x3c8b6c40	0.017019391
86	0xbcd0b100	-0.025475025
87	0xbced8b0f	-0.028996972
88	0x3d27eb89	0.04099611
89	0x3cac1ae2	0.021008912
90	0xbd539180	-0.05165243
91	0x3cd4bfc5	0.02597035
92	0x3dc6ef14	0.09713569
93	0xbd8ff386	-0.0702887
94	0xbcac97a1	-0.021068396
95	0xbdb6fb9f	-0.08934712
96	0xbc991f8f	-0.018691806
97	0x3dc92b78	0.09822744
98	0x3d644da7	0.055738118
99	0xbdad60fb	-0.08465763

layers.3.weight f4 [2, 100]
0	0xbdad45a4	-0.084605485
1	0x3c0d023a	0.008606488
2	0xbc6155c1	-0.0137533555
3	0x3d9a57f2	0.075363055
4	0xbd1e68c2	-0.038674124
5	0x3d951ef5	0.07281295
6	0xbd5ce8ac	-0.05393283
7	0xbcaeb0d6	-0.021324556
8	0xbba6181e	-0.005068793
9	0xbd68a926	-0.056801938
10	0xbaa84bb7	-0.0012839948
11	0xbd05ea5b	-0.032694202
12	0xbd43f03f	-0.04783654
13	0xbdb30910	-0.08741963
14	0x3a9e4195	0.0012073988
15	0x3dcb03e2	0.0991285
16	0x3d239385	0.039935607
17	0xbdc27853	-0.09495606
18	0xbd5dd212	-0.054155417
19	0x3d3d0231	0.046144668
20	0xbd358808	-0.044319183
21	0xbb698642	-0.0035633002
22	0xbd2efc4c	-0.042721078
23	0x3d0fe6be	0.035132162
24	0xbd872e20	-0.066005945
25	0xbdec0f85	-0.115263976
26	0xbd924dbb	-0.07143732
27	0xbdc00a80	-0.09377003
28	0x3bafaa2f	0.0053608636
29	0x3c56fdd5	0.013122042
30	0xbd09607e	-0.033539288
31	0x3cd94de0	0.026526392
32	0x3b4742b8	0.0030404758
33	0x3cddaac4	0.027058966
34	0x3d3f215c	0.046662673
35	0x3b2c3960	0.0026279315
36	0x3de173b4	0.11008397
37	0x3d972ddd	0.073817946
38	0xbd870a04	-0.06593707
39	0x3dacbc71	0.0843438
40	0xbc92962e	-0.017893877
41	0xbbc3f9cf	-0.0059807072
42	0x3bfb702c	0.007673284
43	0xbdad9f75	-0.0847768
44	0x3d97c98e	0.074114904
45	0x3d76061e	0.060064428
46	0x3de067fc	0.109573334
47	0x3ca1a76c	0.019733153
48	0xbd3539ef	-0.044244703
49	0xbcc4c06d	-0.024017537
50	0xbc9bbf6e	-0.01901218
51	0xbdd077fa	-0.10179134
52	0x3d134135	0.03595086
53	0x3ba16614	0.0049254987
54	0xbd2f4d7b	-0.0427985
55	0xbd7c570d	-0.061606456
56	0xbce13821	-0.027492585
57	0x3bd21b44	0.0064119417
58	0x3d96175a	0.07328673
59	0x3d507000	0.05088806
60	0x3d9a4e76	0.075344965
61	0x3db08d51	0.08620704
62	0xbd6c4984	-0.057687297
63	0xbbdb5ec2	-0.0066946456
64	0xbddc522d	-0.10757861
65	0xbd8d7ff2	-0.06909169
66	0x3ce61536	0.028086286
67	0x3d1b65a2	0.03793872
68	0x3d234e70	0.039869726
69	0x3d95b0b4	0.07309094
70	0x3d1a11c2	0.03761459
71	0xbd672bd7	-0.056438293
72	0xbc81d30b	-0.015847703
73	0x3c5134bc	0.0127689205
74	0x3d32cef9	0.043654416
75	0xbd9f6025	-0.0778201
76	0xbd7cccb6	-0.061718665
77	0x3d20a187	0.039216544
78	0x3d294e8f	0.041334685
79	0x3dbafb88	0.09130007
80	0x3da5547f	0.08072757
81	0xbd4940c9	-0.04913405
82	0x3d02077f	0.03174543
83	0xbd93bdce	-0.07213937
84	0xbc4cfa80	-0.012510896
85	0xbc8cd34a	-0.017190594
86	0x3cb0164c	0.021495007
87	0x3dabd4f5	0.08390228
88	0xbda8b7e4	-0.08238199
89	0x3d911d36	0.0708565
90	0x3d78997e	0.060693257
91	0xbd3264c8	-0.043553144
92	0xbd213848	-0.039360315
93	0xbd0aeebb	-0.033919077
94	0x3d6628f1	0.05619139
95	0xbcb4e4fe	-0.022081848
96	0x3d0792c2	0.033098944
97	0xbd56345b	-0.052296024
98	0x3d913d60	0.070917845
99	0xbc5394bb	-0.012913878
100	0x3dc558be	0.09636067
101	0xbd9ebaf0	-0.07750499
102	0xbcd9c309	-0.026582258
103	0x3d8d1f8c	0.06890783
104	0x3d3bfcf1	0.04589552
105	0xbd3edfa2	-0.04659999
106	0xbda26df3	-0.079311274
107	0xbd9340dc	-0.07190105
108	0xbdade51e	-0.08490966
109	0xbd3951a0	-0.04524386
110	0xbd207854	-0.039177254
111	0xbc8cf20c	-0.01720526
112	0x3dbcedca	0.09225042
113	0xbc5a4966	-0.013323164
114	0xbd52ab38	-0.05143282
115	0x3d1b70df	0.03794944
116	0xbd5e070e	-0.054205947
117	0xbd3edbbc	-0.046596274
118	0x3a679813	0.00088346115
119	0x3bb8f1a4	0.00564404
120	0xbd83dce0	-0.06438613
121	0xbdaced36	-0.08443682
122	0xbdcbf309	-0.09958465
123	0xbcd1cd32	-0.02561054
124	0x3d5c074f	0.053717908
125	0x3c94db7e	0.018171068
126	0x3dad6117	0.08465784
127	0x3c9d4c1a	0.019201327
128	0xbd722f26	-0.059126996
129	0x3b58dd39	0.0033090843
130	0xbcea98a8	-0.028637245
131	0x3d6ea1a1	0.05825961
132	0x3d12b3c0	0.035815954
133	0x3dced8cf	0.10099947
134	0xbdc3215a	-0.09527846
135	0xbced8021	-0.02899176
136	0xbdb67827	-0.08909636
137	0x3c7da193	0.015480417
138	0xbd63a444	-0.055576578
139	0xbcded213	-0.02719978
140	0x3dc565d0	0.0963856
141	0xbcc7de79	-0.024398075
142	0x3d886914	0.06660667
143	0x3d99b83b	0.07505842
144	0x3da7881d	0.081802584
145	0x3da3406f	0.07971274
146	0x3d735ea9	0.059416447
147	0x3c22c880	0.009935498
148	0x3dc0a6f9	0.094068475
149	0x3dc6f23c	0.09714171
150	0xbd60b975	-0.054864366
151	0x3ce996b7	0.02851425
152	0x3d9acdc9	0.07558782
153	0xbd5d8f5b	-0.054091793
154	0x3d69cbe7	0.057079222
155	0x3d9da3f3	0.076972865
156	0x3c692a6a	0.014231304
157	0xbc97a10a	-0.018509407
158	0xbba4045c	-0.0050054025
159	0x3db8946f	0.090126865
160	0xbd9848e0	-0.07435775
161	0x3d2d5fd5	0.04232772
162	0xbd27ed24	-0.04099764
163	0x3d822663	0.06354978
164	0xbcd865d3	-0.026415741
165	0x3d0f5a60	0.034998298
166	0x3d85d7e8	0.065353215
167	0xbc741be0	-0.014899224
168	0xbc1998d5	-0.009374817
169	0x3ddd9d4a	0.10821016
170	0x3db55184	0.088534385
171	0x3d932bd1	0.07186092
172	0x3c63fdb3	0.013915467
173	0x3bf579f8	0.0074913464
174	0xbd6f900f	-0.058486994
175	0x3dadfaf9	0.08495135
176	0x3d8c7764	0.068587095
177	0x3d9d2f1a	0.076749995
178	0xbd8734a8	-0.0660184
179	0x3d08b7c7	0.03337839
180	0x3cbee3e7	0.023302032
181	0xbd0c179b	-0.0342022
182	0xbb9e96fd	-0.0048397765
183	0x3cd036bb	0.025416723
184	0xbd076119	-0.033051584
185	0x3dbeeef9	0.09322924
186	0xbdb0fbb8	-0.086417615
187	0xbb5435ac	-0.0032380624
188	0xbd3e5a69	-0.04647294
189	0x3db76ae1	0.089559324
190	0xbd186e01	-0.037214283
191	0xbc85e8f3	-0.01634643
192	0x3dcbbd01	0.09948159
193	0xbd8b03f7	-0.067878656
194	0xbcc8c71a	-0.024509002
195	0x3dbb19f4	0.091358095
196	0x3db634a2	0.08896758
197	0xbcaf15d0	-0.021372706
198	0xbcd1bc42	-0.025602464
199	0xbd3e1e64	-0.0464157

layers.3.bias f4 [2]
0	0xbd7266e5	-0.05918016
1	0x3dd3c36c	0.10340008
