clients_data/client_DP_trained_model/client5.pth (torch, 86087 bytes, 6 tensors)

layers.1.layers.0.weight f4 [100, 105]
00000000: 8814 8c3d f893 b43d 9b09 dabc b50e b73d
00000010: b850 febc ced9 bc3c 80ce 48bd f17d 583d
00000020: f5bc ae3d 0a32 8bbd 93b8 b43d 53fb 9e3c
00000030: ab29 923d ec0f 943c 4306 413d dd54 35bc
00000040: 16a0 a43d 3c6d f93b f7fb 59bd 53b7 a93c
00000050: ee05 70bd 3e0e 37bc 5295 49bd 8759 5f3d
00000060: e70a 96bd f582 57bd 38f5 03bd cbbb 88bd
00000070: b70e 1a3b e57f d8bd 8f25 be3d 2cd1 9bbd
00000080: ecba 9a3d 8498 d03c ad2d 00bd 928f 5b3d
00000090: 9379 cc3c cd0e 963d 7260 813c 4580 f0bc
000000a0: 442f e53c 6bd7 f3bc 2855 3a3d 72cf a13d
000000b0: 20e7 7e3d a929 60bd 2df6 723d e506 903c
000000c0: 3691 423d b1a0 8bbd a0d2 bcbd 454c 14bd
000000d0: fb06 b4bd 37c4 a13d ad38 ed3c 3bba 103d
000000e0: af14 083d f554 633c b30b 813d 3247 a3bd
000000f0: 66b0 773b 0128 6bbd 36a5 cb3c 7d65 d9bc
00000100: 8cc8 093d f00b 5bbc 45f0 943d 186d 66bd
00000110: c10c 51bd 75d9 80bd 7fca b73d 3f81 bc3c
00000120: a02f db3d bea8 8cbd 6051 d5bd 8c4a 8abd
00000130: 7b8e 86bd 0ccb 123d 9497 303d 7cda 893d
00000140: 0149 82bd 073f 75bd c25d 723d 0ad6 48bd
00000150: 2685 823d 3b15 02bd 46e3 413d d408 a4bd
00000160: f9d0 6bbd 7c51 2c3d 0d4b f83c 823d 0ebd
00000170: 58ea 793d f1ac 913d e213 93bd 5186 64bd
00000180: c098 b93d 3af4 1dbd a26e dcbc 86ea c6bd
00000190: 420f 4dbd 97af 883c 46c0 bfbc cd0d 8abd
000001a0: 7670 da3b 962b 96bd 25b2 a1bd 1a58 36bd
000001b0: ac2f a3bd 4140 87bd d3cd c73d c0ed 4e3c
000001c0: def2 dc3c a66c a5bd 8edd 6cbd 5a0b 28bd
000001d0: 7460 893c e5dd babd 852c 1cbd ea20 82bd
000001e0: 9840 80bb 4c39 09bd f0ec 3dbc 3315 67bd
000001f0: 1918 98bd b6cd 6fbd 6351 25bd 28ba 8abd
00000200: c2a8 a83d 1f8d 89bc 1498 c33d a640 cd3c
00000210: 9593 93bd 68ac a03d 05b3 35bc 997c 00bd
00000220: 1321 99bd 51da c3bd 56fe fa3c efde 87bc
00000230: dd09 013d 95c8 8abd 873b 8e3d 7176 98bd
00000240: 232d a1bc f7af fa3b 2630 4b3d c456 b73d
00000250: ff4c b53d 3132 a9bd e9c4 883c 4fbb 12bd
00000260: aa3d 0abc 13e0 80bd 80a7 b43d db81 87bd
00000270: 9de8 863d 9d80 de3c 9de3 ef3c ce2c 63bd
00000280: 2999 af3d 4772 c43c 9209 b03c 4fe7 a2bd
00000290: ac20 3c3d 9dcf 99bc 690b 3abd 1ea1 b03d
000002a0: d6cb c63c a57d 5abd e732 33bd 2ddc ce3a
000002b0: 516d 703d 8a28 cebc 1299 30bd d4f3 10bd
000002c0: 98d2 86bd 9854 dd3c 10f0 983d 2c85 b8bd
000002d0: d229 d43c 305b 3e3d 5eaf 903c 12f1 23bd
000002e0: e35b 693d bec8 823d 56ac 1f3d 35de bebc
000002f0: 73b0 b1bc bef0 433c 11e1 88bc aa21 1fbd
00000300: 161c 8f3d ea77 af3d 015e 8b3b a999 a1bc
00000310: 5dae f63b edc7 cbbb a2ac ab3c 7f27 0b3d
00000320: 4388 a6bd a999 dbbc b77e a03d d0a8 153d
00000330: 8b92 973c 0fea 81bd 7d8e 69bd 3ca4 bdbd
00000340: b140 e3bc d931 f53c fa25 5a3d 4344 2e3d
00000350: f62a a3bd 78f5 6dbd 2770 b3bb 5f1a c03d
00000360: 2b5d 853c 03b2 04bd 9743 063d cc9d 06bd
00000370: ba45 8bbd f462 863d 1f0a 40bd b122 04bd
00000380: a05f bfbd a670 753d 5e3e 893d 3ad7 de3c
00000390: ff97 8ebd 6673 bbbd f46e 9bbd 6356 9a3d
000003a0: 669a 453d 8e0a b63d a2fc 043d eed7 663c
000003b0: 469d d5bb 226d 83bd c689 a6bd b344 dabd
000003c0: c3f1 0a3d c479 08bd fbb2 abbc 624b 69bd
000003d0: 2b3e 8bbc 1aa7 88bd fc68 7ebd ecd9 f13c
000003e0: c3e3 91bc 8c57 713d 8497 bcbc 0ffd 99bd
000003f0: e4d2 eebc e863 3ebd bb1a b6bc caee bdbd
0.068398535 0.08817285 -0.026615908 0.08938352 -0.03104435 0.023053076 -0.04902506 0.052854482
0.085321344 -0.067966536 0.08824267 0.01940695 0.07136854 0.018073998 0.047125112 -0.011067596
0.080383465 0.0076118987 -0.053218808 0.020717299 -0.058599405 -0.011172829 -0.04921467 0.05452874
-0.07326298 -0.052615125 -0.03221628 -0.06676444 0.0023507306 -0.10571269 0.092845075 -0.07608256
0.07555184 0.02546335 -0.03129356 0.053603716 0.024960315 0.07327042 0.015793059 -0.029358039
0.02797664 -0.029765805 0.045491368 0.07900895 0.062232137 -0.05472723 0.059316803 0.017581413
0.047501765 -0.06817759 -0.09219861 -0.03620555 -0.08790394 0.07898753 0.02895769 0.035333853
0.03322285 0.013875236 0.063010596 -0.07972564 0.003779435 -0.057411198 0.024859052 -0.026537651
0.033638522 -0.013369545 0.0727239 -0.056256384 -0.051037554 -0.06291477 0.0897417 0.023010848
0.10702443 -0.068681225 -0.10415912 -0.067525 -0.06570145 0.03583817 0.043113306 0.06731126
-0.06361581 -0.05987456 0.059171446 -0.04903225 0.06373052 -0.03175853 0.047335885 -0.08009496
-0.05757234 0.042069897 0.030309225 -0.034726627 0.061014503 0.07113064 -0.07181527 -0.055792157
0.09062338 -0.03856299 -0.026908223 -0.097127005 -0.05006338 0.01668529 -0.023407113 -0.067409135
0.0066662384 -0.07332532 -0.078953065 -0.044517614 -0.07968077 -0.06604052 0.09756055 0.012629926
0.026971277 -0.08077364 -0.05782848 -0.04102645 0.016769625 -0.09124354 -0.038128395 -0.06353934
-0.00391395 -0.03350191 -0.011592135 -0.0564167 -0.07426471 -0.05854579 -0.04036082 -0.06773788
0.08235313 -0.016790925 0.09550491 0.02505524 -0.072058834 0.07845384 -0.011090045 -0.031368826
-0.074770115 -0.09563125 0.030638855 -0.016585795 0.031503547 -0.06776539 0.06944948 -0.07444466
-0.019674843 0.007650371 0.049606465 0.08952096 0.088525765 -0.082615264 0.016695457 -0.035823163
-0.008437553 -0.06292739 0.088210106 -0.06616565 0.06587336 0.027160937 0.02928334 -0.05546265
0.08574135 0.023980273 0.021488938 -0.07954275 0.045929596 -0.018775756 -0.045421038 0.08624481
0.024267118 -0.05334248 -0.043749716 0.001578217 0.058698002 -0.025165815 -0.04311473 -0.035388783
-0.06583136 0.027017877 0.07467663 -0.090097755 0.025898848 0.046473682 0.017661747 -0.040024824
0.056972396 0.06385945 0.03898271 -0.023299316 -0.021690583 0.011959253 -0.016708883 -0.038850464
0.06987779 0.08567794 0.0042531495 -0.019726591 0.00752811 -0.0062189014 0.020956341 0.033973213
-0.081314586 -0.02680667 0.07836669 0.036537945 0.018502494 -0.06343471 -0.057020653 -0.09259841
-0.027740808 0.029930996 0.053258874 0.04254557 -0.079671785 -0.058095425 -0.005476016 0.0938003
0.016279778 -0.032396328 0.032779302 -0.03286533 -0.06800409 0.065618426 -0.046884652 -0.032259647
-0.09344411 0.059921883 0.06701349 0.027202237 -0.06962585 -0.0915287 -0.07589522 0.07536008
0.04824295 0.08888732 0.032467492 0.014089568 -0.0065189926 -0.064173 -0.08131747 -0.106576346
0.03392197 -0.03331925 -0.020959368 -0.056956656 -0.016997417 -0.06672497 -0.06211184 0.029522859
-0.0178088 0.05892138 -0.023021467 -0.0751897 -0.029153295 -0.046481997 -0.022229543 -0.09274061

layers.1.layers.0.bias f4 [100]
00000000: e5e7 8e3d af64 273d 6034 98bb 7277 693d
00000010: 5424 523b 7d82 adbc 3ad0 40bd b264 b4bd
00000020: e221 973d 2d81 67bd 9dcb aabd 4e72 35bd
00000030: 3069 9a3c 3f89 babb fb36 543d 1ae4 833d
00000040: a869 6c3d e544 b1bd b55e 4f3d d3ee 533d
00000050: c541 6dbd b31a a5ba c817 493c 9e79 8c3c
00000060: 5fa8 413d 8d73 b33d 57ea ba3d b886 c43c
00000070: 77f9 6e3d 5596 3e3d 464e 3cbd 6f82 953d
00000080: 6c04 0dbb e792 373d 7976 86bd 8819 ac3d
00000090: d0bb 9b3c 03f9 ae3c 2e2d acbd 827b dfba
000000a0: 42f4 f8bc 7787 a83d 241f cabd 0031 febc
000000b0: 0137 4fbd 15f7 adbd f74c 313d a20c 92bd
000000c0: 0997 2e3d 6618 853c 5dff 56bd 7ded e43a
000000d0: b2b8 a93c 10fd 0cbd 639d 82bd 2c11 79bd
000000e0: 3585 553c eea5 b8bd d029 863d 2282 6b3d
000000f0: 2596 c83d 33bc a83d b0ac 62bd 35ce 3abd
00000100: a6ec 813d 4759 9dbc 832f 9abd 8ebb 2dbd
00000110: d41a a43d b3cf 71bd ca1e 043d 66ab a4bd
00000120: a9c5 4c3d ec1a cc3c c873 863d 70be 06bb
00000130: 34f7 213d 4580 b73d ea8d 40bc 2a88 7fbd
00000140: e569 84bd 8bf3 603d a23c 8bbd ad78 acbd
00000150: a627 b3bd 2dd6 f1bc d6f8 3b3c fd5a a8bd
00000160: d166 36bd a11b ae3d bcfa a5bc bb40 14bd
00000170: 6541 6e3d 9933 84bd 25c6 a0bd 438b 8d3c
00000180: 9ecc 013d 735c cabd 0ed0 ae3d 1377 47bd
0.06977824 0.040867504 -0.0046449155 0.056998678 0.003206511 -0.021180386 -0.04707358 -0.088082686
0.073795095 -0.056519676 -0.083396174 -0.044298463 0.018848985 -0.0056926305 0.051810246 0.06439991
0.05771795 -0.08655719 0.05062743 0.051741432 -0.05792405 -0.0012596458 0.012273736 0.017147835
0.04727971 0.08762274 0.09126728 0.02399002 0.058343377 0.046530087 -0.045973085 0.07300269
-0.0021517528 0.04481783 -0.065655656 0.08403307 0.019010454 0.021358972 -0.08407055 -0.0017050358
-0.030389909 0.08228963 -0.09869221 -0.031029224 -0.050589565 -0.08494393 0.04328629 -0.07131316
0.042624507 0.016246986 -0.052489627 0.0017465797 0.020717952 -0.034421027 -0.063776754 -0.060807392
0.013032247 -0.090160236 0.06550944 0.05749715 0.09794263 0.08239021 -0.05534047 -0.04560681
0.06343965 -0.01920761 -0.075285934 -0.042415194 0.080129296 -0.059035968 0.032255925 -0.08040504
0.04999319 0.024915181 0.06565052 -0.0020560287 0.039542392 0.08960012 -0.011752585 -0.062385716
-0.0646551 0.05491976 -0.06798674 -0.084214546 -0.08747797 -0.029521072 0.011472901 -0.0822048
-0.044531647 0.085013635 -0.020261161 -0.036194544 0.058167834 -0.06455154 -0.07850293 0.01727832
0.03168928 -0.098809145 0.08535777 -0.048697542

layers.2.layers.0.weight f4 [100, 100]
00000000: 777b ae3c 123c 883d 43b4 443d 2006 003d
00000010: b517 a6bd 91df bfbd dacf 133d 2488 d839
00000020: f265 953d cf17 3e3d b39e 8bbd e0d2 883c
00000030: 21da 91bd bf33 31bd ff99 c23c d675 a1ba
00000040: 8ffa 83bd ea0b e53c 2d38 943d 78c9 c7bd
00000050: 919d c33d 821b 773d 97c9 5bbc ab1f d7bd
00000060: 154b 37bd 748c 0d3d cc65 15bd 4650 f8bc
00000070: e0aa 3abd f70b a53d fb13 a53d b969 b3bd
00000080: 407d 15bd f18b b73d 977d 1dbc 9cdc 80bd
00000090: e5e7 253c 5538 943d 76f4 a6bc 95ce a8bd
000000a0: 3516 2bbd fda9 4f3d a654 9abc b9ec b03d
000000b0: b094 163d 46a6 e53b bcb1 3b3d b6cb 61bc
000000c0: 481d b9bd 54f9 a7bd 7962 b8bd e91c adbc
000000d0: a104 8fbd d00f 8f3c 3872 b13c 7ae1 a13d
000000e0: 2044 803b cfae fa3b 0806 263d e110 60bc
000000f0: 2788 1dbd 1052 c8bd 46b4 c7bd 0329 3f3b
00000100: aae9 2dbd ecf4 833c b0a4 cc3c e4cd 983d
00000110: 47b6 50bc ba8a 39bb 0fd0 8c3d 8a32 b83b
00000120: 5dc1 323d 7796 38bd 1177 8dbd 878d 8f3d
00000130: e493 9a3d d672 0cbd 3f6c 2a3c 575c b9bd
00000140: d4bc 1d3c 235c b1bd 5c8d 5b3d d8e1 c3bd
00000150: 8585 c9bc 3a77 d53d a823 12bd 0d2e 86bd
00000160: 0e61 af3d d39b 26bd a2fd ec3c fa01 7b3d
00000170: 15f9 b53c 299d 85bd 8366 bc3d 6014 593d
00000180: b436 91bd efbe 84bd e7fc b7bc 2c2f 273d
00000190: 81a2 e63c 808e 303b f9a4 8b3d 26ec a83d
000001a0: 916b 8e3c 235d 013d 9d88 2d3d 6b1b 6f3c
000001b0: 3226 7b3a 394f b13d aea8 993d 8dd5 813d
000001c0: 0d4c 37bd 5e18 60bd c4fb 5fbd d464 a6bd
000001d0: 8c32 2dbc dfc3 693d 193b 3abc 3742 f8bc
000001e0: bb3c a0bc be7a 9cbd 9773 84bd db17 433c
000001f0: e3d7 8abd cd60 a13c ba0c 9a3d 7c75 b83c
00000200: 3743 8f3d 99c0 96bd 4e58 983b 35c6 d8bd
00000210: 9c6c 7eba 566b 98bd 8829 c63d 2e51 a5bd
00000220: d3ec 1a3d 3086 5bbd 191b bb3c d171 de3b
00000230: b8e8 77bc 83e1 3ebd 48a3 5f3d 4c91 b7bc
00000240: 7aa7 863b 8427 a6bc e881 96bd 4679 29bd
00000250: d230 cc3d a8d3 ae3d 1f5b 1cbd d192 a23c
00000260: 8ef1 693c 5463 b33d 24ec 533c 03eb 2e3c
00000270: cad2 0bbd 6821 a33c c472 c1bd 4657 cdbd
00000280: de1c 003b d075 a5bd 31c8 90bd a4c1 92bc
00000290: f62e 883d 2546 643d 8eb8 ebbc cfe5 01bc
000002a0: e473 a13d c632 cb3c a6b2 763d d57a 38bd
000002b0: 4132 b2bd 877a 38bd 3012 6b3c a37d 12bd
000002c0: 5012 4abd b4c8 c13d a3e1 c4bd db7f be3b
000002d0: 6fb4 6d3d 7940 4abc 570b 543d 40d0 1b39
000002e0: 5518 63bd cd1a 7ebd 2096 36bd b04d cfbd
000002f0: 48db 703d 5fea a43d c78a 5cbd 130c e23b
00000300: c787 dc3c ff5a e03c a6f7 4ebd 8f5a 6fbd
00000310: 42c4 b53d bed4 7b3d 36d6 c33d d326 913d
00000320: ec7b 773a cb0c 9d3d c723 a0bb 5eaa e93b
00000330: 7cce 1dbd ffe9 aa3d ac1e a3bc 6cce 4f3c
00000340: 7ce5 b8bd b865 153d 4589 4fbd 6641 a5bc
00000350: 4a1d 8cbb 7e36 253d 516f 13bb c29e 3b3c
00000360: fc2d 4dbd 20e8 98bd c215 fa3c d3fb 26bd
00000370: af99 9abd 5047 ffbc 1839 d0bd 0a22 313c
00000380: db9e 95b9 343e b63d 2488 83bd 74c3 47bd
00000390: 1787 e63c 295d 02bd 1d5d ba3d 0679 f93b
000003a0: 0572 fa39 2f58 20bd cc14 703d 35b4 4ebd
000003b0: 968f 173d 9b04 8a3d d251 8fbd 1e63 c1bd
000003c0: f75b 58bd 8917 453d 17e4 44bd 4f5f 973c
000003d0: 424e 1a3c d642 cf3c 6970 73bd 40f1 afb8
000003e0: 9c4d 8c3d 7cb3 613d 186c 963c dd05 acbd
000003f0: cb25 5c3d 200b 26bd 001a 883d 3263 2e3d
0.021299107 0.066520825 0.048023473 0.03125584 -0.081099905 -0.09368814 0.036086895 0.00041300163
0.07294835 0.046409424 -0.06817379 0.016702116 -0.07121683 -0.04326224 0.023755072 -0.0012318443
-0.06444275 0.027959783 0.07237277 -0.09755224 0.09551538 0.060328968 -0.013414762 -0.10504087
-0.04474934 0.034557775 -0.036474034 -0.030311715 -0.045573115 0.08058923 0.080604516 -0.08760399
-0.0364964 0.089622386 -0.0096124625 -0.06292078 0.010126089 0.07237307 -0.02038024 -0.082425274
-0.041769225 0.050699223 -0.018839192 0.08638901 0.036762893 0.0070083467 0.045823798 -0.013781479
-0.09038788 -0.082018524 -0.09003157 -0.02113195 -0.06983305 0.017463595 0.021660909 0.07904334
0.003914371 0.0076502333 0.040533096 -0.013675899 -0.038459923 -0.09781277 -0.09751181 0.0029168732
-0.042459168 0.016107999 0.024980873 0.074611455 -0.012738771 -0.0028311447 0.068756215 0.005621259
0.043641437 -0.04506537 -0.06907476 0.07009416 0.07547739 -0.034289204 0.010401784 -0.090508156
0.00962754 -0.08660152 0.053601608 -0.09564561 -0.0245998 0.10423131 -0.035678536 -0.06551752
0.085634336 -0.04067595 0.028929535 0.061281182 0.022213498 -0.065241165 0.0919924 0.052997947
-0.07090512 -0.0648173 -0.02245946 0.04081647 0.02815366 0.0026940405 0.068185754 0.08248167
0.017385276 0.031582963 0.042366613 0.014593939 0.00095805817 0.08657689 0.07502876 0.0633956
-0.044750262 -0.05471074 -0.05468346 -0.081247 -0.010571133 0.057071563 -0.011366629 -0.030305011
-0.019560209 -0.07640599 -0.064673595 0.011907543 -0.067794584 0.019699479 0.07521959 0.022516958
0.06995242 -0.07360954 0.0046491986 -0.1058468 -0.0009705515 -0.07442348 0.0967589 -0.080721244
0.03782351 -0.053594768 0.02284007 0.0067884703 -0.015131168 -0.046601783 0.054599077 -0.02240815
0.00410932 -0.020282514 -0.073489964 -0.04137542 0.09970249 0.08536464 -0.038172837 0.019845398
0.0142787825 0.0875918 0.012934718 0.010676148 -0.03413657 0.01991339 -0.09445718 -0.10026412
0.0019548456 -0.080791116 -0.070694335 -0.0179146 0.06649582 0.055730958 -0.028774526 -0.007928326
0.078834325 0.024804484 0.060228966 -0.045039017 -0.087009914 -0.045038726 0.014347598 -0.035764348
-0.04933387 0.09462109 -0.09613349 0.0058135814 0.058033403 -0.012344473 0.051768627 0.00014859531
-0.055443127 -0.062037278 -0.044576764 -0.101222396 0.058802873 0.08052515 -0.053843286 0.006898412
0.026920212 0.02738714 -0.050529145 -0.058435973 0.08875324 0.061482184 0.09562342 0.07087483
0.0009440768 0.07668456 -0.0048870775 0.007130905 -0.038526997 0.083454125 -0.019912086 0.012683492
-0.09028146 0.03647396 -0.05066802 -0.020172786 -0.0042759525 0.04033517 -0.002249677 0.011451425
-0.050092682 -0.07466149 0.030527953 -0.040767502 -0.07548844 -0.031161934 -0.1016714 0.010811338
-0.0002853785 0.08898583 -0.06422451 -0.048770383 0.028140588 -0.031827126 0.09099791 0.007613304
0.00047768667 -0.0391466 0.058613583 -0.050464828 0.03700217 0.0673916 -0.06998028 -0.09442733
-0.05282208 0.048118148 -0.048069086 0.018478064 0.009418072 0.025300425 -0.059433375 -8.3895866e-05
0.0685074 0.05510281 0.01836209 -0.08399556 0.05374698 -0.040537953 0.06645584 0.04257507

layers.2.layers.0.bias f4 [100]
00000000: bc28 35bd 6a02 d1bc a21c babd 3f78 f4bb
00000010: bc7a 833d 6d2c 7abd 170d 65bc 38e4 863d
00000020: 1565 81bd 731c b33c 9d1f a3bc feec b43d
00000030: 2c5c f7ba eef7 b43d a349 1dbd b869 8abd
00000040: 073b 9b3b 3095 79bd 97e8 52bd 3435 793d
00000050: f919 b73d a20a 7abd 6ecb debd edca d23c
00000060: dddf b5bd 5520 a0bc 4ebd 303d 9ef8 023d
00000070: ddac 5f3c f1e4 383d 97cc 5dbd 975c 06bd
00000080: de21 b0bc 7d89 c1bd fbde 88bd 177e 233c
00000090: 4e8b 923c e47d 5dbd 3d9f 823d b580 05bd
000000a0: af11 043c bd20 ac3d ab51 913d 7bd2 de3d
000000b0: 8aa2 003d d2af 8ebd 11ff 1fbd 0f3d 08bd
000000c0: c248 8cbd a6ad f1bc dd01 c2bd 94a6 4dbd
000000d0: 301a d1bd c3de c23d 07fe 043d 8c2c bb3d
000000e0: 0f04 7c3d 11ad bd3d 99ab 06bd ce13 29bd
000000f0: 7188 4cbd 1fd3 bfbd 49f3 afbb e46b b93c
00000100: 82f1 803d 9d07 8fbc 36d6 f53c 013e 383d
00000110: 53a7 bd3c 3300 b03c 37b9 25bd 43ea 943d
00000120: 0fd0 c8bd e3e9 283c b196 3a3d b0e2 983d
00000130: ed56 3a3d 15e1 47bc 5298 843d 1ce5 b0bd
00000140: 02dd e5bc 03f0 f4bc 0a98 5c3d 176d b43d
00000150: 1065 fdbc 2e92 8a3c 244f d2bc 9d12 f0bc
00000160: 42d6 273d a0df ab3c be8c 55bd e7f7 d43c
00000170: a6bb c73d feed 8fbd e558 aebc 0e7b b7bd
00000180: 07a3 99bc f0c0 c93d a825 653d e759 adbd
-0.0442283 -0.025513846 -0.090874925 -0.0074606235 0.06419894 -0.061077524 -0.013980172 0.06586498
-0.06318108 0.021864152 -0.019912535 0.08834265 -0.0018872074 0.08836351 -0.038400304 -0.067584455
0.004737261 -0.060933292 -0.051491346 0.060841754 0.08940501 -0.061045296 -0.10878645 0.025731528
-0.08880589 -0.019546667 0.043149285 0.03197538 0.013652054 0.04514021 -0.05415019 -0.032803144
-0.021500524 -0.09450052 -0.06683155 0.009978793 0.017888691 -0.054075137 0.063780285 -0.032593448
0.008060857 0.08404682 0.07095655 0.1087999 0.03140501 -0.06967129 -0.03906161 -0.033261355
-0.06849815 -0.029501747 -0.09473012 -0.05020769 -0.10210073 0.09515145 0.03246882 0.09139356
0.061527308 0.092615254 -0.032878492 -0.041278653 -0.04993481 -0.0936644 -0.005369578 0.022634454
0.06296064 -0.017459685 0.03000937 0.044981007 0.023151075 0.02148447 -0.040459838 0.072712444
-0.09805309 0.010309669 0.045553867 0.07465112 0.045493055 -0.01219966 0.06474365 -0.08637449
-0.028059486 -0.029899603 0.053855933 0.0880987 -0.03093198 0.016915407 -0.025672503 -0.02930575
0.040975817 0.020980656 -0.052136175 0.025997115 0.09752588 -0.07027815 -0.021282623 -0.08959018
-0.018754495 0.09851253 0.055944115 -0.08464413

layers.3.weight f4 [2, 100]
00000000: d919 acbd 4271 063c 674f 67bc 802b 973d
00000010: 0130 2cbd 1187 943d 2d2d 60bd a77b b5bc
00000020: d47f b3bb 647c 69bd 1e2a 11bb 65d2 0bbd
00000030: ff22 44bd f0ea b4bd 10ce 523a ea7b c93d
00000040: f299 233d 91da c3bd 4b9a 5dbd f29a 393d
00000050: 1c6f 33bd a37c 92bb b6c7 2fbd 58a3 0e3d
00000060: ebf9 87bd b5af efbd 7886 92bd 578d c0bd
00000070: 643f c13b 6f00 593c d98c 0abd 41e4 c53c
00000080: 2787 553a 98af d23c 23e0 3c3d f039 bfb8
00000090: 1412 e13d f982 943d 5447 89bd 1899 ac3d
000000a0: 1f92 9fbc 5b2b e5bb 406f b53b 0214 b0bd
000000b0: e33d 983d 705d 773d 0a1a e13d 85b0 a03c
000000c0: 7552 37bd 4d3c cabc 374f 9bbc 26bf d1bd
000000d0: 59b2 133d 0cd5 713b 0f4a 34bd 02ad 7ebd
000000e0: 3c35 dfbc 1f03 963b eed1 953d 5fa2 4b3d
000000f0: 4744 9c3d dafe af3d 4c18 6dbd fd61 e6bb
00000100: 561c e0bd 3082 8ebd 907d d43c 23f6 1a3d
00000110: 804c 243d 17cd 963d 7781 173d 4834 63bd
00000120: 162a 83bc 6860 4c3c 1c62 333d e5c0 a1bd
00000130: dedb 80bd 70e1 1e3d 7039 283d ed36 bb3d
00000140: 2bda a43d 7503 4bbd 2fa2 fd3c 25ed 96bd
00000150: df29 48bc f71d 8cbc 084a ad3c b754 aa3d
00000160: 6010 a8bd bbbc 923d f88f 783d 9710 32bd
00000170: 5ddb 25bd c77d 0fbd 4fa4 653d 4476 b4bc
00000180: 5cd0 093d 3281 5abd 5929 913d d850 5bbc
00000190: f32c c43d d2e8 9dbd 34c6 d6bc ff4b 903d
000001a0: 32c4 493d d1af 3dbd b2cb a0bd 258e 91bd
000001b0: a20e adbd 637e 38bd 13a8 1cbd fc21 81bc
000001c0: 2707 bd3d 4d3a 4bbc 6304 51bd cc80 1e3d
000001d0: 7b0d 5ebd 4f17 3cbd 12a6 593a b72b d43b
000001e0: 57e9 84bd 9d11 abbd 578d cbbd 6246 cfbc
000001f0: e49e 5d3d 435c a33c d199 ad3d 7057 9f3c
00000200: d161 74bd ddd2 503b f73f e8bc 7856 783d
00000210: d0d1 1b3d 9e97 d13d bd00 c2bd be39 d7bc
00000220: 8a16 b6bd 507c 893c a229 5fbd b944 debc
00000230: d1a4 c83d 1992 bfbc 23c9 8c3d ce2c 9c3d
00000240: c813 a73d ca94 a23d 86fa 713d 59b6 243c
00000250: 3cb3 c13d 3751 c83d 8df1 60bd 55b3 ee3c
00000260: 3695 9a3d ea7f 58bd 7cc8 6e3d e9ce 9e3d
00000270: 9824 653c 089b 88bc 90ad 9fbb 45fb ba3d
00000280: ae3e 9abd c17c 2e3d 5b1e 27bd 98d6 823d
00000290: 2d3d c9bc e15e 113d d13d 8a3d d65d 72bc
000002a0: fe90 1dbc e680 dc3d a899 b63d 0a30 913d
000002b0: c1ab 663c 9e22 ff3b 3723 70bd bb5b b03d
000002c0: e7ec 8e3d 270f 9e3d 1baa 86bd f740 083d
000002d0: 3ccd c03c ed54 0abd e7e3 84bb 1cf4 dc3c
000002e0: 4695 08bd a3c1 be3d a748 b0bd b22d 24bb
000002f0: 72a9 3fbd 5fcb b53d 7664 18bd 5191 86bc
00000300: 880e ce3d 70bc 88bd d1bd c7bc 47fe ba3d
00000310: d515 b53d 227c a6bc 1f6c d1bc 552f 3cbd
-0.084033675 0.008205714 -0.014118052 0.07381344 -0.042037968 0.072523244 -0.054730583 -0.022153689
-0.005477885 -0.057003394 -0.0022150348 -0.034136195 -0.047884937 -0.08833873 0.000804157 0.09838088
0.039941736 -0.095631726 -0.054102223 0.045313783 -0.043807134 -0.0044704243 -0.04291507 0.034823745
-0.06639465 -0.11703435 -0.07154554 -0.094019584 0.0058974493 0.013244732 -0.03382573 0.024156692
0.00081454444 0.025718495 0.04611219 -9.1183814e-05 0.10989776 0.072515436 -0.06703058 0.08427638
-0.019478856 -0.0069936938 0.0055369437 -0.08597566 0.07433679 0.060391843 0.10991295 0.019615421
-0.04475637 -0.024686957 -0.018958671 -0.10241537 0.036058757 0.0036900667 -0.04401594 -0.06217671
-0.027247064 0.004578009 0.073154315 0.049715396 0.0763021 0.08593531 -0.0578845 -0.007030724
-0.10942905 -0.06958425 0.02593878 0.03783239 0.04011202 0.073633365 0.0369887 -0.05546978
-0.01601128 0.012474157 0.043794736 -0.0789812 -0.06291936 0.038789213 0.0410704 0.09141336
0.08049425 -0.049563844 0.030961124 -0.073694505 -0.012217014 -0.017104132 0.021153465 0.08316939
-0.08206248 0.07164904 0.060684174 -0.043472853 -0.040492404 -0.03503206 0.0560649 -0.02202905
0.033645973 -0.053345867 0.070879646 -0.013385974 0.09578886 -0.077104226 -0.026217557 0.07045745
0.049259372 -0.04631025 -0.07851352 -0.0710719 -0.084500566 -0.045042407 -0.038246226 -0.015763275
0.0922988 -0.012404037 -0.051029574 0.03869705 -0.054212075 -0.045920666 0.00083026395 0.006474938
-0.064898185 -0.08352969 -0.09939068 -0.025302116 0.054106608 0.019941455 0.08476604 0.019450873
-0.059663597 0.0031863966 -0.028350813 0.060629338 0.03804189 0.10233997 -0.09472797 -0.02627265
-0.08891018 0.01678291 -0.054483064 -0.027132379 0.09797061 -0.023385094 0.06874301 0.07625733
0.0815807 0.079385355 0.05907681 0.010053241 0.09458014 0.097811155 -0.05491786 0.029138247
0.07547991 -0.052856363 0.058296666 0.07754309 0.013985775 -0.016675487 -0.004872985 0.09129957
-0.075314865 0.042599443 -0.040800434 0.06388587 -0.024565304 0.035490874 0.06750072 -0.01479288
-0.009617088 0.10766773 0.08916026 0.07089241 0.014079035 0.007786109 -0.058627333 0.08611246
0.06978779 0.07717734 -0.06575414 0.03326508 0.023535363 -0.033772398 -0.0040554884 0.02697187
-0.033345483 0.09314277 -0.08607607 -0.002505165 -0.046792455 0.088766806 -0.037205182 -0.016426714
0.10061365 -0.066765666 -0.024382504 0.09130531 0.08842055 -0.020322863 -0.025564251 -0.045943577

layers.3.bias f4 [2]
00000000: b818 82bd b1a8 dc3d
-0.06352371 0.10774363
