clients_data/client_DP_trained_model/client6.pth (torch, 86087 bytes, 6 tensors)

layers.1.layers.0.weight f4 [100, 105]
0	0x3d8c3208	0.0684548
1	0x3db4a21a	0.08819981
2	0xbcda76a4	-0.0266679
3	0x3db6ef01	0.08932305
4	0xbcfdee20	-0.030997336
5	0x3cbc3f70	0.022979468
6	0xbd485b73	-0.048915338
7	0x3d588b53	0.052867245
8	0x3daebcf5	0.085321344
9	0xbd8b45a8	-0.06800395
10	0x3db4c6b4	0.08826962
11	0x3c9e97ee	0.019359555
12	0x3d923fe3	0.07141092
13	0x3c9443d9	0.018098759
14	0x3d40b750	0.04704982
15	0xbc35e955	-0.011102994
16	0x3da469c9	0.080279894
17	0x3bfe8bcc	0.00776813
18	0xbd59d7f6	-0.053184472
19	0x3ca9bdd2	0.020720396
20	0xbd6fa2e6	-0.05850496
21	0xbc3761fe	-0.011192797
22	0xbd49ea79	-0.049295876
23	0x3d5ee79b	0.054420095
24	0xbd95f5f6	-0.07322304
25	0xbd57705e	-0.052597396
26	0xbd044d88	-0.032300502
27	0xbd88b60e	-0.06675349
28	0x3b1c0a14	0.0023809718
29	0xbdd8ccab	-0.10585912
30	0x3dbe9035	0.09304849
31	0xbd9bc925	-0.07606725
32	0x3d9ac204	0.07556537
33	0x3cd2333a	0.025659192
34	0xbd004dc9	-0.03132418
35	0x3d5b59e6	0.05355253
36	0x3ccc61cd	0.024948979
37	0x3d962969	0.07332117
38	0x3c816fa1	0.0158003
39	0xbcf143c4	-0.029451258
40	0x3ce643ef	0.028108565
41	0xbcf35098	-0.029701516
42	0x3d3a109a	0.04542599
43	0x3da1baae	0.078969344
44	0x3d7ee18e	0.062226824
45	0xbd5fc0f5	-0.054627378
46	0x3d739fdf	0.059478637
47	0x3c904473	0.017610764
48	0x3d434305	0.047671337
49	0xbd8baeda	-0.0682046
50	0xbdbce59b	-0.09223481
51	0xbd1495e2	-0.036275752
52	0xbdb3e888	-0.08784586
53	0x3da1d88d	0.07902632
54	0x3cee06f0	0.029056042
55	0x3d108b83	0.0352893
56	0x3d082c2d	0.033245254
57	0x3c640349	0.013916799
58	0x3d80d14f	0.062899224
59	0xbda31225	-0.07962445
60	0x3b710f31	0.0036782736
61	0xbd6b140f	-0.057392176
62	0x3ccc522f	0.024941532
63	0xbcd9d48a	-0.026590604
64	0x3d09ddca	0.03365878
65	0xbc5b0ef8	-0.013370268
66	0x3d953119	0.07284755
67	0xbd666ef7	-0.056258168
68	0xbd510e72	-0.051039167
69	0xbd80de47	-0.06292396
70	0x3db7a24e	0.08966504
71	0x3cbc81ca	0.023011107
72	0x3ddb44d3	0.107064866
73	0xbd8ca8ef	-0.06868159
74	0xbdd5521d	-0.104160525
75	0xbd8a4b59	-0.06752653
76	0xbd868afb	-0.06569477
77	0x3d123d2f	0.03570288
78	0x3d30961c	0.043111905
79	0x3d89cb65	0.067282476
80	0xbd8249ab	-0.06361707
81	0xbd754032	-0.059875675
82	0x3d721ceb	0.05910961
83	0xbd48d765	-0.04903354
84	0x3d828bf6	0.06374352
85	0xbd01eb22	-0.03171838
86	0x3d41cebd	0.0473163
87	0xbda4090d	-0.08009539
88	0xbd6bc3c5	-0.057559747
89	0x3d2c5190	0.04206997
90	0x3cf8120e	0.030282047
91	0xbd0e4610	-0.034734786
92	0x3d797a47	0.06090763
93	0x3d91d98e	0.071215734
94	0xbd9313d3	-0.071815155
95	0xbd648741	-0.05579305
96	0x3db9b1c4	0.09067109
97	0xbd1df4b4	-0.038563445
98	0xbcdc700d	-0.026908899
99	0xbdc6ead2	-0.09712757
100	0xbd4d10e2	-0.05006493
101	0x3c87c9e7	0.016575767
102	0xbcbff91a	-0.02343421
103	0xbd8a0e3d	-0.06740997
104	0x3bda7076	0.0066662384
105	0xbd964046	-0.07336478
106	0xbda1a034	-0.078918844
107	0xbd368a48	-0.04456547
108	0xbda32336	-0.079657
109	0xbd875085	-0.06607155
110	0x3dc806da	0.09766932
111	0x3c4cb4cc	0.012494277
112	0x3cdd2416	0.026994746
113	0xbda56ca6	-0.08077364
114	0xbd6ca507	-0.05777457
115	0xbd27a4d0	-0.04092866
116	0x3c894f32	0.016761396
117	0xbdbafc11	-0.09130109
118	0xbd1c310b	-0.03813271
119	0xbd825e63	-0.06365659
120	0xbb8314d2	-0.0040002847
121	0xbd094f12	-0.033522673
122	0xbc3f86b8	-0.011689834
123	0xbd66e2ce	-0.05636864
124	0xbd98192d	-0.07426677
125	0xbd6f8f0d	-0.058486033
126	0xbd256c17	-0.040386286
127	0xbd8aca9a	-0.067769244
128	0x3da8c8a6	0.08241396
129	0xbc890749	-0.016727107
130	0x3dc39189	0.09549243
131	0x3ccdc1ee	0.025116887
132	0xbd93875e	-0.072035536
133	0x3da0d018	0.07852191
134	0xbc36383c	-0.011121806
135	0xbd010c66	-0.031505965
136	0xbd99404c	-0.07482967
137	0xbdc3ce2e	-0.0956081
138	0x3cfba2c2	0.030717257
139	0xbc894478	-0.016756281
140	0x3d00da12	0.031457968
141	0xbd8b2064	-0.067932874
142	0x3d8e5029	0.06948883
143	0xbd987b8a	-0.07445438
144	0xbca02312	-0.019547973
145	0x3bfa9d2b	0.0076481304
146	0x3d4c23a2	0.04983867
147	0x3db722d9	0.089421935
148	0x3db53187	0.08847337
149	0xbda91ba7	-0.082572274
150	0x3c88de8d	0.016707683
151	0xbd123052	-0.035690613
152	0xbc0a4c2b	-0.008441011
153	0xbd80b8dc	-0.06285259
154	0x3db4af3d	0.088224865
155	0xbd8775b1	-0.06614245
156	0x3d87121c	0.06595251
157	0x3cdc8549	0.026919024
158	0x3cef1b72	0.029187892
159	0xbd629cbd	-0.05532526
160	0x3daf4793	0.085585736
161	0x3cc3e8d0	0.023914725
162	0x3cafaca8	0.021444634
163	0xbda2fb7a	-0.079581216
164	0x3d3c2d73	0.04594178
165	0xbc99e932	-0.018787954
166	0xbd39cd8d	-0.045362044
167	0x3db0f7f1	0.08641041
168	0x3cc7be14	0.024382629
169	0xbd59d8af	-0.05318516
170	0xbd333add	-0.04375731
171	0x3ad69be0	0.0016373359
172	0x3d6ffe20	0.05859196
173	0xbccd8ffb	-0.02509307
174	0xbd309859	-0.04311404
175	0xbd10faf1	-0.035395566
176	0xbd86d016	-0.06582658
177	0x3cdc4768	0.026889518
178	0x3d9911d8	0.074741066
179	0xbdb88b9c	-0.090110034
180	0x3cd4cf3d	0.025977725
181	0x3d3d27e1	0.04618061
182	0x3c905986	0.017620813
183	0xbd23e76b	-0.04001562
184	0x3d682e0e	0.056684546
185	0x3d82b03a	0.06381269
186	0x3d1fab3e	0.03898167
187	0xbcbea53e	-0.023272153
188	0xbcb222e5	-0.021745155
189	0x3c44b0c5	0.012005036
190	0xbc890f93	-0.01673106
191	0xbd1f24a0	-0.038853288
192	0x3d8efcba	0.069817975
193	0x3daf6f46	0.085661456
194	0x3b8b94a9	0.004259665
195	0xbca181fa	-0.019715298
196	0x3bf5033b	0.0074771917
197	0xbbcaee70	-0.0061929747
198	0x3cac27ec	0.02101513
199	0x3d0b148c	0.033955142
200	0xbda68910	-0.08131611
201	0xbcdbaa95	-0.026814738
202	0x3da0621c	0.07831213
203	0x3d158b88	0.03651002
204	0x3c98045e	0.01855677
205	0xbd81f304	-0.0634518
206	0xbd69921f	-0.057024118
207	0xbdbdaeb1	-0.09261835
208	0xbce3541a	-0.027750064
209	0x3cf531d9	0.029930996
210	0x3d59eb17	0.053202715
211	0x3d2e0915	0.04248913
212	0xbda325a7	-0.07966166
213	0xbd6de52c	-0.058079883
214	0xbbb1c9be	-0.005425661
215	0x3dc03dca	0.09386785
216	0x3c851e6b	0.016249856
217	0xbd04b3a9	-0.0323979
218	0x3d064397	0.032779302
219	0xbd05e7b4	-0.032691672
220	0xbd8b328a	-0.06796749
221	0x3d866dab	0.06563886
222	0xbd3fc991	-0.046823088
223	0xbd045b1f	-0.032313462
224	0xbdbf6572	-0.09345521
225	0x3d7541d7	0.059877243
226	0x3d891094	0.06692615
227	0x3cdf35b2	0.027247284
228	0xbd8ea0a3	-0.06964233
229	0xbdbb76f1	-0.09153546
230	0xbd9b6948	-0.0758844
231	0x3d9a63cc	0.07538566
232	0x3d45dd4a	0.04830674
233	0x3db5fd5e	0.088862166
234	0x3d05465d	0.032537807
235	0x3c678376	0.014130464
236	0xbbd78069	-0.006576587
237	0xbd838a4e	-0.06422864
238	0xbda68bb3	-0.08132114
239	0xbdda1372	-0.1064824
240	0x3d0ab107	0.033860233
241	0xbd08b326	-0.033373974
242	0xbcab9119	-0.020943211
243	0xbd694d25	-0.056958336
244	0xbc8c2c6c	-0.017111026
245	0xbd88e2bb	-0.066838704
246	0xbd7e4289	-0.06207517
247	0x3cf0b937	0.029385192
248	0xbc922126	-0.017838072
249	0x3d721fc4	0.059112325
250	0xbcbbc103	-0.022919184
251	0xbd9a02f3	-0.07520094
252	0xbcf00bf8	-0.029302582
253	0xbd3e2cc1	-0.0464294
254	0xbcb465ba	-0.022021163
255	0xbdbdfee4	-0.09277132

layers.1.layers.0.bias f4 [100]
0	0x3d8ef5ba	0.06980462
1	0x3d282b53	0.041056942
2	0xbb9632a3	-0.004583673
3	0x3d6971af	0.056993183
4	0x3b4e4f5b	0.0031480405
5	0xbcaa2cea	-0.02077337
6	0xbd411a69	-0.047144327
7	0xbdb3ffe7	-0.08789044
8	0x3d96d393	0.07364573
9	0xbd68bb95	-0.056819517
10	0xbdaac781	-0.083388336
11	0xbd34c9d9	-0.04413781
12	0x3c9a5e22	0.018843714
13	0xbbb9ae24	-0.005666511
14	0x3d54a544	0.051915422
15	0x3d83e60e	0.06440364
16	0x3d6c09e6	0.057626627
17	0xbdb149bd	-0.086566426
18	0x3d4f0609	0.050542865
19	0x3d538e7a	0.051649548
20	0xbd6d34be	-0.057911627
21	0xbaba74f9	-0.0014225534
22	0x3c470c5b	0.012148942
23	0x3c8a9477	0.016916497
24	0x3d41832b	0.047244232
25	0x3db34c48	0.08754784
26	0x3dbae349	0.091253825
27	0x3cc2f996	0.023800652
28	0x3d6ee102	0.058320053
29	0x3d3e6481	0.046482567
30	0xbd3bc966	-0.045846365
31	0x3d956001	0.07293702
32	0xbb07d0b6	-0.0020723767
33	0x3d36acbc	0.044598326
34	0xbd8645d8	-0.065562904
35	0x3dac2897	0.084061794
36	0x3c9bcaae	0.019017544
37	0x3caeb0e4	0.021324582
38	0xbdac04a4	-0.08399323
39	0xbaf4ec10	-0.0018686075
40	0xbcf8fe20	-0.030394614
41	0x3da88dcf	0.08230173
42	0xbdca100b	-0.09866341
43	0xbcfffdaf	-0.031248895
44	0xbd4f0cc7	-0.050549295
45	0xbdade5a4	-0.08491066
46	0x3d3106f0	0.043219507
47	0xbd921b55	-0.071341194
48	0x3d2e932e	0.04262083
49	0x3c858ae4	0.01630158
50	0xbd56f0dc	-0.052475795
51	0x3ad9a0a2	0.0016603658
52	0x3caa3238	0.0207759
53	0xbd0c7f7e	-0.034301274
54	0xbd828b25	-0.06374196
55	0xbd79256e	-0.06082671
56	0x3c527b66	0.012846803
57	0xbdb8e116	-0.09027307
58	0x3d860ba3	0.06545188
59	0x3d6c1643	0.057638418
60	0x3dc8473b	0.09779211
61	0x3da8b8c7	0.082383685
62	0xbd627cc6	-0.055294774
63	0xbd3aaff6	-0.045577966
64	0x3d81e3fd	0.063423134
65	0xbc9dc28b	-0.019257804
66	0xbd9a6ef1	-0.07540692
67	0xbd2cf452	-0.04222519
68	0x3da41daa	0.080134705
69	0xbd7228b0	-0.059120834
70	0x3d0447a8	0.0322949
71	0xbda49dbb	-0.08037897
72	0x3d4c15af	0.049825367
73	0x3ccd0937	0.025028808
74	0x3d8639a2	0.06553961
75	0xbb06b4d0	-0.002055455
76	0x3d21c816	0.039497457
77	0x3db7575c	0.08952209
78	0xbc402c76	-0.01172935
79	0xbd7eff29	-0.06225506
80	0xbd84773d	-0.064680554
81	0x3d608c3e	0.054821245
82	0xbd8aecfa	-0.06783481
83	0xbdac1263	-0.084019445
84	0xbdb3319e	-0.08749698
85	0xbcf1f69a	-0.029536534
86	0x3c3e7441	0.011624397
87	0xbda8b91f	-0.08238434
88	0xbd3695ff	-0.04457664
89	0x3dadd2aa	0.084874466
90	0xbca70d43	-0.020392066
91	0xbd1454ca	-0.036213674
92	0x3d6d7ed6	0.05798229
93	0xbd845d89	-0.06463153
94	0xbda0c8c7	-0.07850795
95	0x3c8debcb	0.017324349
96	0x3d0150ae	0.031571083
97	0xbdca7a03	-0.09886553
98	0x3dae5a2b	0.08513292
99	0xbd47471b	-0.048651796

layers.2.layers.0.weight f4 [100, 100]
0	0x3cac9718	0.02106814
1	0x3d87716b	0.0661343
2	0x3d4467f6	0.047950707
3	0x3cfbfdfe	0.030760761
4	0xbda64e14	-0.08120361
5	0xbdc0251a	-0.093820766
6	0x3d121cd2	0.035672016
7	0x39abf0e4	0.0003279514
8	0x3d95226e	0.072819576
9	0x3d3cb85b	0.046074253
10	0xbd8c61e3	-0.06854608
11	0x3c864a33	0.016392803
12	0xbd91d7a9	-0.07121212
13	0xbd31e305	-0.043429393
14	0x3cc0f600	0.023554802
15	0xbaaf17a5	-0.0013358487
16	0xbd848f98	-0.06472701
17	0x3ce4a2ae	0.027909603
18	0x3d9362a9	0.07196552
19	0xbdc88126	-0.09790258
20	0x3dc403ea	0.09571059
21	0x3d76ed43	0.060284864
22	0xbc5a61bd	-0.013328967
23	0xbdd747c5	-0.10511736
24	0xbd36a5a7	-0.044591572
25	0x3d0c3205	0.03422739
26	0xbd15e098	-0.036591142
27	0xbcf8316f	-0.03029701
28	0xbd3ab541	-0.045583013
29	0x3da4ebda	0.080527976
30	0x3da4866d	0.08033452
31	0xbdb3c0d2	-0.08777012
32	0xbd13d693	-0.036093306
33	0x3db77463	0.08957746
34	0xbc1abff0	-0.0094451755
35	0xbd804cf2	-0.06264676
36	0x3c2179d2	0.009855704
37	0x3d945134	0.07242051
38	0xbca79756	-0.020457905
39	0xbda998d9	-0.082811065
40	0xbd2d013c	-0.042237505
41	0x3d4f28b3	0.050575923
42	0xbc9e4bbc	-0.019323222
43	0x3db09d63	0.08623769
44	0x3d14c7f8	0.036323518
45	0x3bdd0494	0.0067449305
46	0x3d3a3dfb	0.045469265
47	0xbc67843b	-0.014130647
48	0xbdb9bd0f	-0.09069263
49	0xbda7e171	-0.081972964
50	0xbdb7c680	-0.08973408
51	0xbcae397d	-0.021267647
52	0xbd8f73c1	-0.070045
53	0x3c8bf16f	0.017082898
54	0x3caf102a	0.021370012
55	0x3da13c8a	0.07872875
56	0x3b7eb5a2	0.0038865586
57	0x3bf51fca	0.007480596
58	0x3d25d516	0.040486418
59	0xbc65cacf	-0.014025404
60	0xbd1e8906	-0.038704894
61	0xbdc86779	-0.09785361
62	0xbdc7fa52	-0.09764542
63	0x3b2ee51f	0.002668686
64	0xbd2cfb2d	-0.042231727
65	0x3c82189f	0.01588088
66	0x3ccc5405	0.024942407
67	0x3d98e7c7	0.07466083
68	0xbc53ab2f	-0.012919231
69	0xbb510720	-0.0031895116
70	0x3d8d0991	0.0688659
71	0x3bb0615b	0.0053826994
72	0x3d32698f	0.0435577
73	0xbd37d8c8	-0.044884473
74	0xbd8daa28	-0.0691722
75	0x3d8f6502	0.070016876
76	0x3d998042	0.07495166
77	0xbd0da533	-0.034581374
78	0x3c2ab8e6	0.01042006
79	0xbdb99a07	-0.090625815
80	0x3c1af26a	0.00945721
81	0xbdb146e4	-0.086560994
82	0x3d5a5aed	0.05330937
83	0xbdc4d031	-0.09610022
84	0xbccac950	-0.024754196
85	0x3dd43918	0.10362452
86	0xbd139ef7	-0.036040273
87	0xbd86d26f	-0.06583106
88	0x3dae758c	0.08518514
89	0xbd285f2a	-0.04110638
90	0x3ceb3690	0.02871254
91	0x3d79c837	0.060981955
92	0x3cb4501f	0.022010861
93	0xbd8641c6	-0.06555514
94	0x3dbbbf87	0.0916739
95	0x3d59352d	0.053029228
96	0xbd912fa1	-0.070891626
97	0xbd853f66	-0.06506233
98	0xbcb9b191	-0.022667678
99	0x3d27697f	0.040872093
100	0x3ce82854	0.028339542
101	0x3b3088fd	0.002693712
102	0x3d8b8d12	0.068140164
103	0x3da911b5	0.082553305
104	0x3c8e9f80	0.01741004
105	0x3d016793	0.031592917
106	0x3d2dbd9a	0.042417146
107	0x3c72ef20	0.01482752
108	0x3a694f98	0.0008900105
109	0x3db14728	0.0865615
110	0x3d99d44b	0.07511195
111	0x3d81d6ec	0.06339821
112	0xbd3672ce	-0.04454308
113	0xbd5ff4b1	-0.054676715
114	0xbd5fd93e	-0.054650538
115	0xbda618c7	-0.08110195
116	0xbc2946a4	-0.010331783
117	0x3d69df1d	0.057097543
118	0xbc367424	-0.0111360885
119	0xbcf7e707	-0.03026153
120	0xbc9fbb5f	-0.019498525
121	0xbd9c92be	-0.07645176
122	0xbd843f0d	-0.064573385
123	0x3c448335	0.011994173
124	0xbd8aec8e	-0.067834005
125	0x3ca0f5be	0.019648429
126	0x3d9a2622	0.075268045
127	0x3cb8032c	0.02246245
128	0x3d8f53cc	0.06998405
129	0xbd9697f1	-0.07353199
130	0x3b9ae652	0.0047271634
131	0xbdd8bc04	-0.10582736
132	0xba8b2396	-0.0010615464
133	0xbd9819c5	-0.0742679
134	0x3dc6868e	0.09693633
135	0xbda55d1f	-0.08074402
136	0x3d1bd51c	0.038045034
137	0xbd5b99a4	-0.05361332
138	0x3cbb8e50	0.022895008
139	0x3bddbedc	0.006767137
140	0xbc73907f	-0.0148659935
141	0xbd3e110a	-0.04640297
142	0x3d60544d	0.054767895
143	0xbcb6ad18	-0.022299334
144	0x3b8a1274	0.0042136256
145	0xbca5a2d2	-0.02021924
146	0xbd96809f	-0.07348751
147	0xbd291dea	-0.041288294
148	0x3dcbd9e1	0.099536665
149	0x3daecb56	0.08534877
150	0xbd1c5afa	-0.0381727
151	0x3ca40c51	0.020025404
152	0x3c696bf7	0.014246932
153	0x3db3928b	0.08768185
154	0x3c571d10	0.013129488
155	0x3c2f9f7d	0.010719177
156	0xbd0bb3b4	-0.034106925
157	0x3ca3cf08	0.019996181
158	0xbdc1a126	-0.09454565
159	0xbdcd4237	-0.10022395
160	0x3b0ba23e	0.002130642
161	0xbda5532b	-0.08072504
162	0xbd9088a2	-0.07057311
163	0xbc91ea5e	-0.01781195
164	0x3d884c28	0.06655151
165	0x3d64360e	0.055715613
166	0xbce9ac06	-0.02852441
167	0xbc021f82	-0.007942082
168	0x3da1e0b2	0.07904185
169	0x3ccba6d6	0.024859827
170	0x3d770f71	0.06031746
171	0xbd386f12	-0.0450278
172	0xbdb21731	-0.0869583
173	0xbd37ff3a	-0.044921137
174	0x3c6e17d6	0.01453205
175	0xbd123de8	-0.03570357
176	0xbd49b822	-0.04924787
177	0x3dc1eae2	0.094686285
178	0xbdc4bf91	-0.09606851
179	0x3bbdfa29	0.0057976437
180	0x3d6de7c7	0.05808237
181	0xbc493e43	-0.012282911
182	0x3d54d03f	0.05195641
183	0x39316abc	0.00016919797
184	0xbd62d242	-0.0553763
185	0xbd7d87c3	-0.06189705
186	0xbd370d19	-0.044690225
187	0xbdcf5b27	-0.10124808
188	0x3d712b58	0.058879226
189	0x3da565ef	0.08076083
190	0xbd5bb533	-0.053639602
191	0x3be53272	0.006994539
192	0x3cde73b9	0.02715479
193	0x3ce16d62	0.027517978
194	0xbd4eb12a	-0.050461926
195	0xbd6f9226	-0.058488987
196	0x3db5e293	0.08881106
197	0x3d7b7bf7	0.06139752
198	0x3dc46da1	0.095912226
199	0x3d914299	0.070927806
200	0x3a7c9eeb	0.0009636718
201	0x3d9d0bfb	0.07668301
202	0xbba00433	-0.004883313
203	0x3bea706e	0.007154516
204	0xbd1dc02e	-0.038513355
205	0x3daaee2a	0.083462074
206	0xbca2c664	-0.01986999
207	0x3c4fd253	0.012684423
208	0xbdb8ed33	-0.09029617
209	0x3d1569aa	0.036477722
210	0xbd4f86c8	-0.050665647
211	0xbca526ba	-0.020160068
212	0xbb8bbc8a	-0.004264419
213	0x3d2542f4	0.040347055
214	0xbb13dd43	-0.0022562302
215	0x3c3baead	0.01145522
216	0xbd4d0e2f	-0.050062355
217	0xbd98ea52	-0.07466568
218	0x3cfa4bdb	0.030553749
219	0xbd26e7c8	-0.040748388
220	0xbd9a9cc2	-0.075494304
221	0xbcff487f	-0.031162499
222	0xbdd03252	-0.10165848
223	0x3c30ba40	0.010786593
224	0xb9a07647	-0.00030605702
225	0x3db65062	0.089020506
226	0xbd838196	-0.06421201
227	0xbd47ccd4	-0.048779324
228	0x3ce68472	0.028139327
229	0xbd0263a5	-0.03183331
230	0x3dba6415	0.091011204
231	0x3bf9b125	0.007619994
232	0x39fdda9f	0.00048418806
233	0xbd2056ab	-0.039145153
234	0x3d70194a	0.058617868
235	0xbd4e9e63	-0.050444018
236	0x3d179366	0.037005804
237	0x3d8a1648	0.06742531
238	0xbd8f467c	-0.06995866
239	0xbdc15de3	-0.094417356
240	0xbd583dc8	-0.052793294
241	0x3d452e6f	0.048139986
242	0xbd44e093	-0.048065733
243	0x3c976a86	0.018483412
244	0x3c1aa967	0.009439803
245	0x3ccfa58e	0.025347497
246	0xbd735af8	-0.059412926
247	0xb8d76a00	-0.00010271743
248	0x3d8c4008	0.068481505
249	0x3d6195a6	0.055074356
250	0x3c966736	0.018359762
251	0xbdabfcee	-0.08397852
252	0x3d5c179e	0.05373346
253	0xbd2604a7	-0.04053178
254	0x3d88215e	0.06646989
255	0x3d2e73da	0.042590953

layers.2.layers.0.bias f4 [100]
0	0xbd35605b	-0.044281345
1	0xbcce7866	-0.025203895
2	0xbdba24c5	-0.090890445
3	0xbbf472da	-0.0074599804
4	0x3d82b81e	0.06382774
5	0xbd7a77e8	-0.061149508
6	0xbc65013e	-0.013977347
7	0x3d86e303	0.06586268
8	0xbd80e216	-0.062931225
9	0x3cb28422	0.021791521
10	0xbca3bdcc	-0.019987963
11	0x3db4f69a	0.08836098
12	0xbafd03f8	-0.0019303551
13	0x3db57de7	0.088619046
14	0xbd1d821a	-0.038454153
15	0xbd8a9d26	-0.06768255
16	0x3b9d731b	0.0048049814
17	0xbd7a479b	-0.061103445
18	0xbd52e921	-0.05149186
19	0x3d79e065	0.061005015
20	0x3db71885	0.089402236
21	0xbd796d8b	-0.060895484
22	0xbddeca57	-0.10878437
23	0x3cd2e648	0.025744572
24	0xbdb6b2de	-0.08920835
25	0xbca3601f	-0.019943295
26	0x3d31d15a	0.043412544
27	0x3d02ec9a	0.031963922
28	0x3c616fc0	0.013759553
29	0x3d38e2de	0.045138232
30	0xbd5dc366	-0.054141425
31	0xbd06abb6	-0.0328786
32	0xbcb176ac	-0.021663032
33	0xbdc281c0	-0.09497404
34	0xbd88ddae	-0.06682907
35	0x3c230a0b	0.009951125
36	0x3c8f9002	0.017524723
37	0xbd5df781	-0.054191116
38	0x3d82828b	0.06372555
39	0xbd0593a4	-0.032611504
40	0x3bf83380	0.0075744987
41	0x3dac103a	0.084015325
42	0x3d906ad8	0.07051629
43	0x3ddf1768	0.10893136
44	0x3d0090eb	0.031388205
45	0xbd8ea5af	-0.069651954
46	0xbd1f55ea	-0.038900293
47	0xbd084164	-0.033265486
48	0xbd8d21fe	-0.06891249
49	0xbcf320db	-0.029678753
50	0xbdc1fad0	-0.09471667
51	0xbd4f3015	-0.050582964
52	0xbdd1546c	-0.1022118
53	0x3dc2f217	0.09518831
54	0x3d042214	0.032259062
55	0x3dbb386d	0.09141622
56	0x3d7cc444	0.06171061
57	0x3dbdd383	0.09268858
58	0xbd06230e	-0.032748275
59	0xbd2a294c	-0.04154329
60	0xbd4a177e	-0.04933881
61	0xbdc01d55	-0.09380595
62	0xbbb08196	-0.0053865416
63	0x3cba12b0	0.022713989
64	0x3d80560c	0.06266412
65	0xbc90c816	-0.017673533
66	0x3cf3fa51	0.029782446
67	0x3d38427e	0.044985287
68	0x3cbccc9e	0.023046788
69	0x3caf49d8	0.021397516
70	0xbd265ba5	-0.040614743
71	0x3d95a88e	0.0730754
72	0xbdc8eddc	-0.09810993
73	0x3c28fd6f	0.0103143295
74	0x3d3ab431	0.045582
75	0x3d981529	0.07425911
76	0x3d3c084b	0.045906346
77	0xbc48a60a	-0.012246618
78	0x3d851e61	0.06499935
79	0xbdb0bfd2	-0.08630337
80	0xbce698c9	-0.028149026
81	0xbcf56ed6	-0.029960077
82	0x3d5c96c6	0.053854726
83	0x3db2d40e	0.087318525
84	0xbcfde507	-0.030992998
85	0x3c8b940f	0.017038373
86	0xbcd20a08	-0.025639549
87	0xbcee846a	-0.029115874
88	0x3d2770ba	0.04087899
89	0x3cabf984	0.020993002
90	0xbd54cc4a	-0.051952638
91	0x3cd4d10a	0.025978584
92	0x3dc754d7	0.09732979
93	0xbd8fd454	-0.0702292
94	0xbcabf8e0	-0.020992696
95	0xbdb80e03	-0.089870475
96	0xbc99ee2d	-0.018790329
97	0x3dc97e97	0.09838598
98	0x3d6568ca	0.056008138
99	0xbdad25af	-0.08454453

layers.3.weight f4 [2, 100]
0	0xbdab0fa9	-0.08352596
1	0x3c0f9fd5	0.008766134
2	0xbc5b13e5	-0.013371442
3	0x3d9a610c	0.075380415
4	0xbd204e84	-0.03913738
5	0x3d945d96	0.072444126
6	0xbd5db13e	-0.05412411
7	0xbcb375f3	-0.021906829
8	0xbba68280	-0.005081475
9	0xbd6197e1	-0.055076484
10	0xba902be9	-0.0010999414
11	0xbd0bde5a	-0.034147598
12	0xbd4394b0	-0.04774922
13	0xbdb4b8d9	-0.088243194
14	0x3a960439	0.001144535
15	0x3dca2af6	0.098714754
16	0x3d249e84	0.040190235
17	0xbdc24994	-0.0948669
18	0xbd5e8d38	-0.054333895
19	0x3d3ec927	0.046578553
20	0xbd34a16a	-0.04409925
21	0xbb3acb6c	-0.0028502597
22	0xbd2fd02b	-0.042923134
23	0x3d1447f0	0.036201417
24	0xbd867406	-0.065650985
25	0xbded1253	-0.11575761
26	0xbd92700f	-0.0715028
27	0xbdbf3701	-0.09336663
28	0x3bbd6ad5	0.0057805576
29	0x3c5da223	0.013527426
30	0xbd0bcfe0	-0.034133792
31	0x3cd0c5e6	0.02548499
32	0x3b203172	0.0024443534
33	0x3cdb41b0	0.02676472
34	0x3d3ebe5e	0.046568267
35	0x3ab0e7b8	0.0013496792
36	0x3de185db	0.11011859
37	0x3d94c310	0.07263768
38	0xbd87ba9f	-0.06627392
39	0x3daca12d	0.08429179
40	0xbc978ef0	-0.018500775
41	0xbbdfa010	-0.006824501
42	0x3bf715b2	0.007540428
43	0xbdaf8ac8	-0.08571392
44	0x3d989793	0.074507855
45	0x3d77ea68	0.06052628
46	0x3de1042b	0.10987123
47	0x3ca32e8d	0.019919658
48	0xbd34bb1a	-0.044123746
49	0xbcc788a5	-0.02435715
50	0xbc9c82dd	-0.01910537
51	0xbdd0ab93	-0.10188975
52	0x3d1572a1	0.03648627
53	0x3bbd17ae	0.005770645
54	0xbd30936a	-0.043109335
55	0xbd7a5d2a	-0.061124004
56	0xbce16af9	-0.027516829
57	0x3bc3467f	0.0059593315
58	0x3d976c7c	0.073937386
59	0x3d4fc0b2	0.050720878
60	0x3d9e047e	0.077157006
61	0x3db09fa1	0.08624197
62	0xbd69942c	-0.057026073
63	0xbbdddd14	-0.0067707393
64	0xbddc9aea	-0.10771735
65	0xbd8cd855	-0.068771996
66	0x3ce463a3	0.027879542
67	0x3d1e792b	0.038689774
68	0x3d2406de	0.04004561
69	0x3d982a97	0.07429998
70	0x3d1c7425	0.0381967
71	0xbd640390	-0.05566746
72	0xbc82078c	-0.01587274
73	0x3c551a32	0.013006734
74	0x3d341e34	0.043974116
75	0xbd9dabea	-0.07698806
76	0xbd7f6d65	-0.062360186
77	0x3d1f177e	0.038840763
78	0x3d2a1eba	0.04153321
79	0x3dbbe58b	0.09174641
80	0x3da5375c	0.080671996
81	0xbd489662	-0.04897154
82	0x3d03111a	0.03199873
83	0xbd92d2bf	-0.07169103
84	0xbc48a767	-0.012246943
85	0xbc8b8d57	-0.01703517
86	0x3cb08328	0.021546915
87	0x3dab088d	0.0835124
88	0xbda7774d	-0.08177052
89	0x3d927960	0.07152057
90	0x3d7a2cb6	0.061077796
91	0xbd326afa	-0.043559052
92	0xbd22afed	-0.039718557
93	0xbd0c102b	-0.034195106
94	0x3d656327	0.056002762
95	0xbcb3ab64	-0.021932311
96	0x3d0de81a	0.034645177
97	0xbd581ce8	-0.052761942
98	0x3d91e077	0.071228914
99	0xbc495fa6	-0.012290871
100	0x3dc322c4	0.095281154
101	0xbd9f0e9f	-0.077664606
102	0xbcdce3f4	-0.026964165
103	0x3d8d166d	0.06889043
104	0x3d3de2b4	0.04635878
105	0xbd3d5cde	-0.046231143
106	0xbda209a8	-0.07911998
107	0xbd920f92	-0.07131876
108	0xbdadde78	-0.08489698
109	0xbd4062e4	-0.04696931
110	0xbd213956	-0.03936132
111	0xbc810a11	-0.01575187
112	0x3dbcc000	0.092163086
113	0xbc4ccb3a	-0.012499625
114	0xbd52694f	-0.05136996
115	0x3d1d22b8	0.03836319
116	0xbd5f120c	-0.05446057
117	0xbd3f3949	-0.04668549
118	0x3a8b3044	0.0010619243
119	0x3baaba2c	0.0052101817
120	0xbd845033	-0.06460609
121	0xbdae630c	-0.085149854
122	0xbdcb8919	-0.09938259
123	0xbcda8f9b	-0.026679805
124	0x3d5a931f	0.05336296
125	0x3c98e6b4	0.018664695
126	0x3dad836c	0.08472332
127	0x3c99fe17	0.018797917
128	0xbd73e73c	-0.059546694
129	0x3b3e4c08	0.0029037017
130	0xbce5b9e4	-0.028042741
131	0x3d72e59d	0.059301008
132	0x3d1524d7	0.036412086
133	0x3dcf7314	0.10129371
134	0xbdc2efdb	-0.09518405
135	0xbce30775	-0.027713517
136	0xbdb68a4b	-0.08913096
137	0x3c887bff	0.016660688
138	0xbd62430b	-0.05523972
139	0xbcde6508	-0.027147785
140	0x3dc6a404	0.09699252
141	0xbcc0f4ed	-0.02355429
142	0x3d88aebd	0.06673954
143	0x3d9ba398	0.075995624
144	0x3da6ba1a	0.08140965
145	0x3da24e4d	0.07925091
146	0x3d72264e	0.05911856
147	0x3c1fba3c	0.009748992
148	0x3dc0678d	0.09394751
149	0x3dc7a448	0.09748131
150	0xbd6057bd	-0.054771174
151	0x3cea6517	0.028612657
152	0x3d99b510	0.07505238
153	0xbd61058f	-0.05493694
154	0x3d6b11d6	0.057390057
155	0x3d9ca6fd	0.07649038
156	0x3c699013	0.014255541
157	0xbc93ebdc	-0.018056802
158	0xbbb956c5	-0.0056560957
159	0x3db8ec17	0.090294056
160	0xbd9bfee5	-0.07616977
161	0x3d2d3b37	0.0422928
162	0xbd2aa27a	-0.041658856
163	0x3d824e4a	0.06362589
164	0xbcd742ea	-0.026277024
165	0x3d0e0b27	0.034678604
166	0x3d864449	0.06555993
167	0xbc8034ff	-0.01565027
168	0xbc1c7a84	-0.009550694
169	0x3ddb2368	0.107001126
170	0x3db42053	0.08795228
171	0x3d9197ae	0.07109009
172	0x3c6466ae	0.013940496
173	0x3bedaeff	0.007253527
174	0xbd70df51	-0.05880672
175	0x3dac46bc	0.08411929
176	0x3d8dc7bd	0.06922863
177	0x3d9df420	0.07712579
178	0xbd879cc1	-0.06621695
179	0x3d06e3c6	0.032932065
180	0x3cbf586b	0.02335759
181	0xbd0cc1fd	-0.03436469
182	0xbba6e3ec	-0.0050930884
183	0x3ccc8a81	0.024968388
184	0xbd0875df	-0.033315536
185	0x3dbe9d7c	0.093073815
186	0xbdb116f0	-0.08646953
187	0xbb3aa89c	-0.0028481847
188	0xbd40db98	-0.04708442
189	0x3db60eb7	0.088895254
190	0xbd1a0136	-0.03759881
191	0xbc85dc8a	-0.016340513
192	0x3dcc78d3	0.09983983
193	0xbd8a733f	-0.06760263
194	0xbcc73b82	-0.024320368
195	0x3dbacb90	0.09120858
196	0x3db309f8	0.08742136
197	0xbcab44b4	-0.020906784
198	0xbcd4489c	-0.02591353
199	0xbd40aba6	-0.047038697

layers.3.bias f4 [2]
0	0xbd7a9255	-0.06117471
1	0x3dd7d923	0.105394624
