clients_data/client_DP_trained_model/client4.pth (torch, 86087 bytes, 6 tensors)

layers.1.layers.0.weight f4 [100, 105]
0.06839613 0.088159196 -0.02653863 0.08936957 -0.031041404 0.022949215 -0.048966497 0.052873116
0.085321344 -0.06785796 0.088331304 0.019397246 0.07132311 0.018081667 0.046991277 -0.011089409
0.08026815 0.007860993 -0.053282283 0.020686878 -0.0585657 -0.011064261 -0.049263258 0.05440229
-0.07324256 -0.052597146 -0.032303546 -0.066737995 0.0023827325 -0.1058088 0.09284121 -0.07607487
0.0755944 0.025659192 -0.03129433 0.053582083 0.024963787 0.07336606 0.015749507 -0.029373813
0.028115792 -0.029728984 0.045263186 0.07908792 0.06223381 -0.054703005 0.0594474 0.017649382
0.047740918 -0.06821506 -0.09224735 -0.03626845 -0.08786948 0.07901435 0.029012803 0.035263482
0.03329888 0.013947479 0.06293838 -0.07962117 0.003674971 -0.05732288 0.024878772 -0.026565533
0.0336252 -0.013371459 0.072658956 -0.056272194 -0.051040307 -0.06292145 0.08965136 0.022944042
0.10704257 -0.06868242 -0.10416069 -0.06752646 -0.06569479 0.035720564 0.043136705 0.06736899
-0.063617386 -0.059875995 0.05908351 -0.049034327 0.06378409 -0.031744327 0.04736705 -0.080095924
-0.057560466 0.04206997 0.030262398 -0.034734793 0.06097309 0.07124537 -0.07181631 -0.055793725
0.09068404 -0.038564 -0.0269095 -0.097127594 -0.050065577 0.016684236 -0.02338963 -0.06741037
0.0066662384 -0.073401205 -0.078974165 -0.04444219 -0.0796415 -0.06611448 0.09758792 0.012557261
0.027064418 -0.08077364 -0.057692032 -0.04087878 0.016835995 -0.09125632 -0.038284827 -0.063488305
-0.0039337883 -0.033625446 -0.011661697 -0.056435622 -0.07424106 -0.058519963 -0.040410876 -0.067711666
0.082426704 -0.016706128 0.09549579 0.025187163 -0.07203408 0.07839799 -0.011066356 -0.03149653
-0.074718244 -0.09561502 0.030717257 -0.01674536 0.03147621 -0.06797125 0.06952686 -0.0743791
-0.019530311 0.007583574 0.049727555 0.08942538 0.088499814 -0.082664326 0.016690582 -0.035613563
-0.00844184 -0.06298342 0.08815016 -0.06610404 0.06598755 0.026966888 0.02923859 -0.05540543
0.08564911 0.023993105 0.021568783 -0.079585806 0.04587482 -0.018721 -0.04533 0.08655463
0.024362493 -0.053255223 -0.043845132 0.001694071 0.058576662 -0.02520034 -0.043111656 -0.035385143
-0.065805785 0.026973762 0.07470923 -0.09009885 0.025911503 0.046399105 0.01763486 -0.04002324
0.056759343 0.06388045 0.039003566 -0.023328627 -0.0217318 0.011988972 -0.016716285 -0.03885446
0.070043325 0.085655876 0.004259665 -0.019728722 0.0076907407 -0.0062019806 0.021062773 0.033919528
-0.08131323 -0.026808253 0.07834265 0.03649246 0.018161168 -0.06344042 -0.057024945 -0.09261548
-0.02774345 0.029930996 0.053215075 0.042471685 -0.07954174 -0.058108445 -0.005500723 0.09389773
0.016169598 -0.032395266 0.032779302 -0.032808892 -0.0679323 0.0655496 -0.046798635 -0.032248635
-0.09346079 0.059907824 0.06695029 0.027221935 -0.06960098 -0.0915256 -0.07586923 0.07532635
0.048312936 0.088806555 0.0323225 0.014166818 -0.0065230364 -0.064199165 -0.08130933 -0.10652556
0.033841953 -0.033327017 -0.020956567 -0.056958336 -0.017218066 -0.066878796 -0.062181395 0.029547308
-0.017644463 0.059059888 -0.023048552 -0.07514924 -0.0292771 -0.046447504 -0.022115044 -0.09282313
00000000: 4513 8c3d cf8c b43d 8a67 d9bc 6507 b73d
00000010: 8b4a febc feff bb3c 1891 48bd 7b91 583d
00000020: f5bc ae3d 1df9 8abd 0be7 b43d f9e6 9e3c
00000030: da11 923d 0120 943c ed79 403d 5ab0 35bc
00000040: a163 a43d 65cb 003c 863e 5abd 8777 a93c
00000050: 96e2 6fbd e046 35bc 45c8 49bd f0d4 5e3d
00000060: 3200 96bd 1b70 57bd b950 04bd eead 88bd
00000070: 9e27 1c3b 49b2 d8bd 8823 be3d 24cd 9bbd
00000080: 3dd1 9a3d 3a33 d23c 7c2e 00bd e378 5b3d
00000090: db80 cc3c f240 963d 1c05 813c 5aa1 f0bc
000000a0: 1753 e63c 338a f3bc e465 393d d9f8 a13d
000000b0: e1e8 7e3d 4210 60bd 1e7f 733d 7095 903c
000000c0: fb8b 433d 56b4 8bbd 2eec bcbd 3a8e 14bd
000000d0: eaf4 b3bd 47d2 a13d 42ac ed3c 7170 103d
000000e0: 6864 083d f883 643c d6e5 803d 6d10 a3bd
000000f0: c8d7 703b 65cb 6abd 91ce cb3c f69f d9bc
00000100: 94ba 093d f713 5bbc 38ce 943d ac7d 66bd
00000110: a40f 51bd f6dc 80bd 229b b73d 25f5 bb3c
00000120: 2339 db3d 5ea9 8cbd 3352 d5bd 504b 8abd
00000130: fd8a 86bd ba4f 123d 1db0 303d c1f8 893d
00000140: d549 82bd 8840 75bd 8d01 723d 38d8 48bd
00000150: 3ca1 823d 5706 02bd f403 423d 5509 a4bd
00000160: 86c4 6bbd 9051 2c3d d9e8 f73c 1246 0ebd
00000170: ebbe 793d 18e9 913d 6e14 93bd f687 64bd
00000180: 8eb8 b93d 49f5 1dbd 5071 dcbc d5ea c6bd
00000190: 9011 4dbd 61ad 883c 9c9b bfbc 730e 8abd
000001a0: 7670 da3b 5f53 96bd 35bd a1bd 0409 36bd
000001b0: 151b a3bd 0767 87bd 2ddc c73d f8bc 4d3c
000001c0: 33b6 dd3c a66c a5bd 7b4e 6cbd 8270 27bd
000001d0: a4eb 893c 98e4 babd 8dd0 1cbd 2806 82bd
000001e0: 02e7 80bb d6ba 09bd b410 3fbc 0a29 67bd
000001f0: b20b 98bd a1b2 6fbd e085 25bd 6aac 8abd
00000200: 55cf a83d 4adb 88bc 4c93 c33d 4f55 ce3c
00000210: 9b86 93bd 208f a03d a94f 35bc 8102 01bd
00000220: e105 99bd cfd1 c3bd c2a2 fb3c 912d 89bc
00000230: 33ed 003d 8334 8bbd 1964 8e3d 1254 98bd
00000240: 08fe 9fbc a17f f83b 1faf 4b3d a724 b73d
00000250: 643f b53d ea4b a9bd b0ba 883c 87df 11bd
00000260: a54f 0abc 74fd 80bd 1288 b43d 8e61 87bd
00000270: 7b24 873d aae9 dc3c c485 ef3c cef0 62bd
00000280: cd68 af3d 308d c43c 04b1 b03c e2fd a2bd
00000290: 3ce7 3b3d c85c 99bc f3ab 39bd 8e43 b13d
000002a0: da93 c73c 2622 5abd f496 33bd 970b de3a
000002b0: 15ee 6f3d f270 cebc d995 30bd 03f0 10bd
000002c0: 2fc5 86bd 14f8 dc3c 2701 993d bf85 b8bd
000002d0: 5c44 d43c fd0c 3e3d fb76 903c 69ef 23bd
000002e0: 7c7c 683d c1d3 823d 34c2 1f3d ad1b bfbc
000002f0: e306 b2bc 656d 443c 97f0 88bc db25 1fbd
00000300: e072 8f3d 596c af3d a994 8b3b 219e a1bc
00000310: 9c02 fc3b fc39 cbbb d68b ac3c 34ef 0a3d
00000320: 8d87 a6bd fb9c dbbc 1c72 a03d 1e79 153d
00000330: bbc6 943c 0ded 81bd fd92 69bd 2fad bdbd
00000340: 3b46 e3bc d931 f53c 0df8 593d caf6 2d3d
00000350: c8e6 a2bd 1f03 6ebd 693f b4bb 744d c03d
00000360: 1b76 843c e6b0 04bd 9743 063d 9e62 06bd
00000370: 1720 8bbd de3e 863d edaf 3fbd 2517 04bd
00000380: 5f68 bfbd e861 753d 3c1d 893d 8900 df3c
00000390: f58a 8ebd c671 bbbd 5461 9bbd b444 9a3d
000003a0: c9e3 453d 36e0 b53d 9964 043d f11b 683c
000003b0: 32bf d5bb da7a 83bd 8285 a6bd 132a dabd
000003c0: dc9d 0a3d e981 08bd 1bad abbc 254d 69bd
000003d0: e70c 8dbc c0f7 88bd ebb1 7ebd 320d f23c
000003e0: 1f8b 90bc c8e8 713d 51d0 bcbc d8e7 99bd
000003f0: 87d6 efbc bd3f 3ebd 9c2a b5bc 0e1a bebd

layers.1.layers.0.bias f4 [100]
0.06981791 0.040928934 -0.004670642 0.057026345 0.0033125859 -0.021186115 -0.047137506 -0.08784084
0.07357384 -0.05660057 -0.083439715 -0.044366717 0.01895176 -0.0055800155 0.051974665 0.0642949
0.0577413 -0.08656138 0.050606735 0.05173587 -0.0578939 -0.0013684541 0.012237759 0.01710147
0.04734807 0.08770314 0.09120348 0.023816904 0.0581841 0.046530932 -0.045865666 0.07296634
-0.002313516 0.04486338 -0.06561278 0.08423495 0.019030174 0.021257587 -0.08395357 -0.0016620499
-0.030492675 0.08236908 -0.09870352 -0.031206807 -0.05054017 -0.084926024 0.043310057 -0.07138153
0.042615242 0.016321594 -0.05240858 0.0018169296 0.02054926 -0.034484316 -0.063805014 -0.06079913
0.012915032 -0.09017593 0.065275766 0.05772952 0.09785695 0.082569174 -0.0553757 -0.04585155
0.06339982 -0.019265113 -0.07538176 -0.04223781 0.08005235 -0.05895392 0.03225806 -0.080434345
0.050012056 0.024963574 0.06554831 -0.002099365 0.03957967 0.089807324 -0.011670493 -0.062232617
-0.06457515 0.055001173 -0.06804268 -0.08403126 -0.08751484 -0.02949281 0.011599039 -0.08239829
-0.044677243 0.084910706 -0.020384222 -0.036234174 0.058009595 -0.06458478 -0.07860205 0.017271215
0.03168504 -0.098809436 0.085218534 -0.04864217
00000000: b1fc 8e3d 19a5 273d 2f0c 99bb 7594 693d
00000010: f817 593b 818e adbc 4213 41bd e6e5 b3bd
00000020: e2ad 963d 00d6 67bd 71e2 aabd e0b9 35bd
00000030: b940 9b3c 90d8 b6bb 63e3 543d 0bad 833d
00000040: 2482 6c3d 1847 b1bd 0249 4f3d fee8 533d
00000050: 2722 6dbd b35d b3ba e280 483c 6218 8c3c
00000060: 0df0 413d b49d b33d e4c8 ba3d ab1b c33c
00000070: 7352 6e3d 3897 3e3d a3dd 3bbd 606f 953d
00000080: 5c9e 17bb aac2 373d fe5f 86bd 6083 ac3d
00000090: 2be5 9b3c 6424 ae3c d9ef abbd 24d9 d9ba
000000a0: c6cb f9bc 1fb1 a83d 1225 cabd 6ba5 ffbc
000000b0: 3603 4fbd b2ed adbd e365 313d 7b30 92bd
000000c0: 528d 2e3d ddb4 853c 61aa 56bd 0a26 ee3a
000000d0: ec56 a83c 6d3f 0dbd 34ac 82bd 8208 79bd
000000e0: 9299 533c 28ae b8bd 4daf 853d ca75 6c3d
000000f0: 3969 c83d 071a a93d a1d1 62bd d6ce 3bbd
00000100: c4d7 813d dfd1 9dbc c161 9abd 8e01 2dbd
00000110: 7df2 a33d aa79 71bd 0721 043d c3ba a4bd
00000120: 71d9 4c3d 6980 cc3c 313e 863d 8095 09bb
00000130: 4b1e 223d e7ec b73d 9835 3fbc a1e7 7ebd
00000140: fa3f 84bd e948 613d f659 8bbd 9518 acbd
00000150: fb3a b3bd e89a f1bc e509 3e3c 6fc0 a8bd
00000160: 7cff 36bd aae5 ad3d d0fc a6bc 496a 14bd
00000170: 789b 6d3d 0645 84bd 1dfa a0bd 5d7c 8d3c
00000180: 2cc8 013d 9a5c cabd 0e87 ae3d 033d 47bd

layers.2.layers.0.weight f4 [100, 100]
0.021148855 0.06619445 0.047666296 0.030889137 -0.081258975 -0.09382642 0.035811715 6.13326e-05
0.072953135 0.04622832 -0.068726934 0.016713763 -0.07128197 -0.043347206 0.023604464 -0.0016108311
-0.064656824 0.028012227 0.07207142 -0.097882405 0.09541282 0.060095865 -0.013435443 -0.10521211
-0.04476705 0.03454054 -0.03653392 -0.030490873 -0.0455055 0.08037049 0.08064753 -0.08771156
-0.03617714 0.08946669 -0.009435713 -0.062749304 0.00989136 0.07235687 -0.02043707 -0.08278615
-0.042062443 0.05029517 -0.019272588 0.08636406 0.036256224 0.006590198 0.045484334 -0.013601825
-0.09059792 -0.08202853 -0.09002009 -0.02136255 -0.07000206 0.017082322 0.021414887 0.078761406
0.0036723441 0.007441343 0.040499527 -0.013721209 -0.03850747 -0.09771903 -0.097596265 0.0026862316
-0.04255086 0.015663978 0.024786346 0.07471649 -0.0130544165 -0.0028815574 0.06848984 0.005470235
0.043526888 -0.044810668 -0.06942363 0.07006796 0.07497592 -0.034505285 0.01027811 -0.090541534
0.009352453 -0.0866835 0.053543516 -0.095974565 -0.024821443 0.10381066 -0.03592652 -0.065582655
0.08567033 -0.04126048 0.028808044 0.060968142 0.0220187 -0.06545121 0.091642074 0.05291655
-0.070909195 -0.06497832 -0.022671761 0.04073991 0.028310299 0.00275158 0.06825629 0.08279477
0.017460667 0.031634133 0.042610798 0.0147213 0.0010605274 0.08655742 0.07519488 0.063330196
-0.044598885 -0.0546437 -0.054534655 -0.08101083 -0.010406473 0.05720731 -0.011111781 -0.030236553
-0.01935814 -0.07630912 -0.06455299 0.012029925 -0.06782381 0.01983843 0.07530594 0.022571722
0.06994941 -0.073520966 0.004781707 -0.10568834 -0.0009413166 -0.07426462 0.097007185 -0.08067807
0.03802248 -0.05359471 0.022978611 0.0068975114 -0.014914865 -0.04641502 0.05469788 -0.022150243
0.004318245 -0.020105375 -0.07343475 -0.041422844 0.09966179 0.085294746 -0.038114518 0.0199491
0.014357705 0.08790083 0.013148928 0.010868119 -0.033978608 0.019904386 -0.09432368 -0.10024983
0.0022134706 -0.08071456 -0.07055622 -0.01768691 0.066703565 0.0557406 -0.028669842 -0.0077885212
0.07923481 0.024925571 0.06040528 -0.045010943 -0.08686942 -0.044918727 0.014567473 -0.035686716
-0.049153287 0.09477422 -0.09610248 0.0059059975 0.05814972 -0.012282258 0.051893637 0.0003069548
-0.05525851 -0.061916687 -0.044428997 -0.10110827 0.05896847 0.08070898 -0.05370353 0.007009693
0.02713528 0.027604196 -0.050503064 -0.05853965 0.08895062 0.06147108 0.095941484 0.071002044
0.0009374423 0.07668194 -0.004893751 0.0071415524 -0.038538054 0.08346663 -0.019912684 0.012696761
-0.09029401 0.03646329 -0.050667915 -0.020205854 -0.004268524 0.040317584 -0.0022458965 0.011465132
-0.050096616 -0.07466488 0.03052938 -0.040773902 -0.07546869 -0.031157693 -0.10168977 0.010824557
-0.00028807405 0.0889846 -0.06423533 -0.04876202 0.028120186 -0.03182457 0.09096715 0.007600698
0.00047121922 -0.03916517 0.058623105 -0.050466217 0.037021358 0.06738635 -0.06997928 -0.09443867
-0.052817293 0.04812776 -0.048084017 0.018481707 0.0094379615 0.025309797 -0.059419714 -0.00011458434
0.06847601 0.0550697 0.018356267 -0.08401134 0.053718373 -0.04051975 0.066446476 0.042565096
00000000: 5d40 ad3c f590 873d bc3d 433d 370b fd3c
00000010: 1b6b a6bd 1128 c0bd 4eaf 123d b09f 8038
00000020: 7468 953d e859 3d3d b5c0 8cbd 4deb 883c
00000030: 48fc 91bd d78c 31bd 265e c13c 8622 d3ba
00000040: cc6a 84bd e679 e53c 2e9a 933d 9276 c8bd
00000050: cc67 c33d 1527 763d 5520 5cbc 7279 d7bd
00000060: a75d 37bd 627a 0d3d 97a4 15bd ffc7 f9bc
00000070: fa63 3abd 4999 a43d 882a a53d 1ea2 b3bd
00000080: 7b2e 14bd 503a b73d 4098 1abc b582 80bd
00000090: 5f0f 223c d72f 943d a46b a7bc c98b a9bd
000000a0: ab49 2cbd 4f02 4e3d 8ce1 9dbc a4df b03d
000000b0: 6881 143d 96f2 d73b c84d 3a3d 30da 5ebc
000000c0: 678b b9bd 93fe a7bd 745c b8bd 8400 afbc
000000d0: 3d5d 8fbd 3af0 8b3c 466e af3c a94d a13d
000000e0: b6ab 703b 82d6 f33b d5e2 253d ecce 60bc
000000f0: 02ba 1dbd ea20 c8bd 8de0 c7bd 7d0b 303b
00000100: d049 2ebd be51 803c bc0c cb3c f604 993d
00000110: 31e2 55bc 83d8 3cbb 6744 8c3d a83f b33b
00000120: 4049 323d 648b 37bd fa2d 8ebd ca7f 8f3d
00000130: fa8c 993d 6a55 0dbd 8565 283c d76d b9bd
00000140: 083b 193c 1e87 b1bd 7250 5b3d 508e c4bd
00000150: 5756 cbbc af9a d43d b027 13bd 3350 86bd
00000160: ed73 af3d c000 29bd d9fe eb3c bbb9 793d
00000170: 9060 b43c 490b 86bd d7ae bb3d 06bf 583d
00000180: d738 91bd 5a13 85bd 21ba b9bc e4de 263d
00000190: 00eb e73c da53 343b f4c9 8b3d 4e90 a93d
000001a0: ac09 8f3c cb92 013d a988 2e3d 9c31 713c
000001b0: 6501 8b3a 0445 b13d c6ff 993d 43b3 813d
000001c0: 52ad 36bd 13d2 5fbd bb5f 5fbd 02e9 a5bd
000001d0: e97f 2abc 3652 6a3d 300e 36bc a6b2 f7bc
000001e0: f694 9ebc f547 9cbd 5c34 84bd 2a19 453c
000001f0: 36e7 8abd 3484 a23c 003a 9a3d 55e8 b83c
00000200: a341 8f3d 2992 96bd deaf 9c3b 2173 d8bd
00000210: b0c2 76ba 0d18 98bd b4ab c63d 8b3a a5bd
00000220: 76bd 1b3d 2086 5bbd a43d bc3c 8504 e23b
00000230: 7a5d 74bc ad1d 3ebd e20a 603d 6d74 b5bc
00000240: 1180 8d3b 07b4 a4bc f564 96bd 00ab 29bd
00000250: 7b1b cc3d 03af ae3d f81d 1cbd 4c6c a33c
00000260: 943c 6b3c 5a05 b43d 9a6e 573c 3210 323c
00000270: 272d 0bbd 860e a33c c62c c1bd c84f cdbd
00000280: e00f 113b ad4d a5bd c87f 90bd 24e4 90bc
00000290: e19b 883d 4150 643d 04dd eabc da36 ffbb
000002a0: dc45 a23d b630 cc3c 876b 773d 655d 38bd
000002b0: 98e8 b1bd b3fc 37bd 69ac 6e3c 3c2c 12bd
000002c0: f554 49bd fc18 c23d 61d1 c4bd 1987 c13b
000002d0: 672e 6e3d 863b 49bc 6c8e 543d c7ee a039
000002e0: bf56 62bd 5a9c 7dbd 2efb 35bd da11 cfbd
000002f0: ec88 713d c04a a53d 3cf8 5bbd 91b1 e53b
00000300: cf4a de3c 3222 e23c 4ddc 4ebd 46c7 6fbd
00000310: be2b b63d 19c9 7b3d f87c c43d 8569 913d
00000320: b0be 753a 6c0b 9d3d c25b a0bb af03 ea3b
00000330: 14da 1dbd 8df0 aa3d ed1f a3bc 1306 503c
00000340: 11ec b8bd 885a 153d 2989 4fbd bf86 a5bc
00000350: f9de 8bbb 0d24 253d e42f 13bb 40d8 3b3c
00000360: 1c32 4dbd e7e9 98bd c018 fa3c 8902 27bd
00000370: 548f 9abd 6b3e ffbc ba42 d0bd 7c59 313c
00000380: a508 97b9 8f3d b63d d08d 83bd afba 47bd
00000390: 4e5c e63c 7b5a 02bd fc4c ba3d 470f f93b
000003a0: f90d f739 a86b 20bd c81e 703d aab5 4ebd
000003b0: b5a3 173d db01 8a3d 4c51 8fbd 1069 c1bd
000003c0: f256 58bd 9d21 453d bff3 44bd f366 973c
000003d0: aea1 1a3c 7e56 cf3c 1662 73bd 004d f0b8
000003e0: 263d 8c3d c490 613d e25f 963c 230e acbd
000003f0: cc07 5c3d 0af8 25bd 1715 883d bd58 2e3d

layers.2.layers.0.bias f4 [100]
-0.0445849 -0.024965698 -0.09090464 -0.0074492414 0.063908584 -0.061187245 -0.013933185 0.06610804
-0.06296074 0.021870172 -0.020012075 0.088303894 -0.0016090783 0.08816885 -0.038219545 -0.067438975
0.0049452567 -0.060925543 -0.05152327 0.06074881 0.08932101 -0.060954046 -0.10872079 0.025773264
-0.088385075 -0.01958064 0.042851508 0.031782966 0.013326122 0.045139425 -0.054162525 -0.032914944
-0.021657068 -0.0947413 -0.06715655 0.010037634 0.017320907 -0.054119937 0.063709 -0.032631543
0.007767397 0.08403113 0.07053548 0.10876728 0.031423658 -0.06956972 -0.039014377 -0.03326446
-0.06880741 -0.029326336 -0.0947683 -0.050564826 -0.10207439 0.095153145 0.032304592 0.091468
0.061631262 0.09271566 -0.032689687 -0.041170646 -0.04997297 -0.09366973 -0.005336562 0.022614483
0.06293611 -0.017243776 0.029981345 0.045066543 0.02311118 0.021564387 -0.040836174 0.07295383
-0.09792423 0.010261254 0.044974186 0.07451986 0.045587827 -0.012292339 0.06500224 -0.08633198
-0.027791627 -0.029903738 0.053650007 0.0878541 -0.03117136 0.017039219 -0.02583161 -0.028912945
0.040955275 0.02090865 -0.051867425 0.02596664 0.09733648 -0.07025769 -0.021089993 -0.08933498
-0.018584363 0.09837559 0.055984724 -0.084728114
00000000: a89e 36bd dd84 ccbc 362c babd c418 f4bb
00000010: 81e2 823d 7a9f 7abd 0348 64bc a763 873d
00000020: 8ff1 80bd 1329 b33c 5df0 a3bc acd8 b43d
00000030: b5e7 d2ba df91 b43d 198c 1cbd 721d 8abd
00000040: d20b a23b 108d 79bd 100a 53bd bfd3 783d
00000050: efed b63d f3aa 79bd 01a9 debd 7422 d33c
00000060: 3c03 b5bd 9467 a0bc 1085 2f3d db2e 023d
00000070: cf55 5a3c 1ee4 383d 86d9 5dbd d2d1 06bd
00000080: 2a6a b1bc ba07 c2bd 6089 89bd e374 243c
00000090: 93e4 8d3c deac 5dbd dd79 823d a7a8 05bd
000000a0: a685 fe3b 8318 ac3d e874 903d 61c1 de3d
000000b0: 18b6 003d 927a 8ebd 8acd 1fbd 5040 08bd
000000c0: e6ea 8cbd c93d f0bc e215 c2bd 101d 4fbd
000000d0: 610c d1bd a7df c23d d251 043d 9353 bb3d
000000e0: 1071 7c3d b5e1 bd3d 9fe5 05bd 8da2 28bd
000000f0: 75b0 4cbd ead5 bfbd 54de aebb 0242 b93c
00000100: a6e4 803d d242 8dbc 709b f53c b297 383d
00000110: a853 bd3c cca7 b03c d543 27bd d168 953d
00000120: 808c c8bd d21e 283c da36 383d de9d 983d
00000130: 4dba 3a3d ce65 49bc e51f 853d d2ce b0bd
00000140: 44ab e3bc aff8 f4bc 1cc0 5b3d daec b33d
00000150: 145b ffbc d595 8b3c d09c d3bc d7da ecbc
00000160: b8c0 273d 9e48 ab3c f072 54bd feb7 d43c
00000170: 5958 c73d 44e3 8fbd ecc4 acbc 42f5 b6bd
00000180: 3c3e 98bc 2479 c93d 3d50 653d ef85 adbd

layers.3.weight f4 [2, 100]
-0.08379332 0.009209353 -0.013560989 0.07461807 -0.040138453 0.072794184 -0.05430764 -0.020907085
-0.0055397134 -0.0570155 -0.0017575857 -0.033316735 -0.04798957 -0.08710158 0.0010113751 0.09917842
0.04018877 -0.09603384 -0.054311574 0.045724295 -0.043410297 -0.0042175837 -0.042740826 0.035574436
-0.066658854 -0.11716465 -0.0713651 -0.093194604 0.005728947 0.013323246 -0.03328988 0.024920225
0.0012492015 0.025391422 0.046096444 0.0014474292 0.10942849 0.07310296 -0.065970115 0.08423978
-0.019445755 -0.006447942 0.007461083 -0.0850634 0.07388568 0.060119137 0.10943609 0.020632148
-0.044633035 -0.024821267 -0.019126467 -0.10207373 0.035876647 0.0038071158 -0.043969262 -0.06119098
-0.027435197 0.0063980655 0.07398907 0.048722748 0.07626055 0.08597763 -0.058283508 -0.0069135157
-0.10889649 -0.069557354 0.026060866 0.0378498 0.039950654 0.07241445 0.037807047 -0.05612943
-0.017116006 0.012492886 0.04298441 -0.07822583 -0.06326033 0.038984857 0.041257974 0.091800384
0.08126935 -0.04964923 0.031491894 -0.07363863 -0.0131472405 -0.01730926 0.021065583 0.083884805
-0.08219646 0.0722091 0.061073378 -0.04360883 -0.04032813 -0.034648966 0.05648894 -0.022338862
0.033418767 -0.052875016 0.07112414 -0.0135037685 0.0955485 -0.07810784 -0.02677463 0.069652796
0.047359854 -0.046581224 -0.07893647 -0.07231851 -0.08443872 -0.045030296 -0.038703673 -0.016582737
0.09240343 -0.013641187 -0.051236805 0.037899483 -0.05445911 -0.045518517 0.0010396075 0.006064443
-0.06529501 -0.08378254 -0.099564925 -0.026052833 0.054370824 0.020071754 0.08458562 0.0186259
-0.059495054 0.003107883 -0.02888666 0.05986578 0.037607223 0.10266702 -0.09471224 -0.027811255
-0.08844089 0.016195392 -0.055543546 -0.027095752 0.09793749 -0.023930848 0.06681888 0.075345054
0.082031816 0.07965803 0.059553675 0.009036506 0.09445678 0.09794547 -0.054750055 0.02879659
0.07566204 -0.052973405 0.058250003 0.07655735 0.014173909 -0.018495535 -0.005707782 0.09229219
-0.07527332 0.042557117 -0.040401414 0.06376866 -0.025097884 0.03546398 0.06737863 -0.014810285
-0.009455731 0.10888664 0.08834193 0.07155207 0.015183766 0.0077673765 -0.05781701 0.0853571
0.07012878 0.07698168 -0.065941736 0.03287807 0.022760212 -0.033686996 -0.0045862477 0.026915986
-0.03241526 0.09334791 -0.08598821 -0.0032205854 -0.046658486 0.08820669 -0.037594385 -0.016290732
0.100449406 -0.06714875 -0.024806552 0.09161509 0.08864777 -0.020793702 -0.025808739 -0.045825798
00000000: d59b abbd d3e2 163c e92e 5ebc 5cd1 983d
00000010: 3868 24bd 1e15 953d b071 5ebd 5645 abbc
00000020: 7c86 b5bb 1689 69bd ca5e e6ba 2177 08bd
00000030: b690 44bd 5062 b2bd 1e90 843a 0e1e cb3d
00000040: fb9c 243d 64ad c4bd d075 5ebd 6649 3b3d
00000050: ffce 31bd a833 8abb 0111 2fbd 80b6 113d
00000060: 7084 88bd 05f4 efbd de27 92bd d0dc bebd
00000070: e4b9 bb3b be49 5a3c f85a 08bd 8025 cc3c
00000080: 3fbc a33a ac01 d03c a0cf 3c3d aab7 bd3a
00000090: 0b1c e03d 01b7 953d 571b 87bd e885 ac3d
000000a0: b44c 9fbc 4249 d3bb 1a7c f43b b835 aebd
000000b0: 6051 973d 7c3f 763d 0720 e03d c004 a93c
000000c0: 21d1 36bd f855 cbbc 1caf 9cbc 080c d1bd
000000d0: 64f3 123d ce80 793b 1d19 34bd 65a3 7abd
000000e0: c7bf e0bc dda6 d13b 9587 973d 8191 473d
000000f0: 7e2e 9c3d 0a15 b03d b0ba 6ebd c68a e2bb
00000100: 1f05 dfbd 1674 8ebd 997d d53c 6408 1b3d
00000110: 4ca3 233d 074e 943d 90db 1a3d f9e7 65bd
00000120: de36 8cbc f6ae 4c3c 6c10 303d dd34 a0bd
00000130: a28e 81bd 96ae 1f3d 1ffe 283d d701 bc3d
00000140: 8c70 a63d fe5c 4bbd a5fd 003d dacf 96bd
00000150: 8667 57bc 26cc 8dbc bb91 ac3c cccb ab3d
00000160: 9e56 a8bd 5de2 933d 1428 7a3d 2c9f 32bd
00000170: 1c2f 25bd 13ec 0dbd f260 673d fdff b6bc
00000180: 1ee2 083d 7993 58bd 88a9 913d e93e 5dbc
00000190: efae c33d 01f7 9fbd 7856 dbbc 20a6 8e3d
000001a0: 68fc 413d f4cb 3ebd 72a9 a1bd ba1b 94bd
000001b0: 35ee acbd b071 38bd be87 1ebd 85d8 87bc
000001c0: 023e bd3d 497f 5fbc afdd 51bd 7d3c 1b3d
000001d0: 8410 5fbd a071 3abd 7043 883a 3cb8 c63b
000001e0: 64b9 85bd 2e96 abbd b2e8 cbbd c06c d5bc
000001f0: f1b3 5e3d 856d a43c 3a3b ad3d 5895 983c
00000200: 16b1 73bd a0ad 4b3b b7a3 ecbc d235 753d
00000210: 080a 1a3d 1643 d23d 7ef8 c1bd 6ed4 e3bc
00000220: 7f20 b5bd 33ac 843c a181 63bd e9f7 ddbc
00000230: 7393 c83d a00a c4bc 56d8 883d 824e 9a3d
00000240: 4c00 a83d c023 a33d 8eee 733d da0d 143c
00000250: 8e72 c13d a297 c83d 9841 60bd d4e6 eb3c
00000260: b3f4 9a3d a4fa 58bd 8e97 6e3d 1aca 9c3d
00000270: af39 683c f383 97bc 5908 bbbb b003 bd3d
00000280: e628 9abd 5f50 2e3d f47b 25bd 2599 823d
00000290: 149a cdbc ae42 113d cffd 893d d6a6 72bc
000002a0: 36ec 1abc f5ff de3d 9dec b43d e489 923d
000002b0: 55c5 783c 7a85 fe3b 87d1 6cbd b4cf ae3d
000002c0: ae9f 8f3d 92a8 9d3d 760c 87bd 28ab 063d
000002d0: a073 ba3c 60fb 09bd 3c48 96bb ea7e dc3c
000002e0: ddc5 04bd 302d bf3d 961a b0bd 7510 53bb
000002f0: f81c 3fbd b6a5 b43d 92fc 19bd 2474 85bc
00000300: 6bb8 cd3d 4985 89bd 1c37 cbbc b1a0 bb3d
00000310: f68c b53d 8e57 aabc d96c d3bc d5b3 3bbd

layers.3.bias f4 [2]
-0.06266555 0.10688545
00000000: cc56 80bd c2e6 da3d
