clients_data/client_DP_trained_model/client2.pth (torch, 86087 bytes, 6 tensors)

layers.1.layers.0.weight f4 [100, 105]
0.068367586 0.08811427 -0.026600879 0.08931592 -0.031003522 0.023082126 -0.048942715 0.052928302
0.085321344 -0.06793887 0.0882272 0.019401938 0.07135431 0.018104082 0.046916395 -0.011101696
0.080414705 0.0077680973 -0.053202607 0.02068452 -0.058584392 -0.011142648 -0.049235355 0.054496285
-0.07321636 -0.052602444 -0.032338746 -0.06669607 0.0022391486 -0.10579955 0.09297067 -0.07603282
0.07558965 0.025659192 -0.03132553 0.053608518 0.024909647 0.07342643 0.015737958 -0.029461253
0.028117776 -0.029697917 0.045300767 0.079086214 0.062293462 -0.054675907 0.059429266 0.017650526
0.047627952 -0.06814655 -0.09216461 -0.03635264 -0.08781536 0.07896608 0.028855633 0.035305783
0.033278868 0.014003104 0.06309103 -0.07964455 0.0036983553 -0.057385653 0.024862321 -0.026519746
0.033588853 -0.01336946 0.07286746 -0.05625781 -0.051039457 -0.06292029 0.08966615 0.022839354
0.107003376 -0.06868163 -0.10415999 -0.06752634 -0.065694235 0.035670593 0.043107223 0.06736599
-0.06361705 -0.059875004 0.059135884 -0.049033027 0.063803695 -0.031759437 0.04739357 -0.080095425
-0.0575611 0.042121 0.030377068 -0.034734536 0.060974974 0.071328886 -0.07181563 -0.05579334
0.090716414 -0.038562868 -0.026908737 -0.09712743 -0.05006483 0.016554577 -0.02340775 -0.06740963
0.0066662384 -0.07337812 -0.07899571 -0.04455933 -0.07966325 -0.06614341 0.097820826 0.012533426
0.026939565 -0.08077364 -0.05780007 -0.040840127 0.016842512 -0.09140345 -0.0382571 -0.06359203
-0.0038922166 -0.03361663 -0.011557671 -0.056385588 -0.07424671 -0.058511164 -0.040394295 -0.06772679
0.08234425 -0.016819458 0.0954661 0.025187384 -0.07196723 0.078474216 -0.011175043 -0.031490054
-0.07475849 -0.09566793 0.030717257 -0.016718661 0.031452 -0.06789488 0.069551885 -0.07432558
-0.019557694 0.0077019683 0.04959804 0.089364335 0.08841551 -0.082653604 0.016637644 -0.035536867
-0.008431036 -0.062872365 0.08814129 -0.06610916 0.06588211 0.027114248 0.029224297 -0.055331487
0.08556421 0.02389153 0.021668278 -0.07962122 0.045933135 -0.01877931 -0.045419537 0.08637464
0.024283875 -0.05325489 -0.043743208 0.001736823 0.058781944 -0.025120547 -0.0430933 -0.035385706
-0.06580433 0.02695677 0.07478198 -0.090101875 0.025825342 0.04623798 0.017587807 -0.040027194
0.05674337 0.06375763 0.03895854 -0.023271272 -0.021733059 0.012012066 -0.016750906 -0.03884737
0.06997623 0.08568765 0.004070792 -0.019811772 0.0075332345 -0.0062225754 0.021074064 0.033912428
-0.08132011 -0.02681165 0.07834488 0.0365162 0.018601349 -0.063463904 -0.057022322 -0.092609994
-0.027744371 0.029930996 0.053166673 0.04244709 -0.079531334 -0.058211442 -0.0054114405 0.093852594
0.016294919 -0.032397933 0.032779302 -0.03281413 -0.067906745 0.065712295 -0.046780862 -0.032433644
-0.09342771 0.05989435 0.06713312 0.02721468 -0.06962929 -0.09154405 -0.07593116 0.07537466
0.0481331 0.0888501 0.03245821 0.014012393 -0.0064419513 -0.06413164 -0.08133472 -0.106588796
0.033909068 -0.033429883 -0.020883607 -0.056958336 -0.017201852 -0.06679146 -0.062122352 0.029297514
-0.017707597 0.05903017 -0.023017935 -0.07510287 -0.029246064 -0.04636089 -0.022032479 -0.092834264
00000000: 4e04 8c3d 4175 b43d 16ea d9bc 44eb b63d
00000010: 19fb fdbc ba16 bd3c 2878 48bd 59cb 583d
00000020: f5bc ae3d 8923 8bbd 76b0 b43d d0f0 9e3c
00000030: 3522 923d 034f 943c 682b 403d e3e3 35bc
00000040: 77b0 a43d 868b fe3b faea 59bd 9572 a93c
00000050: 30f6 6fbd a78f 36bc 03ab 49bd 7f37 5f3d
00000060: 75f2 95bd a975 57bd a275 04bd f397 88bd
00000070: aebe 123b 6fad d8bd 6867 be3d 18b7 9bbd
00000080: bfce 9a3d 3a33 d23c 334f 00bd 9b94 5b3d
00000090: 510f cc3c 9960 963d e4ec 803c ba58 f1bc
000000a0: 4057 e63c 0c49 f3bc 4c8d 393d f4f7 a13d
000000b0: 6e27 7f3d d8f3 5fbd 1a6c 733d d697 903c
000000c0: 8715 433d 6b90 8bbd cdc0 bcbd 81e6 14bd
000000d0: 8ad8 b3bd f8b8 a13d a662 ec3c cc9c 103d
000000e0: 6c4f 083d 466d 653c df35 813d af1c a3bd
000000f0: 1b60 723b 380d 6bbd 11ac cb3c f03f d9bc
00000100: 7794 093d 940b 5bbc 893b 953d 976e 66bd
00000110: c00e 51bd 5adc 80bd e3a2 b73d 9919 bb3c
00000120: 9624 db3d f4a8 8cbd d551 d5bd 404b 8abd
00000130: b38a 86bd 541b 123d 3391 303d 2ef7 893d
00000140: a849 82bd 7e3f 75bd 7838 723d dbd6 48bd
00000150: 83ab 823d 2f16 02bd c31f 423d 1209 a4bd
00000160: 30c5 6bbd 1287 2c3d 54d9 f83c cd45 0ebd
00000170: e5c0 793d e114 923d 1314 93bd 8f87 64bd
00000180: 87c9 b93d 19f4 1dbd b66f dcbc bfea c6bd
00000190: c710 4dbd 779d 873c 9cc1 bfbc 0f0e 8abd
000001a0: 7670 da3b 4547 96bd 81c8 a1bd d883 36bd
000001b0: 7c26 a3bd 3276 87bd 4956 c83d 0059 4d3c
000001c0: 5db0 dc3c a66c a5bd c4bf 6cbd fa47 27bd
000001d0: 4ff9 893c bb31 bbbd 7ab3 1cbd 8a3c 82bd
000001e0: 8f14 7fbb 97b1 09bd 635c 3dbc 93f4 66bd
000001f0: a90e 98bd 67a9 6fbd 7d74 25bd 58b4 8abd
00000200: 1aa4 a83d f6c8 89bc bb83 c33d c655 ce3c
00000210: 8e63 93bd 17b7 a03d 8717 37bc b7fb 00bd
00000220: fb1a 99bd 8ced c3bd c2a2 fb3c 93f5 88bc
00000230: d0d3 003d 790c 8bbd 3871 8e3d 0238 98bd
00000240: 7537 a0bc cb60 fc3b 5027 4b3d a604 b73d
00000250: 3113 b53d 4b46 a9bd ab4b 883c 1b8f 11bd
00000260: 5422 0abc 3ac3 80bd 6c83 b43d 3d64 87bd
00000270: 33ed 863d b31e de3c cb67 ef3c 45a3 62bd
00000280: 4a3c af3d 2cb8 c33c ac81 b13c 7310 a3bd
00000290: 6224 3c3d 11d7 99bc d609 3abd 30e5 b03d
000002a0: faee c63c cd21 5abd 142c 33bd 1ca6 e33a
000002b0: 56c5 703d 9bc9 cdbc 9a82 30bd 9af0 10bd
000002c0: 6cc4 86bd 72d4 dc3c 4b27 993d 5587 b8bd
000002d0: ab8f d33c 0964 3d3d 4e14 903c 8ef3 23bd
000002e0: bc6b 683d 5c93 823d fd92 1f3d 65a3 bebc
000002f0: 8709 b2bc 42ce 443c 3239 89bc 6b1e 1fbd
00000300: b34f 8f3d 027d af3d 4764 853b 4c4c a2bc
00000310: 5ad9 f63b bfe6 cbbb 84a3 ac3c c2e7 0a3d
00000320: 288b a6bd 1ba4 dbbc 4873 a03d 0392 153d
00000330: db61 983c 5df9 81bd 3d90 69bd 4faa bdbd
00000340: 2a48 e3bc d931 f53c 4cc5 593d 00dd 2d3d
00000350: 53e1 a2bd 1f6f 6ebd 7452 b1bb ca35 c03d
00000360: ec7c 853c b2b3 04bd 9743 063d 1c68 06bd
00000370: b112 8bbd 2b94 863d 4a9d 3fbd 24d9 04bd
00000380: 0757 bfbd c753 753d 177d 893d 52f1 de3c
00000390: cd99 8ebd 727b bbbd cc81 9bbd 085e 9a3d
000003a0: 3727 453d 0bf7 b53d e6f2 043d 3c94 653c
000003b0: 0117 d3bb 7357 83bd d192 a6bd 3a4b dabd
000003c0: 3ce4 0a3d c6ed 08bd 1914 abbc 254d 69bd
000003d0: e6ea 8cbc f6c9 88bd 0274 7ebd 5701 f03c
000003e0: 860f 91bc 9fc9 713d 1c90 bcbc 89cf 99bd
000003f0: 7195 efbc ebe4 3dbd 757d b4bc e41f bebd

layers.1.layers.0.bias f4 [100]
0.06979807 0.0409596 -0.004573141 0.056904238 0.0032999497 -0.020910699 -0.047007706 -0.087880656
0.07356071 -0.056547366 -0.08331214 -0.04432917 0.018797556 -0.0056494456 0.051964093 0.06451517
0.057676867 -0.08663473 0.050747182 0.051757343 -0.0579245 -0.0013831425 0.0120678805 0.01713639
0.047373034 0.08776612 0.09116483 0.024196263 0.058124304 0.04654214 -0.045737695 0.07283748
-0.0023887644 0.04522375 -0.06560381 0.08418139 0.018896412 0.021278532 -0.08387548 -0.0017706358
-0.030106764 0.0822473 -0.0985847 -0.03108853 -0.05038727 -0.08497062 0.04319375 -0.07128513
0.042541597 0.016409382 -0.052547574 0.0018415204 0.020832513 -0.034224473 -0.06377652 -0.06075261
0.013127853 -0.090102255 0.06539947 0.05786116 0.09812684 0.082786396 -0.05537786 -0.0457714
0.06340043 -0.019314755 -0.0753789 -0.042319108 0.08004122 -0.05898767 0.032252524 -0.0804318
0.04987012 0.024792356 0.06565197 -0.0021744657 0.039585374 0.08967887 -0.011709323 -0.062187124
-0.064417146 0.05511369 -0.0680507 -0.084146865 -0.08749171 -0.02936953 0.011594513 -0.08249622
-0.044687293 0.08489244 -0.020344513 -0.036241785 0.058193497 -0.06450572 -0.078596614 0.017423894
0.03172298 -0.09878273 0.08525286 -0.048597954
00000000: 4af2 8e3d 41c5 273d 4ada 95bb 6b14 693d
00000010: f843 583b ea4c abbc 278b 40bd c6fa b3bd
00000020: ffa6 963d 369e 67bd 8e9f aabd 8192 35bd
00000030: 55fd 993c fc1e b9bb 4dd8 543d 8820 843d
00000040: 943e 6c3d 8d6d b1bd 47dc 4f3d 82ff 533d
00000050: 3e42 6dbd 904a b5ba 5cb8 453c 9d61 8c3c
00000060: 3a0a 423d b9be b33d a0b4 ba3d 3e37 c63c
00000070: c013 6e3d f9a2 3e3d 7357 3bbd d12b 953d
00000080: d18c 1cbb 8a3c 393d 4a5b 86bd 4b67 ac3d
00000090: a6cc 9a3c 5150 ae3c e8c6 abbd ae14 e8ba
000000a0: 76a2 f6bc 4671 a83d c6e6 c9bd 5fad febc
000000b0: e262 4ebd 1405 aebd eeeb 303d f0fd 91bd
000000c0: 1940 2e3d f86c 863c 203c 57bd 2c5f f13a
000000d0: f2a8 aa3c f62e 0cbd 449d 82bd bbd7 78bd
000000e0: 3516 573c 8887 b8bd 28f0 853d d3ff 6c3d
000000f0: baf6 c83d ea8b a93d e5d3 62bd cb7a 3bbd
00000100: 16d8 813d fa39 9ebc 4160 9abd cd56 2dbd
00000110: a7ec a33d 0e9d 71bd 391b 043d 6db9 a4bd
00000120: 9c44 4c3d 5719 cb3c 8a74 863d 7b81 0ebb
00000130: 4624 223d 8ea9 b73d 76d8 3fbc edb7 7ebd
00000140: 23ed 83bd e5be 613d 2a5e 8bbd 3155 acbd
00000150: db2e b3bd 5e98 f0bc eaf6 3d3c c7f3 a8bd
00000160: 060a 37bd 16dc ad3d 89a9 a6bc 4472 14bd
00000170: 4e5c 6e3d 931b 84bd 43f7 a0bd 8ebc 8e3c
00000180: f5ef 013d 9a4e cabd 0d99 ae3d a60e 47bd

layers.2.layers.0.weight f4 [100, 100]
0.021196565 0.06631256 0.048126087 0.030782009 -0.08117858 -0.09394615 0.035817456 0.00035535707
0.073087096 0.04619903 -0.068530165 0.016569857 -0.07104337 -0.04337607 0.023801476 -0.0014984502
-0.06465468 0.027796946 0.07216072 -0.09777275 0.0955336 0.06035354 -0.013204194 -0.1053406
-0.044756833 0.03471942 -0.036578167 -0.030312382 -0.045636155 0.0802782 0.080616325 -0.087511696
-0.036260094 0.08970777 -0.009582842 -0.06253753 0.009961936 0.07256751 -0.020407079 -0.082630955
-0.04188701 0.05060279 -0.019301508 0.08642799 0.036660776 0.0067846216 0.04543412 -0.013775453
-0.09058249 -0.08190442 -0.089874975 -0.021120235 -0.06985492 0.017538946 0.021491926 0.07901176
0.003954053 0.007776956 0.040459666 -0.013681204 -0.038506716 -0.097852424 -0.09753978 0.002554532
-0.042572398 0.015492777 0.024857018 0.07475016 -0.012878401 -0.0029189552 0.06893782 0.005491926
0.04358662 -0.044896655 -0.06917206 0.07011799 0.07498465 -0.034479734 0.010135547 -0.090424635
0.009558184 -0.08653462 0.053476118 -0.09598486 -0.024839481 0.10407454 -0.035758566 -0.06557751
0.08555366 -0.040859308 0.028756743 0.061144575 0.022234762 -0.0653951 0.09163301 0.052920867
-0.07102175 -0.06490121 -0.02271654 0.040998347 0.028241858 0.0028267489 0.06825952 0.082668774
0.017411023 0.031669665 0.042575702 0.014729363 0.0009508234 0.08656872 0.07512087 0.06335713
-0.044420242 -0.054679178 -0.054698672 -0.08111142 -0.010215937 0.057184394 -0.011373488 -0.030166695
-0.019404069 -0.07634104 -0.064558886 0.01207618 -0.067764334 0.019803742 0.07527413 0.022551352
0.07011391 -0.073444486 0.004776889 -0.105809666 -0.00078744115 -0.07433246 0.09700968 -0.08069634
0.038019698 -0.053710952 0.022874674 0.0067983717 -0.015028178 -0.04633916 0.05454002 -0.022369187
0.004274461 -0.020104226 -0.073368974 -0.041197043 0.09952029 0.085296035 -0.038160503 0.01994733
0.0141843585 0.087726265 0.013044129 0.010771522 -0.03399886 0.019853298 -0.09440649 -0.100299165
0.0020924145 -0.08073492 -0.07057217 -0.017637018 0.06665822 0.055752803 -0.028640117 -0.0077809785
0.07895054 0.024962261 0.06032052 -0.04487597 -0.08702379 -0.045001697 0.0146355685 -0.035680503
-0.049340885 0.09473877 -0.09610806 0.0057967096 0.05816925 -0.012266228 0.051871363 0.00019081405
-0.05527733 -0.061870717 -0.044625156 -0.10118136 0.058915317 0.080750704 -0.053653825 0.006997742
0.027121233 0.027486524 -0.050492845 -0.058558673 0.088950485 0.06150221 0.09568035 0.07101483
0.00093001244 0.07667935 -0.0048892377 0.0071466547 -0.038551003 0.0834918 -0.019900294 0.012688292
-0.09030499 0.03646694 -0.050672926 -0.02019293 -0.004253575 0.040323675 -0.0022592125 0.011469625
-0.050059035 -0.07467003 0.030512072 -0.04075935 -0.075486295 -0.031165758 -0.10168219 0.010812628
-0.00029379077 0.088980444 -0.06423381 -0.048775654 0.028152952 -0.031828187 0.09099051 0.0075986953
0.00046615177 -0.03914492 0.05861585 -0.05047405 0.037014514 0.06737392 -0.069962606 -0.09443188
-0.052809406 0.048118368 -0.0480806 0.018467689 0.009421733 0.025333634 -0.059401542 -0.000104109175
0.0684663 0.055066217 0.018365031 -0.083977506 0.0537229 -0.04053427 0.0664474 0.042570475
00000000: 6ba4 ad3c e1ce 873d dc1f 453d 8d2a fc3c
00000010: f540 a6bd d766 c0bd 53b5 123d 384f ba39
00000020: b0ae 953d 323b 3d3d 8b59 8cbd 82bd 873c
00000030: 307f 91bd 1bab 31bd 50fb c23c a567 c4ba
00000040: ac69 84bd 6cb6 e33c 00c9 933d 143d c8bd
00000050: 1fa7 c33d 4635 773d 6756 58bc d0bc d7bd
00000060: f152 37bd f335 0e3d fdd2 15bd ac51 f8bc
00000070: faec 3abd e668 a43d 2c1a a53d 5539 b3bd
00000080: 7785 14bd b5b8 b73d 5a01 1dbc ad13 80bd
00000090: 6337 233c 469e 943d bf2c a7bc 6b3a a9bd
000000a0: b791 2bbd df44 4f3d 321e 9ebc 2801 b13d
000000b0: 9c29 163d 8851 de3b 2119 3a3d 70b2 61bc
000000c0: 5083 b9bd 81bd a7bd 5f10 b8bd 5804 adbc
000000d0: 1910 8fbd d6ad 8f3c d60f b03c ebd0 a13d
000000e0: 0091 813b d6d5 fe3b 09b9 253d 2127 60bc
000000f0: 38b9 1dbd da66 c8bd f0c2 c7bd ef69 273b
00000100: 6560 2ebd 6bd5 7d3c f2a0 cb3c 9d16 993d
00000110: eeff 52bc f14b 3fbb 462f 8d3d 9df5 b33b
00000120: e287 323d 8ee5 37bd 15aa 8dbd 059a 8f3d
00000130: 8d91 993d 9f3a 0dbd 910f 263c 8d30 b9bd
00000140: ee99 1c3c 1039 b1bd c609 5b3d b693 c4bd
00000150: 2b7c cbbc 0825 d53d 9377 12bd 804d 86bd
00000160: c236 af3d 175c 27bd 4393 eb3c bc72 7a3d
00000170: ad25 b63c deed 85bd 16aa bb3d 8dc3 583d
00000180: da73 91bd edea 84bd 0a18 babc e2ed 273d
00000190: 785b e73c fa40 393b a6cb 8b3d 3f4e a93d
000001a0: 90a1 8e3c 0db8 013d dc63 2e3d 6d53 713c
000001b0: ae40 793a f14a b13d f8d8 993d 62c1 813d
000001c0: 00f2 35bd 46f7 5fbd b70b 60bd bf1d a6bd
000001d0: bf60 27bc 2f3a 6a3d de57 3abc 2520 f7bc
000001e0: 48f5 9ebc b158 9cbd 7337 84bd 2cdb 453c
000001f0: 07c8 8abd 753b a23c 5329 9a3d 9dbd b83c
00000200: e297 8f3d 106a 96bd 7387 9c3b bdb2 d8bd
00000210: 486c 4eba 9e3b 98bd 03ad c63d 1f44 a5bd
00000220: 8bba 1b3d 0400 5cbd ab63 bb3c e0c4 de3b
00000230: bf38 76bc 22ce 3dbd 5b65 5f3d 963f b7bc
00000240: c710 8c3b 9eb1 a4bc 7942 96bd 3bbe 28bd
00000250: 4bd1 cb3d b0af ae3d 304e 1cbd 9568 a33c
00000260: 8365 683c d4a9 b33d 0bb7 553c 0a7b 303c
00000270: 6342 0bbd 62a3 a23c 3158 c1bd a669 cdbd
00000280: e420 093b 5a58 a5bd 2488 90bd 827b 90bc
00000290: 1b84 883d 0d5d 643d ae9e eabc 94f7 febb
000002a0: d2b0 a13d a87d cc3c a612 773d ddcf 37bd
000002b0: 8739 b2bd b353 38bd 06ca 6f3c b825 12bd
000002c0: ab19 4abd 6606 c23d 4dd4 c4bd 53f2 bd3b
000002d0: e142 6e3d 4af8 48bc 1177 543d 4215 4839
000002e0: 7b6a 62bd 266c 7dbd dec8 36bd 2c38 cfbd
000002f0: 3051 713d a060 a53d 1dc4 5bbd 514d e53b
00000300: 592d de3c 6b2b e13c 96d1 4ebd 38db 6fbd
00000310: ac2b b63d bee9 7b3d 0ff4 c33d 3970 913d
00000320: 14cc 733a 100a 9d3d e635 a0bb 7c2e ea3b
00000330: a8e7 1dbd c0fd aa3d f105 a3bc 8ee2 4f3c
00000340: d3f1 b8bd 5c5e 153d 6a8e 4fbd a56b a5bc
00000350: 9361 8bbb 702a 253d 4c0f 14bb 18eb 3b3c
00000360: b40a 4dbd 9aec 98bd 74f4 f93c 47f3 26bd
00000370: 8f98 9abd 554f ffbc c13e d0bd 7327 313c
00000380: ee07 9ab9 613b b63d 048d 83bd fbc8 47bd
00000390: 05a1 e63c 465e 02bd 3c59 ba3d 7afe f83b
000003a0: d565 f439 6c56 20bd 2c17 703d e1bd 4ebd
000003b0: 889c 173d 56fb 893d 8e48 8fbd 8065 c1bd
000003c0: ad4e 58bd c417 453d 2af0 44bd 8d49 973c
000003d0: 9d5d 1a3c 7b88 cf3c 084f 73bd 3055 dab8
000003e0: 0f38 8c3d 1d8d 613d 4372 963c 66fc abbd
000003f0: 8b0c 5c3d 4307 26bd 9315 883d 615e 2e3d

layers.2.layers.0.bias f4 [100]
-0.0442762 -0.025179459 -0.09090091 -0.0074823056 0.06439866 -0.061555818 -0.013972688 0.06595289
-0.063181184 0.021918608 -0.020137686 0.088336594 -0.0015488081 0.08845625 -0.0385178 -0.06770662
0.0048793196 -0.060846515 -0.05152144 0.06065446 0.08935537 -0.061271038 -0.10876556 0.02551944
-0.088322856 -0.019031372 0.043221764 0.03225221 0.013355279 0.04514731 -0.054121412 -0.032736037
-0.021555584 -0.09434924 -0.06719525 0.010094121 0.017275998 -0.054009486 0.06374725 -0.032718997
0.008463057 0.083975725 0.07087054 0.11015688 0.031463236 -0.06959738 -0.039122563 -0.033286568
-0.06881779 -0.028886339 -0.094755955 -0.050505165 -0.102105185 0.09493336 0.032754418 0.09205516
0.06165615 0.09263095 -0.032698505 -0.041031893 -0.049943384 -0.093821846 -0.0053519662 0.02305584
0.06327557 -0.017005824 0.030088816 0.04497774 0.02303039 0.021687007 -0.04062563 0.07358721
-0.09786686 0.010282011 0.04481734 0.0755878 0.046529178 -0.012285885 0.06522216 -0.08637054
-0.028008662 -0.029962145 0.053718302 0.08832895 -0.031133361 0.017267607 -0.02599958 -0.0292777
0.040989853 0.021034261 -0.052412797 0.026022807 0.09829652 -0.070602216 -0.021288443 -0.08940554
-0.018532664 0.09851106 0.055536084 -0.08477847
00000000: f65a 35bd 2745 cebc 422a babd 212e f5bb
00000010: 72e3 833d f421 7cbd b3ed 64bc 4f12 873d
00000020: 2365 81bd a78e b33c caf7 a4bc d1e9 b43d
00000030: 6001 cbba 8d28 b53d d7c4 1dbd c5a9 8abd
00000040: b3e2 9f3b 323a 79bd 2508 53bd d070 783d
00000050: f3ff b63d 57f7 7abd 7ac0 debd 250e d13c
00000060: 9de2 b4bd aee7 9bbc 4e09 313d e51a 043d
00000070: 1ad0 5a3c 63ec 383d 6aae 5dbd 3916 06bd
00000080: 5695 b0bc 2d3a c1bd aa9d 89bd d061 253c
00000090: 6586 8d3c 0d39 5dbd eb8d 823d 5b04 06bd
000000a0: a2a8 0a3c 77fb ab3d 9324 913d ee99 e13d
000000b0: 98df 003d 1289 8ebd fb3e 20bd 7f57 08bd
000000c0: 57f0 8cbd 0ba3 ecbc 690f c2bd 81de 4ebd
000000d0: 861c d1bd 6c6c c23d 7f29 063d 6a87 bc3d
000000e0: 298b 7c3d 4cb5 bd3d deee 05bd 0f11 28bd
000000f0: 6f91 4cbd ab25 c0bd 8c5f afbb 9adf bc3c
00000100: 9f96 813d cc4f 8bbc d27c f63c 943a 383d
00000110: 3aaa bc3c f3a8 b13c 1067 26bd e4b4 963d
00000120: 6c6e c8bd e175 283c 6392 373d c7cd 9a3d
00000130: 6195 3e3d bd4a 49bc 3293 853d 0ae3 b0bd
00000140: 6c72 e5bc 2c73 f5bc b907 5c3d cfe5 b43d
00000150: 640b ffbc cc74 8d3c 12fd d4bc cad7 efbc
00000160: fae4 273d 0b50 ac3c cdae 56bd c82d d53c
00000170: b04f c93d e597 90bd 1a65 aebc 401a b7bd
00000180: d0d1 97bc 2bc0 c93d ce79 633d 56a0 adbd

layers.3.weight f4 [2, 100]
-0.08408112 0.008647346 -0.014073768 0.07533058 -0.041321862 0.07196969 -0.054581914 -0.021653725
-0.005374937 -0.05782064 -0.0004705561 -0.03384405 -0.048331603 -0.08787656 0.0006982635 0.098880686
0.04009428 -0.096823156 -0.054363832 0.04552248 -0.043557364 -0.0053999694 -0.042903308 0.033504304
-0.066717386 -0.11765253 -0.07147996 -0.094787605 0.0047224956 0.012954516 -0.03409079 0.024741584
0.0013939976 0.024903607 0.045910474 -0.00047195394 0.10954341 0.072848864 -0.06646763 0.0842769
-0.020688746 -0.006804289 0.0065355627 -0.08822135 0.073057055 0.059942137 0.109040655 0.0197387
-0.044996083 -0.026335433 -0.019086743 -0.101962194 0.035726417 0.0035533467 -0.043450642 -0.06121138
-0.027278392 0.005290814 0.073605694 0.048358664 0.07624549 0.08535509 -0.05852108 -0.0076995413
-0.110485174 -0.070623174 0.025820473 0.038488828 0.040161517 0.07155244 0.037737105 -0.056495987
-0.017449206 0.0119884545 0.04287109 -0.08094629 -0.06417588 0.038943682 0.04126833 0.09163713
0.080744 -0.049461856 0.030847257 -0.07386367 -0.013125583 -0.017855065 0.021014484 0.08293024
-0.08222235 0.07014932 0.060732186 -0.043799393 -0.042007357 -0.035726238 0.05589433 -0.02221116
0.03289815 -0.053665116 0.0705435 -0.013235037 0.09583633 -0.07754585 -0.02626185 0.068940304
0.04854326 -0.04575672 -0.07866218 -0.071571864 -0.08460351 -0.044225164 -0.039990705 -0.01605542
0.09274546 -0.0128662465 -0.050923686 0.038197227 -0.054364614 -0.044729248 0.0010918726 0.006266252
-0.06514797 -0.082600124 -0.09940245 -0.023982683 0.054429356 0.020559654 0.08470048 0.020218898
-0.058488622 0.0034766109 -0.028085757 0.060044426 0.037462432 0.10315482 -0.09452626 -0.025891868
-0.08855579 0.016449494 -0.055046026 -0.027132863 0.0991805 -0.023574503 0.06774439 0.078503
0.08286046 0.079835035 0.059949122 0.0099299615 0.09481985 0.09945965 -0.0547898 0.02868509
0.07581225 -0.052719634 0.057731375 0.07657777 0.014017108 -0.017388286 -0.0053244103 0.09265626
-0.07525826 0.043179665 -0.04016384 0.06455466 -0.023509188 0.036529794 0.06761902 -0.015449322
-0.009666592 0.10974869 0.08841186 0.0719186 0.015516959 0.008271807 -0.057703674 0.088077545
0.07104433 0.07702289 -0.06595208 0.03304131 0.023285592 -0.03387439 -0.003941619 0.027141025
-0.0324369 0.093893684 -0.085937105 -0.0022660226 -0.046632595 0.09026647 -0.037253197 -0.016100192
0.10212864 -0.06607146 -0.02421194 0.09148741 0.089168355 -0.020003596 -0.025228104 -0.046094522
00000000: b932 acbd 99ad 0d3c a995 66bc eb46 9a3d
00000010: 1d41 29bd d864 933d 4991 5fbd 2763 b1bc
00000020: 3d20 b0bb 56d5 6cbd f8b4 f6b9 0fa0 0abd
00000030: 5cf7 45bd a0f8 b3bd ac0b 373a f581 ca3d
00000040: e639 243d 384b c6bd 9cac 5ebd c875 3a3d
00000050: 3569 32bd 3af2 b0bb 61bb 2fbd cf3b 093d
00000060: 20a3 88bd cff3 f0bd 1664 92bd 0120 c2bd
00000070: 2abf 9a3b 2e3f 543c c9a2 0bbd ddae ca3c
00000080: ccb6 b63a a602 cc3c 9f0c 3c3d 9670 f7b9
00000090: 4c58 e03d c931 953d 2e20 88bd 5e99 ac3d
000000a0: 727b a9bc 83f6 debb 4628 d63b 65ad b4bd
000000b0: f09e 953d e385 753d b550 df3d 0eb3 a13c
000000c0: d04d 38bd 68bd d7bc cd5b 9cbc 8ed1 d0bd
000000d0: dd55 123d 44df 683b 4df9 31bd c9b8 7abd
000000e0: ef76 dfbc 915e ad3b 95be 963d bc13 463d
000000f0: 9826 9c3d a6ce ae3d cdb3 6fbd 6f4c fcbb
00000100: 0d46 e2bd e2a2 90bd 7585 d33c 76a6 1d3d
00000110: 6780 243d 168a 923d 3992 1a3d 5668 67bd
00000120: a3f1 8ebc 396b 443c 9999 2f3d 2bc7 a5bd
00000130: a56e 83bd 6983 1f3d fb08 293d 3fac bb3d
00000140: 1c5d a53d 8498 4abd 63b3 fc3c d645 97bd
00000150: af0c 57bc c944 92bc 9126 ac3c 54d7 a93d
00000160: 3164 a8bd 72aa 8f3d 50c2 783d fe66 33bd
00000170: e80f 2cbd ad55 12bd 74f1 643d 2ef4 b5bc
00000180: 36c0 063d f4cf 5bbd 1c79 903d c5d7 58bc
00000190: d645 c43d 5cd0 9ebd 1723 d7bc 9330 8d3d
000001a0: 4cd5 463d 666b 3bbd a319 a1bd 4594 92bd
000001b0: 9b44 adbd 7225 35bd 4bcd 23bd a886 83bc
000001c0: 55f1 bd3d f3cc 52bc 5b95 50bd b274 1c3d
000001d0: 6ead 5ebd 0436 37bd 2a1d 8f3a 2255 cd3b
000001e0: 4d6c 85bd 412a a9bd 8393 cbbd 5577 c4bc
000001f0: 51f1 5e3d b86c a83c 7277 ad3d 1aa2 a53c
00000200: c491 6fbd dad7 633b 1a14 e6bc 25f1 753d
00000210: 3572 193d d642 d33d fc96 c1bd 2f1b d4bc
00000220: bd5c b5bd 17c1 863c f177 61bd bd45 debc
00000230: 251f cb3d 511f c1bc 92bd 8a3d 2ec6 a03d
00000240: bfb2 a93d 8d80 a33d 368d 753d 47b1 223c
00000250: e930 c23d 80b1 cb3d 456b 60bd fefc ea3c
00000260: 7443 9b3d 8bf0 57bd bc77 6c3d ced4 9c3d
00000270: 03a8 653c e171 8ebc 6478 aebb 91c2 bd3d
00000280: 0121 9abd 29dd 303d d782 24bd 3c35 843d
00000290: 5796 c0bc 44a0 153d d77b 8a3d 271f 7dbc
000002a0: a060 1ebc ecc3 e03d 4711 b53d 0f4a 933d
000002b0: d83a 7e3c 7986 073c b05a 6cbd 0062 b43d
000002c0: b17f 913d 2dbe 9d3d e211 87bd 5356 073d
000002d0: 6dc1 be3c dfbf 0abd b228 81bb db56 de3c
000002e0: 8edc 04bd 554b c03d cbff afbd 8d81 14bb
000002f0: d201 3fbd a1dd b83d cf96 18bd 8de4 83bc
00000300: d228 d13d 7950 87bd 1e58 c6bc c05d bb3d
00000310: e69d b63d 95de a3bc 2bab cebc 9ccd 3cbd

layers.3.bias f4 [2]
-0.068272285 0.11249221
00000000: 57d2 8bbd 5162 e63d
