clients_data/client_DP_trained_model/client7.pth (torch, 86087 bytes, 6 tensors)

layers.1.layers.0.weight f4 [100, 105]
0.06837324 0.088168584 -0.026663553 0.089422785 -0.031033283 0.023007065 -0.0489497 0.052930992
0.085321344 -0.06782574 0.088263884 0.019332392 0.071383215 0.018083632 0.04719786 -0.0111280205
0.080211945 0.007864273 -0.053178497 0.020620663 -0.05854805 -0.011188104 -0.049128264 0.054464936
-0.073233925 -0.05258448 -0.032323167 -0.06671545 0.0024430102 -0.10589849 0.09294362 -0.076087475
0.07551124 0.025661437 -0.03127043 0.053497452 0.024870532 0.07333437 0.015822012 -0.029341567
0.028038798 -0.029648174 0.04540636 0.07904028 0.062220734 -0.05469859 0.059366778 0.017650526
0.047661655 -0.0682021 -0.09219267 -0.036291596 -0.087855354 0.078995086 0.029059676 0.035331704
0.03317711 0.01391015 0.06289572 -0.079576984 0.0036308237 -0.05734552 0.024889568 -0.026522636
0.033634175 -0.013366285 0.072472915 -0.056250162 -0.05109282 -0.062909536 0.08974408 0.023052905
0.10687292 -0.06867598 -0.10415294 -0.06751983 -0.06568552 0.03567945 0.043111905 0.067439735
-0.06361054 -0.05986936 0.05910952 -0.04902652 0.06379776 -0.031715125 0.04732996 -0.08009091
-0.05755354 0.04206997 0.030320741 -0.034729157 0.060952503 0.07111093 -0.07181291 -0.055786893
0.09066022 -0.03855837 -0.026894826 -0.097124554 -0.050056774 0.01694343 -0.023402631 -0.06740898
0.0066662384 -0.07329368 -0.079049304 -0.044474564 -0.0796414 -0.066085175 0.09775687 0.01254485
0.026942708 -0.08077364 -0.057816025 -0.04090074 0.016674686 -0.09123336 -0.03815293 -0.063502036
-0.004112688 -0.033518985 -0.011554331 -0.056377992 -0.07419276 -0.05840949 -0.04039958 -0.06772888
0.082313426 -0.016800296 0.09548063 0.025131598 -0.07196492 0.07844558 -0.011230752 -0.03134959
-0.07476204 -0.095528916 0.030712193 -0.016725743 0.03157915 -0.06797054 0.06947182 -0.07444563
-0.019480802 0.0076687746 0.04966866 0.08934462 0.088454954 -0.08259161 0.016525364 -0.03543818
-0.008431036 -0.06284167 0.08805856 -0.06609629 0.06592754 0.027049813 0.029272981 -0.055380117
0.08574812 0.023939973 0.02146592 -0.07962345 0.045863077 -0.018709254 -0.045318376 0.086381786
0.024372842 -0.05329144 -0.043750357 0.0015735147 0.05877965 -0.025170194 -0.043116886 -0.035382565
-0.06580879 0.02711765 0.07477532 -0.09009521 0.02606652 0.046412468 0.017564602 -0.04001562
0.05667144 0.06383223 0.03897479 -0.023276772 -0.021724593 0.011896575 -0.016691163 -0.038847953
0.06991736 0.08567436 0.004259665 -0.019724067 0.007558069 -0.006175665 0.020986464 0.034025636
-0.08130746 -0.026826017 0.078350216 0.036520574 0.018399822 -0.063431814 -0.057022918 -0.09260855
-0.02773277 0.029930996 0.053085614 0.042574532 -0.07959972 -0.058160283 -0.0055797873 0.09380991
0.016267288 -0.032395337 0.032779302 -0.032727644 -0.06792225 0.06568701 -0.04684554 -0.03231405
-0.093413234 0.059827443 0.066904955 0.027309608 -0.06962712 -0.09152154 -0.07590695 0.075413935
0.04821149 0.08882631 0.032422442 0.014090967 -0.00652893 -0.064289324 -0.081307426 -0.1064579
0.033959858 -0.033362523 -0.020945078 -0.056956306 -0.017220713 -0.06685671 -0.062018275 0.029477524
-0.01781716 0.059055917 -0.023016214 -0.07518084 -0.029296385 -0.04641088 -0.022083879 -0.09281624
00000000: 4507 8c3d bb91 b43d 866d dabc 4b23 b73d
00000010: 8339 febc 5079 bc3c 7b7f 48bd 2bce 583d
00000020: f5bc ae3d 39e8 8abd b2c3 b43d f75e 9e3c
00000030: 5d31 923d 2024 943c 8b52 413d 4d52 36bc
00000040: 2946 a43d 27d9 003c b2d1 59bd aaec a83c
00000050: 14d0 6fbd 4f4e 37bc b83a 49bd a016 5f3d
00000060: abfb 95bd d362 57bd 4c65 04bd 1ca2 88bd
00000070: e91a 203b 4fe1 d8bd 3a59 be3d c0d3 9bbd
00000080: a3a5 9a3d ef37 d23c 6c15 00bd 2520 5b3d
00000090: 49bd cb3c 5530 963d 2a9d 813c ba5d f0bc
000000a0: 9fb1 e53c bae0 f2bc 05fc 393d dfdf a13d
000000b0: 2bdb 7e3d a10b 60bd 942a 733d d697 903c
000000c0: de38 433d 8bad 8bbd 83cf bcbd 7fa6 14bd
000000d0: 82ed b3bd 2dc8 a13d 8f0e ee3c fab7 103d
000000e0: b9e4 073d 66e7 633c 79cf 803d 42f9 a2bd
000000f0: 1df3 6d3b 23e3 6abd 35e5 cb3c 0046 d9bc
00000100: fdc3 093d 43fe 5abc ae6c 943d 9266 66bd
00000110: b446 51bd b7d6 80bd bfcb b73d 72d9 bc3c
00000120: 31e0 da3d fea5 8cbd 234e d5bd d647 8abd
00000130: 2186 86bd 9d24 123d 1c96 303d d81d 8a3d
00000140: 3e46 82bd 9339 75bd d31c 723d 08d0 48bd
00000150: 66a8 823d b8e7 01bd 0fdd 413d b406 a4bd
00000160: 43bd 6bbd 9051 2c3d 3463 f83c 2940 0ebd
00000170: 55a9 793d 9ba2 913d a612 93bd cc80 64bd
00000180: 11ac b93d 62ef 1dbd 8a52 dcbc 3de9 c6bd
00000190: 5508 4dbd f3cc 8a3c e0b6 bfbc b80d 8abd
000001a0: 7670 da3b ff1a 96bd 9ae4 a1bd f62a 36bd
000001b0: 081b a3bd aa57 87bd c134 c83d ea88 4d3c
000001c0: f4b6 dc3c a66c a5bd 7fd0 6cbd 8987 27bd
000001d0: 5a99 883c 8ed8 babd 3f46 1cbd 5b0d 82bd
000001e0: bac3 86bb 344b 09bd 604e 3dbc 9cec 66bd
000001f0: 60f2 97bd ca3e 6fbd 087a 25bd 70b5 8abd
00000200: f193 a83d c6a0 89bc 598b c33d c8e0 cd3c
00000210: 5862 93bd 14a8 a03d 3001 38bc 6d68 00bd
00000220: d71c 99bd aaa4 c3bd 2398 fb3c 6d04 89bc
00000230: 2459 013d 2334 8bbd 3e47 8e3d f376 98bd
00000240: 3496 9fbc 584a fb3b 5d71 4b3d 50fa b63d
00000250: df27 b53d ca25 a9bd 3360 873c a027 11bd
00000260: 5422 0abc 22b3 80bd 0c58 b43d 7e5d 87bd
00000270: 0505 873d 9297 dd3c e4cd ef3c 43d6 62bd
00000280: b69c af3d c31d c43c 4cd9 af3c 9f11 a3bd
00000290: ecda 3b3d 2644 99bc c39f 39bd efe8 b03d
000002a0: 8ea9 c73c 2048 5abd 9333 33bd 643e ce3a
000002b0: eec2 703d b931 cebc 559b 30bd 4fed 10bd
000002c0: c2c6 86bd d525 de3c ce23 993d d683 b8bd
000002d0: 7489 d53c 001b 3e3d a4e3 8f3c 6be7 23bd
000002e0: 5020 683d 79ba 823d 08a4 1f3d eeae bebc
000002f0: c6f7 b1bc dae9 423c e8bb 88bc 081f 1fbd
00000300: d530 8f3d 0a76 af3d a994 8b3b 5e94 a1bc
00000310: aea9 f73b 3c5d cabb ceeb ab3c 775e 0b3d
00000320: 8784 a6bd 3cc2 dbbc 1476 a03d 9996 153d
00000330: 39bb 963c 8ae8 81bd dd90 69bd 8da9 bdbd
00000340: d62f e3bc d931 f53c 4d70 593d a262 2e3d
00000350: 2e05 a3bd 7a39 6ebd a6d6 b6bb 691f c03d
00000360: fa42 853c f9b0 04bd 9743 063d 6c0d 06bd
00000370: d21a 8bbd e986 863d 1ce1 3fbd bd5b 04bd
00000380: 704f bfbd 9f0d 753d 7705 893d 66b8 df3c
00000390: aa98 8ebd a56f bbbd 1a75 9bbd 9f72 9a3d
000003a0: 6979 453d 92ea b53d 65cd 043d cddd 663c
000003b0: a2f0 d5bb 1faa 83bd 8284 a6bd 9906 dabd
000003c0: 7e19 0b3d 24a7 08bd 0395 abbc 044b 69bd
000003d0: 7412 8dbc 2cec 88bd e006 7ebd d97a f13c
000003e0: 4bf5 91bc 9ee4 713d 808c bcbc 6af8 99bd
000003f0: f9fe efbc 5619 3ebd 40e9 b4bc 7116 bebd

layers.1.layers.0.bias f4 [100]
0.069650576 0.04078804 -0.004715615 0.05702358 0.0032485463 -0.021164274 -0.047071382 -0.08805615
0.073536076 -0.05657273 -0.08342193 -0.04439628 0.018866763 -0.00562518 0.052132677 0.064400196
0.057663567 -0.08662579 0.050607193 0.051674612 -0.057932395 -0.0013273287 0.012257176 0.016868796
0.047281306 0.08773584 0.09123016 0.023961965 0.05830397 0.0465236 -0.04590949 0.07296567
-0.0021585962 0.044771038 -0.06556107 0.08405569 0.019058334 0.021290477 -0.0840267 -0.0018313993
-0.030383326 0.08236133 -0.09864668 -0.031176165 -0.05054454 -0.084978275 0.043216944 -0.07147844
0.042699307 0.016304595 -0.052448798 0.0016321789 0.020628374 -0.034364104 -0.06376119 -0.060840912
0.013100268 -0.09020119 0.06539101 0.0576187 0.0978633 0.082441926 -0.055338904 -0.045749556
0.06342358 -0.019168481 -0.07542218 -0.042566426 0.08006121 -0.059153207 0.03223111 -0.08036216
0.049825445 0.02489624 0.065589376 -0.002108578 0.039527345 0.08966044 -0.011687307 -0.0622179
-0.06480425 0.054954547 -0.06790722 -0.084204234 -0.08747538 -0.029466059 0.011548168 -0.08232717
-0.044673778 0.08494396 -0.020418584 -0.036284477 0.058023926 -0.06450562 -0.07854198 0.017282424
0.03157943 -0.09892142 0.08522012 -0.048616417
00000000: f6a4 8e3d 5c11 273d 7285 9abb 8f91 693d
00000010: 90e5 543b b360 adbc eccd 40bd c856 b4bd
00000020: 159a 963d cfb8 67bd 1ed9 aabd e0d8 35bd
00000030: 788e 9a3c 6e53 b8bb 1389 553d 40e4 833d
00000040: a230 6c3d dd68 b1bd 7d49 4f3d c2a8 533d
00000050: 854a 6dbd c3f9 adba 53d2 483c 6e30 8a3c
00000060: 0baa 413d d9ae b33d e1d6 ba3d e24b c43c
00000070: 25d0 6e3d 888f 3e3d 970b 3cbd 066f 953d
00000080: 3c77 0dbb d661 373d e244 86bd 6425 ac3d
00000090: 3920 9c3c 5e69 ae3c 3116 acbd 900b f0ba
000000a0: 74e6 f8bc 0fad a83d 4507 cabd 2865 ffbc
000000b0: cb07 4fbd 1709 aebd 4004 313d 4a63 92bd
000000c0: 78e5 2e3d 3791 853c 8dd4 56bd d6ee d53a
000000d0: d6fc a83c 60c1 0cbd 3a95 82bd 5234 79bd
000000e0: 82a2 563c 67bb b8bd b9eb 853d 9601 6c3d
000000f0: 8e6c c83d 50d7 a83d 0cab 62bd e363 3bbd
00000100: 39e4 813d 3807 9dbc f276 9abd 225a 2ebd
00000110: 22f7 a33d a24a 72bd c504 043d eb94 a4bd
00000120: c415 4c3d 33f3 cb3c b953 863d 1230 0abb
00000130: 6de7 213d e59f b73d 1e7c 3fbc 32d8 7ebd
00000140: 17b8 84bd 0518 613d f112 8bbd 4573 acbd
00000150: 4b26 b3bd ce62 f1bc 8734 3d3c 269b a8bd
00000160: dafb 36bd 19f7 ad3d e044 a7bc 089f 14bd
00000170: 7faa 6d3d 861b 84bd 9eda a0bd df93 8d3c
00000180: 6f59 013d 5097 cabd e387 ae3d 0222 47bd

layers.2.layers.0.weight f4 [100, 100]
0.021250904 0.06603795 0.0480848 0.03075714 -0.081440754 -0.093936585 0.03579584 0.00023598084
0.073070325 0.046146516 -0.06843691 0.016405264 -0.07126562 -0.043265216 0.023535259 -0.0014528779
-0.06464391 0.027779782 0.07205638 -0.09782115 0.09555134 0.060285263 -0.013449631 -0.10517774
-0.044662293 0.034442563 -0.036499593 -0.030414118 -0.04565823 0.08039076 0.08029591 -0.087893695
-0.036170144 0.08945513 -0.009648289 -0.062831685 0.009873783 0.072447374 -0.020416046 -0.0826296
-0.042031247 0.050331462 -0.019329451 0.086147554 0.036602188 0.0066170376 0.045744803 -0.01378223
-0.090723336 -0.081999265 -0.09007811 -0.021320412 -0.07004159 0.017473955 0.021474473 0.07889828
0.0040108436 0.0076474724 0.040497188 -0.01386472 -0.038738023 -0.09799312 -0.09760222 0.0026375973
-0.042458255 0.015596143 0.024558026 0.07458508 -0.013006678 -0.0028110738 0.068601914 0.0055543226
0.04366102 -0.04482896 -0.06917254 0.07000179 0.074803434 -0.034449607 0.010208043 -0.09068319
0.009567845 -0.08665868 0.053412087 -0.09603182 -0.024994321 0.1040706 -0.035894353 -0.0655108
0.08541852 -0.04089014 0.028754445 0.061065935 0.022314496 -0.06553909 0.09164638 0.052824456
-0.071025744 -0.064931065 -0.022718446 0.040500533 0.028225021 0.002922679 0.06829023 0.08259371
0.017501472 0.031738393 0.042519845 0.014745688 0.00086382707 0.086673535 0.07522784 0.063408256
-0.044572562 -0.054559812 -0.05455693 -0.08107723 -0.010173749 0.05722956 -0.011029299 -0.030155616
-0.019325834 -0.07640646 -0.06450819 0.012129101 -0.067710005 0.019911328 0.07526992 0.022671564
0.07023844 -0.07351773 0.0048611555 -0.10578511 -0.00086667505 -0.07431048 0.096956976 -0.08061863
0.03806932 -0.053472072 0.02303944 0.006862333 -0.014951344 -0.046244215 0.05481098 -0.02232875
0.004270192 -0.02004776 -0.073455796 -0.041325357 0.09981178 0.08555502 -0.038144283 0.02009882
0.014330629 0.087821804 0.013092352 0.010884675 -0.033995263 0.019997038 -0.094342306 -0.10022676
0.0020446507 -0.08067463 -0.07064718 -0.017627012 0.06664953 0.05593968 -0.028540712 -0.0077450024
0.07911341 0.02497623 0.06047252 -0.044860728 -0.08683413 -0.044953175 0.014614041 -0.035688486
-0.04922546 0.09472506 -0.09592092 0.005859367 0.058169033 -0.012236954 0.0518887 0.00029638817
-0.055213317 -0.061777793 -0.04459133 -0.1011545 0.058983 0.080776505 -0.05365718 0.006971801
0.02713163 0.027612308 -0.0503062 -0.05836631 0.08914085 0.06156128 0.09597548 0.07108986
0.00094820035 0.07669955 -0.004890193 0.007142636 -0.03853598 0.0834862 -0.019903429 0.012672319
-0.09030406 0.036475267 -0.050661795 -0.020164415 -0.004253805 0.04032178 -0.0022378606 0.011471509
-0.05006359 -0.07464861 0.030567521 -0.04075829 -0.07547589 -0.031160254 -0.101643056 0.010817526
-0.00029352072 0.08905925 -0.06423345 -0.048749503 0.02815881 -0.031823203 0.09100852 0.0076424866
0.00048006081 -0.03915355 0.05861801 -0.050430045 0.037000958 0.0674257 -0.06995367 -0.09442637
-0.052797515 0.048167735 -0.048078306 0.018490346 0.009433452 0.02534864 -0.05940414 -7.96722e-05
0.068512544 0.05509237 0.018380841 -0.08395418 0.05371687 -0.04052036 0.06647154 0.042607754
00000000: 6016 ae3c e83e 873d 91f4 443d 66f6 fb3c
00000010: 69ca a6bd d361 c0bd a99e 123d a071 7739
00000020: e5a5 953d 2104 3d3d a728 8cbd 5564 863c
00000030: b6f3 91bd de36 31bd 04cd c03c 7e6e beba
00000040: 0764 84bd 6d92 e33c 4c92 933d 7556 c8bd
00000050: 6cb0 c33d aeed 763d d75b 5cbc 6d67 d7bd
00000060: cfef 36bd a513 0d3d 9980 15bd 0727 f9bc
00000070: 2004 3bbd e9a3 a43d 2f72 a43d 9c01 b4bd
00000080: 2527 14bd 4034 b73d db13 1ebc e6ad 80bd
00000090: a6c5 213c 4a5f 943d 8d3f a7bc b539 a9bd
000000a0: f528 2cbd 5d28 4e3d cc58 9ebc 216e b03d
000000b0: 2dec 153d bcd3 d83b e75e 3b3d ddce 61bc
000000c0: 28cd b9bd 3bef a7bd df7a b8bd 25a8 aebc
000000d0: f771 8fbd 8a25 8f3c 3ceb af3c 6c95 a13d
000000e0: 656d 833b a697 fa3b 61e0 253d da28 63bc
000000f0: c3ab 1ebd 9eb0 c8bd ace3 c7bd 8adb 2c3b
00000100: b5e8 2dbd f786 7f3c ea2d c93c 10c0 983d
00000110: f619 55bc fe39 38bb 297f 8c3d 0901 b63b
00000120: e6d5 323d 929e 37bd 55aa 8dbd 195d 8f3d
00000130: 8b32 993d 081b 0dbd a33f 273c 1cb8 b9bd
00000140: 73c2 1c3c 1b7a b1bd a2c6 5a3d 55ac c4bd
00000150: e4c0 ccbc f722 d53d f505 13bd 872a 86bd
00000160: e8ef ae3d 6b7c 27bd 718e eb3c 4620 7a3d
00000170: e4cc b63c 5c39 86bd 19b1 bb3d 755e 583d
00000180: f275 91bd 94fa 84bd 091c babc e3e3 253d
00000190: 2938 e73c 6b8a 3f3b c0db 8b3d e426 a93d
000001a0: 3f5f 8f3c 1e00 023d 4a29 2e3d e697 713c
000001b0: 7472 623a e581 b13d 0e11 9a3d 30dc 813d
000001c0: b891 36bd 1c7a 5fbd 1677 5fbd d20b a6bd
000001d0: ccaf 26bc 8b69 6a3d 3cb4 34bc e908 f7bc
000001e0: 3651 9ebc fd7a 9cbd df1c 84bd 23b9 463c
000001f0: 8bab 8abd 151d a33c 1e27 9a3d b7b9 b93c
00000200: 2cd9 8f3d 7790 96bd 544a 9f3b dda5 d8bd
00000210: 9431 63ba 1830 98bd 6191 c63d 611b a5bd
00000220: 93ee 1b3d 8805 5bbd 35bd bc3c 6cdd e03b
00000230: 7bf6 74bc 936a 3dbd 7a81 603d c8ea b6bc
00000240: f7ec 8b3b 333b a4bc fe6f 96bd c744 29bd
00000250: 1e6a cc3d 7837 af3d 2e3d 1cbd 48a6 a43c
00000260: 04cb 6a3c ebdb b33d 4e81 563c a355 323c
00000270: 9e3e 0bbd d4d0 a33c 8a36 c1bd b043 cdbd
00000280: 8cff 053b be38 a5bd 78af 90bd 8666 90bc
00000290: 8c7f 883d 0221 653d 36ce e9bc cac9 fdbb
000002a0: 3606 a23d f39a cc3c 08b2 773d e2bf 37bd
000002b0: 18d6 b1bd d220 38bd bb6f 6f3c 172e 12bd
000002c0: a3a0 49bd 36ff c13d 3072 c4bd efff bf3b
000002d0: a742 6e3d 817d 48bc 3f89 543d 8c64 9b39
000002e0: 5c27 62bd b60a 7dbd 66a5 36bd 172a cfbd
000002f0: 2998 713d 276e a53d a2c7 5bbd b573 e43b
00000300: 2743 de3c 3533 e23c e00d 4ebd 8311 6fbd
00000310: 7a8f b63d ae27 7c3d cb8e c43d 8f97 913d
00000320: a690 783a a714 9d3d ea3d a0bb c60c ea3b
00000330: e7d7 1dbd d0fa aa3d 840c a3bc 8f9f 4f3c
00000340: 56f1 b8bd 1767 153d be82 4fbd d82f a5bc
00000350: 8163 8bbb 7328 253d 12a9 12bb fff2 3b3c
00000360: 7b0f 4dbd 5fe1 98bd bd68 fa3c 2af2 26bd
00000370: 1a93 9abd ca43 ffbc 3c2a d0bd fe3b 313c
00000380: afe3 99b9 b264 b63d d48c 83bd 8fad 47bd
00000390: 4ead e63c 0c59 02bd ad62 ba3d d36d fa3b
000003a0: acb0 fb39 795f 20bd 7019 703d bc8f 4ebd
000003b0: 518e 173d 7c16 8a3d df43 8fbd 9d62 c1bd
000003c0: 3542 58bd 884b 453d c2ed 44bd 1179 973c
000003d0: c48e 1a3c f3a7 cf3c c151 73bd b015 a7b8
000003e0: 4e50 8c3d 89a8 613d 6b93 963c 2bf0 abbd
000003f0: 3806 5c3d adf8 25bd 3b22 883d 7885 2e3d

layers.2.layers.0.bias f4 [100]
-0.04467207 -0.024956228 -0.09085195 -0.007463023 0.06378806 -0.061426282 -0.014033936 0.06603363
-0.063154034 0.02180901 -0.019793456 0.08830617 -0.0022560982 0.08819859 -0.038320847 -0.06745577
0.0050545875 -0.061077006 -0.051332265 0.060960077 0.08946437 -0.061307352 -0.108711794 0.02576721
-0.088413626 -0.01953125 0.042948477 0.031728096 0.013570184 0.04514216 -0.05414781 -0.032777615
-0.021806706 -0.09463995 -0.06711765 0.010106027 0.017473906 -0.05397241 0.0636613 -0.032614384
0.0075686416 0.08404775 0.07077819 0.108875394 0.031392477 -0.06961156 -0.03901995 -0.033281602
-0.06880231 -0.029635651 -0.09476037 -0.050558023 -0.10225389 0.09516865 0.031959437 0.091395594
0.061595112 0.09264484 -0.032767136 -0.04127613 -0.04942348 -0.093636476 -0.0053674676 0.022813013
0.062628426 -0.017364303 0.02984345 0.045011647 0.023056276 0.021346768 -0.04080874 0.072619006
-0.0980634 0.010298235 0.04520922 0.07434 0.045564193 -0.012309422 0.06518542 -0.08625697
-0.028006664 -0.029919175 0.05377014 0.087658584 -0.031105177 0.0170096 -0.025880631 -0.029382328
0.04093422 0.020996392 -0.052007385 0.026085861 0.09730913 -0.07043651 -0.021148335 -0.089304574
-0.018758483 0.0984114 0.056104295 -0.084667675
00000000: 0ffa 36bd 0171 ccbc 9610 babd 608c f4bb
00000010: 50a3 823d 209a 7bbd 98ee 65bc a43c 873d
00000020: e756 81bd cfa8 b23c e325 a2bc ded9 b43d
00000030: 0cdb 13bb 76a1 b43d 52f6 1cbd 4026 8abd
00000040: f4a0 a53b e22b 7abd c841 52bd 46b1 793d
00000050: 1839 b73d 6b1d 7bbd 4aa4 debd c215 d33c
00000060: 3412 b5bd 0000 a0bc beea 2f3d 52f5 013d
00000070: 7a55 5e3c fce6 383d 18ca 5dbd d241 06bd
00000080: faa3 b2bc 97d2 c1bd fa74 89bd c093 253c
00000090: 7025 8f3c 2c12 5dbd db60 823d a996 05bd
000000a0: 5e02 f83b 3a21 ac3d 28f4 903d 10fa de3d
000000b0: 6695 003d 8190 8ebd 62d3 1fbd 4a52 08bd
000000c0: 3ae8 8cbd 77c6 f2bc ba11 c2bd ee15 4fbd
000000d0: 7d6a d1bd c8e7 c23d e6e7 023d 9d2d bb3d
000000e0: 284b 7c3d 94bc bd3d d536 06bd 2911 29bd
000000f0: 4670 4abd 7bc4 bfbd 95e1 afbb 5be2 ba3c
00000100: 5543 803d 953f 8ebc 407a f43c 225e 383d
00000110: 84e0 bc3c 6bdf ae3c 1127 27bd 46b9 943d
00000120: 77d5 c8bd eeb9 283c 4e2d 393d 923f 983d
00000130: 85a1 3a3d 75ad 49bc ef7f 853d 7fa7 b0bd
00000140: 3b6e e5bc 0f19 f5bc 143e 5c3d 5886 b33d
00000150: 49d0 febc b757 8b3c 9e03 d4bc 35b3 f0bc
00000160: a4aa 273d a000 ac3c b205 55bd 04b2 d53c
00000170: 024a c73d 0441 90bd 463f adbc 51e5 b6bd
00000180: 64ab 99bc eb8b c93d 9ecd 653d 3f66 adbd

layers.3.weight f4 [2, 100]
-0.08399884 0.009694432 -0.012927839 0.07554992 -0.039014474 0.07227718 -0.05422843 -0.021645831
-0.004480649 -0.05540414 -0.00060158165 -0.03350641 -0.048137035 -0.08738734 0.000958135 0.09902795
0.040254425 -0.09559528 -0.054627184 0.046290893 -0.04336297 -0.0044361325 -0.042831644 0.036966294
-0.06673096 -0.11692028 -0.07145068 -0.09285496 0.0057337126 0.01321981 -0.03348194 0.024926545
0.0025276742 0.026356729 0.046257887 0.0008544158 0.10861699 0.07342419 -0.06468395 0.08430856
-0.018851254 -0.005823612 0.007133854 -0.08543478 0.074415475 0.060796566 0.10916567 0.019267727
-0.045008108 -0.025009913 -0.019198185 -0.10209475 0.03624418 0.0049043396 -0.04085399 -0.061545324
-0.027396783 0.0067192744 0.073349774 0.04881473 0.076431304 0.0861961 -0.057947 -0.0069113187
-0.107152075 -0.07002001 0.027446691 0.03843599 0.039946567 0.07473694 0.038097426 -0.05572357
-0.016179597 0.01241618 0.04342917 -0.07745705 -0.061822962 0.039215866 0.0414757 0.09155692
0.080598414 -0.049325682 0.03263703 -0.07324354 -0.012914357 -0.016612789 0.021439387 0.08288666
-0.08219763 0.07129478 0.061255567 -0.04388831 -0.03996927 -0.03385822 0.055976026 -0.022004008
0.033398304 -0.053075414 0.07082636 -0.013472121 0.09575404 -0.07859293 -0.02740777 0.068720974
0.046235885 -0.046064187 -0.079015635 -0.07157977 -0.0854978 -0.04664166 -0.039859667 -0.016393064
0.09255089 -0.013355426 -0.05118356 0.038049996 -0.054524772 -0.04595711 0.0013552224 0.0054978402
-0.065342344 -0.08356398 -0.09947407 -0.027444681 0.05444292 0.019827379 0.084671184 0.01828625
-0.05949985 0.0032113171 -0.028694611 0.05985946 0.03632875 0.10170171 -0.094873644 -0.027218252
-0.08762937 0.015874188 -0.05682973 -0.027164549 0.097343005 -0.024555182 0.06714611 0.07571643
0.081502035 0.07898061 0.059824105 0.0104009295 0.09483188 0.09813409 -0.054678366 0.028817654
0.07529447 -0.054070633 0.05513472 0.07691172 0.014135508 -0.018816743 -0.005068456 0.092200205
-0.07544407 0.04233862 -0.040737938 0.06376645 -0.02684229 0.03592662 0.065992765 -0.015396484
-0.009451645 0.10656419 0.08805154 0.07114621 0.0142473485 0.00784408 -0.058261756 0.08458829
0.06869143 0.07675066 -0.06615943 0.03312155 0.023431169 -0.034010552 -0.005731387 0.02652091
-0.03264812 0.09265146 -0.086362 -0.0022224258 -0.0466573 0.08912103 -0.037776593 -0.01601125
0.10009055 -0.06793948 -0.024293622 0.09128025 0.088668235 -0.020593304 -0.02551096 -0.04585743
00000000: 9507 acbd 65d5 1e3c 49cf 53bc ebb9 9a3d
00000010: a4cd 1fbd 0f06 943d a11e 5ebd 9952 b1bc
00000020: 68d2 92bb 74ef 62bd 76b3 1dba 043e 09bd
00000030: 572b 45bd 22f8 b2bd 5a2b 7b3a 2acf ca3d
00000040: d3e1 243d 75c7 c3bd c1c0 5fbd 859b 3d3d
00000050: 5f9d 31bd fa5c 91bb 3c70 2fbd f869 173d
00000060: 3eaa 88bd e673 efbd bc54 92bd be2a bebd
00000070: dee1 bb3b e797 583c 5c24 09bd c132 cc3c
00000080: 56a7 253b 11ea d73c e978 3d3d e0fa 5f3a
00000090: 9672 de3d 6c5f 963d 0579 84bd f7a9 ac3d
000000a0: f26d 9abc 00d4 bebb 1bc3 e93b 6ef8 aebd
000000b0: 2467 983d d205 793d 4092 df3d 5ad7 9d3c
000000c0: 6c5a 38bd 97e1 ccbc 8345 9dbc 0d17 d1bd
000000d0: c774 143d 95b4 a03b 8356 27bd f316 7cbd
000000e0: 386f e0bc 5c2d dc3b 6838 963d f4f1 473d
000000f0: 0488 9c3d 9587 b03d d559 6dbd 5878 e2bb
00000100: 8c72 dbbd a766 8fbd e2d7 e03c 0f6f 1d3d
00000110: 039f 233d ae0f 993d 0c0c 1c3d 663e 64bd
00000120: 138b 84bc 3c6d 4b3c c9e2 313d cda1 9ebd
00000130: 133a 7dbd d1a0 203d 6ce2 293d 3282 bb3d
00000140: c810 a53d ba09 4abd 68ae 053d b600 96bd
00000150: bd96 53bc 8b17 88bc a7a1 af3c 7bc0 a93d
00000160: 3b57 a8bd ff02 923d 1ee7 7a3d 3bc4 33bd
00000170: d1b6 23bd ebae 0abd 1e47 653d c041 b4bc
00000180: a9cc 083d 9b65 59bd 690d 913d 2cba 5cbc
00000190: b21a c43d 55f5 a0bd 4286 e0bc 95bd 8c3d
000001a0: d761 3d3d cdad 3cbd f3d2 a1bd 6a98 92bd
000001b0: 7819 afbd 530b 3fbd e443 23bd bf4a 86bc
000001c0: 528b bd3d b7d0 5abc daa5 51bd 50da 1b3d
000001d0: 5e55 5fbd 863d 3cbd b8a1 b13a 3a27 b43b
000001e0: 35d2 85bd 9823 abbd 10b9 cbbd abd3 e0bc
000001f0: 8aff 5e3d 076d a23c 1668 ad3d 0ccd 953c
00000200: 1db6 73bd f674 523b f610 ebbc 312f 753d
00000210: 75cd 143d fc48 d03d 1d4d c2bd d0f8 debc
00000220: 0777 b3bd 960a 823c 4ac6 68bd 3088 debc
00000230: c55b c73d f327 c9bc e683 893d 3711 9b3d
00000240: 8aea a63d 96c0 a13d 1f0a 753d a968 2a3c
00000250: 3737 c23d 87fa c83d 6cf6 5fbd 0013 ec3c
00000260: fd33 9a3d 2b79 5dbd f2d4 613d e483 9d3d
00000270: 9e98 673c 9225 9abc 4a15 a6bb 76d3 bc3d
00000280: 6c82 9abd 436b 2d3d d3dc 26bd fc97 823d
00000290: 5de4 dbbc cb27 133d 3727 873d 8941 7cbc
000002a0: 13db 1abc 533e da3d 5e54 b43d 1bb5 913d
000002b0: b66d 693c 7584 003c e1a3 6ebd a03c ad3d
000002c0: 18ae 8c3d 732f 9d3d 987e 87bd 76aa 073d
000002d0: b9f2 bf3c a64e 0bbd 5cce bbbb 6142 d93c
000002e0: 09ba 05bd 0cc0 bd3d 8fde b0bd 1ea6 11bb
000002f0: ba1b 3fbd 1685 b63d a1bb 1abd 062a 83bc
00000300: 46fc cc3d db23 8bbd 6b03 c7bc 24f1 ba3d
00000310: b197 b53d 4ab3 a8bc 5cfc d0bc 00d5 3bbd

layers.3.bias f4 [2]
-0.06168487 0.10590477
00000000: 46a9 7cbd 9ae4 d83d
