clients_data/client_DP_trained_model/client1.pth (torch, 86087 bytes, 6 tensors)

layers.1.layers.0.weight f4 [100, 105]
000000 13 38 8c 3d 89 7b b4 3d 2b 40 da bc 48 22 b7 3d
       0.06846633 0.08812625 -0.026641926 0.089420855
000010 3d fe fd bc cf 0b bd 3c c2 b9 48 bd 1a cd 58 3d
       -0.03100502 0.02307692 -0.049005277 0.052929975
000020 f5 bc ae 3d 8c 12 8b bd 0d c9 b4 3d 17 4e 9e 3c
       0.085321344 -0.06790647 0.0882741 0.019324346
000030 8a 2e 92 3d a6 ea 93 3c 1d a2 40 3d 0a 12 35 bc
       0.07137783 0.018056225 0.047029603 -0.011051664
000040 de b1 a4 3d ed 17 fd 3b 85 dc 59 bd ff 7e a9 3c
       0.08041738 0.0077237994 -0.05318882 0.02069044
000050 61 ff 6f bd 73 7f 36 bc a7 97 49 bd b0 61 5f 3d
       -0.058593158 -0.011138785 -0.049216893 0.05453652
000060 af f5 95 bd 17 6d 57 bd 1b 39 04 bd 93 96 88 bd
       -0.07322251 -0.05259427 -0.032281023 -0.06669345
000070 02 a9 1a 3b 1f cc d8 bd 9c 29 be 3d fb ae 9b bd
       0.0023599272 -0.10585808 0.0928528 -0.07601734
000080 ba b1 9a 3d e9 1a d4 3c 9a 4b 00 bd 96 d2 5a 3d
       0.0755343 0.025891738 -0.0313221 0.053423487
000090 61 82 cc 3c 23 08 96 3d f4 ca 81 3c 29 3a f1 bc
       0.024964513 0.07325771 0.015843846 -0.029446678
0000a0 ef bd e6 3c 59 55 f3 bc a3 40 3a 3d 8c ce a1 3d
       0.02816674 -0.029703783 0.0454718 0.07900724
0000b0 08 f8 7e 3d dc 07 60 bd 93 21 74 3d 78 ca 8f 3c
       0.06224826 -0.054694995 0.05960233 0.0175526
0000c0 e5 cc 43 3d 3a cb 8b bd 75 d8 bc bd 66 b0 14 bd
       0.047802825 -0.06825872 -0.092209734 -0.03630104
0000d0 32 e1 b3 bd f8 c2 a1 3d 3a 3f ed 3c ed 54 10 3d
       -0.08783187 0.078985155 0.028960813 0.03523724
0000e0 5a 62 08 3d 0a 35 64 3c bc 11 81 3d 18 fa a2 bd
       0.03329692 0.013928661 0.06302211 -0.07957858
0000f0 6e 0d 6e 3b 94 f0 6a bd 3c 0f cb 3c 67 9b d8 bc
       0.0036323923 -0.05735834 0.024787538 -0.02644129
000100 cc ed 09 3d 94 0b 5b bc 45 f1 94 3d d7 67 66 bd
       0.033674046 -0.01336946 0.07272581 -0.056251373
000110 33 08 51 bd 1d d9 80 bd 6f 89 b7 3d 70 78 bb 3c
       -0.05103321 -0.06291411 0.0896176 0.022884578
000120 38 3b db 3d b7 a7 8c bd 56 4f d5 bd 70 48 8a bd
       0.107046545 -0.068679266 -0.10415523 -0.067520976
000130 d4 87 86 bd ba 40 12 3d 1c 96 30 3d dc f6 89 3d
       -0.06568876 0.03570626 0.043111905 0.06736538
000140 4f 47 82 bd de 39 75 bd d1 51 72 3d cd db 48 bd
       -0.06361257 -0.05986964 0.059160057 -0.049037743
000150 9f 90 82 3d ac 12 02 bd 49 d4 41 3d d5 07 a4 bd
       0.063752405 -0.03175609 0.04732159 -0.08009306
000160 c6 bf 6b bd d5 52 2c 3d 31 41 f8 3c df 2c 0e bd
       -0.057555936 0.042071182 0.030304523 -0.03471076
000170 85 58 79 3d c3 96 91 3d d3 13 93 bd aa 82 64 bd
       0.060875434 0.07108834 -0.071815155 -0.055788673
000180 9e b0 b9 3d d1 f2 1d bd c1 6a dc bc c5 e9 c6 bd
       0.0906689 -0.038561646 -0.026906373 -0.09712557
000190 99 0b 4d bd c8 0a 88 3c a9 bc bf bc 70 0c 8a bd
       -0.05005989 0.016606703 -0.02340539 -0.067406535
0001a0 76 70 da 3b 30 5a 96 bd 18 cf a1 bd a0 6b 36 bd
       0.0066662384 -0.07341421 -0.07900828 -0.044536233
0001b0 9d e5 a2 bd c1 7f 87 bd 0f 19 c8 3d 70 25 4e 3c
       -0.079539515 -0.06616164 0.097704045 0.012582168
0001c0 d5 b2 dc 3c a6 6c a5 bd 41 c0 6c bd 95 eb 27 bd
       0.026940743 -0.08077364 -0.057800535 -0.040996153
0001d0 b0 4d 89 3c 05 f5 ba bd 94 33 1c bd bc 30 82 bd
       0.016760677 -0.09128765 -0.038135126 -0.063569516
0001e0 ea fb 7a bb 60 8d 09 bd d7 75 3c bc 3e f5 66 bd
       -0.0038297125 -0.03358209 -0.011502705 -0.056386225
0001f0 f6 03 98 bd f7 c9 6f bd 4a 5b 25 bd 42 95 8a bd
       -0.074226305 -0.058542218 -0.040370263 -0.0676675
000200 6c 43 a8 3d cd 56 89 bc c3 93 c3 3d fc 93 cc 3c
       0.08215985 -0.016765023 0.09549668 0.024972908
000210 b7 6d 93 bd 69 93 a0 3d f7 24 36 bc 09 8b 00 bd
       -0.07198661 0.07840616 -0.011117212 -0.031382594
000220 e3 3d 99 bd 6a df c3 bd 10 b3 fb 3c 84 b1 88 bc
       -0.07482507 -0.09564097 0.030725032 -0.016686209
000230 fb 2a 01 3d 45 1a 8b bd dc 3c 8e 3d 66 75 98 bd
       0.03153513 -0.0679212 0.06945202 -0.07444267
000240 ea 9c a0 bc 5d ba fe 3b 46 51 4b 3d d8 26 b7 3d
       -0.019606072 0.007773681 0.049638055 0.08942956
000250 7d 44 b5 3d 71 44 a9 bd cf 44 88 3c d5 6b 11 bd
       0.08850954 -0.08265007 0.016634373 -0.035503227
000260 ff 4b 0a bc d4 f0 80 bd ce 92 b4 3d 1a 55 87 bd
       -0.00844097 -0.06295934 0.08817063 -0.06608029
000270 b3 d8 86 3d 64 90 de 3c b7 7c ef 3c 18 b8 62 bd
       0.06584301 0.02716846 0.029234273 -0.055351347
000280 44 62 af 3d b3 8f c3 3c 32 10 b1 3c c6 0d a3 bd
       0.085636646 0.023872232 0.021614168 -0.079616114
000290 76 9a 3b 3d 3b c3 98 bc c8 b4 39 bd c0 69 b0 3d
       0.045801602 -0.01864778 -0.045338422 0.0861392
0002a0 65 61 c6 3c 2e 5a 5a bd 14 2c 33 bd 6d 2f d3 3a
       0.024216363 -0.05330866 -0.043743208 0.0016112156
0002b0 d6 51 70 3d ec b5 cd bc 33 98 30 bd 5d ef 10 bd
       0.058671795 -0.025111161 -0.0431139 -0.035384525
0002c0 09 ad 86 bd f0 b4 dd 3c 2d bb 99 3d df 87 b8 bd
       -0.065759726 0.027063817 0.07506404 -0.0901029
0002d0 66 69 d4 3c 51 90 3d 3d 31 6c 90 3c 6b e7 23 bd
       0.025929164 0.04628021 0.017629715 -0.04001562
0002e0 64 c9 68 3d d5 a9 82 3d a4 67 1f 3d 92 b7 be bc
       0.056832686 0.06380049 0.0389172 -0.023280893
0002f0 d1 cb b1 bc 90 34 45 3c 26 e9 88 bc 95 22 1f bd
       -0.021703633 0.012036458 -0.016712736 -0.03885134
000300 de f5 8e 3d 3d 8d af 3d c6 59 8b 3b 23 ec a1 bc
       0.06980489 0.08571861 0.004252645 -0.01976592
000310 6f c0 f3 3b f0 c0 cb bb ba 33 ac 3c 8c 14 0b 3d
       0.0074387114 -0.0062180683 0.021020759 0.033955142
000320 56 88 a6 bd 29 9b db bc 9b 6f a0 3d c7 81 15 3d
       -0.08131473 -0.026807385 0.07833787 0.03650072
000330 8e b7 96 3c c2 ea 81 bd 12 92 69 bd 70 a9 bd bd
       0.018398073 -0.063436046 -0.05702407 -0.09260833
000340 cb 76 e3 bc d9 31 f5 3c 39 05 5a 3d 4a ca 2d 3d
       -0.027766606 0.029930996 0.053227637 0.042429246
000350 a5 ca a2 bd 8e 3e 6e bd 92 20 b5 bb f7 4c c0 3d
       -0.079488076 -0.058165126 -0.0055275643 0.0938968
000360 95 4d 85 3c 7c b2 04 bd 97 43 06 3d a0 58 06 bd
       0.016272346 -0.03239678 0.032779302 -0.032799363
000370 8a 28 8b bd c6 46 86 3d c3 aa 3f bd f6 38 04 bd
       -0.067948416 0.06556468 -0.04679371 -0.032280885
000380 13 6f bf bd 98 24 75 3d 62 28 89 3d df c0 df 3c
       -0.093473576 0.05984935 0.066971555 0.027313648
000390 86 a2 8e bd ce 6b bb bd 7f 6b 9b bd 23 7a 9a 3d
       -0.06964593 -0.091514215 -0.07588863 0.07542827
0003a0 3c a7 45 3d 76 30 b6 3d 8e 87 04 3d 4e 18 68 3c
       0.04825519 0.08895962 0.032355838 0.014165951
0003b0 c8 ce d5 bb 7f 85 83 bd 9b 89 a6 bd 9d 26 da bd
       -0.0065248944 -0.06421947 -0.08131715 -0.10651896
0003c0 7b b4 0a 3d ff 7c 08 bd 91 39 ab bc df 4b 69 bd
       0.033863526 -0.03332233 -0.020901473 -0.056957122
0003d0 90 4a 8b bc 99 0b 89 bd 83 70 7e bd a2 4c f1 3c
       -0.017003328 -0.06691665 -0.06211902 0.029455487
0003e0 c1 0a 92 bc 01 2d 72 3d 0f 20 bc bc 96 d9 99 bd
       -0.017827393 0.05912495 -0.022964505 -0.07512204
0003f0 1b ce ef bc 62 45 3e bd 38 de b5 bc d4 ff bd bd
       -0.029273083 -0.046452887 -0.022200689 -0.09277311

layers.1.layers.0.bias f4 [100]
000000 56 c2 8e 3d d3 81 27 3d 34 f2 97 bb f9 0c 69 3d
       0.069706604 0.040895294 -0.004637027 0.056897137
000010 aa 2a 54 3b 89 b2 ad bc 52 07 42 bd 7e 06 b4 bd
       0.0032374063 -0.021203296 -0.047370262 -0.08790301
000020 e4 bd 96 3d 41 eb 67 bd 64 19 ab bd de a0 34 bd
       0.073604375 -0.05662084 -0.08354452 -0.044098727
000030 2c c2 9b 3c 02 d4 bb bb 3d e9 54 3d 76 b9 83 3d
       0.019013487 -0.0057320604 0.051980246 0.06431858
000040 b4 e1 6c 3d cd 6f b1 bd 91 a4 4f 3d bf 6a 53 3d
       0.057832435 -0.086639024 0.050694052 0.051615473
000050 51 b9 6c bd e8 78 ba ba 3d 1b 48 3c 6d c9 89 3c
       -0.05779392 -0.0014226707 0.012213525 0.01681968
000060 ef 8c 41 3d c1 91 b3 3d c4 db ba 3d 33 e4 c2 3c
       0.047253545 0.08768035 0.09123948 0.023790454
000070 12 76 6e 3d 6a 85 3e 3d 9e 6d 3b bd f0 91 95 3d
       0.05821807 0.046513952 -0.045758836 0.07303226
000080 28 a9 03 bb 49 d5 36 3d a8 51 86 bd d2 0e ac 3d
       -0.0020089839 0.044637 -0.065585434 0.08401264
000090 66 46 9b 3c a2 c6 ae 3c c1 c7 ab bd fc 2b e5 ba
       0.018954467 0.02133495 -0.083877094 -0.0017484422
0000a0 48 3a fa bc 54 da a8 3d 3a 31 ca bd 8d d6 ff bc
       -0.030545369 0.08244768 -0.098726705 -0.031230235
0000b0 4e 13 4f bd 1c 05 ae bd 8a dd 31 3d 17 6f 92 bd
       -0.05055552 -0.08497068 0.043424167 -0.07150095
0000c0 a2 ad 2e 3d c8 43 85 3c 13 b2 57 bd 6e 70 d6 3a
       0.042646058 0.016267672 -0.05266006 0.0016360411
0000d0 86 f4 a6 3c fb 94 0d bd f9 9b 82 bd 61 5e 79 bd
       0.02038027 -0.034565907 -0.06377406 -0.060881022
0000e0 c6 df 53 3c 15 ac b8 bd a2 de 85 3d bd 1e 6c 3d
       0.01293177 -0.09017197 0.065366045 0.0576465
0000f0 01 76 c8 3d a2 77 a8 3d 1e 32 62 bd 72 ff 3a bd
       0.097881325 0.08225943 -0.055223577 -0.045653768
000100 04 0a 82 3d 47 fb 9d bc ab 6d 9a bd 48 8d 2d bd
       0.063495666 -0.019284857 -0.07540449 -0.042371064
000110 39 c9 a3 3d 51 05 73 bd 40 8e 03 3d ad b6 a4 bd
       0.079973646 -0.059331242 0.032118082 -0.08042655
000120 83 eb 4c 3d 58 b3 cc 3c 4f 22 86 3d ca 68 fb ba
       0.05002929 0.024987862 0.065495126 -0.001918101
000130 3c bf 21 3d 9e 28 b7 3d 7b 81 40 bc 26 b5 7f bd
       0.039489016 0.08943294 -0.011749621 -0.062428616
000140 aa ad 84 bd fe aa 60 3d 14 3c 8b bd 48 2e ac bd
       -0.06478436 0.05485057 -0.06798568 -0.08407265
000150 4f 09 b3 bd c8 a6 f1 bc 42 06 3e 3c 5e 49 a8 bd
       -0.0874201 -0.029498473 0.011598172 -0.08217119
000160 ce 3a 36 bd ce dd ad 3d 72 7b a6 bc 31 74 14 bd
       -0.044489674 0.084895715 -0.020322535 -0.03624362
000170 39 58 6d 3d 23 7e 84 bd 50 e7 a0 bd 5d 0b 8c 3c
       0.057945464 -0.06469371 -0.07856619 0.017095262
000180 64 5a 00 3d e6 62 ca bd 37 49 ae 3d 2d 6e 47 bd
       0.031336203 -0.09882145 0.085100584 -0.048689056

layers.2.layers.0.weight f4 [100, 100]
000000 f3 01 ae 3c 4e 5c 87 3d b5 89 45 3d 55 37 fc 3c
       0.021241164 0.066094026 0.04822703 0.030788103
000010 be 7b a6 bd 57 37 c0 bd 9a ed 11 3d d4 bd 97 39
       -0.08129071 -0.09385555 0.035626985 0.00028942397
000020 84 6a 95 3d a8 f7 3c 3d 81 f0 8b bd 12 32 87 3c
       0.07295707 0.04613462 -0.06832982 0.016503368
000030 bf bb 91 bd 82 53 31 bd 02 2e c1 3c 67 be c8 ba
       -0.07115888 -0.04329253 0.023581509 -0.0015315533
000040 38 5a 84 bd 48 cc e3 3c e9 b1 93 3d f3 4a c8 bd
       -0.0646252 0.02780737 0.07211668 -0.097799204
000050 6b 7a c3 3d 56 3f 77 3d e2 a1 57 bc 2a ca d7 bd
       0.09544834 0.060363136 -0.013161154 -0.105366066
000060 59 9e 37 bd 6f a8 0c 3d 67 73 15 bd 30 a3 f9 bc
       -0.044828746 0.03434032 -0.03648701 -0.030473322
000070 b6 5d 3a bd 20 85 a4 3d 38 ff a4 3d 8b b9 b3 bd
       -0.045499526 0.08033204 0.080564916 -0.08775624
000080 d7 8b 14 bd 86 ae b7 3d 09 90 1e bc f8 ae 80 bd
       -0.036266174 0.089688346 -0.009677895 -0.06283373
000090 15 a2 21 3c 2a aa 93 3d 32 6a a7 bc 3d 7b a9 bd
       0.0098653035 0.072101906 -0.02043638 -0.08275459
0000a0 7c d7 2b bd 10 90 4e 3d e3 7c 9e bc ea c1 b0 3d
       -0.04195355 0.050430357 -0.01934666 0.08630736
0000b0 60 1d 16 3d fb 89 dd 3b a2 6d 3b 3d 06 6b 64 bc
       0.036649108 0.0067608333 0.04575885 -0.013941532
0000c0 f2 e0 b9 bd c0 24 a8 bd e9 2a b8 bd 91 3b ae bc
       -0.09076108 -0.082101345 -0.089925595 -0.021268638
0000d0 96 11 8f bd fa 46 8b 3c 29 a6 ae 3c b1 11 a1 3d
       -0.06985776 0.017001618 0.021319466 0.078647025
0000e0 12 c0 83 3b 13 c5 fe 3b db f4 26 3d a3 10 60 bc
       0.0040206993 0.007774958 0.040760856 -0.0136758415
0000f0 e4 3d 1e bd c8 87 c8 bd aa ba c7 bd 56 f6 20 3b
       -0.038633242 -0.09791523 -0.097524 0.002456089
000100 fd b1 2e bd 57 5b 81 3c 16 54 ca 3c 22 f3 98 3d
       -0.04265021 0.015790625 0.024698298 0.07468249
000110 aa 0a 53 bc fc df 47 bb 65 09 8d 3d 00 ee a9 3b
       -0.0128809605 -0.0030498495 0.068865575 0.0051858425
000120 07 75 32 3d 5f 0e 37 bd 58 73 8d bd 19 6c 8f 3d
       0.043568637 -0.04469144 -0.06906766 0.0700304
000130 92 e1 99 3d 5c 36 0d bd c3 1a 26 3c 39 fa b9 bd
       0.07513727 -0.03447567 0.010138216 -0.09080929
000140 a6 d6 1e 3c 61 f2 b0 bd c4 e1 5a 3d a4 6b c4 bd
       0.009694731 -0.0863998 0.053437963 -0.09590843
000150 82 1c cb bc a7 0a d5 3d 56 a1 12 bd 37 ab 86 bd
       -0.024793867 0.104024224 -0.035798393 -0.065756254
000160 35 50 ae 3d d9 93 26 bd 4e d1 eb 3c 94 dd 7a 3d
       0.08511392 -0.040668342 0.028786328 0.06124647
000170 29 e8 b3 3c 44 cb 85 bd 2f 33 bc 3d 12 d9 57 3d
       0.021961289 -0.065329105 0.0918945 0.05269725
000180 a5 95 91 bd 79 37 85 bd 4e 16 b9 bc 13 7c 26 3d
       -0.071086206 -0.06504721 -0.022593644 0.04064567
000190 9e ad e7 3c 3c 73 3d 3b 83 b5 8b 3d b5 24 a9 3d
       0.02828103 0.0028907796 0.0682173 0.082589544
0001a0 3e e5 8e 3c 6f 31 02 3d ca e3 2e 3d 26 71 70 3c
       0.017443296 0.031785425 0.042697705 0.014675414
0001b0 58 34 8d 3a 24 80 b1 3d 42 fa 99 3d c1 06 82 3d
       0.0010773046 0.08667019 0.07518436 0.063489445
0001c0 b3 9d 36 bd ee 05 60 bd 4f 97 5f bd e0 fd a5 bd
       -0.044583987 -0.054693155 -0.05458766 -0.081050634
0001d0 d6 cd 26 bc 3a e6 6a 3d 8f 32 37 bc 9d 01 f7 bc
       -0.010180911 0.057348467 -0.011181488 -0.030152136
0001e0 27 6c 9e bc 07 6a 9c bd be 3e 84 bd 65 b3 46 3c
       -0.01933868 -0.076374106 -0.064572796 0.012127732
0001f0 3d 96 8a bd 6f ce a2 3c e9 38 9a 3d 12 6e b9 3c
       -0.06766937 0.019873826 0.07530386 0.022635493
000200 41 6b 8f 3d 94 73 96 bd 2e 6c 98 3b 95 74 d8 bd
       0.07002879 -0.073462635 0.004651568 -0.10569111
000210 98 35 5c ba d5 42 98 bd 57 98 c6 3d 75 18 a5 bd
       -0.000840032 -0.07434622 0.09697025 -0.080613054
000220 dc cf 1b 3d 4b 12 5b bd 64 6c bc 3c 80 fc e0 3b
       0.038040027 -0.053484242 0.023000903 0.006866038
000230 95 23 76 bc 11 a7 3d bd 38 58 60 3d b6 bd b6 bc
       -0.015023132 -0.046301905 0.054771632 -0.022307258
000240 8d f9 89 3b bf fe a4 bc e6 32 96 bd 63 2a 29 bd
       0.004210657 -0.020141004 -0.07333927 -0.04130019
000250 d1 49 cc 3d 61 2c af 3d 12 54 1c bd 1d 3c a4 3c
       0.09975017 0.085533865 -0.038166113 0.020048195
000260 49 22 6b 3c f2 fc b3 3d bb e5 57 3c 5d 58 34 3c
       0.014351436 0.0878848 0.013177331 0.011007396
000270 7c 0e 0b bd 9a 35 a3 3c 38 6d c1 bd c5 53 cd bd
       -0.03394936 0.01992302 -0.0944466 -0.100257434
000280 02 32 0c 3b 54 29 a5 bd 56 99 90 bd 06 38 90 bc
       0.0021392112 -0.08064523 -0.070604965 -0.017604839
000290 ab 74 88 3d bf 8c 64 3d 6e 12 ea bc 19 20 00 bc
       0.06662878 0.05579829 -0.028573241 -0.007820153
0002a0 c7 39 a2 3d d2 41 cd 3c 6a 1d 77 3d 5c 68 37 bd
       0.079211764 0.0250558 0.060330786 -0.04477726
0002b0 1e f6 b1 bd d3 47 38 bd e3 54 70 3c 17 ec 11 bd
       -0.08689521 -0.044990372 0.014668676 -0.035625543
0002c0 a8 c3 49 bd 3a 2f c2 3d 61 8a c4 bd 23 66 c3 3b
       -0.049258858 0.09481664 -0.09596706 0.0059631034
0002d0 c9 2f 6e 3d a8 93 48 bc 53 c9 54 3d a9 78 a0 39
       0.05815104 -0.012242235 0.05194981 0.00030607477
0002e0 45 4f 62 bd 1c 3a 7d bd f1 6f 36 bd 7a 01 cf bd
       -0.05525138 -0.061822996 -0.04454035 -0.101077035
0002f0 c6 29 72 3d e8 62 a5 3d 4e 99 5b bd 64 a2 e3 3b
       0.05912187 0.080755055 -0.053613 0.0069468487
000300 59 c5 de 3c f8 8a e1 3c f2 f5 4e bd a5 03 6f bd
       0.027193712 0.027532086 -0.05052752 -0.058353085
000310 85 73 b6 3d ad 18 7c 3d 76 64 c4 3d 1d 60 91 3d
       0.08908752 0.06154697 0.09589474 0.0709841
000320 4a 73 73 3a 2a 15 9d 3d 21 fe 9f bb ee 1a ea 3b
       0.0009286894 0.07670052 -0.0048825894 0.0071443236
000330 7f da 1d bd e1 f5 aa 3d 57 e1 a2 bc 90 d9 4f 3c
       -0.038538452 0.08347679 -0.019882841 0.012686148
000340 d5 ef b8 bd 2b 88 15 3d d1 94 4f bd 43 63 a5 bc
       -0.09030119 0.036506813 -0.05067903 -0.020188933
000350 40 c9 8b bb 34 3a 25 3d c0 27 12 bb e0 0f 3c 3c
       -0.004265934 0.04033871 -0.0022301525 0.011478394
000360 c2 10 4d bd 04 e6 98 bd de 40 fa 3c 53 f7 26 bd
       -0.05006481 -0.07465747 0.03054851 -0.04076321
000370 72 9b 9a bd 16 4a ff bc 8d 3b d0 bd 36 0d 31 3c
       -0.0754918 -0.031163257 -0.101676084 0.010806372
000380 d4 17 94 b9 2f 58 b6 3d 2b 8b 83 bd 73 b4 47 bd
       -0.00028246513 0.089035384 -0.064230286 -0.048756074
000390 35 7f e6 3c f9 5a 02 bd d8 53 ba 3d fc 46 fa 3b
       0.028136829 -0.03182504 0.09098023 0.0076378565
0003a0 5e cd f9 39 8a 45 20 bd 5c 0e 70 3d 32 84 4e bd
       0.0004764599 -0.039128818 0.058607444 -0.05041904
0003b0 24 90 17 3d ec 16 8a 3d 1b 4b 8f bd 14 5b c1 bd
       0.037002698 0.06742653 -0.06996747 -0.094412
0003c0 16 4f 58 bd 3d 28 45 3d b9 d4 44 bd 18 5f 97 3c
       -0.052809797 0.048134077 -0.04805443 0.018477961
0003d0 37 18 1a 3c 8e 8c cf 3c 5d 65 73 bd 30 78 d2 b8
       0.009405187 0.025335576 -0.05942284 -0.00010035967
0003e0 d1 3d 8c 3d 78 a6 61 3d 97 73 96 3c cb ff ab bd
       0.06847728 0.055090398 0.018365664 -0.08398398
0003f0 0c 0e 5c 3d 71 dc 25 bd 67 21 88 3d 7d 9c 2e 3d
       0.053724334 -0.040493432 0.06646996 0.042629708

layers.2.layers.0.bias f4 [100]
000000 be fc 34 bd 00 ae cd bc e4 2c ba bd a7 5a f5 bb
       -0.044186346 -0.025107384 -0.090905935 -0.0074876132
000010 d4 31 82 3d 0d df 7a bd 42 4c 63 bc 16 2c 87 3d
       0.0635716 -0.061247874 -0.013873162 0.066002056
000020 84 10 81 bd 34 eb b2 3c 4b f5 a3 bc 77 be b4 3d
       -0.06301978 0.02184067 -0.020014426 0.08825391
000030 7e 5b 08 bb cd 78 b4 3d 88 30 1c bd 05 9c 89 bd
       -0.0020806487 0.088121034 -0.03813222 -0.067192115
000040 ca 44 a0 3b 00 3c 7a bd 66 71 53 bd 1f 49 79 3d
       0.004891013 -0.061092377 -0.051621817 0.06086075
000050 13 1a b7 3d 2e 80 79 bd ae bd de bd d2 61 d2 3c
       0.0894052 -0.060913257 -0.10876022 0.02568141
000060 df 9b b5 bd 0c af a6 bc be d1 2f 3d 71 6d 01 3d
       -0.08867621 -0.02034714 0.042924635 0.031598512
000070 d2 02 5e 3c 7d dc 38 3d 25 00 5e bd 3c 13 07 bd
       0.013550477 0.04513215 -0.054199357 -0.032977328
000080 87 44 b3 bc e5 ae c2 bd f2 c1 88 bd 6c 45 23 3c
       -0.021883262 -0.09506015 -0.06677617 0.009965282
000090 81 2e 96 3c bf 2a 5d bd f2 69 82 3d 6b b6 05 bd
       0.018332722 -0.053995844 0.06367864 -0.03264467
0000a0 5a 44 f1 3b 3f 58 ac 3d 17 56 90 3d bc 0e dd 3d
       0.0073628845 0.08415269 0.0704767 0.10793826
0000b0 c7 99 00 3d 8b 90 8e bd 07 2b 20 bd 13 27 08 bd
       0.031396654 -0.06961163 -0.039103534 -0.03324039
0000c0 fb 85 8d bd 68 89 f5 bc 70 0d c2 bd fd a4 4f bd
       -0.0691032 -0.029972747 -0.09475219 -0.050694454
0000d0 88 4b d1 bd 0a 23 c3 3d cd d6 01 3d 6e 23 ba 3d
       -0.102194846 0.095281675 0.03169899 0.09088789
0000e0 55 3a 7c 3d 89 cc bd 3d e1 08 06 bd 69 45 2a bd
       0.061579067 0.092675276 -0.03272331 -0.0415701
0000f0 4c 32 4b bd 62 b2 bf bd 61 38 b0 bb 32 76 bb 3c
       -0.049608514 -0.09360196 -0.0053778146 0.022883508
000100 69 a1 7f 3d 0b 1f 92 bc c8 8b f3 3c b6 99 38 3d
       0.062409792 -0.017837068 0.029729739 0.045068465
000110 d4 4b bc 3c 06 25 b0 3c 6d f3 26 bd 31 2e 95 3d
       0.022985376 0.02150203 -0.040759493 0.07284201
000120 79 e4 c8 bd 36 08 29 3c 04 5b 39 3d d9 19 97 3d
       -0.09809203 0.010316899 0.045252815 0.07377977
000130 0d bc 39 3d 1b 23 4a bc 02 21 85 3d 20 c0 b0 bd
       0.045345355 -0.012337471 0.06500436 -0.08630395
000140 c8 41 e5 bc e8 3b f5 bc 17 79 5c 3d c4 85 b3 3d
       -0.027985469 -0.029935792 0.053826418 0.08765748
000150 c9 6a fd bc c6 ec 89 3c fc c7 d1 bc 8e 41 ee bc
       -0.030934708 0.016836535 -0.025608055 -0.029083993
000160 9d 41 27 3d 38 4a ab 3c 1a c0 54 bd 5c ae d4 3c
       0.040834058 0.020909414 -0.051941015 0.025962047
000170 b4 c4 c5 3d 8d bf 8f bd 0f aa ab bc f8 48 b7 bd
       0.09656659 -0.07018957 -0.020955114 -0.089494646
000180 f2 50 9a bc 00 2f c9 3d 8e 96 65 3d c6 3d ad bd
       -0.018837426 0.09823418 0.056051783 -0.08459048

layers.3.weight f4 [2, 100]
000000 89 65 ab bd c4 0e 1f 3c b2 cf 56 bc 1e 3b 9a 3d
       -0.08368976 0.00970811 -0.013111042 0.07530807
000010 2b 31 1c bd 29 af 94 3d 46 96 5b bd 11 64 ac bc
       -0.038132828 0.07259972 -0.05361011 -0.02104381
000020 9f 8b a1 bb aa 1f 67 bd 57 2d d2 b9 da ac 04 bd
       -0.004929974 -0.05642668 -0.00040088102 -0.032391407
000030 6e 32 44 bd 2f c3 b2 bd bf 20 93 3a 2b 71 cc 3d
       -0.047899656 -0.087286346 0.0011224969 0.099825226
000040 ab a4 24 3d 17 ab c1 bd 41 7a 5c bd 53 f4 3c 3d
       0.040196102 -0.09456461 -0.053827528 0.046131443
000050 3a 35 31 bd ee d1 53 bb d7 e8 2f bd d2 3a 1a 3d
       -0.04326365 -0.0032321173 -0.042946663 0.03765375
000060 a7 ea 87 bd 20 e1 ea bd d8 5e 92 bd 32 89 bc bd
       -0.06636553 -0.114687204 -0.07146996 -0.092058554
000070 f9 58 b5 3b 67 b8 54 3c 99 a8 04 bd 00 0b d6 3c
       0.005534288 0.012983418 -0.03238735 0.026128292
000080 1a 7a 64 3b dc a3 e0 3c 1a 91 42 3d fa 9a 42 3b
       0.0034862817 0.027421884 0.04750166 0.0029694424
000090 b7 a7 e2 3d 42 19 98 3d fd 06 86 bd 30 77 ac 3d
       0.11067145 0.074266925 -0.06544302 0.08421171
0000a0 de 0c 93 bc dc 23 bc bb c4 ab ef 3b 7a 78 ac bd
       -0.017950471 -0.0057415795 0.007314177 -0.084214166
0000b0 d5 79 98 3d 6c 04 77 3d cd 8c e0 3d 7b 3e ac 3c
       0.074451126 0.06030695 0.109643556 0.021025887
0000c0 0b 0f 35 bd 76 a1 c8 bc ff 4d 9b bc a6 68 d0 bd
       -0.0442038 -0.024491053 -0.01895809 -0.1017621
0000d0 82 3b 15 3d eb e1 dd 3b 3b cf 24 bd ef af 75 bd
       0.036433704 0.0067713163 -0.040236693 -0.059982236
0000e0 8f 98 df bc 50 34 db 3b d9 6f 96 3d 63 53 4f 3d
       -0.027294425 0.0066895857 0.07345552 0.050616633
0000f0 61 e3 9c 3d bd 6e b1 3d 3f 63 6a bd dd e2 f0 bb
       0.076605566 0.086637 -0.057223555 -0.007351263
000100 ff d3 da bd d4 5b 89 bd 7c 93 eb 3c ae 2b 1c 3d
       -0.10684966 -0.06706968 0.02875685 0.038127594
000110 3f 2d 24 3d 85 18 98 3d 22 13 1c 3d 8c bd 64 bd
       0.040082213 0.07426552 0.038104184 -0.05584483
000120 f1 ee 7e bc ec 72 5a 3c b8 af 31 3d 6d c7 9a bd
       -0.015559898 0.013333064 0.04338047 -0.07557569
000130 dc 42 7a bd ac 42 21 3d b1 77 29 3d e5 1c bc 3d
       -0.06109892 0.039370224 0.041373912 0.09185199
000140 72 72 a6 3d 31 83 4a bd a4 d5 02 3d a5 82 94 bd
       0.081272975 -0.04944152 0.031942025 -0.07251481
000150 73 dc 47 bc 00 d6 87 bc 5f 26 b0 3c 78 e3 ab 3d
       -0.012198555 -0.016581535 0.021502672 0.083929956
000160 6d 28 a7 bd d9 c7 94 3d e9 23 7d 3d 8f 21 30 bd
       -0.081620075 0.072646804 0.061801825 -0.043000754
000170 78 1e 1a bd b3 d2 07 bd 25 bb 66 3d 53 b8 b5 bc
       -0.037626714 -0.033159923 0.05633082 -0.02218262
000180 8c c1 0c 3d 8e 3a 54 bd d6 2c 91 3d cf 89 52 bc
       0.03436427 -0.051813655 0.0708863 -0.012850239
000190 a7 78 c3 3d 81 fc a0 bd 12 06 df bc 5e 3c 8d 3d
       0.09544497 -0.07860661 -0.027224574 0.0689628
0001a0 5a c5 39 3d 07 00 3e bd 20 17 a3 bd 0c d4 93 bd
       0.045354225 -0.046386745 -0.07963395 -0.07218179
0001b0 e3 2d ae bd 19 db 3a bd 57 16 24 bd 17 6d 8f bc
       -0.08504846 -0.045619104 -0.040060367 -0.017508073
0001c0 e1 0e bd 3d 5a 78 5c bc 34 52 52 bd 49 96 18 3d
       0.092313536 -0.013456428 -0.051347926 0.037252698
0001d0 34 18 5f bd 43 76 40 bd 24 a3 11 3a b2 60 b9 3b
       -0.05446644 -0.046987783 0.0005555621 0.005657279
0001e0 48 06 86 bd d5 9a ad bd c6 7c cb bd 60 75 e6 bc
       -0.06544167 -0.084767975 -0.09935908 -0.02813214
0001f0 58 80 5d 3d fa 21 90 3c 36 72 ad 3d e7 46 8f 3c
       0.054077476 0.017594326 0.0846905 0.017489864
000200 00 e5 72 bd 04 f3 61 3b 73 08 f4 bc 10 43 70 3d
       -0.059300423 0.0034477124 -0.029789185 0.058657706
000210 4b e0 10 3d 89 1a ce 3d 39 d9 c4 bd 54 4c f0 bc
       0.035370152 0.10063655 -0.096117444 -0.029333271
000220 2e ac b7 bd 76 46 76 3c 54 aa 65 bd 0b bd dd bc
       -0.089683875 0.015031448 -0.05607064 -0.027067682
000230 80 83 c5 3d ff d3 c9 bc 5c 25 89 3d 49 91 98 3d
       0.09644222 -0.02463722 0.06696579 0.07449586
000240 da d7 a6 3d 4b c1 a2 3d 0b 15 73 3d 60 9a 0d 3c
       0.08146639 0.07947024 0.05934624 0.008642763
000250 86 91 c0 3d 7c ea c7 3d 27 f2 60 bd 61 59 e9 3c
       0.094027564 0.09761521 -0.054918434 0.028485002
000260 a2 d0 99 3d d4 1e 65 bd aa 4d 5f 3d 63 50 9a 3d
       0.07510497 -0.055937603 0.054517426 0.07534864
000270 45 eb 65 3c 4d e7 99 bc 70 8c a9 bb c2 22 b9 3d
       0.014033143 -0.01878705 -0.005174212 0.09039833
000280 ca dd 9a bd fd 9c 2b 3d 63 d3 29 bd a2 7e 83 3d
       -0.07561834 0.041897763 -0.04146136 0.06420638
000290 88 5e de bc 23 12 07 3d 55 78 84 3d 08 34 77 bc
       -0.027144685 0.03297628 0.06468264 -0.015088089
0002a0 0b 14 1d bc 7f 35 db 3d d4 50 b4 3d ae f4 91 3d
       -0.009587298 0.10703563 0.08804479 0.07126747
0002b0 8e 46 5f 3c 8a fd e2 3b d2 70 6e bd 41 62 a9 3d
       0.013627661 0.006927197 -0.058213063 0.082706936
0002c0 7a 32 8b 3d 85 de 9c 3d 3c 49 87 bd 0b 75 06 3d
       0.06796737 0.0765963 -0.06605765 0.032826465
0002d0 11 6c ba 3c 30 d5 0a bd 4a 08 a5 bb 19 4a d3 3c
       0.022756608 -0.033894718 -0.0050363885 0.025792168
0002e0 9e a8 08 bd a6 af bd 3d bc ff b0 bd 14 06 56 bb
       -0.03336393 0.09262018 -0.086425275 -0.0032657431
0002f0 54 79 41 bd 3e c0 b3 3d 6a f8 1c bd 5e 6f 8a bc
       -0.04723485 0.08776902 -0.038322844 -0.016898807
000300 1a 30 c8 3d fd 91 8c bd 86 eb c9 bc c6 4e bb 3d
       0.097748 -0.068637826 -0.02464844 0.09145884
000310 3d 9d b3 3d 6c 09 b3 bc 0e 7a d1 bc 1a 61 3e bd
       0.08770225 -0.021855079 -0.025570896 -0.046479322

layers.3.bias f4 [2]
000000 82 8b 70 bd bd d5 d2 3d
       -0.058726795 0.102946736
