clients_data/client_DP_trained_model/client3.pth (torch, 86087 bytes, 6 tensors)

layers.1.layers.0.weight f4 [100, 105]
000000 41 f0 8b 3d 39 7c b4 3d 2c 2f da bc cc 25 b7 3d
       0.06832934 0.08812756 -0.026633821 0.08942756
000010 cc df fd bc d4 3a bc 3c ce 5f 48 bd ef da 58 3d
       -0.030990504 0.02297727 -0.04891949 0.052943166
000020 f5 bc ae 3d 29 32 8b bd 15 c1 b4 3d af 7a 9e 3c
       0.085321344 -0.06796677 0.0882589 0.01934561
000030 bb 37 92 3d 19 8b 94 3c 16 00 41 3d c5 84 35 bc
       0.07139536 0.018132733 0.047119223 -0.011079018
000040 a0 64 a4 3d 04 e1 fe 3b 2e 06 5a bd 3d 99 a9 3c
       0.08027005 0.007778289 -0.05322855 0.020702953
000050 cd d9 6f bd 5a 1f 36 bc 53 d8 49 bd 70 af 5e 3d
       -0.05855732 -0.011115873 -0.04927857 0.05436653
000060 40 f2 95 bd 96 6e 57 bd 41 6a 04 bd 5c b3 88 bd
       -0.07321596 -0.052595697 -0.032327894 -0.06674835
000070 86 f9 17 3b 33 a8 d8 bd 46 3c be 3d f9 c5 9b bd
       0.00231895 -0.105789565 0.0928884 -0.0760612
000080 e9 09 9b 3d dc 25 d2 3c 83 2d 00 bd 2a 6d 5b 3d
       0.075702496 0.025652818 -0.031293403 0.053570904
000090 dd 9b cc 3c a0 6c 96 3d a9 4d 80 3c a9 ca f1 bc
       0.024976665 0.07344937 0.015662031 -0.029515581
0000a0 40 8e e6 3c 68 a9 f3 bc a1 c8 39 3d f2 00 a2 3d
       0.028144002 -0.029743865 0.04535735 0.079103366
0000b0 71 12 7f 3d cf f8 5f bd ef c9 73 3d a2 c0 90 3c
       0.062273446 -0.05468064 0.05951875 0.01766998
0000c0 65 88 42 3d cd 82 8b bd 91 c4 bc bd 20 d0 14 bd
       0.047493357 -0.06812058 -0.092171796 -0.036331296
0000d0 65 f1 b3 bd 15 e1 a1 3d 0c c8 ec 3c 41 d2 10 3d
       -0.08786277 0.07904259 0.028903984 0.035356764
0000e0 4a 08 08 3d 9a 36 65 3c 6d 16 81 3d f3 30 a3 bd
       0.03321103 0.013990069 0.063031055 -0.07968321
0000f0 24 e9 74 3b 2b de 6a bd ae ed cb 3c 79 fb d8 bc
       0.0037370408 -0.057340782 0.024893608 -0.026487099
000100 ab f7 09 3d 12 0b 5b bc 9b cc 94 3d 5a 6c 66 bd
       0.03368346 -0.013369339 0.07265588 -0.056255676
000110 fa 0b 51 bd 37 db 80 bd b2 88 b7 3d a1 09 ba 3c
       -0.051036812 -0.06291812 0.089616194 0.02270967
000120 2a 4b db 3d 87 a8 8c bd 14 51 d5 bd 4a 4a 8a bd
       0.10707696 -0.068680815 -0.10415855 -0.06752451
000130 a6 89 86 bd 16 c7 12 3d c2 87 30 3d 87 ee 89 3d
       -0.06569223 0.035834394 0.04309822 0.067349486
000140 ac 48 82 bd 86 3e 75 bd 54 32 72 3d 78 d5 48 bd
       -0.06361517 -0.05987408 0.059130028 -0.049031705
000150 02 8a 82 3d 01 15 02 bd 3d 9f 41 3d a5 08 a4 bd
       0.06373979 -0.031758312 0.047271002 -0.08009461
000160 cc c1 6b bd c1 51 2c 3d 5b e6 f7 3c a2 44 0e bd
       -0.057557866 0.042070154 0.03026121 -0.034733422
000170 41 08 7a 3d cd c4 91 3d be 13 93 bd dd 85 64 bd
       0.061043028 0.07117615 -0.071815 -0.055791724
000180 36 a4 b9 3d 19 f4 1d bd 00 6e dc bc 66 ea c6 bd
       0.09064524 -0.038562868 -0.02690792 -0.09712677
000190 7c 0e 4d bd 0a b0 88 3c e7 bf bf bc a8 0d 8a bd
       -0.05006264 0.016685504 -0.023406936 -0.06740886
0001a0 76 70 da 3b 2b 6e 96 bd 51 ee a1 bd 14 49 36 bd
       0.0066662384 -0.073452316 -0.07906783 -0.044503286
0001b0 bf 1d a3 bd de 41 87 bd 34 57 c8 3d dd 4f 4d 3c
       -0.07964658 -0.0660436 0.09782258 0.012531248
0001c0 4e c4 db 3c a6 6c a5 bd 5c fe 6c bd 28 b3 27 bd
       0.026827004 -0.08077364 -0.057859764 -0.04094234
0001d0 18 d1 88 3c ac d2 ba bd 5b da 1b bd b3 1b 82 bd
       0.016701266 -0.09122214 -0.038050037 -0.063529395
0001e0 22 fc 85 bb 20 71 09 bd 5a 63 3f bc 18 05 67 bd
       -0.0040888945 -0.03355515 -0.011681402 -0.056401342
0001f0 36 08 98 bd 08 a6 6f bd c4 7f 25 bd 85 a1 8a bd
       -0.07423441 -0.05850795 -0.04040505 -0.06769089
000200 39 61 a8 3d f7 26 89 bc c9 89 c3 3d 4a fc cc 3c
       0.08221669 -0.016742213 0.09547765 0.025022645
000210 c3 7d 93 bd be 7b a0 3d ef 1b 36 bc c4 2b 00 bd
       -0.072017215 0.07836102 -0.011115058 -0.03129174
000220 b7 12 99 bd 39 e2 c3 bd 15 44 fb 3c a5 51 89 bc
       -0.07474273 -0.09564633 0.030672112 -0.016762564
000230 9c 01 01 3d 56 1b 8b bd 4b 7b 8e 3d 24 74 98 bd
       0.031495675 -0.06792323 0.0695711 -0.07444027
000240 1b 7d 9f bc ca f1 fa 3b 48 81 4b 3d 7a eb b6 3d
       -0.019468835 0.007658218 0.04968384 0.08931632
000250 09 39 b5 3d 97 47 a9 bd f2 2c 89 3c 18 a3 11 bd
       0.08848769 -0.08265608 0.016745064 -0.03555593
000260 52 3f 0a bc 57 98 80 bd 49 6e b4 3d ff 87 87 bd
       -0.008437948 -0.062790565 0.08810098 -0.06617736
000270 df 0f 87 3d 11 c7 dd 3c 6f a0 ef 3c b5 7f 63 bd
       0.06594824 0.027072461 0.029251305 -0.055541713
000280 4e b1 af 3d 7a 3a c3 3c 6a b9 b0 3c b5 b6 a2 bd
       0.0857874 0.023831595 0.021572787 -0.07945005
000290 0c 54 3c 3d 6a 36 9a bc c2 b4 39 bd f6 b7 b0 3d
       0.04597859 -0.018824775 -0.0453384 0.08628838
0002a0 72 76 c7 3c ba 0b 5a bd 51 33 33 bd 65 ec da 3a
       0.024348471 -0.05323384 -0.04375011 0.0016702531
0002b0 dd 7a 70 3d 03 22 cf bc 73 98 30 bd 3d ef 10 bd
       0.05871092 -0.025284773 -0.043114137 -0.035384405
0002c0 10 c5 86 bd 72 7e dc 3c f1 11 99 3d 10 87 b8 bd
       -0.065805554 0.026915763 0.07474125 -0.09010136
0002d0 85 7b d4 3c 5a 75 3d 3d 2a 76 90 3c ab f1 23 bd
       0.025937805 0.046254493 0.01763447 -0.040025394
0002e0 06 fe 68 3d dc ff 82 3d 1f 74 1f 3d 7f ce be bc
       0.05688288 0.063964576 0.0389291 -0.023291824
0002f0 d7 d1 b1 bc 4d 67 44 3c 2d fa 88 bc 15 20 1f bd
       -0.021706505 0.011987519 -0.016720856 -0.038848955
000300 90 9e 8e 3d 0f 75 af 3d ac 42 8b 3b f6 12 a2 bc
       0.06963837 0.08567249 0.0042498913 -0.019784432
000310 50 16 f7 3b 90 31 cc bb d1 f0 ab 3c 7c db 0a 3d
       0.0075405017 -0.0062314942 0.020988854 0.033900723
000320 b7 83 a6 bd 58 a3 db bc 48 73 a0 3d 8d 8c 15 3d
       -0.08130591 -0.026811287 0.07834488 0.036510993
000330 d0 7d 96 3c 13 ef 81 bd e7 8e 69 bd 5d a9 bd bd
       0.018370539 -0.06344428 -0.057021048 -0.09260819
000340 5a 3e e3 bc d9 31 f5 3c 68 d9 59 3d 09 97 2d 3d
       -0.027739692 0.029930996 0.05318585 0.042380366
000350 29 f8 a2 bd 50 96 6d bd 72 70 b1 bb 38 54 c0 3d
       -0.07957489 -0.058004677 -0.005415016 0.093910635
000360 f0 e1 84 3c 6f b3 04 bd 97 43 06 3d 29 ac 06 bd
       0.016221017 -0.032397684 0.032779302 -0.03287903
000370 aa 28 8b bd 03 64 86 3d 4c ca 3f bd eb be 04 bd
       -0.067948654 0.065620445 -0.046823785 -0.032408636
000380 e6 63 bf bd 68 71 75 3d a4 53 89 3d 6d ac de 3c
       -0.09345226 0.059922606 0.06705406 0.027181828
000390 42 9b 8e bd 53 76 bb bd ef 39 9b bd 26 5e 9a 3d
       -0.06963207 -0.09153428 -0.07579409 0.07537489
0003a0 6b da 45 3d 9b 12 b6 3d 8b 0a 05 3d ff 6b 66 3c
       0.048304003 0.088902675 0.032480758 0.014063834
0003b0 4b 3b d3 bb d8 87 83 bd 3f b4 a6 bd af 0b da bd
       -0.0064462773 -0.064223945 -0.08139848 -0.1064676
0003c0 a2 ed 0a 3d e5 9a 08 bd d1 67 ab bc 89 4d 69 bd
       0.03391803 -0.033350844 -0.020923527 -0.05695871
0003d0 ad dd 8c bc b3 f9 88 bd ec ca 7e bd 8a e9 f0 3c
       -0.017195547 -0.06688251 -0.06220524 0.029408235
0003e0 bb fc 90 bc c7 29 72 3d ae 4c bc bc 21 e7 99 bd
       -0.017698636 0.059121873 -0.022985782 -0.075147875
0003f0 b3 c9 ef bc 12 0e 3e bd 1b ad b4 bc 04 f5 bd bd
       -0.029270982 -0.046400137 -0.0220552 -0.09275249

layers.1.layers.0.bias f4 [100]
000000 cc e1 8e 3d 58 7b 27 3d 26 7b 96 bb b9 e6 68 3d
       0.06976661 0.040889114 -0.004592317 0.05686066
000010 20 ce 51 3b 7e e3 ad bc 20 20 41 bd 39 84 b4 bd
       0.003201373 -0.02122664 -0.047149777 -0.08814282
000020 87 ef 96 3d aa 78 67 bd 43 df aa bd 6f 0f 35 bd
       0.07369905 -0.05651156 -0.08343365 -0.04420417
000030 9e e5 9a 3c d6 29 ba bb a6 bb 54 3d 8b d2 83 3d
       0.018908318 -0.0056812568 0.051936768 0.06436642
000040 d9 01 6c 3d 5b 77 b1 bd aa d6 4f 3d 95 74 53 3d
       0.05761895 -0.086653434 0.05074183 0.051624853
000050 e7 97 6c bd 0b 33 b8 ba 87 c2 46 3c 51 ab 8a 3c
       -0.057762053 -0.0014053298 0.01213134 0.016927393
000060 de 8c 41 3d 0a c8 b3 3d 36 db ba 3d d4 29 c3 3c
       0.047253482 0.08778389 0.091238424 0.023823656
000070 9d a3 6e 3d 95 8e 3e 3d 58 36 3c bd 34 50 95 3d
       0.058261503 0.046522696 -0.045950264 0.07290688
000080 e4 f6 0a bb 7a da 36 3d 37 62 86 bd 76 d9 ab 3d
       -0.0021204287 0.04464195 -0.06561702 0.08391087
000090 5f 08 9c 3c 4b 21 ae 3c 17 12 ac bd 48 7a f5 ba
       0.01904696 0.02125611 -0.08401888 -0.0018728459
0000a0 62 cf f9 bc c6 9c a8 3d 52 fe c9 bd 10 65 fe bc
       -0.030494396 0.08233027 -0.09862961 -0.03105405
0000b0 f4 12 4f bd ec df ad bd 01 54 31 3d 53 ae 92 bd
       -0.050555184 -0.08489975 0.043293003 -0.07162156
0000c0 24 83 2e 3d 13 25 85 3c d2 46 57 bd b8 55 ea 3a
       0.042605534 0.01625303 -0.052557774 0.0017878329
0000d0 c3 c2 a8 3c 8b 4d 0c bd 55 89 82 bd 45 f8 78 bd
       0.020600682 -0.03425364 -0.0637385 -0.060783643
0000e0 7a c3 55 3c d6 a3 b8 bd de f1 85 3d 68 a2 6b 3d
       0.0130470935 -0.09015624 0.06540273 0.05752793
0000f0 ad 63 c8 3d 15 ad a8 3d c4 6a 62 bd 61 d2 3a bd
       0.09784637 0.08236138 -0.0552776 -0.04561079
000100 20 fe 81 3d f9 ef 9d bc 58 53 9a bd c4 0c 2d bd
       0.063472986 -0.019279467 -0.07535428 -0.042248502
000110 5f cb a3 3d 5a 0d 72 bd ce 30 04 3d 22 ab a4 bd
       0.07997774 -0.059094764 0.032273106 -0.080404535
000120 ea 3e 4c 3d 0d 13 cc 3c 72 11 86 3d 17 48 08 bb
       0.049864687 0.024911428 0.06546296 -0.0020794922
000130 69 8f 22 3d b1 9b b7 3d 74 b2 40 bc 63 fc 7e bd
       0.039687548 0.08965243 -0.011761297 -0.062252413
000140 09 c0 84 bd ab 21 61 3d 54 07 8b bd 61 6c ac bd
       -0.0648194 0.05496375 -0.06788507 -0.08419109
000150 6a fe b2 bd 3f 6d f1 bc 46 50 3b 3c 47 7b a8 bd
       -0.08739932 -0.029471038 0.011432713 -0.08226638
000160 1a c1 36 bd 7e f9 ad 3d f6 bb a6 bc 9b 29 15 bd
       -0.04461775 0.084948525 -0.020353299 -0.03641663
000170 66 9f 6d 3d b8 f5 83 bd 08 a7 a0 bd 72 3d 8f 3c
       0.058013342 -0.064433515 -0.07844359 0.017485354
000180 41 43 01 3d 34 76 ca bd 6e 86 ae 3d 7d 38 47 bd
       0.03155828 -0.09885827 0.08521734 -0.048637856

layers.2.layers.0.weight f4 [100, 100]
000000 6a a0 b0 3c 94 5a 88 3d 14 4b 45 3d 63 2a fb 3c
       0.021560866 0.066579014 0.048167303 0.03065986
000010 04 4e a6 bd e7 04 c0 bd 89 0f 14 3d 8c be a3 39
       -0.08120349 -0.09375935 0.036147628 0.0003123175
000020 9f 7d 95 3d c1 c4 3d 3d dd e4 8b bd cc 7b 87 3c
       0.07299351 0.046330217 -0.068307616 0.016538523
000030 30 72 91 bd 73 28 31 bd 9f b3 c3 3c b0 00 8f ba
       -0.07101858 -0.043251466 0.023889361 -0.0010910239
000040 3d e5 83 bd b2 a9 e6 3c b7 60 94 3d 8f ff c7 bd
       -0.06440208 0.028157089 0.072450094 -0.09765541
000050 fd 6a c3 3d d1 0a 77 3d a3 0a 57 bc 06 f8 d6 bd
       0.09541891 0.06031305 -0.013125095 -0.104965255
000060 81 f6 36 bd 42 2c 0e 3d 24 89 16 bd f3 eb f9 bc
       -0.04466868 0.034710176 -0.03675188 -0.030508017
000070 3c 47 3a bd 18 6b a4 3d 2e b2 a5 3d ce cb b3 bd
       -0.04547809 0.08028239 0.08090626 -0.08779107
000080 71 48 14 bd 5a 69 b7 3d c0 aa 1a bc db 95 80 bd
       -0.036201898 0.08955641 -0.009440124 -0.06278583
000090 b8 4a 27 3c b2 c5 94 3d e1 9f a5 bc a2 f9 a8 bd
       0.010210685 0.0726427 -0.020217838 -0.08250739
0000a0 00 63 2b bd 41 41 50 3d f2 9f 9a bc c4 c9 b0 3d
       -0.04184246 0.05084348 -0.018875096 0.08632234
0000b0 c7 79 16 3d 67 e0 df 3b b6 d0 3a 3d b1 19 62 bc
       0.03673723 0.0068321708 0.0456092 -0.013800071
0000c0 d9 66 b9 bd 61 35 a7 bd 14 f1 b7 bd 88 30 ae bc
       -0.0905282 -0.08164478 -0.08981529 -0.021263376
0000d0 51 f8 8e bd aa 7b 8f 3c 96 73 b0 3c df 0e a2 3d
       -0.06980956 0.017515022 0.02153949 0.07912993
0000e0 af 14 82 3b ab c7 fb 3b 43 83 25 3d 5a 1d 5f bc
       0.003969751 0.0076837144 0.040408384 -0.013617838
0000f0 1e 63 1e bd 6e 5b c8 bd cf bc c7 bd e4 60 34 3b
       -0.038668744 -0.09783064 -0.09752809 0.0027523572
000100 ad d2 2d bd 34 9b 82 3c ab 4a cb 3c 51 33 99 3d
       -0.042437244 0.015943147 0.024815878 0.07480491
000110 28 76 52 bc 21 18 32 bb 3d 7c 8d 3d ce 54 b4 3b
       -0.012845553 -0.0027175026 0.06908462 0.0055032736
000120 c3 bf 32 3d 56 86 36 bd fe 99 8d bd 4f cb 8f 3d
       0.04363991 -0.044561706 -0.06914137 0.070212
000130 33 2f 9a 3d ad bd 0c bd 38 1c 30 3c 37 a8 b9 bd
       0.07528534 -0.034360576 0.010748915 -0.090652876
000140 4e 26 1c 3c 2d 0a b1 bd 65 5f 5b 3d 4d 8e c4 bd
       0.009530617 -0.08644519 0.053557772 -0.09597454
000150 8f f2 cc bc 1d 5a d5 3d cb d9 11 bd 11 7d 86 bd
       -0.025018005 0.10417578 -0.035608094 -0.06566823
000160 8f dd ae 3d 5b ae 26 bd f5 fd ec 3c 34 34 7a 3d
       0.08538353 -0.040693622 0.02892969 0.06108494
000170 05 bd b7 3c c7 09 86 bd 89 95 bc 3d 02 01 5a 3d
       0.022428999 -0.06544834 0.09208209 0.053223617
000180 e4 3f 91 bd 65 f5 84 bd ca ab b7 bc 3a 85 27 3d
       -0.07092264 -0.06492118 -0.022420783 0.04089854
000190 0a f2 e7 3c 79 0b 31 3b e8 a0 8b 3d 37 7a a9 3d
       0.028313655 0.0027014895 0.068178 0.08275264
0001a0 36 a7 8e 3c db ea 01 3d f2 76 2e 3d 30 50 71 3c
       0.017413717 0.031718116 0.042593904 0.014728591
0001b0 97 64 7c 3a 5e 4f b1 3d f1 ec 99 3d 5a de 81 3d
       0.0009628026 0.08657716 0.07515896 0.06341238
0001c0 7a f9 36 bd a7 25 60 bd 00 a7 5f bd ca 35 a6 bd
       -0.044671513 -0.054723408 -0.054602623 -0.08115728
0001d0 f3 b1 29 bc fd 0e 6a 3d 10 ff 36 bc b5 04 f7 bc
       -0.010357368 0.0571432 -0.01116921 -0.030153612
0001e0 bb 8b 9e bc ee 72 9c bd 34 5b 84 bd c0 82 46 3c
       -0.019353738 -0.076391086 -0.06462708 0.012116134
0001f0 aa a0 8a bd b9 c9 a1 3c 96 18 9a 3d 3a 7a b8 3c
       -0.067689255 0.01974951 0.07524221 0.02251922
000200 1b b8 8f 3d 6d 6f 96 bd 4f 0b 9b 3b 40 64 d8 bd
       0.07017537 -0.073454715 0.0047315727 -0.10565996
000210 9c 35 63 ba fd de 97 bd 84 8e c6 3d 2b 0c a5 bd
       -0.0008667351 -0.074155785 0.096951514 -0.080589615
000220 d7 a8 1b 3d ad 43 5c bd 2a 88 ba 3c a2 5c dc 3b
       0.038002815 -0.05377548 0.022770006 0.00672491
000230 97 4a 76 bc 08 f9 3d bd 46 a2 5f 3d 1b 34 b6 bc
       -0.015032432 -0.046380073 0.054598115 -0.022241643
000240 4e 59 89 3b 1e 07 a6 bc eb 43 96 bd 9f fd 28 bd
       0.004191554 -0.020267066 -0.07337173 -0.041257497
000250 62 04 cc 3d 40 c1 ae 3d 33 69 1c bd 0a b1 a2 3c
       0.099617735 0.08532953 -0.038186263 0.01985981
000260 26 31 6a 3c cf 73 b3 3d 27 8e 57 3c 3c f4 31 3c
       0.014293944 0.08762323 0.01315645 0.010861453
000270 a6 43 0b bd b9 46 a2 3c 9c 70 c1 bd 5e 4d cd bd
       -0.03400006 0.019809114 -0.09445307 -0.10024522
000280 5a ef 13 3b bf ff a4 bd f7 8d 90 bd 58 30 91 bc
       0.0022573085 -0.08056592 -0.07058328 -0.017723247
000290 34 91 88 3d 69 21 64 3d 3b d8 e9 bc 1c a7 02 bc
       0.0666832 0.055695925 -0.02854549 -0.007974412
0002a0 fe fc a1 3d 92 47 cc 3c ea 17 77 3d 5e 69 38 bd
       0.079095826 0.024936471 0.06032554 -0.04502236
0002b0 8e 15 b2 bd 1a b9 37 bd ad 77 70 3c d6 dd 11 bd
       -0.086955175 -0.04485426 0.01467697 -0.03561195
0002c0 74 f7 48 bd 0e 11 c2 3d 6b 03 c5 bd 43 c1 c3 3b
       -0.049064115 0.09475909 -0.096197926 0.0059739663
0002d0 7d b2 6e 3d ea c5 47 bc 6f d3 54 3d c4 c8 2b 39
       0.05827569 -0.0121931825 0.05195945 0.00016382622
0002e0 1a 6d 62 bd b4 cb 7d bd 55 e9 35 bd 9f 1c cf bd
       -0.05527983 -0.061961845 -0.044411976 -0.10112881
0002f0 0d ce 71 3d 12 78 a5 3d 7b 55 5b bd 43 da e9 3b
       0.059034396 0.08079542 -0.053548317 0.0071366145
000300 0a f9 dd 3c a9 74 e0 3c 45 0d 4f bd 2f 32 70 bd
       0.02709629 0.027399378 -0.050549764 -0.05864161
000310 af 15 b6 3d 92 92 7b 3d e4 29 c4 3d 19 ac 91 3d
       0.088908546 0.061419077 0.095783025 0.07112903
000320 a0 e0 74 3a 2f 0a 9d 3d 71 6b a0 bb 63 e8 ea 3b
       0.0009341333 0.07667958 -0.0048956205 0.007168816
000330 22 c0 1d bd 96 f6 aa 3d 89 e6 a2 bc 7b 13 50 3c
       -0.03851331 0.08347814 -0.019885318 0.012699957
000340 eb ee b8 bd 1d 69 15 3d 64 77 4f bd 3a 7d a5 bc
       -0.09029945 0.036477197 -0.05065097 -0.020201314
000350 4c 84 8c bb 2e 37 25 3d e5 01 14 bb ef a4 3b 3c
       -0.004288232 0.040335827 -0.0022584137 0.011452897
000360 6d 2b 4d bd 1f df 98 bd ab 52 fa 3c c9 f3 26 bd
       -0.050090242 -0.07464432 0.030556997 -0.040759835
000370 eb 95 9a bd 61 3a ff bc 5c 36 d0 bd 23 4b 31 3c
       -0.07548126 -0.031155767 -0.10166618 0.010821137
000380 94 0a 93 b9 8a 45 b6 3d 58 93 83 bd 27 b1 47 bd
       -0.00028045906 0.08899982 -0.06424588 -0.04875293
000390 3f 6b e6 3c 12 5f 02 bd 9f 5a ba 3d be 9d fa 3b
       0.02812731 -0.031828947 0.09099316 0.007648199
0003a0 d3 15 eb 39 d7 3f 20 bd bd 2b 70 3d 1b ac 4e bd
       0.00044838953 -0.039123382 0.058635462 -0.0504571
0003b0 75 9b 17 3d e2 0a 8a 3d 5a 54 8f bd 08 60 c1 bd
       0.03701349 0.06740357 -0.06998511 -0.09442145
0003c0 58 49 58 bd fe 2b 45 3d c3 ef 44 bd 09 86 97 3c
       -0.05280432 0.048137657 -0.048080217 0.01849653
0003d0 2e 75 1a 3c fa 51 cf 3c e0 56 73 bd e0 0b 65 b8
       0.009427352 0.025307644 -0.059409022 -5.4608914e-05
0003e0 54 41 8c 3d 5d ab 61 3d 78 8d 96 3c 35 04 ac bd
       0.06848398 0.055095065 0.018378004 -0.0839924
0003f0 13 35 5c 3d 19 f9 25 bd c1 30 88 3d b4 6c 2e 3d
       0.053761553 -0.04052076 0.06649924 0.042584136

layers.2.layers.0.bias f4 [100]
000000 b3 af 32 bd 5b fc cc bc ff 18 ba bd de b7 f5 bb
       -0.04362459 -0.025022676 -0.09086799 -0.0074987253
000010 8e f0 82 3d 42 07 7a bd b8 90 64 bc 3a 18 87 3d
       0.063935384 -0.061042078 -0.013950519 0.06596418
000020 7f 2c 81 bd 45 f7 b2 3c ce 1c a2 bc d5 e1 b4 3d
       -0.06307315 0.021846423 -0.019789126 0.088321365
000030 d3 05 07 bb c1 c0 b4 3d 14 56 1d bd c7 1d 8a bd
       -0.0020602837 0.088258274 -0.03841217 -0.06743961
000040 17 2b a6 3b c7 c9 79 bd f1 77 53 bd 20 1d 79 3d
       0.0050710547 -0.060983445 -0.051628057 0.06081879
000050 8b 05 b7 3d 97 c0 79 bd 4f b0 de bd 88 59 d3 3c
       0.08936604 -0.060974684 -0.10873472 0.025799528
000060 a9 d8 b5 bd d7 2f a2 bc 38 18 30 3d 12 8c 01 3d
       -0.08879215 -0.019798202 0.042991847 0.031627722
000070 3a 2e 61 3c de e0 38 3d 92 c5 5d bd 70 dc 06 bd
       0.013743931 0.045136325 -0.054143496 -0.03292507
000080 39 6d b1 bc 06 06 c2 bd 0f 4b 89 bd 0c 61 26 3c
       -0.021658527 -0.09473805 -0.067037694 0.010154974
000090 39 84 92 3c 40 74 5d bd 7f 67 82 3d 7f 93 05 bd
       0.017885314 -0.054065943 0.063673966 -0.032611366
0000a0 b0 c5 fa 3b 13 24 ac 3d 83 ea 90 3d e9 31 df 3d
       0.0076529607 0.08405318 0.070759796 0.108981915
0000b0 f9 a9 00 3d 98 95 8e bd 08 b9 1f bd f0 2a 08 bd
       0.0314121 -0.069621265 -0.03899482 -0.033244073
0000c0 3e 95 8d bd df 98 f6 bc 46 01 c2 bd ba 7d 4f bd
       -0.06913231 -0.030102191 -0.09472899 -0.05065701
0000d0 2b 49 d1 bd 1e dd c2 3d 39 a2 04 3d d0 83 ba 3d
       -0.10219034 0.09514831 0.03238127 0.091071725
0000e0 da 68 7c 3d 2b a0 bd 3d 1d cf 05 bd fd 34 29 bd
       0.06162343 0.09259065 -0.03266822 -0.0413103
0000f0 f9 c5 4e bd 44 f0 bf bd 45 2f b0 bb 7e c4 b9 3c
       -0.05048177 -0.09371999 -0.0053767287 0.022676703
000100 d0 22 80 3d ce 05 91 bc 73 c4 f4 3c 18 c1 38 3d
       0.0625664 -0.017702963 0.02987883 0.045106024
000110 b8 ad bd 3c f0 9d af 3c da 3f 28 bd 1d 6d 95 3d
       0.023154125 0.021437615 -0.04107652 0.07296202
000120 c2 c4 c8 bd a2 4c 29 3c 79 2f 3b 3d 20 6d 98 3d
       -0.098031536 0.010333212 0.04569957 0.07442689
000130 f4 07 39 3d c5 7d 4a bc b7 c1 85 3d 6f aa b0 bd
       0.0451736 -0.012359087 0.06531089 -0.08626258
000140 9e e0 e4 bc 6c 7f f5 bc c8 28 5c 3d f1 cf b3 3d
       -0.027939137 -0.029967986 0.05374983 0.08779896
000150 5e 97 fd bc be cb 8a 3c 3d 1a d2 bc dd c8 ef bc
       -0.030955967 0.016942855 -0.025647277 -0.029270584
000160 a2 5b 27 3d b1 75 ab 3c 06 c0 54 bd 04 60 d4 3c
       0.040858872 0.020930143 -0.05194094 0.02592469
000170 ac 59 c8 3d b1 34 90 bd c9 23 ae bc b5 a6 b7 bd
       0.097827286 -0.070413 -0.021257298 -0.08967344
000180 4f c8 98 bc be 54 c9 3d 90 5a 64 3d ae 71 ad bd
       -0.018650202 0.098306164 0.05575043 -0.08468948

layers.3.weight f4 [2, 100]
000000 db a7 ac bd 6a db 0d 3c db d2 5d bc 4d 7c 9a 3d
       -0.084304534 0.008658269 -0.013539041 0.0754324
000010 1a 6e 24 bd 83 d2 94 3d 45 6f 5f bd 51 ba b4 bc
       -0.040144064 0.072667144 -0.054549474 -0.022061499
000020 3a c8 a4 bb 9b cb 68 bd ba 30 9e 38 3a ac 09 bd
       -0.0050287517 -0.0568348 7.543103e-05 -0.033611514
000030 ff ac 42 bd c9 70 b3 bd 93 51 b0 3a f0 df ca 3d
       -0.047528263 -0.087617464 0.0013452045 0.09905994
000040 79 71 24 3d 0d fb c2 bd 3d b9 5d bd c1 12 3b 3d
       0.04014728 -0.095205404 -0.054131735 0.045672182
000050 89 9e 31 bd f6 f1 78 bb 6c 30 2f bd 44 0a 0f 3d
       -0.04336408 -0.0037986017 -0.042770788 0.0349219
000060 3d 97 87 bd 37 5c ee bd 67 64 92 bd f7 fa be bd
       -0.06620643 -0.11638682 -0.071480565 -0.093252115
000070 79 96 cd 3b 75 ec 51 3c 36 7e 0b bd 60 6e d1 3c
       0.0062740413 0.012812723 -0.03405591 0.025565326
000080 e8 a7 09 3b 4c b5 db 3c 55 e9 3e 3d ee 1f fa 39
       0.002100462 0.026819848 0.04660924 0.00047707505
000090 6e d2 e0 3d cf 79 95 3d 29 46 86 bd 0d 79 ac 3d
       0.10977636 0.07298624 -0.06556351 0.08421526
0000a0 79 12 97 bc fb 5a d8 bb 45 26 d3 3b d6 bf b1 bd
       -0.018441426 -0.0066026426 0.006443771 -0.08679168
0000b0 54 bd 97 3d 91 79 77 3d 1d e9 e0 3d 88 14 a4 3c
       0.07409158 0.06041867 0.10981963 0.020029321
0000c0 b3 cc 35 bd 0d dc bf bc 62 d5 9b bc a2 b5 d0 bd
       -0.04438467 -0.023420358 -0.019022647 -0.10190894
0000d0 90 35 14 3d 53 56 a6 3b 7f 5a 30 bd ce ed 74 bd
       0.036183894 0.0050762086 -0.043055054 -0.0597971
0000e0 e5 a2 e1 bc 4b 81 ba 3b 28 51 97 3d 12 9a 4e 3d
       -0.027543494 0.0056916825 0.07388526 0.0504399
0000f0 9a 52 9a 3d 23 e9 af 3d b3 95 6c bd 6a 1e e2 bb
       0.07535286 0.08589389 -0.05775995 -0.0069005983
000100 a5 74 db bd 01 9d 8c bd 0f 9c e1 3c a5 d0 1d 3d
       -0.107156076 -0.068658836 0.027540235 0.038529057
000110 4e 87 23 3d bd 44 96 3d 53 f2 1e 3d ac a1 64 bd
       0.03992396 0.073373295 0.038805317 -0.055818245
000120 92 b4 81 bc 88 c2 57 3c 36 b7 34 3d b1 5f 9f bd
       -0.015833173 0.013168938 0.044120036 -0.077819236
000130 be 58 7a bd da df 20 3d 92 ad 29 3d 41 f0 bb 3d
       -0.061119787 0.03927598 0.041425295 0.09176684
000140 3d 27 a5 3d 59 dc 48 bd 37 60 02 3d 25 27 95 bd
       0.08064125 -0.049038265 0.03183004 -0.07282857
000150 50 8c 4b bc 97 f7 89 bc 64 d9 a9 3c e3 e3 a9 3d
       -0.01242359 -0.016841693 0.020733543 0.08295419
000160 3a bc a7 bd 9d c2 94 3d 62 a5 7c 3d 15 65 32 bd
       -0.08190198 0.07263682 0.06168116 -0.04355343
000170 0e 63 29 bd 78 53 0e bd 37 de 65 3d 0b 75 b4 bc
       -0.04135423 -0.03474757 0.056120124 -0.022028467
000180 9d 5b 09 3d 47 6c 57 bd 3c 84 91 3d fc e2 63 bc
       0.033534635 -0.052593496 0.071053 -0.013909098
000190 f5 ba c4 3d 13 d6 9e bd 7a 84 db bc 32 fb 8c 3d
       0.09605972 -0.07755675 -0.026796568 0.06883849
0001a0 46 02 42 3d bb 46 3e bd a4 2a a1 bd 79 be 91 bd
       0.04736545 -0.046454173 -0.07869461 -0.07116408
0001b0 1a fa ad bd 2a 2f 39 bd cb 09 26 bd 55 6e 85 bc
       -0.08494969 -0.045210995 -0.040536683 -0.016287962
0001c0 28 4c bc 3d 90 0b 57 bc bb 3b 53 bd bc b8 1b 3d
       0.09194213 -0.013125315 -0.051570635 0.038017973
0001d0 02 e5 5e bd 59 d6 3d bd b6 62 61 3a 56 6d c8 3b
       -0.054417618 -0.046346996 0.0008597778 0.0061165495
0001e0 a2 d1 85 bd d9 71 ac bd f6 d8 cb bd 40 14 d0 bc
       -0.06534125 -0.08420152 -0.099534914 -0.025400281
0001f0 8d d9 5c 3d 58 0e 9e 3c c3 77 ad 3d ff 0d 99 3c
       0.05391841 0.019293949 0.08470108 0.018683432
000200 b4 ec 75 bd b8 22 6d 3b 3f 5d e6 bc 5f 91 72 3d
       -0.06004019 0.0036184024 -0.028120635 0.059220668
000210 6c 8d 16 3d 2c 56 cf 3d 57 05 c3 bd 7c e1 db bc
       0.036755964 0.10123858 -0.09522503 -0.026840918
000220 e0 d6 b5 bd 03 a1 85 3c fd 2b 65 bd 8f c4 dd bc
       -0.08878875 0.016312128 -0.055950154 -0.027071266
000230 e5 84 c6 3d 31 c6 c2 bc b4 ed 8a 3d a3 d8 9d 3d
       0.09693316 -0.023776146 0.067836195 0.07707336
000240 54 94 a7 3d b6 86 a2 3d 70 5c 72 3d 4a ee 1d 3c
       0.08182588 0.0793585 0.059170187 0.009639332
000250 5b f0 c0 3d 27 b9 c5 3d 7c ae 60 bd 56 8d ea 3c
       0.09420844 0.09654456 -0.0548539 0.028631847
000260 9b 53 9a 3d 61 2d 5e bd ea d8 6a 3d 53 ef 99 3d
       0.07535478 -0.054242495 0.05733577 0.075163506
000270 f2 ff 69 3c 92 ba 91 bc 58 a1 b7 bb 66 7f b9 3d
       0.0142822135 -0.017789159 -0.0056039505 0.090575024
000280 ff 4c 98 bd 34 a8 2e 3d ee a0 27 bd 5e 92 82 3d
       -0.07436561 0.04264088 -0.04092496 0.063755736
000290 f3 db db bc 82 94 0d 3d 2f f6 86 3d e4 c7 7d bc
       -0.026838278 0.034565456 0.065899245 -0.015489552
0002a0 39 7c 1a bc 43 09 dd 3d 3a e1 b2 3d ba e6 91 3d
       -0.009429031 0.10792782 0.08734365 0.07124086
0002b0 be c0 63 3c 50 5e e8 3b 4e 78 71 bd 82 fa ad 3d
       0.013900934 0.007091321 -0.058952622 0.08495046
0002c0 6a 3d 8b 3d f2 0f 9d 3d 2b 64 87 bd 56 ce 06 3d
       0.06798823 0.07669057 -0.066109024 0.03291162
0002d0 dc 98 bf 3c 0a 7c 0c bd c8 5c a1 bb 2a dc d5 3c
       0.023388319 -0.03429798 -0.0049243905 0.026105959
0002e0 a6 bc 07 bd 0e 38 be 3d 80 6c af bd 66 13 16 bb
       -0.033138894 0.09288035 -0.085656166 -0.0022899746
0002f0 b9 51 40 bd 78 c5 b3 3d e6 79 1c bd 5e e8 85 bc
       -0.046952937 0.087778986 -0.03820219 -0.016346153
000300 63 d2 cf 3d 94 51 89 bd a0 31 c8 bc f8 fd ba 3d
       0.1014755 -0.06705013 -0.024437726 0.09130472
000310 34 50 b5 3d f2 a5 ac bc af d7 d2 bc cc 0a 3a bd
       0.08853188 -0.021075223 -0.025737612 -0.045420453

layers.3.bias f4 [2]
000000 96 15 7b bd c5 1a d8 3d
       -0.061299883 0.10551981
